best_impute_model_weights.pth (torch, 44292 bytes, 8 tensors)

encoder.0.weight f4 [64, 46]
-0.0016687096 0.0037419708 -0.14776434 0.072862186 0.0066429717 0.0457045 0.06381301 0.12761721
0.13689375 0.008143809 0.055239625 0.013848461 -0.079356514 0.3263298 -0.0073108 -0.15044516
0.0045154034 -0.0036511184 -0.016747124 -0.07396886 -0.042365253 -0.06580458 -0.055349205 -0.02603837
-0.03745772 -0.04623317 -0.06736447 1.2669135 -0.050502807 -0.031728305 -0.052245006 -0.03747517
-0.04641373 -0.035459325 -0.04250714 -0.029259903 -0.04462206 -0.044372596 -0.05843164 -0.03960318
-0.05530534 -0.052387543 -0.04898322 -0.025606321 -0.012730901 0.01583021 0.6351896 0.0062305774
-0.012158867 0.022237372 -0.00305683 0.016101452 -0.01277398 -0.0012142224 -0.0004381367 0.006749232
0.004209115 0.019594869 -0.0047947215 -0.0038089484 0.017412767 -0.013372569 0.052218825 -0.0008574496
0.014463612 0.0048898426 0.0020813083 0.001236437 -0.0058349823 -0.0073343697 1.3727291 0.008167654
-0.0043265726 -0.0054501295 -0.00916959 -0.09213181 -0.097207405 -0.10016265 -0.09394926 -0.1064377
-0.10538788 -0.094105646 -0.090866044 -0.09420614 -0.097786 -0.10506673 -0.08770976 -0.072039254
-0.105580665 -0.095587246 0.0026882153 0.0072321966 0.009781356 -0.0039368584 0.0067472253 0.0015629997
-0.0022668992 -0.0055289315 -0.009185776 -0.020726515 0.0018172974 0.0037053996 -0.017855028 -0.0049860966
0.007934748 -0.0025419672 -0.0068544396 -0.016419308 -0.007834788 -0.005879284 -0.0052476358 -0.01738463
-0.005850725 0.007576702 0.0064089596 0.004133593 0.00399708 0.012937906 0.0073099495 0.013651984
0.011860568 -0.18993314 -0.5035913 0.2822087 -0.20405285 -0.24693362 -0.41236573 0.63980824
-0.09818349 0.15502733 -0.57205665 1.6518455 -0.18446125 -0.5794678 -0.42315724 -0.51194537
0.0045684823 0.014020146 0.006310829 -0.02735689 0.06460285 0.0077254353 -0.03362052 0.43991217
-0.0518129 -0.02051298 -0.03821836 -0.043528736 0.04121211 -0.028490935 0.027547743 -0.030394344
0.011559424 0.012218502 0.017668262 -0.030394297 0.020617343 0.009749817 -0.039135568 0.004571751
0.010883575 0.0017301089 0.007218203 -0.020822972 -0.0010715276 0.0038289153 -0.002878229 0.0017810406
0.0026360922 0.0015766269 0.0015771348 -0.001263463 0.000696472 -0.008303767 0.0018683915 0.007878444
0.004156571 -0.007512355 9.379932e-05 -0.0031609663 -0.0060807727 -0.0020807404 -0.028030451 0.30962506
-0.0029895168 0.003774564 -0.03608832 0.008743101 2.0935857e-05 -0.043524217 -0.00070410117 0.0013401057
0.01086848 0.011449718 -0.006946302 0.0005305092 -0.008321964 0.0027127257 -0.020446263 0.0006367019
-0.0023922704 -0.019630114 0.024923665 0.0015242862 -0.03283472 3.351648e-05 0.0013082747 0.00037453807
0.0035408833 -0.018314937 -0.002783946 0.00948833 -0.0043343604 0.037948392 0.036364023 0.034272827
0.032125626 0.030282347 0.03309024 0.040007517 0.041830327 0.03247577 0.03290792 0.038715463
0.039921615 0.035960045 0.042876124 0.03327689 -0.034292895 0.95195943 0.15012787 0.3059632
-0.23668966 0.018081704 0.19658293 -0.008162407 -0.087912366 -0.015714312 0.11339318 0.13419175
0.20480679 -0.15666345 -0.021719163 -0.050574955 -0.26764917 -0.068080865 -0.1981827 0.0025531736
0.0022393842 0.20178077 0.009876681 0.022071958 0.0103943 0.012749092 0.0064483704 0.00498897
00000000: 9ab8 daba da3b 753b 894f 17be c538 953d
00000010: 49ad d93b a434 3b3d 65b0 823d 16ae 023e
00000020: e02d 0c3e 9c6d 053c f242 623d a8e4 623c
00000030: ab85 a2bd b314 a73e 6f8f efbb 4c0e 1abe
00000040: f3f5 933b 9a47 6fbb 4431 89bc fc7c 97bd
00000050: 3087 2dbd 8dc4 86bd d9b5 62bd 6b4e d5bc
00000060: 446d 19bd fe5e 3dbd 62f6 89bd 392a a23f
00000070: 08dc 4ebd 8af5 01bd dcfe 55bd 907f 19bd
00000080: 531c 3ebd cc3d 11bd f81b 2ebd 77b2 efbc
00000090: 9fc5 36bd 0ac0 35bd 0456 6fbd f236 22bd
000000a0: da87 62bd 5294 56bd a1a2 48bd 59c4 d1bc
000000b0: 4595 50bc 5bae 813c c99b 223f df29 cc3b
000000c0: fc35 47bc 262b b63c 1955 48bb 31e7 833c
000000d0: f549 51bc 8b26 9fba b6b5 e5b9 a928 dd3b
000000e0: 9eec 893b 6b85 a03c 0a1d 9dbb 8d9f 79bb
000000f0: 38a5 8e3c 9f18 5bbc 68e3 553d 78c6 60ba
00000100: c9f8 6c3c f93a a03b 8f66 083b f10f a23a
00000110: 6133 bfbb 2755 f0bb 96b5 af3f a0d1 053c
00000120: ecc5 8dbb 0097 b2bb 0c3c 16bc 9aaf bcbd
00000130: ad14 c7bd 1322 cdbd 7868 c0bd 02fc d9bd
00000140: 9ad5 d7bd 76ba c0bd fa17 babd 26ef c0bd
00000150: 0744 c8bd 3a2d d7bd 2da1 b3bd 5189 93bd
00000160: ad3a d8bd 3fc3 c3bd c52c 303b 10fc ec3b
00000170: fb41 203c c300 81bb d417 dd3b 91dd cc3a
00000180: 4290 14bb 0a2c b5bb f07f 16bc a7ca a9bc
00000190: 6232 ee3a 4ad6 723b b544 92bc 6962 a3bb
000001a0: bf00 023c 2297 26bb 359b e0bb c981 86bc
000001b0: 7c5d 00bc 02a7 c0bb 5cf4 abbb 366a 8ebc
000001c0: 70b7 bfbb fc45 f83b 4002 d23b 1773 873b
000001d0: f0f9 823b 83f9 533c 4d88 ef3b 92ac 5f3c
000001e0: d452 423c d57d 42be 5ceb 00bf a97d 903e
000001f0: 3bf3 50be 2bdc 7cbe 9a21 d3be 79ca 233f
00000200: 6d14 c9bd 7cbf 1e3e 4e72 12bf ac6f d33f
00000210: 69e3 3cbe 0058 14bf 11a8 d8be da0e 03bf
00000220: 35b3 953b c1b4 653c 12cb ce3b 8e1b e0bc
00000230: 804e 843d a625 fd3b acb5 09bd 2b3c e13e
00000240: c339 54bd d60a a8bc db8a 1cbd 304b 32bd
00000250: 08ce 283d d265 e9bc ceab e13c 8ffd f8bc
00000260: bd63 3d3c 1d30 483c 08bd 903c 76fd f8bc
00000270: b4e5 a83c b2bd 1f3c 9e4c 20bd a1ce 953b
00000280: 0651 323c d2c4 e23a ad86 ec3b f094 aabc
00000290: 8072 8cba 8aee 7a3b aba0 3cbb ce71 e93a
000002a0: 4ac2 2c3b d2a6 ce3a ddb7 ce3a c99a a5ba
000002b0: 7293 363a 860c 08bc d1e4 f43a 9714 013c
000002c0: d833 883b 342a f6bb 20b6 c438 3728 4fbb
000002d0: 3841 c7bb 085d 08bb 1ea0 e5bc 2d87 9e3e
000002e0: c5eb 43bb ad5e 773b 59d1 13bd 393f 0f3c
000002f0: 699f af37 7346 32bd 6e93 38ba 7ca6 af3a
00000300: b611 323c 9997 3b3c ce9d e3bb df11 0b3a
00000310: d958 08bc fcc7 313b ec7e a7bc 57e8 263a
00000320: a3c7 1cbb 55cf a0bc b72c cc3c 8fca c73a
00000330: b37d 06bd 0c94 0c38 6a7a ab3a a65d c439
00000340: 2a0e 683b 3509 96bc dd72 36bb f174 1b3c
00000350: 4007 8ebb c66f 1b3d 71f2 143d aa61 0c3d
00000360: 2996 033d af12 f83c a289 073d ecde 233d
00000370: 4756 2b3d 5005 053d 75ca 063d 1b94 1e3d
00000380: d984 233d d74a 133d e09e 2f3d 594d 083d
00000390: b576 0cbd 9db3 733f 1fbb 193e 35a7 9c3e
000003a0: c65e 72be 1520 943c 094d 493e 9ebb 05bc
000003b0: 660b b4bd 4dbb 80bc af3a e83d 9069 093e
000003c0: dfb8 513e 626c 20be 63ec b1bc af27 4fbd
000003d0: 5009 89be fb6d 8bbd 68f0 4abe 2553 273b
000003e0: a2c2 123b 9e9f 4e3e cdd1 213c 40d0 b43c
000003f0: db4c 2a3c 91e1 503c da4c d33b 837a a33b

encoder.0.bias f4 [64]
-1.1030444 -0.84806204 0.725808 -0.09447823 0.0099436175 -0.052495614 0.7916839 0.4051609
0.64610326 -0.0069899755 0.6620336 -0.63946754 -1.1404865 0.028904067 0.21439923 -0.022808246
0.526975 0.23360875 0.13624355 0.65802014 0.3477867 0.8644656 0.0029941283 -0.7922914
0.6335402 0.69127935 0.44273818 -1.0187366 -1.0798283 -0.48158854 -1.0215443 -0.030056484
-1.2604018 -0.03212761 -0.48255822 -0.26752186 0.043300092 0.4183428 0.61599505 -1.1252085
-0.031348128 -0.7816503 -0.21428211 -0.049632497 -0.49773806 0.4520357 -0.05608579 0.52236634
0.5886707 -0.608871 0.30265424 -0.58699477 0.91864896 -0.9804818 0.28955916 -0.7602512
-1.2710123 -1.1375488 -1.0527269 0.057368413 0.04010697 -1.1824626 -0.020638285 -1.2480676
00000000: 8f30 8dbf 981a 59bf 8ece 393f cd7d c1bd
00000010: 8eea 223c a405 57bd ccab 4a3f 4071 cf3e
00000020: 0667 253f 2a0c e5bb 097b 293f 25b4 23bf
00000030: 76fb 91bf 39c8 ec3c 798b 5b3e 5cd8 babc
00000040: d5e7 063f 2237 6f3e 6e83 0b3e 0274 283f
00000050: 1911 b23e 9e4d 5d3f 2339 443b 9cd3 4abf
00000060: b12f 223f aff7 303f 94ae e23e f665 82bf
00000070: d037 8abf c692 f6be f7c1 82bf 0439 f6bc
00000080: d954 a1bf 3e98 03bd df11 f7be a0f8 88be
00000090: 705b 313d 0731 d63e dab1 1d3f d506 90bf
000000a0: e566 00bd 3c1a 48bf c56c 5bbe 724b 4bbd
000000b0: 86d7 febe 3971 e73e 37ba 65bd cdb9 053f
000000c0: 1fb3 163f f8de 1bbf 7ff5 9a3e 4a45 16bf
000000d0: 942c 6b3f db00 7bbf 1941 943e d39f 42bf
000000e0: 88b0 a2bf 339b 91bf c1bf 86bf 24fb 6a3d
000000f0: 3547 243d ef5a 97bf 9f11 a9bc aec0 9fbf

encoder.3.weight f4 [32, 64]
0.04326926 0.008144501 7.7519627 0.027207995 0.001759949 0.017534094 -0.36114296 -0.7274417
1.8158895 -0.003130232 -1.2897516 -0.012443344 0.022742702 0.010890909 0.0076423064 -0.0035725995
4.783805 0.013010052 0.006420376 1.0258688 0.023586411 8.953403 0.015318075 0.015850177
0.052220322 -0.7422341 -0.7139479 0.019002162 -0.013334006 -0.009625252 0.03307586 0.031669006
0.0059481882 0.025912805 -0.0124047985 -0.0013716005 -0.017753426 -0.35212067 4.2975245 0.0033791342
0.017405186 0.0036173468 0.00093192206 0.048051964 0.056011196 0.04553999 0.011517284 -0.40340716
6.7778516 0.010479782 0.0185047 0.016251618 3.7970355 -0.0010827883 4.5577874 0.019924443
0.032382745 0.017516706 -0.0015557391 0.008083035 -0.00860311 0.010888435 -0.0049133506 0.012668929
0.00066685566 0.000477417 0.0017393247 -0.002029224 -0.012593221 0.00064860797 0.0008077241 0.0017365741
-0.0017019529 0.0009707237 9.1433794e-05 0.0020041422 -0.0011342781 8.7859284e-05 -0.121802576 0.004125633
0.00025871114 -0.118140906 -0.003699694 0.0035725501 0.9208516 -0.0009272026 0.00081889954 -0.015673136
0.002968183 -0.00053593545 0.0010203385 -0.00061892904 -0.007071638 -0.12844172 0.0014412422 0.008417727
-0.0020663952 0.008907048 4.071521 0.004420802 0.0015027452 -0.0010873284 -0.001258208 -2.5630188e-05
-0.0066484665 -0.008791655 2.1247625 0.011313856 -0.0005582982 -0.0018072285 -0.023699244 0.0007882919
0.0010861675 0.0057452456 -0.005211526 -0.00912786 0.001957575 0.010174007 1.15509665e-05 -0.010653554
0.0032746904 0.0015690085 -0.0043059294 -0.0026591418 -0.031897694 0.0015890441 0.0044121565 -0.00032760517
0.01343893 0.0015633336 -0.0015005701 0.002626243 5.7407236e-05 0.0051629944 0.0032247195 0.0012761938
-0.0011775764 0.004733556 -0.0029845599 0.0039079357 0.0040786564 0.0043902206 -0.00081224134 -0.026163215
-0.0013567711 0.0064509856 -0.0013249447 0.00019245478 0.0026109447 -0.003863526 -0.007036972 0.004018546
0.00042974885 0.0012904025 0.00022215256 8.252281 0.010331284 -0.002687778 -0.0023056706 -0.01178323
-0.0025592153 -0.015343966 -0.013178 -0.0009283054 0.003840771 0.0019967388 -0.0014787132 -0.0017159574
-0.00081625837 0.010693418 -0.006015439 -0.013514826 -0.0013075338 0.0013064512 0.0048020505 0.0012916721
-0.004243807 -0.0014721111 0.0007693243 0.0050474335 0.00023073037 0.020057399 -0.0022647427 -0.0051428634
0.012820016 0.006661164 8.400174 0.0051709646 0.004771362 0.0013684282 0.0015074766 0.016614223
0.011710627 -0.00037732284 0.7357938 0.0058936817 -0.009545862 0.062281504 1.8998617 0.08115485
4.603463 -0.008251152 -0.36763296 0.018049588 -0.0030152004 0.008514752 0.015808007 0.057723477
1.5004464 -0.009413982 -0.029548343 -1.7659804 0.020112267 2.4308333 0.03285353 -0.024815923
-0.29559007 -2.7143476 -2.4450173 -0.023891509 0.0034512235 -0.07034768 0.03258358 0.059924792
0.017804328 -0.019843904 0.024677139 0.034130972 0.033522617 4.507065 2.0422385 -0.010037438
-0.07244611 -0.0074317907 0.0048686736 0.011469767 -0.004715396 -0.24507947 0.024611441 1.974506
-0.2085523 0.0032520979 0.018612891 0.012772825 7.8245482 -0.00065135775 4.8037815 0.026386142
0.019075083 -0.011291211 -0.01988065 0.048193727 0.015396532 -0.0049711824 0.026322989 0.006415311
00000000: 1c3b 313d 8370 053c 1410 f840 4de3 de3c
00000010: 17ae e63a a9a3 8f3c bbe7 b8be 9f39 3abf
00000020: 116f e83f 9424 4dbb 9516 a5bf 2bdf 4bbc
00000030: e74e ba3c c86f 323c 506c fa3b 4622 6abb
00000040: ee14 9940 1d28 553c 0462 d23b ab4f 833f
00000050: 4a38 c13c 2441 0f41 aaf8 7a3c 3bd8 813c
00000060: fae4 553d 0e03 3ebf 4ac5 36bf 6caa 9b3c
00000070: e076 5abc 3cb3 1dbc 8e7a 073d 5cb7 013d
00000080: 05e9 c23b 1747 d43c 7f3d 4bbc 47c7 b3ba
00000090: a26f 91bc 2949 b4be 5285 8940 7774 5d3b
000000a0: 5295 8e3c 0211 6d3b 3b4c 743a 23d2 443d
000000b0: ff6b 653d 2488 3a3d feb2 3c3c 628b cebe
000000c0: 29e4 d840 64b3 2b3c 2b97 973c 1d22 853c
000000d0: a102 7340 59ec 8dba 65d9 9140 9638 a33c
000000e0: c5a3 043d 327f 8f3c f1e9 cbba b56e 043c
000000f0: 0ff4 0cbc 6865 323c 2c00 a1bb 5791 4f3c
00000100: edcf 2e3a d34d fa39 0dfa e33a bbfc 04bb
00000110: cc53 4ebc 5807 2a3a 72bd 533a c29d e33a
00000120: 1014 dfba 2a78 7e3a 25c0 bf38 ed57 033b
00000130: 0fac 94ba 1841 b838 a173 f9bd 5130 873b
00000140: 9fa3 8739 dcf3 f1bd 9176 72bb 7221 6a3b
00000150: eebc 6b3f 830f 73ba 6bab 563a f364 80bc
00000160: d985 423b 057e 0cba e1bc 853a a03f 22ba
00000170: 33b9 e7bb 3a86 03be 10e8 bc3a 82ea 093c
00000180: 5c6c 07bb deee 113c e649 8240 60dc 903b
00000190: c3f7 c43a b084 8eba 74ea a4ba 6900 d7b7
000001a0: 61db d9bb e00a 10bc 1cfc 0740 c05d 393c
000001b0: c25a 12ba 87e0 ecba eb24 c2bc 60a5 4e3a
000001c0: bc5d 8e3a 9d42 bc3b 73c5 aabb 058d 15bc
000001d0: a94a 003b e1b0 263c 06cb 4137 3f8c 2ebc
000001e0: 309c 563b 30a7 cd3a c118 8dbb ff44 2ebb
000001f0: 28a7 02bd 7947 d03a da93 903b 6cc2 abb9
00000200: f52e 5c3c c5e8 cc3a c7ae c4ba 0c1d 2c3b
00000210: 8dc8 7038 562e a93b d155 533b f545 a73a
00000220: e858 9aba f21b 9b3b 9b98 43bb 240e 803b
00000230: 40a6 853b d7db 8f3b 98ec 54ba 3d54 d6bc
00000240: afd5 b1ba ca62 d33b c4a9 adba b0cd 4939
00000250: 621c 2b3b 3633 7dbb 6696 e6bb 02ae 833b
00000260: ea4f e139 b922 a93a a0f1 6839 5809 0441
00000270: 8c44 293c 6f25 30bb bc1a 17bb 730e 41bc
00000280: 82b8 27bb 4265 7bbc 8ae8 57bc 8559 73ba
00000290: 72b5 7b3b b8db 023b 62d1 c1ba fae9 e0ba
000002a0: 2cfa 55ba 7233 2f3c 291d c5bb 4a6d 5dbc
000002b0: 8e61 abba 3a3d ab3a 855a 9d3b 534d a93a
000002c0: a20f 8bbb daf3 c0ba 7bac 493a f164 a53b
000002d0: 36f0 7139 6a4f a43c 146c 14bb 7785 a8bb
000002e0: 0b0b 523c e545 da3b 1d67 0641 3271 a93b
000002f0: 1659 9c3b d55c b33a 8596 c53a 8d1a 883c
00000300: eedd 3f3c 6ad3 c5b9 fc5c 3c3f c91f c13b
00000310: 3f66 1cbc e41a 7f3d ab2e f33f 8434 a63d
00000320: 924f 9340 d72f 07bc 633a bcbe bbdc 933c
00000330: ab9a 45bb 7581 0b3c cb7f 813c 746f 6c3d
00000340: a10e c03f 1a3d 1abc 5e0f f2bc a50b e2bf
00000350: 7bc2 a43c c692 1b40 6c91 063d c34a cbbc
00000360: 9557 97be dfb7 2dc0 2a7b 1cc0 20b8 c3bc
00000370: ec2d 623b 7212 90bd 5c76 053d b373 753d
00000380: 62da 913c af8f a2bc b627 ca3c ebcc 0b3d
00000390: 034f 093d e039 9040 09b4 0240 1174 24bc
000003a0: a05e 94bd 6186 f3bb 6589 9f3b b1eb 3b3c
000003b0: 9c83 9abb 1df6 7abe ef9d c93c 9dbc fc3f
000003c0: bc8e 55be 2621 553b 107a 983c 1c45 513c
000003d0: b362 fa40 e1bf 2aba 94b8 9940 c027 d83c
000003e0: 5943 9c3c c5fe 38bc bfdc a2bc c966 453d
000003f0: bc41 7c3c 4de5 a2bb 4fa3 d73c 8737 d23b

encoder.3.bias f4 [32]
2.8229904 0.10862158 -0.42236152 -0.3919549 -0.27407992 -3.7788677 3.3676953 -0.03145755
-0.20220539 -0.2181439 -2.1086872 0.46885568 0.16170543 0.44101676 0.15317637 3.6561983
-0.116546065 3.147968 -0.025306407 2.9706187 0.10293527 0.06950144 -1.8604681 -0.0014893496
0.6547018 -0.044819247 -0.12473099 -0.07106224 -1.3921901 -0.0025824748 -1.307227 -6.3126554
00000000: e0ab 3440 fe74 de3d c53f d8be 50ae c8be
00000010: 3454 8cbe f8d8 71c0 5288 5740 a2d9 00bd
00000020: ee0e 4fbe 1d61 5fbe bbf4 06c0 da0d f03e
00000030: 1c96 253e f3cc e13e 44da 1c3e 27ff 6940
00000040: b4af eebd 4f78 4940 624f cfbc 9e1e 3e40
00000050: bacf d23d c556 8e3d d223 eebf 4836 c3ba
00000060: 8a9a 273f 6394 37bd f672 ffbd 1489 91bd
00000070: 4933 b2bf bd3e 29bb 3753 a7bf 4601 cac0

decoder.0.weight f4 [64, 32]
0.295201 0.33048993 -0.43032566 0.12844855 -0.064303495 -0.3443574 0.3159387 0.260404
0.99827737 0.06740729 0.038789075 0.108251855 -0.02621573 -0.09030377 0.19802703 0.015529379
-0.09593897 0.2693548 0.06200845 -0.1892263 0.29334816 0.753332 0.0012851313 0.13577752
0.036948495 -0.009181093 0.052875347 -0.5357644 0.21912864 -0.7756654 0.28884792 -0.028932188
0.054794505 0.044946138 0.05426805 0.028793978 -0.0014947506 0.18558426 0.33620328 0.06551852
0.20880763 0.026168276 0.015898222 -0.0866177 -0.06962349 -0.07996702 -0.16049846 -0.013789511
0.20347464 0.29736978 0.19173811 -0.12372714 -0.018825496 -0.076192036 -0.2503724 0.07099709
0.31892145 -1.0041444 -0.011169312 -0.17483279 0.0663147 0.291401 0.07344264 0.24005024
0.14436077 -0.19186631 0.053322952 0.07739856 -0.10048759 -0.36124042 0.2724496 -0.2815458
0.26753518 0.6506923 -0.024532905 -0.19095495 0.052032255 0.21509174 -0.40325245 0.11211486
-0.17456426 0.15724169 0.9317888 -0.13907373 -0.018833732 -0.120978385 0.018235235 0.04573402
0.40129432 -1.2271624 -0.64168775 0.11741705 -0.017892016 -0.82464427 0.28332952 0.024973858
0.08491167 0.018763212 -0.09253324 0.11095018 0.5031748 -0.37840328 0.27335277 -0.19951865
0.8469996 0.71120447 0.0030466472 0.07386203 -0.06517644 0.11182659 -0.17740352 0.032267556
-0.17675532 0.15387891 0.13652152 -0.062495224 -0.41496643 0.62340003 -0.20754528 -0.05765984
0.3217627 -0.17535298 0.0050690193 0.013720548 0.08566201 -0.33067924 0.06602964 0.097068846
-0.3599845 -1.1427677 0.62501407 -0.26289377 0.25543165 0.47417188 -0.53493226 -0.6971426
-1.7892659 -1.1761729 -0.10819912 -0.4656447 0.79223853 -0.1650139 -0.25484565 -0.09369358
0.046517458 -0.35707903 2.0758257 0.2204388 -1.4217064 0.70038146 0.42306295 -0.06460746
-0.53072333 1.8628829 -0.49916726 -0.09874249 -0.020633677 1.5532627 -0.39777747 -0.07893475
0.4178935 0.0008789156 0.00050783646 -0.5368027 -0.0009938001 0.8957546 0.3358942 -0.004251512
0.0071481783 0.014090248 0.0065956963 6.508237e-05 0.0039915196 0.001295529 -0.0014785596 0.27955982
-0.0018951086 -0.13329063 0.0016063278 1.2492968 0.0023950192 -0.004647803 0.036747724 -0.0023506684
0.104575045 0.01395747 0.005148464 -0.00047772782 -0.50123405 0.0049088867 0.7321338 0.9468384
0.15274097 -0.54785544 0.021711614 0.097335204 -0.08628767 -0.18915775 0.13388473 -0.17571661
1.3266939 -0.085875615 -0.041153453 0.1055777 0.15292263 -0.007994816 0.025154205 0.18772948
-0.099445276 0.03405195 0.006067908 -0.30264306 -0.27967778 0.006130315 -0.27417123 -0.08105538
0.3788436 0.71971565 0.22469443 -0.010026521 -0.016256854 0.46533638 0.20457229 -0.07928525
0.0652027 -0.03450095 0.13827577 0.13285504 -0.09169493 0.03627099 -0.0070099146 -0.5430029
-0.0021958377 0.8891994 0.010932547 -0.12938341 -0.11753637 -0.08112019 -0.009484191 0.060970157
0.09303995 0.29343694 -0.54973435 0.0050916197 -0.02301961 1.2586807 0.14016177 0.21250084
0.28564727 0.72243065 -0.27028257 0.15613346 0.09932568 0.9019747 0.15779494 0.016884563
00000000: 9624 973e fa35 a93e a553 dcbe 0488 033e
00000010: 8db1 83bd 9d4f b0be b8c2 a13e ac53 853e
00000020: 1b8f 7f3f d50c 8a3d 4be1 1e3d 26b3 dd3d
00000030: 5fc2 d6bc 2ff1 b8bd 99c7 4a3e f06e 7e3c
00000040: a77b c4bd dfe8 893e 93fc 7d3d 8ac4 41be
00000050: bb31 963e 5eda 403f da71 a83a 4309 0b3e
00000060: 4e57 173d 4c6c 16bc d293 583d db27 09bf
00000070: 4263 603e 0292 46bf e0e3 933e 3203 edbc
00000080: 3470 603d 7119 383d 2d48 5e3d 59e1 eb3c
00000090: 82eb c3ba cd09 3e3e d622 ac3e 932e 863d
000000a0: abd1 553e da5e d63c fd3c 823c 9f64 b1bd
000000b0: c396 8ebd c0c5 a3bd b559 24be 67ed 61bc
000000c0: a85b 503e da40 983e ff56 443e a864 fdbd
000000d0: ed37 9abc 920a 9cbd d030 80be ec66 913d
000000e0: ac49 a33e ce87 80bf 7dff 36bc 5e07 33be
000000f0: 00d0 873d 8332 953e 1869 963d bbcf 753e
00000100: 4fd3 133e 9a78 44be 2b69 5a3d 2383 9e3d
00000110: 70cc cdbd 81f4 b8be 847e 8b3e c526 90be
00000120: 5ffa 883e c593 263f 3bf9 c8bc b289 43be
00000130: c61f 553d 0241 5c3e 1b77 cebe 7a9c e53d
00000140: f9c0 32be f703 213e b689 6e3f 5869 0ebe
00000150: 3349 9abc 84c3 f7bd 0f62 953c 9953 3b3d
00000160: 7376 cd3e a813 9dbf a645 24bf 5a78 f03d
00000170: 4792 92bc e31b 53bf 9110 913e fa95 cc3c
00000180: 2be6 ad3d 4fb5 993c 1182 bdbd d939 e33d
00000190: 10d0 003f 13be c1be e5f4 8b3e 9e4e 4cbe
000001a0: f7d4 583f 7f11 363f 42aa 473b fa44 973d
000001b0: 3a7b 85bd 5705 e53d 45a9 35be fc2a 043d
000001c0: 59ff 34be 6f92 1d3e 4ccc 0b3e fefa 7fbd
000001d0: 7b76 d4be 2597 1f3f c086 54be b92c 6cbd
000001e0: 15be a43e bb8f 33be 041a a63b 26cc 603c
000001f0: 906f af3d ca4e a9be 8c3a 873d 08cc c63d
00000200: e34f b8be 3646 92bf ec00 203f 039a 86be
00000210: f0c7 823e a8c6 f23e 52f1 08bf f077 32bf
00000220: aa06 e5bf d58c 96bf 8097 ddbd fb68 eebe
00000230: 25d0 4a3f 67f9 28be 217b 82be 6be2 bfbd
00000240: 1789 3e3d 10d3 b6be 54da 0440 b5ba 613e
00000250: 7afa b5bf 334c 333f b59b d83e ea50 84bd
00000260: 7cdd 07bf f272 ee3f da92 ffbe 8139 cabd
00000270: f507 a9bc 50d1 c63f 7da9 cbbe 8ba8 a1bd
00000280: 23f6 d53e 0767 663a 5420 053a e76b 09bf
00000290: 6642 82ba 2c50 653f 53fa ab3e 4450 8bbb
000002a0: 443b ea3b c9da 663c b620 d83b d57c 8838
000002b0: 4bcb 823b bdce a93a 3acc c1ba 7722 8f3e
000002c0: 4b65 f8ba 577d 08be 6b8b d23a f5e8 9f3f
000002d0: c1f5 1c3b 994c 98bb c884 163d ac0d 1abb
000002e0: 712b d63d dfad 643c 72b4 a83b 8b77 fab9
000002f0: e050 00bf bada a03b 1f6d 3b3f 0064 723f
00000300: 2168 1c3e 4140 0cbf 8edc b13c ae57 c73d
00000310: 97b7 b0bd 92b2 41be 1419 093e 0eef 33be
00000320: 1bd1 a93f 8edf afbd 8690 28bd 1f39 d83d
00000330: c097 1c3e b0fc 02bc 3110 ce3c 283c 403e
00000340: f7a9 cbbd 0f7a 0b3d 4dd5 c63b 08f4 9abe
00000350: ed31 8fbe cfe0 c83b 2c60 8cbe 5d00 a6bd
00000360: caf7 c13e 493f 383f 4c16 663e 4746 24bc
00000370: 182d 85bc 9240 ee3e 667b 513e 4e60 a2bd
00000380: fe88 853d de50 0dbd 2a98 0d3e 270b 083e
00000390: 8dca bbbd e490 143d 6db3 e5bb 3d02 0bbf
000003a0: 0be8 0fbb 92a2 633f 6d1e 333c 167d 04be
000003b0: e9b6 f0bd 5822 a6bd 9563 1bbc d8bb 793d
000003c0: bb8b be3d 5e3d 963e 64bb 0cbf 9ad7 a63b
000003d0: 9f93 bcbc 731c a13f 9186 0f3e d299 593e
000003e0: 5c40 923e 37f1 383f 7a62 8abe 73e1 1f3e
000003f0: 436b cb3d d0e7 663f ff94 213e 7f51 8a3c

decoder.0.bias f4 [64]
0.21017554 0.016622894 0.2601864 -0.022303114 -1.267577 -0.42220867 0.5613589 0.3286964
0.3209137 0.2965742 -0.058812026 0.66938233 -0.070589356 0.28029543 -0.95761836 0.0035139702
0.5914516 -0.34085184 0.43774855 -0.16580242 0.47263402 0.068936974 0.64617753 -1.4468843
0.23364154 0.24794307 0.53924197 -1.0670859 0.23256864 -0.06421266 0.12629555 0.33938292
0.2381535 0.40282065 0.21693654 0.15537548 0.3605503 0.78375983 0.25223562 -0.09126373
-0.287208 0.5101289 0.33358175 0.09960306 0.169424 -0.30901015 0.7258177 0.21331413
-0.056989264 -0.11960116 0.0018760591 0.12307848 -1.4331826 -0.5398162 0.8251381 0.4421108
0.46068835 0.19856563 0.36433965 1.1935159 -0.17671157 0.74185663 -0.7286717 -0.069630146
00000000: 4238 573e bc2c 883c 2737 853e 05b5 b6bc
00000010: f73f a2bf bc2b d8be 38b5 0f3f e54a a83e
00000020: cd4e a43e 93d8 973e e1e4 70bd a45c 2b3f
00000030: 2791 90bd e282 8f3e 7a26 75bf a34a 663b
00000040: 5f69 173f 2284 aebe 9420 e03e 1cc8 29be
00000050: 16fd f13e d42e 8d3d e46b 253f 8133 b9bf
00000060: ba3f 6f3e cae4 7d3e c30b 0a3f 4596 88bf
00000070: 7926 6e3e ed81 83bd 9f53 013e 99c3 ad3e
00000080: 83de 733e 823e ce3e 9d24 5e3e c01a 1f3e
00000090: 0d9a b83e 7ca4 483f 0725 813e 7ae8 babd
000000a0: ed0c 93be cf97 023f 3acb aa3e b0fc cb3d
000000b0: 7c7d 2d3e 9436 9ebe 30cf 393f 056f 5a3e
000000c0: 936d 69bd 74f1 f4bd 19e6 f53a 9210 fc3d
000000d0: 8772 b7bf 6531 0abf 403c 533f 595c e23e
000000e0: 58df eb3e ca54 4b3e ba8a ba3e 21c5 983f
000000f0: e1f3 34be 51ea 3d3f 3b8a 3abf 409a 8ebd

decoder.2.weight f4 [46, 64]
-0.06878208 -0.03361354 0.4395575 0.20988756 0.019738976 -0.013555965 -0.07468626 -0.079306975
0.11851173 -0.123781174 0.14659984 -0.0697199 0.15272322 -0.28050148 0.05467487 -0.11984325
0.031063104 0.0097715575 -0.06679641 0.006406352 -0.34918076 -0.0058117067 -0.17766717 0.028871855
0.046271592 -0.06726345 -0.18885443 -0.12678218 -0.3271125 0.022798888 0.34043473 -0.3259136
-0.16709271 0.3299196 -0.067483425 0.26530457 -0.2825072 0.4007589 0.09118949 -0.1974386
-0.17071311 0.007465372 -0.014991018 0.07352003 0.04241882 -0.2653436 0.31380963 -0.07796003
-0.11909727 -0.09098119 -0.041551173 -0.07676716 -0.019587256 0.037988335 0.29586872 -0.002169181
-0.34891698 0.45591676 -0.12905405 0.017475257 0.123787545 0.0727619 -0.031503707 0.15522678
-0.13997617 -0.37915888 0.026676519 -0.024999158 0.0052957903 -0.04407684 -0.5010431 0.21999721
0.28009707 -0.18837556 -0.1575307 0.09155711 0.012540927 0.18968867 -0.106185615 0.037456747
0.08948255 0.011366745 -0.030385306 0.016125472 0.15887305 0.009155364 0.13994506 -0.033609144
-0.08689599 -0.261525 0.058714338 1.2575855 0.015791247 -0.30557504 0.38981116 -0.13429473
0.48733464 -0.104322106 -0.05114529 -0.20729017 0.113907926 0.047676418 -0.04779468 0.007122308
0.5744771 -0.038638398 -0.019660432 -0.36532927 0.5247383 -0.05192114 0.22201245 -0.054190677
-0.26684362 -0.25277478 -0.030015545 0.0788439 -0.02121935 0.09518098 0.12832691 -0.012868865
-0.09201467 0.0061746584 -0.11520333 0.004952924 0.08975576 -0.21293737 0.054836042 0.2186531
0.19480577 -0.20221521 0.2705578 0.28800085 1.8276383 0.008354464 -0.05822679 0.34828156
-0.21716286 -0.26401812 -0.21826208 0.04555225 -0.19241564 -0.25816613 -0.01674145 0.00048194875
0.8158229 0.011076371 -0.14919126 0.006224099 -0.2784242 0.0023218254 0.13907553 -0.01596066
0.39550188 -0.09978851 -0.154916 0.0011613813 0.3950878 0.16183074 -0.3660066 -0.022408156
0.071905404 -0.06425362 0.17353778 0.13957956 -0.34183455 -0.16426504 -0.11200604 0.14078937
0.14386328 0.0014325533 -0.014100126 0.18199542 0.23741546 -0.21723232 -0.22502002 -0.010119886
-0.16999862 0.070945404 -0.023060171 -0.0143674575 -0.005458912 -0.012904941 0.05226777 0.009594904
0.062119186 -0.18369642 -0.34739894 0.03801384 -0.07422101 0.020144066 -0.047976524 -0.20748176
0.36004156 -0.15862277 -0.31996465 0.21317665 -0.050604843 -0.03061539 -0.10654145 0.56285
-0.1299467 0.010669489 0.13191955 -0.52455014 0.17843984 -0.1898104 0.043272 -0.20587319
-0.26204726 -0.0062479726 0.020062553 0.023837494 -0.0072822007 -0.020900147 0.01847753 0.013030245
-0.25103068 0.044145744 -0.196382 -0.0054286174 0.005646671 0.20530616 -0.0004133088 0.023523707
-0.2818673 -0.09531618 0.10566926 0.12682071 0.20763265 -0.2801449 0.07608706 -0.105089195
-0.012695469 -0.008789662 -0.040530477 -0.12666805 0.21855256 -2.6242715e-05 0.044661324 0.3125381
0.13280287 0.088503085 -0.04417452 -0.08630526 -0.041681048 0.09075406 -0.032201618 -0.020757014
-0.11922046 0.04383332 -0.20536803 0.26732862 0.10995689 -0.13991755 -0.0044960137 0.066093355
00000000: 9fdd 8cbd 5aae 09bd ae0d e13e c4ec 563e
00000010: a2b3 a13c d719 5ebc 1cf5 98bd b26b a2bd
00000020: 47b6 f23d fc80 fdbd 451e 163e 4fc9 8ebd
00000030: 7a63 1c3e e49d 8fbe c2f2 5f3d 6170 f5bd
00000040: 0d78 fe3c e218 203c 8ecc 88bd 60ec d13b
00000050: d2c7 b2be 2170 bebb 62ee 35be ab84 ec3c
00000060: 4887 3d3d 6bc1 89bd 0e63 41be 30d3 01be
00000070: 4a7b a7be bcc4 ba3c 764d ae3e 26de a6be
00000080: 5a1a 2bbe 39eb a83e c034 8abd 00d6 873e
00000090: c9a4 90be 4530 cd3e 8ec1 ba3d 582d 4abe
000000a0: 6bcf 2ebe 14a0 f43b e39c 75bc ab91 963d
000000b0: 5bbf 2d3d 1edb 87be a8ab a03e 82a9 9fbd
000000c0: 45e9 f3bd 5954 babd 9031 2abd 1a38 9dbd
000000d0: 7475 a0bc a899 1b3d 1b7c 973e d128 0ebb
000000e0: 3fa5 b2be ec6d e93e bf26 04be 4528 8f3c
000000f0: 5384 fd3d 3104 953d 080a 01bd c5f3 1e3e
00000100: ea55 0fbe 1d21 c2be b788 da3c 09cb ccbc
00000110: 4f88 ad3b eb89 34bd 5c44 00bf f346 613e
00000120: e268 8f3e 86e5 40be ba4f 21be 4b82 bb3d
00000130: 7678 4d3c bf3d 423e d877 d9bd 3f6c 193d
00000140: a142 b73d 963b 3a3c 9bea f8bc 9119 843c
00000150: 9eaf 223e 6100 163c c24d 0f3e bea9 09bd
00000160: 86f6 b1bd 9be6 85be 727e 703d 90f8 a03f
00000170: a55c 813c 5574 9cbe 5495 c73e 8f84 09be
00000180: ed83 f93e d4a6 d5bd b97d 51bd e043 54be
00000190: 8f48 e93d 5948 433d 5bc4 43bd 4062 e93b
000001a0: ee10 133f 4c43 1ebd ea0e a1bc 700c bbbe
000001b0: 4055 063f 43ab 54bd 3b57 633e 0bf7 5dbd
000001c0: ba9f 88be b26b 81be 29e3 f5bc e978 a13d
000001d0: 34d4 adbc 3fee c23d 2168 033e efd7 52bc
000001e0: 3072 bcbd ca54 ca3b b9ef ebbd 234c a23b
000001f0: ded1 b73d 410c 5abe c29b 603d 99e6 5f3e
00000200: 2a7b 473e 8111 4fbe 8d86 8a3e d974 933e
00000210: 0df0 e93f 29e1 083c 377f 6ebd f651 b23e
00000220: f15f 5ebe 622d 87be 1880 5fbe ff94 3a3d
00000230: 9b08 45be 5a2e 84be 5e25 89bc 11ae fc39
00000240: c5d9 503f ab79 353c 98c5 18be 87f3 cb3b
00000250: 9e8d 8ebe c429 183b d169 0e3e eebf 82bc
00000260: 397f ca3e eb5d ccbd 4da2 1ebe 7d39 983a
00000270: f348 ca3e f5b6 253e 3865 bbbe 4f91 b7bc
00000280: 2443 933d 6797 83bd e3b3 313e f2ed 0e3e
00000290: f004 afbe 1835 28be 6c63 e5bd 172b 103e
000002a0: e550 133e 83c4 bb3a 3704 67bc 025d 3a3e
000002b0: 0a1d 733e 2672 5ebe a66b 66be e1cd 25bc
000002c0: 1e14 2ebe d34b 913d afe8 bcbc 7c65 6bbc
000002d0: ace0 b2bb 3f6f 53bc bb16 563d f233 1d3c
000002e0: b070 7e3d ea1a 3cbe 46de b1be 66b4 1b3d
000002f0: 2f01 98bd 2b05 a53c 0883 44bd 1976 54be
00000300: 5e57 b83e 026e 22be 68d2 a3be fb4a 5a3e
00000310: 0647 4fbd 20cd fabc 6732 dabd f016 103f
00000320: bf10 05be 15cf 2e3c eb15 073e eb48 06bf
00000330: efb8 363e a85d 42be fb3d 313d 6cd0 52be
00000340: 0f2b 86be cbbb ccbb 395a a43c d946 c33c
00000350: 879f eebb c936 abbc 305e 973c cf7c 553c
00000360: 1887 80be 2bd2 343d 5d18 49be 8be2 b1bb
00000370: b607 b93b c73b 523e 5eb1 d8b9 cab4 c03c
00000380: e950 90be 2135 c3bd 2069 d83d 4add 013e
00000390: a79d 543e 276f 8fbe 88d3 9b3d 0139 d7bd
000003a0: a800 50bc 8402 10bc 4903 26bd 45b5 01be
000003b0: 3ecc 5f3e cd23 dcb7 cbee 363d fe04 a03e
000003c0: 7afd 073e 1b41 b53d 57f0 34bd d0c0 b0bd
000003d0: bfb9 2abd 44dd b93d d8e5 03bd 9d0a aabc
000003e0: db29 f4bd 918a 333d ff4b 52be 4cdf 883e
000003f0: 1431 e13d 8c46 0fbe 4c53 93bb f45b 873d

decoder.2.bias f4 [46]
-0.15784536 -0.10272292 -0.16969697 -0.15168141 -0.20136942 -0.11405065 0.13270283 -0.07056876
0.033238567 0.10872807 -0.006844174 -0.10496128 -0.13386138 -0.24454054 0.069237 0.31377092
-0.052893173 0.083347045 -0.2876876 -0.079688005 -0.0030760106 -0.13521092 -0.24564126 -0.0025003173
-0.12601951 0.12431751 -0.07333556 0.0916641 -0.12462675 0.2720633 -0.6812357 0.23645471
-0.049361795 -0.3841441 0.50458777 0.474238 0.033690996 -0.06404109 0.49730623 -0.23029296
-0.22107977 -0.25629914 -0.05618501 0.051593717 0.13788539 -0.13953397
00000000: 37a2 21be 6560 d2bd 0bc5 2dbe 5f52 1bbe
00000010: c933 4ebe 6393 e9bd 40e3 073e 5b86 90bd
00000020: 2a25 083d d3ac de3d 1845 e0bb f1f5 d6bd
00000030: f512 09be d668 7abe 21cc 8d3d 95a6 a03e
00000040: 83a6 58bd dbb1 aa3d ca4b 93be 7733 a3bd
00000050: e596 49bb bb74 0abe 6289 7bbe 5ddc 23bb
00000060: 420b 01be 2e9a fe3d f430 96bd 63ba bb3d
00000070: 4f3c ffbd e14b 8b3e 7665 2ebf 2f21 723e
00000080: 982f 4abd 89ae c4be aa2c 013f 53cf f23e
00000090: 92ff 093d fa27 83bd ec9e fe3e ebd1 6bbe
000000a0: bc62 62be a439 83be 4122 66bd ef53 533d
000000b0: d431 0d3e fee1 0ebe
