best_impute_model_weights.pth (torch, 44504 bytes, 8 tensors)

encoder.0.weight f4 [64, 46]
000000 16 e3 9b b9 e1 ef 4e 3b 6a dd d8 3b 05 c3 0b 3c
       -0.00029733096 0.0031576084 0.0066181915 0.008530383
000010 56 e7 dc 3b 31 80 04 3c 14 db 43 bb 3d 5d 1d 3a
       0.0067414446 0.008087204 -0.002988522 0.00060029683
000020 5a 45 71 bb 8e 6a 2b 3a b6 8d 12 3b 58 70 f4 3b
       -0.0036815018 0.000653901 0.0022362298 0.0074596815
000030 a1 33 83 3b 4c 7b 51 bb 51 60 c1 bb 3b 4a f0 39
       0.0040039574 -0.003196436 -0.0059013744 0.00045831673
000040 b9 ad 45 3b a1 83 d1 bb 4a 29 bd 3b 33 82 fe b9
       0.0030163361 -0.006393865 0.0057727443 -0.0004854366
000050 ac df 18 3a ad 52 bc bb a5 8f bb bb 19 69 4e bb
       0.00058316696 -0.0057471604 -0.005723911 -0.0031495749
000060 28 83 62 ba 82 52 11 bb e3 41 46 bb 82 6c 6a ba
       -0.00086407596 -0.0022174423 -0.0030251674 -0.00089425605
000070 47 ae 47 3b 9e 03 12 bc bf 3e 40 3f 6b e8 57 be
       0.0030468868 -0.008911995 0.7509574 -0.21084754
000080 ce c2 4f be 01 60 62 be 20 ae 5e be 67 57 4d be
       -0.20289156 -0.22106935 -0.21746111 -0.20052873
000090 14 ee 51 be bf 19 4b be 92 9e 4c be ad cb 58 be
       -0.20500976 -0.1983404 -0.19982365 -0.21171446
0000a0 ab 30 54 be 35 23 5b be ce 63 4d be 4f 9f 5c be
       -0.2072169 -0.21400149 -0.20057604 -0.21545146
0000b0 ff 7f 5a be 66 f6 59 be db 9a 42 3e e7 2b 74 3b
       -0.21337889 -0.212854 0.19004385 0.0037257613
0000c0 d8 c0 e0 bb 6b a4 5a 39 77 b3 1d bb 45 d7 23 3c
       -0.0068589263 0.0002085135 -0.0024063268 0.010000055
0000d0 ad a0 b4 3b 61 0a 8f 3c c9 a9 2b bc b7 23 22 bb
       0.005512318 0.017461004 -0.010477492 -0.0024740526
0000e0 a0 c5 69 ba 63 d2 fb 3b 1a 0e 79 3c d3 7b 48 3a
       -0.0008917693 0.007684992 0.015201116 0.0007647846
0000f0 4b d7 4c ba 04 3f 8e 3a e5 30 79 3c 79 d5 2e 3c
       -0.00078140636 0.001085252 0.015209411 0.010671013
000100 76 b5 23 3c 06 fa 7d ba 3e d4 2e bb 18 10 3e bb
       0.009991994 -0.00096884405 -0.00266768 -0.0029001292
000110 37 3e 49 bb f2 a1 55 bb d6 39 ce bb e7 6f f6 ba
       -0.003070725 -0.0032597748 -0.0062935157 -0.001880166
000120 69 05 b1 3b fc 55 a5 bb 20 fe c2 3b 79 97 90 bd
       0.0054022563 -0.0050456505 0.005950704 -0.07060141
000130 59 51 d1 3b ab a5 10 be 7f 7b fc bd 64 de 07 be
       0.006387871 -0.14125697 -0.123282425 -0.13268429
000140 26 de 0b be 1d ff 09 be 59 92 05 be 64 8d 07 be
       -0.13658962 -0.13476224 -0.13044108 -0.1323753
000150 64 92 06 be 43 cf 10 be ea 6e 11 be 64 15 10 be
       -0.13141781 -0.14141564 -0.14202467 -0.1407066
000160 f8 6b 01 be 60 f1 0f be 9b 07 01 be d4 e5 01 be
       -0.12638843 -0.14056921 -0.12600558 -0.12685329
000170 20 69 65 3e 80 d8 b1 ba 0b 19 85 39 57 52 7c 3b
       0.22403383 -0.001356855 0.00025386395 0.0038501227
000180 54 79 87 3a bd 0d c0 3b 7a dd 82 bb 29 5c 12 3b
       0.0010335841 0.0058610127 -0.003993687 0.0022332764
000190 28 4d 03 bc 62 3d 48 b9 23 b7 8e bb 80 43 09 3c
       -0.008014001 -0.00019096353 -0.0043553277 0.00837791
0001a0 42 21 07 bb 8c b2 15 bc ef 77 ec 38 ab 1e fa bb
       -0.0020619188 -0.009136807 0.00011275696 -0.0076330504
0001b0 25 ff 4c 3c 4c a7 24 39 c4 8e 20 3b e2 98 20 3b
       0.012512003 0.00015702582 0.0024499157 0.0024505188
0001c0 02 e7 2f 3b e1 b8 f6 b9 82 1a 0a 3c 92 23 ba 3b
       0.0026840572 -0.00047058522 0.0084291715 0.00568051
0001d0 98 25 8a 3b ad 29 11 bb 9e 05 e9 3b 63 ee 2c 3b
       0.0042159073 -0.0022150085 0.0071112653 0.0026387207
0001e0 ae c0 f7 b8 e3 7e c3 bd ef e5 50 bb 47 88 c5 be
       -0.00011813767 -0.09545686 -0.0031875332 -0.38580534
0001f0 27 8b c8 be f6 b2 cc be e8 1f c7 be 74 5e c0 be
       -0.39168665 -0.39980286 -0.3889153 -0.37572062
000200 f0 f9 c6 be a8 e2 c5 be a2 a0 c6 be 32 85 ca be
       -0.38862562 -0.38649487 -0.38794428 -0.39554745
000210 63 9c ca be e2 b3 bf be e7 2a cc be 2d 19 cd be
       -0.3957244 -0.37441927 -0.39876482 -0.4005827
000220 92 d4 c4 be 62 03 ca be ec 3e 2e 3b 8d ff ef 3b
       -0.38443428 -0.39455706 0.0026587797 0.007324165
000230 fe 5c fc 3d 1a 31 66 3e a2 d3 79 bb 31 1e 46 bc
       0.12322424 0.22479668 -0.0038120528 -0.012092159
000240 1b e5 d6 bb 4f 8f 28 3d 4d e4 96 3a a3 27 3a bb
       -0.006558073 0.041152295 0.0011512131 -0.0028404973
000250 5e 6e 59 3e fd 3b f7 bc e0 74 47 bd 1d 68 0e 3e
       0.21233508 -0.030179972 -0.048695445 0.13906904
000260 4e 07 e9 3c e6 66 ad bc 8c eb e0 3c 03 cb 67 3e
       0.028445866 -0.02116723 0.027456068 0.22636037
000270 ec b0 c6 3d 9c a6 d4 bb 18 8f e0 3c 51 86 3f 3d
       0.09701714 -0.006489588 0.027411982 0.046758953
000280 45 02 c5 bc d6 3c 41 bc a4 05 13 ba 95 04 a5 bc
       -0.024048934 -0.01179429 -0.00056084455 -0.020143786
000290 72 27 8b bc 14 bc d2 bc 68 6b 19 bd 2b 54 df bc
       -0.016986582 -0.025724448 -0.037455946 -0.027261814
0002a0 79 d0 13 bd fe 91 43 3d 9b 03 f6 3c 23 90 2a 3d
       -0.036087487 0.04774665 0.030031016 0.041641366
0002b0 ef 56 9a 3c b4 79 03 3d 58 7a 05 3d 5f a4 14 3d
       0.018840281 0.032098487 0.03258738 0.03628957
0002c0 7f b1 22 3d 08 7a 2f 3d dc 61 00 3d d3 4b 0d 3d
       0.039720055 0.042840987 0.031343326 0.03449614
0002d0 ac 5f d5 3c 8f 02 fd 3c 5e 54 fe 3c 10 f7 1e 3d
       0.026046596 0.03088501 0.031046089 0.038809836
0002e0 29 ff 8e 3e dc 1d 32 3c 54 e0 7a 3c 56 3e d5 3c
       0.27929047 0.010871377 0.015312273 0.0260307
0002f0 97 6f 28 bb 7b 27 b6 bb f5 2a 16 bc 26 52 99 3c
       -0.0025701278 -0.0055589057 -0.009165515 0.01871593
000300 5d b7 26 bc 78 c5 80 3b 3d 4f ba ba 37 9c 4f 3c
       -0.010175553 0.00392979 -0.0014214289 0.012671522
000310 c5 38 92 bb 77 89 3d 3c 4b 61 c4 3b bf 13 92 3b
       -0.004462334 0.011568419 0.0059930435 0.0044579203
000320 ec c6 03 3d 4e d7 a0 bc 63 fa 23 bc dc 31 ae 3b
       0.03217213 -0.019633915 -0.010008427 0.0053160023
000330 bf 94 94 ba 49 42 b1 bc c5 94 cd bb 15 21 e0 bc
       -0.0011335834 -0.021638053 -0.006273838 -0.027359525
000340 4b 92 99 bb fc 93 f1 bb 30 80 87 3c 70 d5 be bb
       -0.004686629 -0.0073723774 0.016540617 -0.0058237836
000350 bf 3a c8 3c fa ab e6 bd 66 f9 34 ba 02 6f c5 be
       0.024442075 -0.11263271 -0.00069036183 -0.38561255
000360 16 15 db be 65 90 d3 be ba 24 c9 be e2 8b ce be
       -0.42789525 -0.41321102 -0.39285833 -0.40341097
000370 a9 75 d9 be a4 17 d2 be ab 06 dc be a8 86 d9 be
       -0.4247258 -0.4103366 -0.42973837 -0.42485547
000380 5c 88 c6 be e8 c8 da be 26 32 ba be 56 28 da be
       -0.3877591 -0.42731404 -0.36366385 -0.426089
000390 34 ef d7 be 7f 35 d3 be 74 78 0d 3a a5 e2 96 bb
       -0.42174685 -0.41251752 0.0005396672 -0.004604655
0003a0 42 45 b1 3c ea e1 e0 3c 74 c6 d7 bd 53 2e 18 bd
       0.02163947 0.027451474 -0.10535899 -0.037153553
0003b0 5a 9e a7 bd 34 17 a1 bc 3e 7c 8b bd 6d 50 03 be
       -0.081845 -0.019664384 -0.06810807 -0.12823649
0003c0 35 84 1e bd bb df f2 bc 6c cd 04 3f fa d2 03 3c
       -0.0387003 -0.029647699 0.5187595 0.008045906
0003d0 10 d5 6b bb 14 f1 68 be b2 ef f7 3c 69 23 da 3b
       -0.003598515 -0.22748214 0.030265663 0.0066570533
0003e0 c1 44 b3 3c 59 3e a4 3c 60 eb a8 bc 9d 9c 3a bc
       0.02188337 0.02004926 -0.020620048 -0.011389879
0003f0 aa 67 ca bc b9 7b 74 3c 3d cd e2 bb c3 01 54 3c
       -0.024707634 0.014922076 -0.006921439 0.012939873

encoder.0.bias f4 [64]
000000 67 eb db be 00 2f b6 be 08 98 8a bf 6f 7e cd 3e
       -0.42953035 -0.35582733 -1.0827646 0.40135524
000010 87 ec 71 bf e6 06 19 be e4 2c 32 be 58 6b 94 bf
       -0.9450154 -0.14944038 -0.17399937 -1.1595259
000020 10 bc 16 3e 7d ca 73 bf 16 1b 64 3c 2d ab e4 bd
       0.14720178 -0.9523085 0.013922473 -0.11165462
000030 4c b1 90 3e 2a 93 42 be a6 c7 11 bd 86 c1 7f 3e
       0.28260267 -0.19001451 -0.03559079 0.24976167
000040 ab 72 d9 bd ce 46 2f be e9 44 d2 3b 85 4e 29 3e
       -0.10617574 -0.17116854 0.006416906 0.16533859
000050 dd 28 88 3c b4 5a a9 be cc 92 90 3f e7 30 8c be
       0.016621048 -0.33077013 1.1294799 -0.2738106
000060 7f 57 4b bf 9a 4d 52 bd 72 05 01 3d d5 69 b4 3c
       -0.79430383 -0.051343538 0.031499334 0.02202312
000070 bb a4 71 3c d6 1e dc 3e a6 47 ac bd d3 a0 2a be
       0.014748747 0.42992276 -0.08412103 -0.16662912
000080 f3 47 7f bd 18 96 8d bd 3e 5f 7b 3e 50 30 0f 3d
       -0.062324475 -0.06913394 0.24548051 0.034958184
000090 2f 02 24 3d da 19 b4 bf 1e 38 af bd 7f e1 b0 bc
       0.040041145 -1.4070389 -0.085556254 -0.0215919
0000a0 23 1c 95 3c 63 7a c6 be 83 c9 3e 3c 2a 76 32 bf
       0.018201893 -0.3876525 0.011644724 -0.69711554
0000b0 04 f7 49 be d7 b8 da bc 75 2d 8d bf 5c 5d 65 be
       -0.19723135 -0.026699467 -1.1029497 -0.22398895
0000c0 4e b7 c9 3e 79 c9 25 be 82 79 dc bd 7a 3d a0 bf
       0.39397663 -0.16190137 -0.10765363 -1.2518761
0000d0 f3 a0 22 be fe 91 a9 bc fd 68 ef be 09 04 8b bf
       -0.1588171 -0.020699497 -0.46759787 -1.0860606
0000e0 26 e3 1c 3e f6 6a b3 b9 b4 a7 4d 3d 8e 97 75 bf
       0.15321025 -0.00034221233 0.050208762 -0.9593438
0000f0 5d 54 99 bf 65 17 f2 be 2c 0e 0a bf 08 6b 66 bf
       -1.1978871 -0.47283474 -0.53927875 -0.90007067

encoder.3.weight f4 [32, 64]
000000 ff d4 19 3c d9 eb f5 bb a1 58 09 bd ae 38 8f 3c
       0.009389161 -0.007504922 -0.03353179 0.017483082
000010 2e 40 27 bc 64 44 01 3b 89 9b df 3c 6f 74 aa bd
       -0.010208173 0.0019724602 0.027295845 -0.08322989
000020 75 b9 4a bc 8c 57 83 bc 12 99 86 3d 28 49 1f bd
       -0.012373318 -0.016032957 0.065721646 -0.038888127
000030 f8 e3 2e bb ed da d7 3b 32 2c ee 3c 8a 35 c6 bd
       -0.0026686173 0.0065873773 0.029073808 -0.096781805
000040 5c fa cc bc 88 80 41 bd 37 e2 f2 bc 7c 3f 08 bc
       -0.025021724 -0.047241718 -0.029648883 -0.008315917
000050 5e db b5 bd b7 d4 1e bc bf 02 1f 3d d2 8c 5e 3b
       -0.088797316 -0.00969427 0.03882098 0.0033958447
000060 6a 74 82 3b 65 a0 cb 3b 73 ea 4f 3d 35 be 5a 39
       0.003981163 0.006214189 0.050760698 0.00020860958
000070 96 4c ab bc 1a 58 4d bd 8f 18 0e 3e b5 4e d7 39
       -0.020910542 -0.05013285 0.13876556 0.00041066637
000080 ac 7a 87 3d 36 b3 6d bd aa 86 76 b8 0a 75 91 3c
       0.06615195 -0.058032237 -5.8776386e-05 0.017756004
000090 99 e3 c8 be b0 11 2c be 64 0e 05 3e b3 22 41 be
       -0.39236143 -0.16803622 0.12993771 -0.18860893
0000a0 7d 40 a0 3c 33 bf ed bb b9 d4 22 3d 3b 4a 51 3d
       0.019562 -0.0072554587 0.03975365 0.051096182
0000b0 24 98 cd ba 3f 27 af bc 6d 68 bf 3a 22 3e e1 3d
       -0.00156856 -0.021381019 0.0014603265 0.10998179
0000c0 2b 2c 12 3e 8d 20 ae 3c a0 b3 aa bc 6a 5d c8 3b
       0.14274661 0.021255756 -0.020837605 0.0061146514
0000d0 30 64 9c bc 9a e7 9b 3d bf 41 ce ba 0d f6 d4 3c
       -0.019090742 0.07612534 -0.0015736147 0.025996232
0000e0 d5 11 63 3d 38 ea 2c bb d1 31 80 3c 7c a6 09 bc
       0.055436928 -0.0026384722 0.015648754 -0.008401509
0000f0 3c 7a e3 bc b1 3e f0 3b 64 a6 42 bc 0f 48 5d bc
       -0.027768247 0.007331692 -0.011880491 -0.01350595
000100 d2 cd 73 3b 2b 89 06 bb 37 e4 3a 3b 17 00 71 3b
       0.0037201536 -0.0020528536 0.0028517374 0.0036773735
000110 92 cf 20 bb b1 95 0c 3f 5e 5b a0 bd 78 fe f4 3b
       -0.0024537784 0.5491591 -0.07829927 0.007476624
000120 f7 40 91 bb 64 d5 0a bb cb 48 86 3c 4c 04 ee bc
       -0.0044327932 -0.002118432 0.016392132 -0.029054783
000130 de 39 37 bf e1 4d dd bb 57 23 19 3d 25 4f bf bd
       -0.71572673 -0.0067536687 0.03738722 -0.093412675
000140 8e ee 37 bd 6f 4e 3e 3d 9a 24 b1 bc 0c 95 43 bd
       -0.044905238 0.04646152 -0.021623898 -0.047749564
000150 b7 e8 eb bc 7b 5b 58 3b 80 c0 46 3a 1c cf f8 3c
       -0.02879749 0.003301351 0.00075817853 0.030372195
000160 e7 c5 03 c0 71 ae 94 3c 13 c0 a6 3a 9f c5 fd 3b
       -2.058954 0.018149586 0.0012722037 0.0077445055
000170 9c 31 c1 bc 6d 2e 12 3b 35 6a 5e bc b6 71 29 bf
       -0.023583226 0.0022305504 -0.013575126 -0.66189134
000180 bb 77 b3 3c 54 1c bf bc 59 e2 c3 bd f2 fc 0c b9
       0.021907678 -0.023328938 -0.09564657 -0.0001344567
000190 e6 ec ae bc ac e0 73 bb d2 55 26 3d b8 42 4d 3d
       -0.021353196 -0.0037212772 0.04060919 0.050112456
0001a0 10 7c 13 3d 02 6e 72 3f 65 13 fc b9 d7 45 e7 bb
       0.036006987 0.9469911 -0.00048079636 -0.007057886
0001b0 4f 29 3b 3c 69 30 0c bc d7 da eb 3a 07 2d 64 3d
       0.011423423 -0.008556464 0.0017994297 0.055707004
0001c0 06 50 44 be 42 5e 4b 3d 6f 32 61 3c a2 0c 17 bc
       -0.19171152 0.049650438 0.013744934 -0.0092193205
0001d0 66 9d 84 bc 82 f3 13 bd 83 fc a1 3b cb fb c9 c0
       -0.016188335 -0.0361209 0.004943432 -6.3119864
0001e0 dc b3 0d bd 7e 46 16 bd a4 69 2c bd a8 f3 24 38
       -0.034595355 -0.03668832 -0.042092934 3.932757e-05
0001f0 ae 20 83 40 58 74 03 3c c3 12 33 3f 41 c1 18 ba
       4.097739 0.008023344 0.69950503 -0.0005827137
000200 25 5c 44 bb 3d 98 17 3b 21 0e f3 ba c9 57 c5 bb
       -0.002996215 0.0023131513 -0.001854364 -0.0060224277
000210 e9 05 25 ba 51 ce 9c bb fa 1f 89 3c 96 a3 dd 39
       -0.0006295131 -0.004785337 0.01673888 0.00042274286
000220 d1 23 13 3d 59 a6 34 bb 89 f4 36 3c 31 7f 59 bd
       0.03592283 -0.0027564971 0.0111667 -0.053099815
000230 ba 8a 08 3c 76 1e e2 bc db 10 22 3d fc 46 77 3d
       0.008333856 -0.027602416 0.039566856 0.06037043
000240 81 53 d7 bc 12 47 af 3e 23 03 bf 3c a4 ad b0 3d
       -0.026284935 0.3423391 0.023316925 0.08626869
000250 43 75 5b 3d e8 54 98 3a 62 c4 77 3b af 2a 84 bb
       0.053578626 0.0011621984 0.0037806262 -0.0040334086
000260 7a 20 67 b9 3c 11 46 3f 8e 1a 39 bc 9b e5 4f bc
       -0.00022041975 0.7737005 -0.011297835 -0.01268902
000270 f0 f9 41 bb bc 31 ee ba 68 85 db 3c 31 77 0c 3c
       -0.0029598437 -0.0018172781 0.026797011 0.008573339
000280 b6 25 02 bd 1c 98 e4 3b 19 72 bc 3c 95 37 6c 3f
       -0.031774245 0.0069761407 0.023003625 0.9227231
000290 11 c5 73 3a ef 03 10 3d d2 4c f0 3c af dd d1 bc
       0.00092990795 0.03516 0.029333506 -0.025618402
0002a0 e9 6d 94 3d 39 ba c5 bb 41 b8 3b bd 7f 33 3f 3c
       0.07247526 -0.0060341624 -0.045830015 0.0116699925
0002b0 b2 4d ea bc 8a a5 98 3c 16 5a 98 ba 4f c2 62 bd
       -0.028601501 0.018633623 -0.0011623527 -0.05536109
0002c0 19 a8 58 3c f8 32 55 bd 5c 22 f5 3b 2e 19 47 3b
       0.013223671 -0.05205056 0.0074809026 0.0030379998
0002d0 ab 3f 06 bf be d7 91 3c ff 39 12 3b aa 3d fa 3b
       -0.524409 0.01780307 0.00223124 0.0076367455
0002e0 6b 1a 55 be da 88 00 3d 8a 1e a1 3a 99 2d 2c 3b
       -0.20810859 0.03138051 0.0012292427 0.0026272296
0002f0 5a 31 84 3c 27 9d 18 bb c9 12 39 3b c6 f6 6f 3b
       0.016136814 -0.002328703 0.0028239957 0.0036615594
000300 90 2e 97 ba f1 23 bb 3a 65 60 77 b9 02 44 b5 3a
       -0.0011534262 0.0014277679 -0.00023591665 0.0013829472
000310 41 5b e5 39 f2 a8 14 bb 45 44 dd bd 2e e1 58 3c
       0.00043746273 -0.0022683707 -0.10804037 0.013237281
000320 4b bc 90 3c d0 40 02 bb fd a5 6e 3d d7 79 c8 3c
       0.01766791 -0.0019875057 0.058263768 0.02447216
000330 c7 55 d9 3a 34 01 0a bd 88 82 ee bc 8e d3 d4 3c
       0.001658135 -0.033692554 -0.029114977 0.025979783
000340 52 13 9e bd 9a 48 99 3d 79 74 fa bd 2f 3e e5 bb
       -0.07718529 0.07484551 -0.12229247 -0.0069959383
000350 90 79 05 bc db 50 e8 39 c1 78 05 bc 85 de 84 3b
       -0.008146659 0.0004431073 -0.008146466 0.0040548467
000360 35 6c 0c bc 92 33 0d bd c7 05 44 be dc e7 58 3c
       -0.00857072 -0.03447301 -0.19142829 0.013238873
000370 2d 62 2e bd f3 8f 4a bb 8e fb 2c bd 5f 9b 8f bb
       -0.042574096 -0.0030908554 -0.04223209 -0.0043825353
000380 ba 80 3a 3c 67 94 41 3e ec 4f bf 3c a0 3d 30 bc
       0.01138323 0.18904267 0.02335354 -0.01075688
000390 fd cf 99 bd 80 60 11 3c a2 02 1b bc c6 4a 56 3d
       -0.07510374 0.008873105 -0.009461077 0.052317403
0003a0 26 c5 89 bc d4 2c 87 3b fd e2 bb bd 6f 88 95 3c
       -0.01681764 0.004125217 -0.09174154 0.018253533
0003b0 cf 78 2c bc 7d 19 9e 3d c0 b0 9b 39 74 1f 05 bd
       -0.01052685 0.07719705 0.00029695593 -0.0325007
0003c0 26 6f 0d 3d 24 12 77 bb c6 a6 b7 bb 1b 4b f8 bb
       0.034529828 -0.0037700022 -0.0056045977 -0.0075773126
0003d0 c9 7b 59 3d a8 ad d0 bd 1d 41 ca 3a b5 c1 c3 bc
       0.053096566 -0.10189372 0.0015430782 -0.023896078
0003e0 df 62 a6 bd 21 3c 43 bc 84 b5 58 bc 0e 61 90 bb
       -0.08124327 -0.011916191 -0.01322687 -0.004406101
0003f0 aa 4d 42 3c 08 14 9a ba 23 e8 60 3b 8f f5 85 ba
       0.011859337 -0.0011755237 0.0034318052 -0.0010220277

encoder.3.bias f4 [32]
000000 2c 4a 0b 3e c1 e4 c2 bd a8 37 97 3c a4 f0 90 3d
       0.13602513 -0.095162876 0.018459156 0.070771486
000010 56 b4 b2 be 97 6d 01 be ba 7f fe bb 34 34 9d 3e
       -0.3490321 -0.12639461 -0.007766691 0.3070389
000020 c8 51 8c be b3 fb 33 bd 71 8b a6 be 9d 89 c7 3e
       -0.27406144 -0.04394121 -0.3252826 0.38972178
000030 6e 6e 7e bd eb da ae bf 04 0b 3a 3f 74 70 4c bd
       -0.062117033 -1.3660558 0.7267306 -0.04991193
000040 8f 6b 1d bd 1d b0 3d bf 8b 05 2f bd 2a 67 c7 be
       -0.038432654 -0.7409685 -0.042729896 -0.38945895
000050 6b fd c6 3f e7 89 3f 3d 08 12 ac be d9 9d 90 3d
       1.5546087 0.046762373 -0.33607507 0.07061357
000060 04 eb 13 be 32 5f ed 3d ce f4 aa be d4 59 0a be
       -0.1444512 0.11590423 -0.33389896 -0.13510829
000070 63 62 d3 bd 6b 16 3b bd 1d 55 1e bd d2 5c e0 3e
       -0.103215 -0.045675676 -0.03865539 0.43820816

decoder.0.weight f4 [64, 32]
000000 43 0a 05 3e 16 1d 8a bf ce 49 d3 3d ba 1f 6a be
       0.12992196 -1.0790126 0.103168115 -0.22863665
000010 17 8b 41 3c 67 e3 37 be 84 e7 9e 3c 71 56 67 3e
       0.011812947 -0.17957841 0.019397505 0.22591569
000020 0a 01 4c bd 5d 0e 0a bf 66 0a 23 be 4c 85 ec bc
       -0.04980568 -0.53928167 -0.15921935 -0.028872155
000030 ec 53 4d be 71 8e 58 be ed 7d 80 ba 66 7a 7c bd
       -0.20051545 -0.21148087 -0.0009803154 -0.061640166
000040 ef 69 40 3d 2e 14 fd 3e 00 40 91 bd be 60 b8 3c
       0.046976026 0.49429458 -0.07092285 0.022507068
000050 86 a7 45 be 51 c0 6f 3c 99 ab 34 bd 82 35 0c bd
       -0.19302186 0.014633254 -0.04410896 -0.034230717
000060 67 fc 42 3d 5f b5 8e bd 16 c8 9e 3c 92 3b 05 3e
       0.04760399 -0.069681875 0.019382518 0.13011006
000070 ac 23 43 be 49 c8 5c 3e ee 1a 87 bd e4 0d 6b bd
       -0.19056576 0.21560778 -0.06596933 -0.057386294
000080 a4 66 a5 bc dc f5 d3 bc 84 ef 9a 3c 7d d0 15 be
       -0.020190544 -0.02587407 0.018913038 -0.14630313
000090 a2 69 ee bd 22 d9 20 bf f2 4e 85 3e 0d df 69 3d
       -0.116412416 -0.6283132 0.26036793 0.057097483
0000a0 96 b3 23 be c4 45 2a 3f 96 70 04 bc 56 25 25 bd
       -0.15986475 0.66512704 -0.008083483 -0.04031881
0000b0 5d b9 94 bd 33 b0 ce be 1c 35 45 3e 00 9c f4 be
       -0.07261918 -0.40368804 0.19258541 -0.4777527
0000c0 e0 11 12 3e 5a 82 b8 3d d9 77 c9 3e 0c af 8c 3e
       0.14264631 0.090092376 0.3934925 0.274773
0000d0 db 2a af bd 25 9c 8c bc ed 13 0f bc f5 24 8d 3e
       -0.08553096 -0.0171643 -0.008732778 0.27567258
0000e0 46 13 92 3e 43 15 7c bd 1e 8b bf 3e 77 ad ca 3e
       0.2853033 -0.061543714 0.37410825 0.39585468
0000f0 3f 8c f0 3b ee d8 24 bf 40 a4 82 bc c1 d7 a9 bd
       0.0073409374 -0.6439351 -0.015947461 -0.08293105
000100 85 fb c4 be ee 18 47 3e c5 f1 05 bd 53 98 4d 3f
       -0.38473144 0.19443104 -0.032701273 0.80310553
000110 1c a5 85 3b b8 d6 e5 bd fb 73 a0 be 06 75 24 bc
       0.0040785205 -0.11222595 -0.31338486 -0.010037666
000120 6b b5 27 3f 90 30 89 bd 8c 78 50 bf 84 b5 92 bb
       0.65511197 -0.06698716 -0.8143394 -0.0044772048
000130 ed 21 29 3f 0d 53 3f 3e cc 28 72 3d e7 e3 0a bf
       0.6606739 0.18684025 0.05912094 -0.54254
000140 46 ef 0d 3d 4f 21 12 be fe 56 5f bf 85 f5 fc 3e
       0.034652017 -0.14270519 -0.87242115 0.49406067
000150 32 5b ce be fb c8 ad bd b2 f3 c2 3d ae d0 18 3e
       -0.40303952 -0.084855996 0.095191374 0.14923355
000160 0d 98 25 bf 7c 00 ce 3d f6 45 69 bc 94 72 0f bf
       -0.64685136 0.10058686 -0.014237871 -0.5603421
000170 ac 95 92 3c 9f b9 1c 3c 29 e2 05 3f 5d 69 bb 3e
       0.017893635 0.00956574 0.5229822 0.36603823
000180 c3 db c0 be b6 ab 36 3d 2c d7 e4 bd 38 b1 0b 3f
       -0.37667665 0.04459735 -0.11173853 0.5456729
000190 e1 48 d3 be fb 8c eb 3d bf a9 1e bf 82 73 e9 3b
       -0.4126654 0.11501499 -0.6197776 0.0071243653
0001a0 3c 32 10 3e eb 81 dc 3e 2b 6c 8b be b3 66 8c 3e
       0.14081663 0.4306787 -0.27230963 0.27422103
0001b0 5a bf 3d 3d ba 04 58 bd 7e 98 cb bd 47 b9 e2 bd
       0.046325065 -0.052738883 -0.09941195 -0.11070495
0001c0 fd a5 90 3c 1c 2f e3 3d 0d ab fd 3e 6f 3b 19 3e
       0.017657274 0.1109297 0.49544564 0.14964078
0001d0 1f e3 a1 3d ca 00 d7 bd 0b ea e9 3d bc be 8a 3d
       0.07904648 -0.104981974 0.11421593 0.06774661
0001e0 f4 3d 06 bd 4e f6 09 3d 7a 8a d0 3e 2c 24 07 be
       -0.032773927 0.03368216 0.4073065 -0.13197392
0001f0 58 b7 db 3e ea 31 c2 be b5 02 e7 bd 5a df 93 3e
       0.42913318 -0.37928706 -0.11279813 0.2888134
000200 cd 44 20 3d 54 6f d9 bd 0c fb 12 bf d9 a6 14 3e
       0.039128114 -0.10616937 -0.5741432 0.14516772
000210 80 ef 66 3d 20 d8 7e bd d7 a7 70 bd 17 99 57 bd
       0.05638075 -0.06221783 -0.058753815 -0.052636232
000220 c0 40 e7 bd f0 9c d8 bc e8 a9 90 be 71 9f c9 be
       -0.11291647 -0.026442021 -0.28254628 -0.39379457
000230 1a 0f 1e 3e e4 51 f7 be 0b 78 30 3e 70 ba b3 3e
       0.15435448 -0.48304665 0.17233293 0.35103178
000240 b6 41 dc 3e 44 a8 48 bd 5b de 60 3e 66 05 9d 3a
       0.43018883 -0.048988596 0.21959822 0.0011979758
000250 e8 e2 10 bc 3f d1 ff 3d b8 07 8f bd a6 f1 47 3e
       -0.008843161 0.124910824 -0.06983894 0.19525775
000260 9f 03 f8 3d 48 22 8a 3d c2 5f 30 3e 62 01 3d 3d
       0.12110066 0.0674482 0.17224029 0.046143897
000270 f4 57 12 bf 10 12 13 be 85 97 f3 3e 87 9b 0b 3f
       -0.57165456 -0.14362359 0.47576538 0.5453419
000280 65 2c 4d be 4f e7 ae bd 0a 2d 27 bd 95 6c 23 be
       -0.20036466 -0.08540212 -0.040814437 -0.1595939
000290 ef 2d 0a be 5a 4d 42 3f 3f 58 14 be 06 bd 1d 3d
       -0.13494085 0.7589928 -0.14486788 0.038510345
0002a0 78 a8 24 3e 41 42 6d 3f 77 5b fe bd 59 d4 cf 3b
       0.1607989 0.9267922 -0.12419789 0.0063424525
0002b0 d1 1d 43 3f a8 db e3 be 71 be 4c be bf 16 01 bf
       0.7621737 -0.44503522 -0.19994523 -0.5042533
0002c0 e0 f7 b8 3d 82 ae ad be a7 f0 1e 3e 9b c4 92 3e
       0.090316534 -0.339222 0.15521489 0.28665623
0002d0 74 6b 69 3e 66 78 56 3d 4f 92 ba 3c b5 92 8f be
       0.22794896 0.052360915 0.022774843 -0.28041616
0002e0 33 c1 49 be cf 52 83 3e 17 58 16 3f 2e 17 26 be
       -0.19702606 0.25649115 0.58728164 -0.1621978
0002f0 44 bd 98 3e 62 09 e0 be 3c 89 ad 3d 6c 62 40 3e
       0.29831898 -0.4375716 0.08473441 0.18787545
000300 be 07 72 3e d1 56 42 3e 83 e1 09 bc 26 d3 3c 3c
       0.23635766 0.1897843 -0.008415583 0.011524951
000310 f8 e3 bd 3c bd 0e 94 3d 45 a9 47 3f 02 79 d0 3c
       0.023179993 0.072293736 0.7799266 0.025448326
000320 f4 52 f1 be 27 1e 2a bf 64 a3 34 bf c2 62 20 bd
       -0.471336 -0.6645226 -0.70561814 -0.039156683
000330 f2 0b e4 3f 8d 26 6f 3d bb 94 bd 3d e0 38 a9 3e
       1.7816145 0.058386374 0.09256884 0.33051205
000340 47 7d d1 bd 94 a5 39 bd 07 23 d0 3e f9 4d 78 be
       -0.10228973 -0.045323923 0.40651724 -0.24248494
000350 60 ad 33 bf d4 e2 14 3d ec 04 33 be 42 cf 03 bf
       -0.70186424 0.036349133 -0.17482346 -0.51488125
000360 95 76 37 bf ab 8b 8e 3d e2 d6 06 bf a1 4a 85 be
       -0.71665317 0.06960233 -0.52671635 -0.260335
000370 9f 64 ff 3e 26 9a 06 be ed 85 53 3e 72 6f 28 be
       0.49881455 -0.1314474 0.20656557 -0.16448763
000380 7e ae bf bd d8 a0 7d 3e 4e 45 eb 3c 47 fb de bb
       -0.093594536 0.24768388 0.02871957 -0.006804857
000390 46 49 8b be f2 9b a3 bd ab a5 28 bf cc 27 05 3e
       -0.2720434 -0.079887286 -0.6587779 0.13003463
0003a0 35 1f 54 bc bb 82 7d be d9 f7 66 bd bf 5a 8c 3e
       -0.012946893 -0.24756901 -0.05638871 0.27412984
0003b0 b2 9f 96 be 82 dc 58 3e a9 f0 8f bd f2 46 09 bf
       -0.29418713 0.21177867 -0.07028324 -0.5362388
0003c0 cf 29 9d 3e 08 9b 94 36 24 e1 98 3d a4 33 c9 be
       0.3069596 4.4287917e-06 0.07464817 -0.3929721
0003d0 fe 2c 0a 3c cb 48 89 bd 76 b5 60 3d eb a8 a7 be
       0.008433579 -0.06703337 0.054860555 -0.32746062
0003e0 bc 78 e9 be 26 b1 bd bd 0f 26 86 3e 15 42 70 3e
       -0.45599926 -0.09262304 0.2620091 0.23462708
0003f0 6d 4a a9 be fe 1b 29 be 7d 15 6f be ff 62 e5 3e
       -0.33064595 -0.16514584 -0.23348041 0.4480209

decoder.0.bias f4 [64]
000000 e1 9d 76 3e a6 db 8a bd 0d 33 ce bd b1 42 cc 3c
       0.24083664 -0.06780176 -0.10068331 0.024934145
000010 93 16 35 39 fd b1 c4 3d 76 fb bf bd c1 ce c3 3d
       0.00017269915 0.09604261 -0.09374134 0.095609196
000020 8a a2 53 bd e2 2b db bd f7 9f 2b bd bc b6 c7 3e
       -0.05166868 -0.10701729 -0.0419006 0.39006603
000030 c0 04 d8 be eb d5 db 3e 62 82 2d bd fc 9a 8e 3e
       -0.42191124 0.42936644 -0.04236067 0.2785262
000040 c5 2e c5 3e 90 9b 80 3e 3c ed 87 3d 7d f8 9a 3e
       0.38512245 0.25118685 0.06637046 0.30267707
000050 36 be dc 3e 96 bc e2 3e ba 10 36 3c c9 82 23 3e
       0.4311387 0.44284505 0.011112386 0.1596786
000060 e5 ec 28 ba 1a f3 b0 3e 8e e9 9d 3e d9 a1 91 3e
       -0.00064439914 0.34560472 0.3084225 0.28443792
000070 99 cb 71 3e 97 88 89 3e c7 8d 56 3c c3 e3 22 3e
       0.23612823 0.26862022 0.013095326 0.15907197
000080 b1 03 12 be 87 18 9d 3d 6b c7 01 be 41 32 98 3e
       -0.1425922 0.07670694 -0.12673728 0.2972584
000090 83 6f 26 be 06 7f 1f 3e b5 8b eb bc 92 aa 76 3e
       -0.16253476 0.155758 -0.028753141 0.24088505
0000a0 be 4f 7c bd 0b 56 69 3d 99 35 26 3d 76 3a 35 3e
       -0.061599486 0.056966823 0.04057846 0.17698082
0000b0 52 0a 83 3d 67 54 bd 3e 67 60 cc 3e 7c fc 3f 3e
       0.06398453 0.36978456 0.399173 0.18748659
0000c0 28 2f 93 3d 85 50 38 bd 8a 4f e9 3e 2b bd 9f 3c
       0.07186729 -0.044998664 0.45568496 0.019499382
0000d0 c7 33 2f 3e 27 bd 5e bd 93 70 0f 3d 2b 63 ae bc
       0.17109595 -0.05437961 0.03501947 -0.021287521
0000e0 6f 14 09 3d 50 33 ff 3c 4c 55 21 be f5 8e e2 3d
       0.033466753 0.031152397 -0.15755194 0.11062423
0000f0 bd 78 bd 3e d5 d9 05 3f 82 31 c9 3c c4 1d d1 3d
       0.37006178 0.5228551 0.02455974 0.102107555

decoder.2.weight f4 [46, 64]
000000 8d 1b 79 bc c7 48 a6 3c 1b be 0d b7 22 c7 c1 3e
       -0.0152043225 0.020298375 -8.448517e-06 0.3784724
000010 c6 5f b7 be 6b 4e e3 3c a6 07 a7 bc 64 71 a9 3e
       -0.35815257 0.027747354 -0.02038939 0.33094323
000020 b9 42 fc 3e 7d 94 d2 3e c3 8f 0d 3f b5 2b a6 be
       0.49269655 0.41128913 0.5529749 -0.3245522
000030 14 75 67 bd 54 7f 08 be 4f 59 02 bf a6 2d 03 be
       -0.05650814 -0.13329822 -0.50917524 -0.12810382
000040 5e e5 8d be 7a 3c bb 3d 90 2c 1a bf 24 4c bd be
       -0.27714056 0.09142394 -0.60224247 -0.36972153
000050 52 13 61 3d 0f 35 a8 be 58 98 72 3e eb 98 08 bf
       0.054950066 -0.3285298 0.23690927 -0.53358334
000060 51 50 f2 3e 08 e8 b9 3e 5f 17 ca be 4e 7a 80 3c
       0.47326902 0.36309838 -0.39470956 0.01568332
000070 05 53 8c bf 09 a3 c6 3e 50 fd 6c be 62 b2 35 3d
       -1.0962836 0.3879626 -0.23143506 0.044359572
000080 6f 48 d7 3d 18 50 d3 3e 11 6a d6 3e 79 ff 96 3e
       0.105118625 0.41272044 0.41877797 0.29491785
000090 44 33 f6 3e 7a 7c 25 be 03 88 ca 3e ae 12 f0 bd
       0.48085988 -0.16160765 0.39556894 -0.11722313
0000a0 f0 9e 9a bd 94 d9 a2 be 26 10 85 3e 75 dd b9 3e
       -0.07549846 -0.31806624 0.25988883 0.3630177
0000b0 cf 87 f2 3e 87 03 3b be b7 16 9f 3e 3e de 65 3e
       0.4736924 -0.18263064 0.31072018 0.2244806
0000c0 54 a6 fa 3e 6b e2 b6 3e 48 d5 88 3c b9 b1 a5 3e
       0.48955023 0.35719618 0.016703263 0.32362154
0000d0 1b ff 92 ba 29 ac 8a 3e ca 99 bd 3e ad e9 1e 3f
       -0.0011214943 0.27084473 0.37031394 0.6207531
0000e0 9f 4d d1 3e ac dd a5 3e 2a fd ab 3e af 56 b9 3e
       0.40879533 0.32395685 0.33591586 0.36198947
0000f0 28 af 65 bd db ad 6a 3d 94 a0 ca 3e 78 a1 33 3e
       -0.056075245 0.057294708 0.39575636 0.17542064
000100 44 2e 16 be 8f 53 ec 3c 5b ec 18 ba 6e f9 55 be
       -0.14666086 0.028848438 -0.00058335596 -0.20895931
000110 d8 3a 35 bf 19 7a 4f be 4a 7f e6 3b 78 bd 08 3d
       -0.70792913 -0.2026142 0.007034217 0.033383816
000120 0c 18 fa 3d fd 03 09 3f 90 1c 19 bd e2 e0 a5 3c
       0.12211618 0.5352171 -0.037380755 0.020248834
000130 f4 af 15 3d 8e e3 11 3e 51 90 49 3e 40 ae db 3e
       0.036544755 0.14246961 0.19683959 0.4290638
000140 1e 72 50 3d c8 4c 6b be 82 ef f1 bc 57 96 a5 3d
       0.05089008 -0.22978508 -0.029533152 0.08085316
000150 d8 de 22 3c c4 18 d5 3d d6 f2 0b be 53 1a 0f 3f
       0.009940825 0.10405114 -0.13666853 0.5589954
000160 eb 8a c3 3d 7f 7e 5a 3d 20 4f 88 be e5 6a b0 3d
       0.09547981 0.053343292 -0.26622868 0.086141385
000170 47 d8 7d bc 3c 6f 68 bd 4d 20 8e bd 76 14 1c be
       -0.015493459 -0.056746706 -0.06939755 -0.1524218
000180 6d 0a 5b 3e 73 10 cb bd d7 68 b3 3e 5a 4e 2a be
       0.21390696 -0.09915247 0.35040924 -0.16631451
000190 3d f1 d6 3d cc ab 38 bd 54 3b ca 3c 6f de 94 bd
       0.10495231 -0.045085713 0.024686493 -0.07268988
0001a0 73 a4 7b be 97 e0 75 3d 8a 2c 5c 3b ec d7 56 3d
       -0.24574451 0.06002864 0.0033595883 0.052452013
0001b0 a4 d9 c0 3d 87 44 c6 be d6 d5 73 bd 02 05 a5 3e
       0.09416512 -0.38724157 -0.0595301 0.32230383
0001c0 6e 74 56 be 3f d1 9f bd f5 72 d2 bd 60 7e 1c be
       -0.20942852 -0.078035824 -0.102758326 -0.15282583
0001d0 73 17 ff 3d 0b e0 d8 bd 77 bc ac bd 93 93 07 3e
       0.124556445 -0.10589608 -0.08434384 0.13239889
0001e0 f1 6b e8 bd 01 02 b9 bc 0c 29 36 be d8 08 1d be
       -0.11348713 -0.022583963 -0.17789096 -0.15335405
0001f0 15 24 1b 3d 97 35 07 be 1a b3 1c 3e 7e b6 b6 bd
       0.037876207 -0.13204037 0.15302697 -0.08921526
000200 c6 09 52 bc c1 4e 77 bd 3a 45 f9 3d 37 20 3a bd
       -0.012819713 -0.06037784 0.12171407 -0.04544088
000210 37 12 f5 3c 74 b5 13 be 6a 57 66 3d e2 9a 86 3d
       0.029915912 -0.14424688 0.05623571 0.0657251
000220 fb 5f 1f be 1f 69 bb 3d a5 40 00 3e aa 42 36 be
       -0.15563957 0.0915091 0.1252466 -0.17798868
000230 77 3d c0 3f 48 8b 17 bd a8 61 a0 3d 93 72 8b 3d
       1.5018758 -0.036998063 0.078311265 0.06808963
000240 0c c5 6f bd c3 4a a9 3d 0b 7a bc 3d 88 ef 67 3d
       -0.058537528 0.08266213 0.09202965 0.05662492
000250 43 c7 2f 3e 3d b4 cc 3d 7a e7 28 3d a5 bc 34 bc
       0.17165856 0.09995315 0.04123638 -0.0110313045
000260 73 55 b9 bc b4 c5 a4 bd 06 69 12 be cf af 9d bd
       -0.022623753 -0.080455214 -0.14297876 -0.076995485
000270 16 5e 5c 3c ba bd d2 bc fc 03 cc 3d e1 ee f5 bd
       0.013450166 -0.025725234 0.099616975 -0.12008453
000280 f1 b4 9b bd e7 9a 9b 3d 43 c2 64 be a6 01 a3 bc
       -0.07602871 0.07597905 -0.2233973 -0.019898247
000290 fb 60 8c 3d 43 6c 25 bd b8 1e 2d 3d 98 91 4a bc
       0.06854435 -0.04038645 0.042265624 -0.012363814
0002a0 c4 bf 1d 3d dd 72 c8 bd 2f ed 2d 3c bf 26 1d 3d
       0.03851296 -0.097875334 0.010615631 0.03836703
0002b0 4d a6 a0 3d 8d 16 e0 3c e5 e7 d4 bc 83 74 f7 3d
       0.07844219 0.027354503 -0.025989482 0.1208277
0002c0 b8 10 52 3d 2c 08 f9 bc aa db 92 3b c6 15 30 3d
       0.051285475 -0.030399404 0.0044817524 0.042989515
0002d0 b9 ef ab bc 4b 48 db 3b fb 53 f6 bd 52 b6 a2 bd
       -0.020988332 0.0066919676 -0.12027737 -0.07944931
0002e0 8b 40 b9 3d fa c2 31 3c 81 df 9c bd 96 50 00 3c
       0.09045514 0.010849709 -0.076598175 0.007831713
0002f0 9d 2a 97 bd e4 27 05 3c a0 3a 5d bc 24 d8 7f bc
       -0.07381175 0.008127186 -0.013502747 -0.015615497
000300 15 f7 36 be 37 42 1f be 55 b5 91 3f 45 9c e9 3c
       -0.17867692 -0.15552603 1.1383463 0.028516898
000310 23 f0 88 3e 57 d1 88 3e f2 d9 22 3f 4b 8d be 3d
       0.2674571 0.26722214 0.6361381 0.09304293
000320 86 e5 9a bd a7 cf d5 bd ce 9b 3a 3e 5c 4a ae be
       -0.07563309 -0.10439997 0.18223497 -0.34041107
000330 e0 e2 45 bd 82 95 93 be ee fa 05 be 3a 1d 7d 3d
       -0.048312068 -0.28825003 -0.13084003 0.06179545
000340 84 4e b4 3d e1 84 2c be c0 06 01 3e 72 be 8a 3d
       0.08804038 -0.16847564 0.12600231 0.06774606
000350 81 fb 16 be 01 7f 47 3e f5 69 92 be 8c 4a 4a 3e
       -0.14744379 0.19482042 -0.28596464 0.19755
000360 1b 79 38 be 3c d3 d1 3d fe ec 9a bd 72 d2 c5 3d
       -0.18014948 0.10245368 -0.07564734 0.0965928
000370 b7 d6 df 3d 72 31 98 3b e2 cb 89 bd 52 f3 8e be
       0.109296255 0.004644566 -0.06728341 -0.27920014
000380 f5 ae 28 3e a9 29 6b 3c 80 76 85 bd 7c 41 35 3d
       0.16472991 0.014353194 -0.06516743 0.044251904
000390 36 a5 3f 3d e5 44 89 bd bc 30 48 3d 92 45 04 be
       0.046788417 -0.06702594 0.0488746 -0.12917164
0003a0 ae f6 e9 bd 09 32 7d be b1 52 44 3b 14 dc 1f be
       -0.114240035 -0.24726118 0.0029956514 -0.15611297
0003b0 4d 38 9a bd 40 ab 06 3e 0a fa 0d bc 41 c8 16 3e
       -0.0753027 0.13151264 -0.008665571 0.14724828
0003c0 a0 ed 79 3e 38 65 ae bd 1d b7 09 3e b2 a2 69 be
       0.24407053 -0.085154 0.13448758 -0.2281597
0003d0 10 21 b4 bd 79 80 5b be 9e 1b 99 3d 0d a3 cc 3c
       -0.08795369 -0.21435727 0.07475971 0.024980092
0003e0 c2 b1 04 3d c9 f0 a1 3d 67 f3 47 bc 4d 2e 81 3e
       0.032396086 0.07907254 -0.012204028 0.25230637
0003f0 c4 cb 3d be 2b f9 2c bd 84 5d 12 3e 4f fa 0c bd
       -0.18534762 -0.042229813 0.14293486 -0.0344184

decoder.2.bias f4 [46]
000000 78 af bd bd a2 2a de bd f8 ca 49 3e e0 7c e5 bd
       -0.09261984 -0.10847975 0.19706333 -0.11205459
000010 cc 63 8a bc 3f 30 84 3e 00 39 88 bc 86 5e 2c be
       -0.01689329 0.2581806 -0.016628742 -0.16832933
000020 b0 08 a4 bd 20 93 29 bd 2d 8d 38 bd 58 ed 1c be
       -0.080094695 -0.041400075 -0.04505651 -0.15324914
000030 75 37 9f 3d 28 67 03 3c 82 7c 05 3c f7 8c b4 3e
       0.077742495 0.0080202 0.008147361 0.35263798
000040 ef a5 cd 3c 16 27 00 be 16 9a 08 be a5 ab d0 bb
       0.025103537 -0.1251491 -0.13340029 -0.006368118
000050 be cb e7 3d 69 d6 29 3e ca 8e 5a 3d 25 2b c8 bc
       0.113181576 0.16585697 0.05335883 -0.024434635
000060 fd d7 7f 3e 96 43 08 3d 47 e1 b7 3c d5 61 8b 3e
       0.24984737 0.03326758 0.022446288 0.27223077
000070 e0 3d 59 3e 71 69 b0 bb 2d 7b b4 bd f1 6f 3f bd
       0.2121501 -0.0053836633 -0.088125564 -0.046737615
000080 18 47 8b 3d 1c 24 96 3c 1f ea 0c 3c 94 71 21 3d
       0.068006694 0.018327765 0.008600741 0.039414957
000090 8d 38 88 bd ad 40 15 3e 41 69 6a 3c 10 cc ca 3d
       -0.06651411 0.14575453 0.014307321 0.09902203
0000a0 b8 e4 40 3d f8 7c ad bc 38 aa 75 3d e9 6c 40 bd
       0.047093123 -0.021177754 0.059976786 -0.046978865
0000b0 59 0d 33 3d 9d 3c 18 3c
       0.0437139 0.009291795
