models/ft_transformer_best_smote_state.pth (torch, 573207 bytes, 28 tensors)

model.cls_token f4 [1, 1, 64]
0	0xbfb2fc22	-1.3983195
1	0x3e454408	0.19264233
2	0x3fb29151	1.3950597
3	0xbe984750	-0.29741907
4	0xbfab50aa	-1.3383992
5	0xbe8a306c	-0.26990068
6	0xbdc41d1d	-0.095758654
7	0xc0267ac3	-2.6012428
8	0xbf080eb2	-0.53147423
9	0xbe428f94	-0.19000083
10	0xbf40a7a1	-0.7525578
11	0x3f17f0f9	0.5935207
12	0xc0048f1b	-2.0712345
13	0xbf84e817	-1.0383328
14	0x3eed99d0	0.46406412
15	0xbf2d340a	-0.6765753
16	0xbf15c83d	-0.58508664
17	0xbfa57e9e	-1.2929265
18	0x3e546a1b	0.20743601
19	0xbef22765	-0.4729568
20	0x3ea95c7f	0.3307838
21	0x3e113308	0.14179623
22	0xbf9c7582	-1.222336
23	0x3dabdb16	0.08391397
24	0x3f8f8c43	1.121468
25	0x3e0e0ba0	0.13871622
26	0xbe77d119	-0.24200858
27	0x3f3e8deb	0.744353
28	0x3fcfd5b4	1.6237092
29	0xbf626c2b	-0.884463
30	0xbeaff203	-0.34364328
31	0xc01e0f5a	-2.469687
32	0xc005f944	-2.093339
33	0xbe99704e	-0.29968494
34	0x408679f4	4.202387
35	0xbfd2419d	-1.6426274
36	0x3ead99be	0.33906358
37	0xbf552a68	-0.8326783
38	0x404c45f2	3.1917691
39	0xbeb441a1	-0.3520632
40	0xbcad19aa	-0.021130402
41	0x3f30d6f0	0.6907797
42	0xbf2da69d	-0.67832357
43	0xbe471b48	-0.19444
44	0xba3d265f	-0.00072154956
45	0xbebae902	-0.36505896
46	0x3efb889d	0.49127665
47	0x3d80bf19	0.06286449
48	0xbf553f7d	-0.833
49	0x3faee33f	1.36631
50	0x3f1b4ed2	0.60667145
51	0xbf2b4738	-0.66905546
52	0xbeb62e35	-0.35582128
53	0x3f4e357e	0.8055037
54	0xbf1ab02b	-0.6042506
55	0xbff41936	-1.9070194
56	0x3e80610f	0.2507405
57	0xbecbd044	-0.39807332
58	0xbfb780a8	-1.4336138
59	0xbf826e96	-1.0189998
60	0x3f5ebd64	0.8700774
61	0x3e8086b3	0.25102767
62	0x3f8f21a0	1.1182137
63	0xbfff1d0c	-1.9930739

model.categorical_embeds.weight f4 [26, 64]
0	0xbec34abc	-0.38142955
1	0x3ebd9317	0.37026283
2	0x3fa3f538	1.280921
3	0xbfb3933a	-1.4029305
4	0xbfc109bd	-1.5081097
5	0x3fca68e9	1.5813266
6	0x3f1db52d	0.6160458
7	0xbed7700d	-0.42077675
8	0x3f864dd8	1.0492506
9	0xbf851044	-1.0395589
10	0xbe4cfe28	-0.20018828
11	0xbfc09f4d	-1.5048615
12	0xbdc4efb8	-0.09616035
13	0x3fb89079	1.441909
14	0x3ee49683	0.4464608
15	0x3eed1ebf	0.4631252
16	0x3f0ff51e	0.56233394
17	0xbf9ed356	-1.2408245
18	0xbeb97f12	-0.3622976
19	0xbe5c9e17	-0.21544681
20	0xbf98f970	-1.1951122
21	0x3ee270ac	0.44226587
22	0xbd4ff351	-0.050769154
23	0x3fa03bf3	1.2518295
24	0x3f919ff8	1.1376944
25	0xbcd381d5	-0.025818745
26	0xbf0137b8	-0.50475645
27	0xbde3cf7a	-0.111235574
28	0x3f3a42f7	0.7275843
29	0x3f3252dd	0.6965769
30	0x3f450750	0.76964283
31	0x3f5fa083	0.87354296
32	0x4036c217	2.8555963
33	0xbf29fc67	-0.6640076
34	0x3f745d8a	0.9545523
35	0x3fe5a869	1.794202
36	0xbf6c366d	-0.9227055
37	0xbea5e9fc	-0.32405078
38	0xbfdc3e4c	-1.7206511
39	0x400e45cc	2.22301
40	0x3f2dfa70	0.6796026
41	0xbfabed12	-1.3431723
42	0xbec7cfa3	-0.39025602
43	0xbdb87c51	-0.090080865
44	0x3fcfa664	1.6222653
45	0x3d76df4f	0.060271557
46	0xbe2b7552	-0.16743973
47	0x3f21e28b	0.632363
48	0xbf9f61a6	-1.2451675
49	0x3ef72cc0	0.4827633
50	0x3f661872	0.8988105
51	0xbfb9cdd9	-1.4515945
52	0xbe5b4e6d	-0.21416636
53	0x4000d327	2.0128877
54	0x3d458a1c	0.048227414
55	0x3f0afad6	0.54288995
56	0x3f942b8f	1.1575793
57	0xbfd27353	-1.6441444
58	0x3f6ce268	0.9253297
59	0xbe0ab810	-0.13546777
60	0xbe6324a7	-0.2218195
61	0xbe64cec0	-0.22344494
62	0x3eb71199	0.35755613
63	0xbfb8414d	-1.4394928
64	0xbf705108	-0.93873644
65	0xbfac4d84	-1.3461156
66	0x3e8033ce	0.25039524
67	0x3fb5f0da	1.4214127
68	0xbe6c8e64	-0.23101193
69	0x3ee4fa3e	0.4472217
70	0xbe10073b	-0.14065258
71	0xbf3fba06	-0.74893224
72	0xbef36679	-0.47539118
73	0x3ecfa06c	0.4055208
74	0x3fd1e817	1.6398953
75	0xbe2bcc37	-0.1677712
76	0xbe6bdf1f	-0.23034333
77	0x3da6cf0f	0.08144962
78	0xbfb174b7	-1.3863744
79	0xbf22348b	-0.63361424
80	0xbf60e880	-0.87854767
81	0xbe65ef94	-0.22454673
82	0xbfe319ce	-1.774225
83	0x3f6c2cdb	0.92255944
84	0x3fb35f44	1.4013448
85	0x3fcae2af	1.5850428
86	0xbf38bed7	-0.721662
87	0x3e90e6aa	0.28300983
88	0x3ecc8fd3	0.3995348
89	0x3fe59d13	1.793856
90	0x3ebb88c7	0.3662779
91	0xbdf59581	-0.11991406
92	0xbe779067	-0.24176179
93	0xbe3dba7f	-0.18528174
94	0xbe29ddb2	-0.16588476
95	0xbed1c56d	-0.40970936
96	0x3f4a065d	0.7891596
97	0x3fcaa60a	1.5831921
98	0x3fbd05dc	1.4767413
99	0xbf0fcd6a	-0.5617281
100	0x3fe3abd6	1.7786815
101	0xbfa8836b	-1.3165106
102	0x3f8b9051	1.0903417
103	0x3ea6e0f0	0.3259349
104	0xbf375235	-0.7160981
105	0x3edffdc5	0.43748298
106	0xbff10366	-1.8829162
107	0xbfcdabe1	-1.6068078
108	0xbff251fc	-1.893127
109	0x3fd755e4	1.6823087
110	0xbedcde4a	-0.43138343
111	0x3f44b62a	0.7684046
112	0x3f6613ab	0.8987376
113	0x3fcd79c3	1.6052784
114	0x3feff4b0	1.8746548
115	0xbfba86b9	-1.4572364
116	0xbefdb0c1	-0.49548915
117	0x3f18de71	0.5971442
118	0xbe4476d3	-0.19185953
119	0xbf603bac	-0.8759105
120	0x3f8bdc61	1.0926629
121	0xbfa62d57	-1.2982587
122	0xbee0daf7	-0.43917057
123	0x3e5038ef	0.20334218
124	0x3f3c87ab	0.7364451
125	0x3f0ffa2d	0.5624111
126	0x3ee25974	0.44208872
127	0x3f155c17	0.5834364
128	0xbf1b0dbf	-0.6056785
129	0x3f22a300	0.6352997
130	0x3f9d7c9f	1.2303656
131	0x3de8d9ca	0.11369665
132	0xbf6d2395	-0.9263242
133	0x3f95c651	1.1701146
134	0xbfd97be8	-1.6990938
135	0xc05366b6	-3.303144
136	0xbf42c19b	-0.7607667
137	0xbf63fd92	-0.8905879
138	0x3e58ecf6	0.21184143
139	0x3f5ff1db	0.8747842
140	0xbeff643b	-0.49881157
141	0x3ecaf72a	0.39641696
142	0x3ecd8bdc	0.40145767
143	0x3f3a8f65	0.7287505
144	0xbeb9895a	-0.36237603
145	0xc01ea16c	-2.4786024
146	0xbf6bdbdd	-0.9213236
147	0x3e94619a	0.28980714
148	0xbf03f8f2	-0.51551735
149	0x3f8ff200	1.1245728
150	0x3fc5a15a	1.5439866
151	0xbfb7bc7a	-1.4354393
152	0xc0341553	-2.8138015
153	0xbcd7e3b5	-0.026353696
154	0xbfa04e52	-1.2523901
155	0xbef0a318	-0.4699943
156	0xbff657f5	-1.9245592
157	0x3f65a6ee	0.8970784
158	0x3d5ae046	0.05343654
159	0xbeddabab	-0.43295035
160	0x40047130	2.0694084
161	0x3d2245f5	0.039617497
162	0x3fddda1e	1.7332189
163	0xbf642571	-0.8911963
164	0x3f7761f8	0.96633863
165	0x3fa10b27	1.2581528
166	0xbfda8146	-1.7070701
167	0x3ea58240	0.32325935
168	0xbf0dac57	-0.55341095
169	0xbed046a2	-0.4067889
170	0x3b09455d	0.0020945885
171	0xbeb34a6e	-0.35017723
172	0xbf0407a7	-0.51574177
173	0x3f9fe6f5	1.2492357
174	0x3f64d382	0.89385235
175	0xbf04087d	-0.5157545
176	0xbdcde260	-0.10052943
177	0x3e9a548d	0.30142632
178	0xbf8c1cd9	-1.0946304
179	0x3e80fcc6	0.2519285
180	0x3eaaa1c9	0.33326557
181	0x40034d4f	2.0515935
182	0xbf623a81	-0.8837052
183	0x3ed7b4d3	0.42130145
184	0xbf8db2e9	-1.1070224
185	0xbfd9e96f	-1.7024363
186	0xbf516494	-0.81794095
187	0x3de39778	0.11112875
188	0xbde9c070	-0.11413658
189	0x3edefdf3	0.43553123
190	0xbf44adf1	-0.76827914
191	0x3f5e4686	0.8682636
192	0xbe94cb4a	-0.29061347
193	0xbd0e47c1	-0.0347364
194	0xbeaab577	-0.33341572
195	0xbf5ccdc6	-0.86251485
196	0xbf3262ee	-0.69682205
197	0x3f840bec	1.0316138
198	0x3fa27057	1.2690533
199	0xc01b5dc1	-2.4275973
200	0xbf66e709	-0.9019628
201	0xbfc96518	-1.5733976
202	0x3ebe9c1d	0.3722848
203	0x3f836458	1.0264997
204	0x3f86ba43	1.0525593
205	0xbf915e1c	-1.1356845
206	0xbee62459	-0.44949606
207	0xbdfb3879	-0.12266631
208	0xbf2ebc6e	-0.6825627
209	0xbf8ce962	-1.1008723
210	0x3fafcdc9	1.3734676
211	0x3eeeda08	0.4665072
212	0x4000ce52	2.0125928
213	0x3f36b1e0	0.71365166
214	0x3ff43368	1.9078188
215	0xbf056d14	-0.52119565
216	0xbfdfcf24	-1.7485089
217	0x3f473ee0	0.77830315
218	0xbe9ecc8c	-0.31015432
219	0x3f976498	1.1827574
220	0xbfc2353a	-1.5172493
221	0xbfbfcb0a	-1.4983838
222	0x3ea7eb7d	0.3279685
223	0x3f72a926	0.9478935
224	0x3fa1a472	1.262831
225	0x3e9639ad	0.29340878
226	0x3f145abe	0.5795096
227	0x3f8a117f	1.0786589
228	0xbcab0df9	-0.020880686
229	0x3f656f9a	0.89623415
230	0xbf7e069d	-0.9922884
231	0xbfdae057	-1.7099713
232	0xbfe88bc1	-1.816765
233	0x3f3094e1	0.6897717
234	0x3f0657bf	0.5247764
235	0xbf697bac	-0.91204333
236	0xbf390357	-0.7227072
237	0x3f13ccce	0.5773438
238	0x3f86eff3	1.0541977
239	0xbff00ed1	-1.8754522
240	0xbf21d0a6	-0.63209
241	0x4001b290	2.0265236
242	0xbd894fa9	-0.06704647
243	0x3eb541fd	0.35401908
244	0x3fd1e26f	1.6397227
245	0x3f0df0f7	0.5544581
246	0xbefb6afa	-0.49105054
247	0xbf9ab00a	-1.2084973
248	0xbf802ce6	-1.0013702
249	0x3eb7a59a	0.3586853
250	0xbf13f617	-0.5779738
251	0xbfdad834	-1.709723
252	0x3f645de0	0.8920574
253	0xbed540cf	-0.41651008
254	0xbe6c96e3	-0.23104434
255	0xbe5a3a42	-0.21311286

model.numerical_embedder.weights f4 [41, 64]
0	0x3f5a5d1f	0.8529834
1	0x3defd2db	0.11710139
2	0x3fb9ee3f	1.4525832
3	0xbf5c65f7	-0.86093086
4	0xbf95ab69	-1.1692935
5	0x404616f6	3.0951514
6	0x3f9430bb	1.1577371
7	0x3de2d9d1	0.110767014
8	0xbf4f050e	-0.8086709
9	0x3f0557d4	0.5208714
10	0x3f9a0b7b	1.2034754
11	0x3f18d28c	0.5969627
12	0x3eb5bd81	0.35496143
13	0x3f870063	1.0546993
14	0x3f3e9d52	0.744588
15	0x3f294bcb	0.66131276
16	0x3e60684c	0.21914786
17	0x4010c0a9	2.261759
18	0xbf9cf6ec	-1.2262855
19	0xbff0aa46	-1.8801963
20	0x3f22edbe	0.63644016
21	0xbfac48e4	-1.3459744
22	0xbd2833e6	-0.04106512
23	0xbff21222	-1.8911784
24	0xbec79c47	-0.38986418
25	0x3f8534ad	1.04067
26	0xbd391e0d	-0.045194674
27	0x3febba13	1.841616
28	0xbe4afbea	-0.1982266
29	0x3f2f590d	0.68495256
30	0xbf0385bd	-0.51375943
31	0xbfb3da56	-1.4051006
32	0xbf87f843	-1.0622638
33	0xbfb3e006	-1.4052742
34	0xbfacc012	-1.3496115
35	0x3e39277b	0.18081467
36	0xbfe889e3	-1.816708
37	0x3fec5a8e	1.8465135
38	0x3cf1af38	0.029502496
39	0x3e2518b3	0.16122703
40	0x40316375	2.7716954
41	0xbe6df70e	-0.23238775
42	0x3df467d5	0.11933867
43	0x3f86fd0e	1.0545976
44	0xbf123606	-0.57113683
45	0xbed28121	-0.41114143
46	0xbe96cf4a	-0.29455024
47	0xbfa8b4c0	-1.318016
48	0x3faae484	1.3350987
49	0xbf107edd	-0.5644358
50	0x3f6aadad	0.9167126
51	0xbfa95977	-1.3230428
52	0x3f490acd	0.78532106
53	0x3f92742a	1.14417
54	0xc0146580	-2.318695
55	0x3fbe3c6a	1.4862187
56	0xbd68e9a0	-0.056863427
57	0x3f876093	1.0576347
58	0x400310e0	2.047905
59	0xbd36ea42	-0.044657
60	0x3e699d8b	0.22814004
61	0xbfdadffa	-1.7099602
62	0xc025ec11	-2.5925333
63	0x3f83bb10	1.0291462
64	0xbe20eecc	-0.15716094
65	0xbfd0420d	-1.6270157
66	0x3f587e5d	0.84567815
67	0xc0365f42	-2.849564
68	0xbd04dbf4	-0.032436326
69	0xbe5f6719	-0.21816672
70	0xbf64a9dc	-0.89321685
71	0x40116a82	2.2721257
72	0x3f4fe961	0.8121548
73	0x3f89255c	1.0714526
74	0x3f8911bc	1.0708537
75	0xbf852c56	-1.0404155
76	0x3eb8101a	0.35949785
77	0x3f1c09df	0.6095256
78	0xbfff8e91	-1.9965383
79	0x3fe6ba4a	1.8025601
80	0x3ea61e22	0.32444865
81	0x3fba6987	1.4563454
82	0x3fb84147	1.4394921
83	0x4014d782	2.3256536
84	0xbf888df5	-1.0668322
85	0x3ddd3bb9	0.10802407
86	0x405ea71c	3.4789495
87	0xbfb99799	-1.4499389
88	0xbfffb4fd	-1.9977108
89	0xc00a60a6	-2.162149
90	0x3f02fdf6	0.51168764
91	0x3f4aca09	0.7921453
92	0xbf9557ee	-1.1667459
93	0xbd10f15e	-0.035386436
94	0x3f8626c5	1.0480582
95	0x3f71b590	0.9441767
96	0xbf489401	-0.78350836
97	0xbfce3cb5	-1.6112276
98	0xbfc5ff68	-1.5468569
99	0xbf8ae404	-1.0850835
100	0xbf8caa3b	-1.098945
101	0xbc2282fb	-0.0099189235
102	0x3ebb73c7	0.3661177
103	0xbcb3696a	-0.021900851
104	0x3f7c57c2	0.9857141
105	0xc020e026	-2.513681
106	0x3f8145d0	1.009943
107	0x3e4cce27	0.20000516
108	0x3fc350e7	1.5259064
109	0xbf83403e	-1.025398
110	0x3f75bd11	0.9599162
111	0x404eaccd	3.229297
112	0x3b7f4dc6	0.0038956269
113	0x3f7440fd	0.95411664
114	0xbe8c6def	-0.27427623
115	0x3f86057a	1.0470421
116	0xbf2bce47	-0.6711163
117	0x3f957ad2	1.1678107
118	0x3f9ce260	1.2256584
119	0x3f9d57d9	1.2292434
120	0xbec544ff	-0.38529202
121	0xbfbe237d	-1.485458
122	0x3e77f5e8	0.242149
123	0xbf34a248	-0.7056012
124	0xbf80c6fb	-1.0060724
125	0x3f891d38	1.0712042
126	0x3f3b3f99	0.7314392
127	0x3f89d6bd	1.0768658
128	0x3f4d5a75	0.8021615
129	0xc02f28ed	-2.736873
130	0xbe6b37c0	-0.22970486
131	0x3e319b94	0.17344505
132	0xbf5a0a8f	-0.8517236
133	0x405da177	3.46298
134	0xbfb19258	-1.3872786
135	0xbf22381b	-0.6336686
136	0xbefea20b	-0.49733004
137	0x3f2873f7	0.6580195
138	0x3fb7b7e6	1.4352996
139	0xbf9b8811	-1.2150899
140	0x3fd0890d	1.6291825
141	0x3d6e0fd0	0.05812055
142	0xbdca23aa	-0.09870084
143	0xbede036c	-0.43361986
144	0x3f652971	0.8951636
145	0x3f921f69	1.1415836
146	0xbf7c09a9	-0.9845224
147	0xc038a31b	-2.8849552
148	0xc0436d06	-3.0535293
149	0x3fcedd43	1.6161274
150	0x3e3d4f3d	0.18487258
151	0x4002c3a6	2.0431914
152	0xbf078fe1	-0.52953917
153	0x3f011627	0.50424427
154	0xbe40d21d	-0.18830152
155	0xbf8f71b7	-1.1206578
156	0xbf2d8794	-0.67785
157	0x3de52111	0.111879475
158	0xbf26fd8c	-0.6523063
159	0xbfe34e39	-1.7758247
160	0x3e643d51	0.22289015
161	0xbf09a355	-0.5376485
162	0xc012d905	-2.2944958
163	0xbee08e69	-0.4385865
164	0x3fe241cc	1.767633
165	0x3eaced48	0.3377478
166	0x3f77ea73	0.96842116
167	0x3d89f620	0.06736398
168	0x3efcfb92	0.49410683
169	0xbf0d8fa6	-0.55297315
170	0x3f20d0e8	0.62818766
171	0x3f80f980	1.0076141
172	0xbf170bd4	-0.59002423
173	0xbe0e9c8c	-0.13926905
174	0xbd33dba2	-0.04391063
175	0xbf5f8bd5	-0.8732274
176	0xbe8346e2	-0.25640017
177	0x4019b0e4	2.4014215
178	0xbea82c96	-0.32846516
179	0xbfb303e5	-1.3985564
180	0xbeb2c0b9	-0.3491266
181	0xbee10bae	-0.43954223
182	0xbfb25ea4	-1.3935132
183	0xbf18a715	-0.59629947
184	0xbf6ca2e5	-0.9243606
185	0xbb1e8c97	-0.0024192685
186	0xbe863abf	-0.26216695
187	0x3f905d5c	1.1278491
188	0xbe982a09	-0.2971957
189	0xbf5e2b96	-0.86785257
190	0xbe5d50bd	-0.2161283
191	0xbe7a0f88	-0.24419987
192	0x3f906dcd	1.1283509
193	0xbf40dd2a	-0.7533747
194	0xc004d650	-2.0755806
195	0x400d9cd6	2.2126975
196	0x4014413b	2.3164814
197	0x3f35d52d	0.71028405
198	0xbe9ae1a1	-0.30250266
199	0x3f742ffb	0.9538571
200	0x40043e03	2.066285
201	0x3e8b1b23	0.2716914
202	0xbfbf7e03	-1.4960331
203	0x3f087ed4	0.53318524
204	0x3e9ce419	0.30642775
205	0xbf323ab3	-0.6962082
206	0xbfd6ac4f	-1.6771334
207	0x3f2e31f8	0.68044996
208	0xc001caed	-2.0280106
209	0xbf2c1bdc	-0.6723001
210	0x3fa63643	1.2985309
211	0xc029fc49	-2.6560233
212	0x3eee5a8d	0.4655346
213	0xbfbad2ea	-1.4595616
214	0x3f12de8b	0.57370824
215	0xbfa004ac	-1.2501426
216	0xbeda16fa	-0.42595655
217	0xbe6ecf12	-0.23321179
218	0x3fde8dfa	1.7387078
219	0x3fb31ae3	1.399258
220	0x3f66091a	0.8985764
221	0x3e386493	0.18007116
222	0x3ece6afb	0.40315995
223	0x3fdbc937	1.7170781
224	0xbf1eb597	-0.61995834
225	0xbf0fa5b0	-0.56112194
226	0xbf9f7a30	-1.2459164
227	0xbfbafee7	-1.460904
228	0xbe89acfd	-0.26889792
229	0xbfc14dea	-1.5101902
230	0x3e8c3fc1	0.2739239
231	0xbf84c393	-1.0372185
232	0xbf5397e0	-0.8265362
233	0x3ee3f8bd	0.4452571
234	0xbfdf2406	-1.7432868
235	0xbf2e86d3	-0.68174475
236	0xbfd7b6fa	-1.6852715
237	0x3fad3a52	1.3533423
238	0x3e4dc225	0.20093592
239	0x3e902d06	0.2815935
240	0x3f53cb23	0.8273184
241	0x3e9f21e6	0.3108055
242	0xbf67d506	-0.9055942
243	0xc0158682	-2.3363347
244	0xbfd09d9b	-1.6298097
245	0x3fb940eb	1.4472936
246	0x3f98908b	1.1919111
247	0x3f0546ba	0.52061045
248	0xbd8f06c4	-0.06983712
249	0xbd6b3001	-0.057418827
250	0x3fc41c16	1.5321071
251	0xbfa4384d	-1.2829682
252	0x40446091	3.068394
253	0x3eff2187	0.49830267
254	0x400e4687	2.2230546
255	0xbe77c733	-0.24197082

model.numerical_embedder.biases f4 [41, 64]
0	0x3efa3d1b	0.48874745
1	0xbef3fb2b	-0.47652563
2	0x3e12387a	0.14279357
3	0x3f707b77	0.9393839
4	0x3ee442e7	0.44582292
5	0x3f2407b0	0.6407423
6	0xbf6eec48	-0.93329287
7	0xbe2bb6c3	-0.16768937
8	0xbf873a65	-1.0564696
9	0x4017e03c	2.3730612
10	0xbf8b91c6	-1.0903862
11	0xbfdbe0e3	-1.7178005
12	0x3f893e04	1.0722051
13	0x3ee714da	0.45133096
14	0x3c065dec	0.008201104
15	0x3f632c31	0.88739306
16	0x3e511ddc	0.20421547
17	0x3f410464	0.75397325
18	0xbfb8669c	-1.4406314
19	0x3f887204	1.0659795
20	0x3f9948b9	1.1975318
21	0xbf02511e	-0.50905025
22	0xbdd81f42	-0.10552837
23	0x3f8541cf	1.0410708
24	0x3fd47b2a	1.6600087
25	0xbf5b00b0	-0.85547924
26	0x3f5fab45	0.8737071
27	0x3f6435a9	0.8914438
28	0xbf32a2a2	-0.6977941
29	0x4016534e	2.3488345
30	0x3fefd838	1.873786
31	0x3f73b4d7	0.95197815
32	0xbf0c10a6	-0.54712903
33	0x3f792acd	0.97330934
34	0x3ecf0ac8	0.40437913
35	0x3e1960d3	0.14978342
36	0xbeb5780c	-0.3544315
37	0xbe6c8ab2	-0.23099783
38	0xbf3872a8	-0.7204995
39	0xbf04a5e4	-0.5181563
40	0xbdd6c120	-0.104860544
41	0xbf5334c9	-0.8250242
42	0x3f11012c	0.56642413
43	0xbe04d782	-0.12972835
44	0xbd0c78f2	-0.03429503
45	0xbf1b18e2	-0.60584843
46	0xbfda01c0	-1.7031784
47	0x3e128a8b	0.14310662
48	0xbebf43a8	-0.37356305
49	0x3db6bf19	0.08923168
50	0xbe0b312b	-0.13592975
51	0x3e309dd0	0.172477
52	0x3ef7df09	0.4841235
53	0x3ee56441	0.4480305
54	0xbe1191b3	-0.14215736
55	0xbf23eb88	-0.6403127
56	0x3f54a634	0.83066106
57	0x400d06f1	2.2035487
58	0x3f195651	0.59897333
59	0xbec3f9c8	-0.38276505
60	0x3fd2f7e3	1.6481899
61	0xbf807638	-1.0036077
62	0x3f00f932	0.5038024
63	0xbfe8cd4a	-1.8187649
64	0x3f44b27a	0.76834834
65	0xbfa04a84	-1.252274
66	0x3fbe8222	1.4883463
67	0x3eed1eb6	0.46312493
68	0x3f091db9	0.5356098
69	0xbfbe7c39	-1.488166
70	0x3eae828c	0.34083974
71	0xbc739fcc	-0.0148696415
72	0xbebeff62	-0.37304217
73	0xbf86c3f9	-1.0528556
74	0x3f7077b0	0.9393263
75	0x3fae471d	1.3615452
76	0x3e91d1fe	0.28480524
77	0xbe7294ed	-0.23689623
78	0x3fe1cd27	1.7640733
79	0xbf25c4b2	-0.6475326
80	0x3fcd2ba0	1.6028938
81	0x401ae7b9	2.4203932
82	0xbf54b2ed	-0.8308552
83	0xbee18e36	-0.4405381
84	0x3fd4eeb2	1.6635344
85	0xbf46a580	-0.7759628
86	0xbfe5c8ef	-1.7951945
87	0x3fbc18ae	1.4695032
88	0xbc9b0320	-0.018922389
89	0x3ebbf6d0	0.3671174
90	0xbe9ede0b	-0.3102878
91	0x3ebe6fc9	0.3719466
92	0x3dd83181	0.10556317
93	0xbe762087	-0.24035846
94	0xbfa84815	-1.3146998
95	0xbe8ea40c	-0.27859533
96	0x3e8af7ec	0.27142274
97	0x3eec3270	0.4613223
98	0xbcb43427	-0.021997524
99	0x3e281e51	0.16417815
100	0xbeecb00a	-0.46228057
101	0xbf5b6aca	-0.8570982
102	0xbebc00b8	-0.36719298
103	0xbf3ad846	-0.7298626
104	0xbf9ffced	-1.2499062
105	0xbf83b90e	-1.0290849
106	0x3f72571f	0.94664186
107	0xbfcb42f3	-1.5879806
108	0xbf29c6a8	-0.6631875
109	0x3fc6ad21	1.5521585
110	0x3d39f961	0.045403842
111	0xbe2ba1ae	-0.16760895
112	0xbf9a4db6	-1.2054965
113	0xbf82cc9d	-1.0218693
114	0x3eb7e5bf	0.3591747
115	0x3ee05edd	0.43822375
116	0xb9cf64f8	-0.00039557344
117	0xbc3cab3e	-0.011515437
118	0xbf4a6466	-0.79059446
119	0xbec597b3	-0.385923
120	0xbfc24098	-1.5175962
121	0x3e889947	0.2667944
122	0x3fc313b6	1.524039
123	0xbf99ca32	-1.201483
124	0x3f8ae362	1.0850642
125	0x3e6ccfae	0.23126099
126	0xbd62d4e1	-0.0553788
127	0xbf0c3579	-0.5476909
128	0xbe9ce099	-0.30640104
129	0x3fc4e216	1.5381496
130	0x3f2f89bb	0.68569535
131	0x3f551253	0.83231086
132	0x3fa04708	1.2521677
133	0xbda3f0d9	-0.080049224
134	0x3f8c3be5	1.0955778
135	0x3f0c0e43	0.5470926
136	0xbd0eb20b	-0.034837764
137	0xbfdf6470	-1.7452526
138	0xbf8fedea	-1.1244481
139	0xbfc6a5ee	-1.5519388
140	0x3f1a6f71	0.60326296
141	0xc00c4cd8	-2.1921902
142	0x3b005897	0.0019584054
143	0xbeb5e26d	-0.35524312
144	0x3fade8a2	1.3586619
145	0x3f093732	0.53599846
146	0xbd062717	-0.032752123
147	0x3f4a6276	0.7905649
148	0x3f3b35ff	0.73129267
149	0x3ffc130b	1.9693311
150	0x3f8be9fa	1.0930779
151	0x3e2f2461	0.17103721
152	0xbf4ac15f	-0.7920131
153	0xbf10aabc	-0.5651052
154	0x3ce33ccb	0.02773895
155	0xbf2084ef	-0.6270284
156	0x3e18a375	0.14906104
157	0xbea6455a	-0.32474786
158	0x3fb94dd7	1.447688
159	0x3ed42ec2	0.41441923
160	0x3e85cb3e	0.26131624
161	0x3f005859	0.5013481
162	0x3f4177a5	0.7557319
163	0xbf84a19e	-1.0361822
164	0x3fba2c38	1.4544744
165	0x3e9334ee	0.2875132
166	0xbd942a15	-0.07234589
167	0xbdde67cc	-0.108596414
168	0x3f3c79fd	0.7362364
169	0x3f4b537c	0.7942426
170	0x3f895506	1.0729072
171	0x3f0129cf	0.5045442
172	0xbee5b83e	-0.44867128
173	0x3e7ec68c	0.24880427
174	0xbeb4ba95	-0.352986
175	0xbfd13518	-1.6344328
176	0x3e266f31	0.16253354
177	0x3e0fcf80	0.14043999
178	0x3f9bf619	1.2184478
179	0xbddbf4e9	-0.10740072
180	0x3e72fec8	0.23730004
181	0x3ed402e4	0.41408455
182	0x3f553ef6	0.83299196
183	0x3fa37d1b	1.2772554
184	0xbf9a0d2d	-1.2035271
185	0xbf8f675e	-1.120342
186	0x3f0324be	0.5122794
187	0xbf95a860	-1.1692009
188	0x3e9b3050	0.30310297
189	0x3d802f04	0.062589675
190	0x3e04df85	0.12975891
191	0x3ee2c45d	0.44290438
192	0xbe62b981	-0.22141077
193	0xbe0ca53c	-0.13734907
194	0x3f841e77	1.0321797
195	0x3f5548f2	0.8331443
196	0x3eb3c591	0.3511167
197	0xbf416ad6	-0.75553644
198	0x3f01e586	0.5074085
199	0x3f590115	0.84767276
200	0xbe8ebf72	-0.27880436
201	0xbed6f82f	-0.41986224
202	0x3f54732e	0.8298825
203	0xbf88ece7	-1.0697297
204	0x3f4be51e	0.7964648
205	0xbf12c12a	-0.57325995
206	0x400b6fec	2.1787062
207	0xbe03f4ce	-0.12886354
208	0xc02af564	-2.6712275
209	0xbf5cf423	-0.86310023
210	0x3f4a37b3	0.7899124
211	0xbc48bf00	-0.012252569
212	0xbeaa6848	-0.33282685
213	0x3f47d523	0.78059596
214	0xbf100b74	-0.56267476
215	0xbe36c272	-0.17847613
216	0x3ee77230	0.45204306
217	0xbeb34d9a	-0.35020143
218	0xbf4d8c38	-0.8029208
219	0xbfc174cc	-1.5113769
220	0x3ea03cf7	0.31296512
221	0x3fecad3a	1.8490365
222	0xbf82ca29	-1.0217944
223	0xbff75f65	-1.9325987
224	0xbf138bad	-0.57635003
225	0xbfac5650	-1.346384
226	0xbf65c73a	-0.8975712
227	0xc0190519	-2.3909361
228	0xbf5f9588	-0.8733754
229	0xbea3a6a6	-0.3196308
230	0xbc8cbfe2	-0.01718134
231	0x3d2d8c19	0.042369936
232	0xbf9bc987	-1.2170876
233	0xbefa7b8f	-0.48922393
234	0x3ee37cac	0.44431055
235	0xbed24eb6	-0.41075677
236	0xbf9ce247	-1.2256554
237	0xbf238427	-0.63873523
238	0x3d5b6399	0.05356178
239	0xbda6c1c6	-0.08142428
240	0xbe9ebfae	-0.31005615
241	0xbfd1d49a	-1.6393006
242	0x3e26d0f1	0.16290642
243	0xbeb3082b	-0.3496717
244	0xbeb26536	-0.34842843
245	0x3e5f3506	0.2179757
246	0x3fa2f1b1	1.2730008
247	0x3dd1e351	0.10248435
248	0x3f399688	0.7249532
249	0xbfc05227	-1.5025071
250	0x3fa52407	1.290162
251	0x3f2495bc	0.64290977
252	0x3f6f03d2	0.93365204
253	0x3e8bc15a	0.27295953
254	0x3da9ca11	0.08290494
255	0xbe37e211	-0.17957331

model.transformer.layers.0.0.branch.norm.weight f4 [64]
0	0x3ee7d846	0.4528219
1	0x3f1a4856	0.60266626
2	0x3ec399dd	0.38203326
3	0x3f31b59b	0.6941773
4	0x3f019ea5	0.506327
5	0x3f3958c4	0.7240107
6	0x3f369328	0.7131829
7	0x3f107d19	0.56440884
8	0x3f3e54f3	0.7434837
9	0x3f0e7959	0.5565391
10	0x3f2b27e6	0.66857755
11	0x3f124890	0.5714197
12	0x3e969031	0.29406884
13	0x3ee655e1	0.44987395
14	0x3f209bf9	0.62737995
15	0x3e8a9cfe	0.270729
16	0x3f051cd3	0.5199711
17	0x3f2450db	0.64185876
18	0x3f12849f	0.57233614
19	0x3efea489	0.49734905
20	0x3f03cd97	0.5148558
21	0x3f28ac54	0.6588795
22	0x3f6aad30	0.91670513
23	0x3f1511eb	0.58230466
24	0x3f1370f2	0.57594216
25	0x3f236a9b	0.6383454
26	0x3f1b22e1	0.60600096
27	0x3f0b70d5	0.54469043
28	0x3f242e03	0.6413271
29	0x3f30d4c9	0.69074684
30	0x3f2d649b	0.67731637
31	0x3e47fa3b	0.19529049
32	0x3ebe7759	0.3720043
33	0x3f12f625	0.57406837
34	0x3edb492f	0.42829272
35	0x3eca411a	0.39502794
36	0x3f2c9602	0.67416394
37	0x3f206256	0.6265005
38	0x3ed9bd1e	0.42527097
39	0x3f0ce4fa	0.5503689
40	0x3f0fb8b7	0.5614123
41	0x3f16fe22	0.58981526
42	0x3f3bc29e	0.7334384
43	0x3f00cb01	0.5030976
44	0x3f19ac8a	0.600289
45	0x3f338b28	0.7013421
46	0x3ef27adb	0.47359356
47	0x3f1cb022	0.6120626
48	0x3f21efaa	0.63256323
49	0x3ed4f47d	0.4159278
50	0x3f2c3871	0.6727362
51	0x3f0a7238	0.54080534
52	0x3efb04f8	0.49027228
53	0x3f1ffa38	0.6249118
54	0x3f25bd4f	0.64741987
55	0x3ecca832	0.39972073
56	0x3f22c3da	0.63580096
57	0x3f414631	0.7549773
58	0x3f23d57d	0.6399763
59	0x3ecff5f2	0.4061733
60	0x3f087c20	0.533144
61	0x3f0b2f7e	0.5436934
62	0x3ec6bb28	0.38814664
63	0x3f11c568	0.56941843

model.transformer.layers.0.0.branch.norm.bias f4 [64]
0	0x3d9b78e8	0.075914204
1	0xbde65ce1	-0.11248184
2	0xbd47b6be	-0.04875826
3	0x3ccb972a	0.024852354
4	0x3ba86fde	0.0051402887
5	0x3dc49018	0.09597796
6	0xbd662e16	-0.056196295
7	0xbd23d66c	-0.03999941
8	0x3e63c99f	0.22244881
9	0x3d00119c	0.031266794
10	0xbd402c96	-0.04691752
11	0x3e1c8f43	0.15289025
12	0x3c9cb735	0.019130329
13	0x3e335ce5	0.17515905
14	0x3dd4785f	0.103745215
15	0x39db2d3b	0.00041804634
16	0xbd2f319f	-0.04277193
17	0x3e343885	0.17599685
18	0x3b36f65f	0.0027917845
19	0xbbb6eb5f	-0.0055822576
20	0xbd426550	-0.0474599
21	0x3c3d7b8c	0.0115651
22	0xbca7fe05	-0.020506868
23	0x3dd979f4	0.10618964
24	0xbd61b08f	-0.05510002
25	0x3d88cca7	0.06679659
26	0x3c1bc33e	0.009506999
27	0xbc3dc633	-0.011582899
28	0xbe37336d	-0.17890711
29	0x3c32571a	0.010885024
30	0x3d438536	0.04773446
31	0x3d93b584	0.07212356
32	0x3c6919b3	0.014227319
33	0xbdf22f7d	-0.11825464
34	0xbddbcde8	-0.10732633
35	0x3c0783f8	0.00827121
36	0x3d579c98	0.052639574
37	0xbc52e9e2	-0.012873145
38	0xbd6bffe5	-0.057617087
39	0x3d44a467	0.04800835
40	0x3c654bcd	0.013995123
41	0xbdac25f0	-0.084056735
42	0xbde4fb19	-0.111807056
43	0x3d02edd1	0.03196508
44	0x3bbbb507	0.0057283673
45	0x3d6fdf93	0.058562826
46	0x3c777c9f	0.015105396
47	0x3d2156bb	0.039389353
48	0x3c5a0d54	0.013308842
49	0xbdb38824	-0.08766201
50	0xbdf49e9e	-0.11944316
51	0x3db525f1	0.088451274
52	0xbd905aae	-0.07048546
53	0xbe0eb863	-0.13937525
54	0xbce01b8f	-0.027356891
55	0x3db23e11	0.087032445
56	0x3d7f6b3e	0.062358133
57	0x3e174d54	0.14775592
58	0xbd2f6c4e	-0.042827897
59	0x3dc7f5c1	0.09763671
60	0xbdc55098	-0.09634513
61	0xbc5307a3	-0.012880239
62	0x3c23a7b6	0.009988716
63	0x3d7042bd	0.058657397

model.transformer.layers.0.0.branch.to_qkv.weight f4 [192, 64]
0	0xbedbe47a	-0.4294775
1	0x3ef0c8a6	0.47028083
2	0xbe2433fd	-0.16035457
3	0xbe0d073b	-0.1377229
4	0xbe036130	-0.12830043
5	0xbef4bbd2	-0.47799546
6	0x3ead35e0	0.33830166
7	0x3e3d20ea	0.18469587
8	0x3e06b293	0.13154058
9	0xbeddc965	-0.43317714
10	0xbe46dafe	-0.19419476
11	0xbe73c898	-0.23806989
12	0xbd367d21	-0.044552926
13	0xbec41cd0	-0.38303232
14	0xbe5fa7e8	-0.21841395
15	0x3ee67d1f	0.45017335
16	0xbd020189	-0.031739745
17	0xbd50df5a	-0.050994255
18	0xbe917292	-0.28407723
19	0x3e8a481c	0.2700814
20	0x3ea3fea5	0.32030216
21	0xbdace901	-0.084428795
22	0xbddcc6ae	-0.10780083
23	0x3e0bee7c	0.13665193
24	0x3d2a9487	0.041645553
25	0x3e8544c6	0.26029032
26	0xbc7f7760	-0.015592426
27	0xbdbcaf65	-0.09213141
28	0xbf0f5014	-0.55981565
29	0x3d269332	0.04066772
30	0xbe67ab8c	-0.22624034
31	0x3ea061cf	0.31324622
32	0x3f256297	0.6460356
33	0x3e87fa34	0.26558077
34	0x3e95fe21	0.29295447
35	0x3e1e166a	0.15438238
36	0xbd2d30bb	-0.0422828
37	0xbe6571a2	-0.22406629
38	0x3e147ba1	0.14500286
39	0x3d81c410	0.06336224
40	0x3d6fabf3	0.058513593
41	0xbd1debea	-0.038555063
42	0x3f1db051	0.6159716
43	0xbe1ac1d7	-0.15113007
44	0x3d79a08d	0.06094413
45	0xbd2f3243	-0.042772543
46	0xbea58b8f	-0.32333037
47	0x3e070000	0.13183594
48	0xbdd29e05	-0.10284046
49	0x3e189165	0.14899214
50	0x3eae750b	0.34073672
51	0x3e668cde	0.22514674
52	0xbe0275db	-0.12740271
53	0xbedba22f	-0.42897174
54	0xbe38636d	-0.18006678
55	0xbe0bf243	-0.13666634
56	0xbedb884d	-0.42877427
57	0xbe5780db	-0.21045248
58	0xbea63a4e	-0.32466358
59	0x3d81d972	0.063403025
60	0x3e92a0ac	0.28638208
61	0xbed3417b	-0.41260895
62	0xbe0ef575	-0.13960822
63	0x3eeeb9ae	0.46626037
64	0x3ce5409a	0.027984906
65	0x3e0fa09a	0.14026108
66	0x3ef3a287	0.47584936
67	0xbefdf775	-0.49602857
68	0xbf0595f6	-0.5218195
69	0xbe3fb30a	-0.18720642
70	0xbd1ba618	-0.038000196
71	0xbdfb17c4	-0.12260392
72	0x3dd9f2af	0.10641991
73	0x3ebb393a	0.36567098
74	0xbe7f35d5	-0.24922879
75	0x3d894466	0.06702499
76	0xbe02adc3	-0.12761597
77	0xbea210da	-0.31653482
78	0xbe8bec1c	-0.27328575
79	0xbeedfc95	-0.46481767
80	0x3e25d0f1	0.16192986
81	0x3ea12af0	0.3147807
82	0xbe41bbad	-0.18919249
83	0x3e0952cc	0.13410491
84	0xbe8c520c	-0.27406347
85	0xbe95b9f9	-0.29243448
86	0x3ee24d76	0.44199723
87	0xbd9abde0	-0.07555747
88	0x3e14af14	0.14519912
89	0x3ea73876	0.32660264
90	0x3e0f99cb	0.14023511
91	0x3e5a7dee	0.21337101
92	0x3dfb9340	0.12283945
93	0xbf199ab1	-0.60001665
94	0xbf25d004	-0.6477053
95	0x3da51ba8	0.08061916
96	0x3dd72598	0.10505217
97	0xbf332c3a	-0.6998936
98	0x3e8f8c55	0.28036752
99	0x3f057e2b	0.5214564
100	0x3eff9941	0.4992161
101	0x3e35833f	0.17725848
102	0xbe15c957	-0.14627586
103	0xbdb78fcc	-0.08962974
104	0xbe80b27f	-0.25136182
105	0xbe9b126c	-0.30287492
106	0x3c945d5e	0.018110927
107	0xbddaf968	-0.10692102
108	0x3eb5f5c3	0.35539064
109	0xbea97577	-0.3309743
110	0x3ecc2691	0.39873174
111	0xbde8dae2	-0.113698736
112	0xbdf0e7ee	-0.11762987
113	0x3eb0e330	0.3454833
114	0x3afa7b3b	0.0019110212
115	0xbe1f6991	-0.15567614
116	0x3e2b810c	0.16748446
117	0xbcab5580	-0.020914793
118	0x3ec68531	0.38773492
119	0x3efb93a5	0.4913608
120	0xbbfac36a	-0.0076526897
121	0x3e23dcc5	0.16002186
122	0xbdb7cece	-0.08974992
123	0xbdac5579	-0.0841474
124	0xbe01324a	-0.1261684
125	0x3e17a5ec	0.14809388
126	0x3b5a8bb0	0.003334742
127	0x3e3f646e	0.18690655
128	0xbd778d1e	-0.060437314
129	0xbdbc8095	-0.092042126
130	0x3c999819	0.018749284
131	0x3ed82787	0.42217657
132	0xbd40ba2a	-0.04705254
133	0x3e635f6a	0.22204366
134	0x3d883edc	0.066526145
135	0x3d0166d6	0.031592213
136	0xbd863709	-0.06553466
137	0xbd4a41ee	-0.04937928
138	0x3ec25992	0.37958962
139	0xbc1cb497	-0.00956454
140	0x3d3a09b4	0.04541941
141	0x3eb3433e	0.3501224
142	0x3ceeae81	0.029135944
143	0x3e444287	0.19166003
144	0x3ecd0a47	0.40046903
145	0x3e9c0db3	0.30479202
146	0xbd8fa983	-0.07014754
147	0x3e8a4d2b	0.27012
148	0xbe8b1b50	-0.27169275
149	0xbdf8af56	-0.12142818
150	0x3e32ceb6	0.17461666
151	0xbc71f741	-0.014768423
152	0xbeaac753	-0.33355197
153	0xbea8c501	-0.32962802
154	0x3eb510a9	0.35364273
155	0x3d298858	0.041389793
156	0xbe65b92f	-0.22433923
157	0xbcf6b620	-0.03011614
158	0xbe8dbf9c	-0.2768525
159	0x3e721780	0.23641777
160	0x3d52b2e1	0.051440123
161	0x3c6f1a79	0.014593714
162	0x3e63a1dc	0.22229713
163	0x3e9f105e	0.31067175
164	0xbddff53e	-0.10935448
165	0x3e13ac9a	0.14421311
166	0xbd82a016	-0.0637819
167	0xbe0afd37	-0.13573156
168	0x3d8483de	0.06470464
169	0x3e60850f	0.21925758
170	0x3f036674	0.51328206
171	0xbecc7896	-0.3993575
172	0xbdbab98c	-0.091174215
173	0x3bfb85d8	0.0076758675
174	0xbf0d0de1	-0.550993
175	0x3e8ceb3d	0.27523223
176	0xbed6ec4e	-0.4197716
177	0xbe259252	-0.16169098
178	0xbdbc1e3c	-0.09185454
179	0xbd857bff	-0.06517791
180	0xbf052b8f	-0.5201959
181	0xbec4af9b	-0.38415226
182	0xbb6b29b6	-0.0035883016
183	0x3cf0ea60	0.029408634
184	0xbe75c97b	-0.2400264
185	0xbd57360e	-0.052541785
186	0xbe5c301e	-0.2150273
187	0xbe3acda3	-0.18242507
188	0x3f061c0e	0.5238656
189	0xbdbe75a8	-0.09299785
190	0x3edfe1c3	0.4372693
191	0xbda943ce	-0.08264886
192	0xbe2544c8	-0.16139519
193	0x3cdebf50	0.027190834
194	0x3d5352d9	0.05159268
195	0xbc5c5c25	-0.013449703
196	0xbe1b0fdd	-0.1514277
197	0x3ddadd9f	0.10686802
198	0x39f9a9e1	0.0004761955
199	0xbde512b5	-0.11185209
200	0x3e37fa14	0.17966491
201	0x3f1b1d4c	0.6059158
202	0xbf30f344	-0.69121194
203	0x3e7642e4	0.24048954
204	0xbc146140	-0.009056389
205	0xbe596b3f	-0.21232317
206	0xbd41f107	-0.047349002
207	0x3cb52ec8	0.022117034
208	0x3f1b7bdc	0.6073587
209	0x3e85b716	0.26116246
210	0x3e17e70f	0.14834236
211	0xbd32e5b3	-0.04367609
212	0xbf20acf4	-0.62763906
213	0xbe8177f5	-0.25286832
214	0xbda6877a	-0.08131309
215	0x3e7b77d1	0.24557425
216	0x3dd941d5	0.106082596
217	0xbc50382d	-0.012708706
218	0x3d5df435	0.054187972
219	0x3ea8b66b	0.32951674
220	0x3e6e94f1	0.23299004
221	0xbefde82b	-0.49591193
222	0xbe4500a3	-0.19238524
223	0xbdc1b4c4	-0.094583064
224	0x3e9c1810	0.30487108
225	0x3e53f9de	0.20700786
226	0x3ed63e11	0.41844228
227	0x3e548e94	0.20757514
228	0x3eaf6158	0.34253955
229	0xbe159125	-0.1460615
230	0xbe5c8e6f	-0.21538709
231	0xbee30c7b	-0.4434546
232	0x3f12fc81	0.5741654
233	0x3c236b7d	0.009974358
234	0xbe7bb9c5	-0.24582584
235	0x3a40af39	0.0007350329
236	0xbd4d5868	-0.05013314
237	0x3bd28ea9	0.006425698
238	0xbd747e0f	-0.05969053
239	0xbca4ebd4	-0.020131983
240	0xbd29aa7c	-0.041422352
241	0x3d52b8ce	0.051445775
242	0x3e5e617d	0.21716876
243	0xbebfbc5a	-0.37448388
244	0xbd891fb2	-0.066954985
245	0x3e2a7bd6	0.16648802
246	0xbec7535c	-0.38930786
247	0x3debb3c7	0.11508899
248	0x3ca0a6c6	0.019610774
249	0x3ee7f668	0.4530518
250	0xbeabda5e	-0.33565038
251	0xbeb0d657	-0.34538528
252	0x3d65ea41	0.056131605
253	0x3c23f6db	0.010007585
254	0xbd1a0584	-0.037602916
255	0xbf0e8459	-0.55670696

model.transformer.layers.0.0.branch.to_out.weight f4 [64, 64]
0	0xbe381617	-0.17977177
1	0xbdaf74d6	-0.085672066
2	0xbc9e28aa	-0.0193065
3	0xbe769b53	-0.24082689
4	0xbc954a4c	-0.018223904
5	0x3e617c93	0.22020178
6	0xbdac3df1	-0.08410252
7	0xbdd32003	-0.1030884
8	0x3d7bf894	0.06151636
9	0xbd1f4dcb	-0.03889255
10	0x3e44d3ba	0.19221392
11	0x3e39d02a	0.18145815
12	0x3e593d9c	0.21214908
13	0xbdff5aca	-0.124684885
14	0x3d952fb0	0.07284486
15	0x3e18de5e	0.14928576
16	0xbe9b6815	-0.30352846
17	0xbea075b4	-0.313398
18	0xbca5e3fd	-0.020250315
19	0xbdb58f2d	-0.08865199
20	0x3e2bd12a	0.16779009
21	0x3dac905b	0.08425971
22	0x3e2c39c7	0.16818915
23	0xbe4a84a8	-0.19777167
24	0x3da5a7a2	0.08088614
25	0x3d0c40a8	0.03424135
26	0x3dbf4d5a	0.093409255
27	0x3e7dd0f4	0.2478674
28	0xbe3ed3c1	-0.18635465
29	0x3dc69936	0.096971914
30	0x3eb7d16b	0.3590196
31	0x3e43103c	0.19049162
32	0x3d4883df	0.048953887
33	0x3db7f9cb	0.08983191
34	0x3d575bb8	0.052577704
35	0xbdb98df0	-0.090602756
36	0x3d059ac3	0.032618295
37	0x3e94dc1e	0.29074186
38	0xbea52bae	-0.32259887
39	0xbd39743e	-0.045276873
40	0x3cfb3067	0.030662728
41	0xbde5370c	-0.1119214
42	0x3ddb667a	0.10712905
43	0xbe85f5ba	-0.26164037
44	0xbe1dbde6	-0.15404472
45	0xbc183a6b	-0.009291272
46	0x3e9d5218	0.30726695
47	0x3c8cc45b	0.017183473
48	0x3e420de1	0.18950607
49	0x3dcd470d	0.100233175
50	0x3e031b81	0.1280346
51	0xbdaf1a97	-0.085499935
52	0x3e6bc239	0.23023309
53	0x3c314e13	0.010821837
54	0xbda60d44	-0.08107999
55	0xbe6acd46	-0.22929868
56	0xbd8a345d	-0.06748269
57	0x3eaa5acc	0.33272398
58	0xbe0530b6	-0.13006863
59	0xbefe3397	-0.49648735
60	0x3dac130c	0.084020704
61	0x3dbee6b7	0.09321349
62	0x3d21a0d2	0.03946001
63	0xbdc99f2b	-0.09844812
64	0x3ea56b02	0.32308203
65	0x3e8bebac	0.2732824
66	0xbdb346a5	-0.08753709
67	0x3d98ca1e	0.07460426
68	0xbde5e1e0	-0.11224723
69	0x3d8ef7d1	0.06980861
70	0xbd6c34e1	-0.057667617
71	0xbe65be3b	-0.22435848
72	0xbe7e3266	-0.24823913
73	0xbea99d63	-0.3312789
74	0xbc332c7a	-0.010935897
75	0x3e62ac63	0.22136073
76	0xbd09ec84	-0.033672825
77	0x3ebc6fbf	0.36804006
78	0xbe10f95e	-0.14157626
79	0xbe00b2ef	-0.12568258
80	0x3e4416fc	0.19149393
81	0x3a1a338a	0.00058823137
82	0x3e001fac	0.12512082
83	0xbe917aa5	-0.28413883
84	0xbe170edf	-0.14751767
85	0x3e428598	0.18996274
86	0x3de56ff3	0.11202993
87	0x3ed37f72	0.4130817
88	0xbed50adc	-0.41609848
89	0xbebeb926	-0.37250632
90	0x3d102bc5	0.035197992
91	0xbdffba9e	-0.12486766
92	0x3e625aac	0.22104901
93	0x3e59a2f6	0.21253571
94	0xbea791df	-0.32728478
95	0x3ec95102	0.39319617
96	0xbdf43b1f	-0.11925339
97	0xbe9f7103	-0.3114091
98	0x3e2e0067	0.16992341
99	0x3d8bfd7b	0.06835457
100	0xbd90f60e	-0.07078181
101	0xbe58705c	-0.21136612
102	0x3e861b22	0.26192576
103	0xbe7942f1	-0.24341942
104	0xbdd03035	-0.10165445
105	0x3e8b43ef	0.27200267
106	0xbe665a82	-0.22495463
107	0xbea0fc28	-0.3144238
108	0xbe1bfa4d	-0.15232201
109	0xbe5bcc53	-0.21464662
110	0x3e1b2b27	0.1515318
111	0xbe19bdcb	-0.15013807
112	0x3ec01759	0.37517813
113	0xbd224c17	-0.039623346
114	0x3cfb164d	0.030650282
115	0xbdf61541	-0.120157726
116	0x3d596b49	0.05308083
117	0x3db38a7c	0.08766648
118	0x3d135916	0.03597363
119	0xbec1f01b	-0.37878498
120	0xbdf620c7	-0.120179705
121	0x3dc00010	0.09375012
122	0xbdf2aa0d	-0.11848841
123	0x3d3d19a6	0.04616704
124	0xbea0270a	-0.31279784
125	0xbd6e2fe7	-0.058151152
126	0x3e549a05	0.20761879
127	0x3e1e2a39	0.15445794
128	0xbef8af2c	-0.48571146
129	0x3e02abad	0.12760802
130	0xbd8768b8	-0.066117704
131	0xbe84986b	-0.25897536
132	0x3e3966bb	0.18105595
133	0x3c8aefd4	0.016960062
134	0x3c05bf50	0.008163288
135	0xbe8e11f9	-0.27748087
136	0xbeb85ddf	-0.36009118
137	0xbe8b23d4	-0.27175772
138	0x3e0935bb	0.13399403
139	0x3f15ede5	0.58566123
140	0x3e158e2e	0.14605018
141	0x3eba9742	0.36443526
142	0xbcbe7528	-0.023249224
143	0x3e189b45	0.1490298
144	0xbd362e75	-0.0444779
145	0x3e1e0842	0.15432838
146	0xbe874f36	-0.2642762
147	0x3d287cb2	0.041134544
148	0xbd2b8039	-0.04187033
149	0xbcb0eb89	-0.021596687
150	0xbe25e368	-0.1620003
151	0xbf028ec7	-0.5099911
152	0x3de6f892	0.1127788
153	0x3de6c531	0.1126808
154	0xbebf3469	-0.37344673
155	0x3d1a5830	0.03768176
156	0xbebaf0ea	-0.36511928
157	0x3d6f9a06	0.058496498
158	0x3e78e23f	0.24305056
159	0x3e648b91	0.22318865
160	0xbea12153	-0.31470737
161	0x3e08228b	0.13294427
162	0x3e873dfd	0.2641448
163	0xbe9c7973	-0.30561408
164	0xbe77329d	-0.24140401
165	0xbe965f15	-0.29369417
166	0x3e81b7d1	0.25335553
167	0xbdb7784a	-0.0895849
168	0xbecc6ab5	-0.3992516
169	0x3e86d0c8	0.26331162
170	0x3d25bf29	0.040465508
171	0xbf5ac856	-0.8546194
172	0xbf62e881	-0.8863602
173	0x3cc9ac86	0.024618398
174	0x3edae607	0.42753622
175	0x3ead7e33	0.33885345
176	0x3de6b564	0.11265066
177	0x3dd75311	0.105138905
178	0xbd49da68	-0.049280554
179	0x3ea00c6b	0.31259474
180	0xbe7e4a08	-0.24832928
181	0xbe511d66	-0.20421371
182	0x3eacfd70	0.33787107
183	0x3e09e1bc	0.13465017
184	0xbdbf31e4	-0.09335688
185	0x3dec9c27	0.11553221
186	0xbec8f14b	-0.39246592
187	0x3e46ec4e	0.1942608
188	0x3e7257e2	0.23666337
189	0xbc5f2c07	-0.013621337
190	0xbdf6bb1d	-0.12047408
191	0xbc6ad6f3	-0.014333474
192	0x3e18a07e	0.14904973
193	0xbe60aec3	-0.21941666
194	0xbe2104e2	-0.15724519
195	0x3c8afd24	0.01696641
196	0xbdef302b	-0.11679109
197	0xbd823110	-0.06357014
198	0xbcabc4f5	-0.02096794
199	0xbd2a74d9	-0.04161534
200	0x3e889616	0.26677006
201	0x3e24e16f	0.16101621
202	0xbdf1e73d	-0.11811683
203	0xbe32bf6e	-0.17455837
204	0xbd066600	-0.03281212
205	0x3df1c8d5	0.11805884
206	0xbe628b7e	-0.22123525
207	0x3d25f14a	0.040513314
208	0xbe17c591	-0.1482146
209	0xbe4b4463	-0.19850306
210	0xbe628c1a	-0.22123757
211	0x3e9a1438	0.3009355
212	0xbe351aa8	-0.1768595
213	0x3e758544	0.23976618
214	0x3c2c5c19	0.010520005
215	0x3de6e802	0.11274721
216	0xbe324c68	-0.17411959
217	0xbd8433e1	-0.064552076
218	0x3e1966b9	0.14980592
219	0xbe5e6d0f	-0.2172129
220	0xbe78a13c	-0.24280256
221	0xbe00af3f	-0.12566851
222	0xbd8f0f19	-0.069853015
223	0xbd843d6b	-0.06457027
224	0xbd19fa6d	-0.03759234
225	0x3ce0156b	0.027353963
226	0xbe5be3ad	-0.2147357
227	0xbe9087c3	-0.28228578
228	0x3d2e43c0	0.04254508
229	0xbe50561e	-0.20345351
230	0xbe3e1f7d	-0.185667
231	0x3e0e0d96	0.1387237
232	0xbe1d039e	-0.15333411
233	0x3dae7560	0.08518481
234	0xbc634b9a	-0.013873005
235	0xbe91c1ae	-0.28468078
236	0xbe8dffb6	-0.27734154
237	0xbdbbd0c7	-0.091706805
238	0x3ed9a1ed	0.42506352
239	0x3e44a075	0.19201834
240	0x3dc9c8bb	0.098527394
241	0x3e9a9882	0.3019448
242	0xbe2efc5c	-0.17088455
243	0xbe033376	-0.128126
244	0x3ea3fdf2	0.32029682
245	0xbd2a524d	-0.041582394
246	0x3e61707a	0.22015563
247	0x3c60a79d	0.013711837
248	0x3d3c6aa9	0.046000157
249	0x3e93e88f	0.28888366
250	0xbedab7cf	-0.4271836
251	0xbe8ec4ef	-0.27884623
252	0xbe2674c7	-0.16255485
253	0xbea27fc0	-0.3173809
254	0x3f0e3c9b	0.55561227
255	0x3d00f85c	0.031486854

model.transformer.layers.0.1.branch.0.weight f4 [64]
0	0x3ee4c8fd	0.44684592
1	0x3f032eac	0.5124309
2	0x3ec3556c	0.3815111
3	0x3ee76264	0.45192254
4	0x3ef38dfa	0.47569257
5	0x3ec1b4df	0.37833306
6	0x3eebbb08	0.4604113
7	0x3ea630e9	0.3245919
8	0x3efddda1	0.49583152
9	0x3f0f902b	0.5607936
10	0x3f17a994	0.5924313
11	0x3ee79e27	0.45237848
12	0x3ec7d98e	0.3903317
13	0x3ece7a40	0.40327644
14	0x3ec71c85	0.38888946
15	0x3eecb9be	0.4623546
16	0x3f0b8980	0.54506683
17	0x3eebb433	0.4603592
18	0x3ee73901	0.45160678
19	0x3ec2b39f	0.38027665
20	0x3eba365d	0.363696
21	0x3f0d6821	0.55237013
22	0x3f0bd678	0.5462413
23	0x3ee9eab7	0.45686886
24	0x3ebcc95a	0.3687237
25	0x3ef643cd	0.48098603
26	0x3ef5ce04	0.4800874
27	0x3f0a8a7b	0.54117554
28	0x3edaefcd	0.42761078
29	0x3ebfc263	0.37452993
30	0x3ed0b64d	0.40764084
31	0x3ee94e7a	0.45567685
32	0x3eb6df41	0.35717204
33	0x3efd8fce	0.49523777
34	0x3e13e426	0.144425
35	0x3eca585a	0.39520532
36	0x3f05bc9b	0.52240914
37	0x3f00abad	0.50261956
38	0x3e80c272	0.2514835
39	0x3ee5b753	0.44866428
40	0x3ef82edc	0.4847325
41	0x3f082ce7	0.53193516
42	0x3f0d02c2	0.55082333
43	0x3f05e9db	0.5230996
44	0x3efb9620	0.49137974
45	0x3ef814bb	0.48453316
46	0x3ef794ff	0.48355862
47	0x3f190cbd	0.5978506
48	0x3ee2d3c0	0.44302177
49	0x3e9e716b	0.30945906
50	0x3eeb70e8	0.45984578
51	0x3ee73fc1	0.45165828
52	0x3f0530ca	0.5202757
53	0x3f18a25e	0.5962275
54	0x3f12deb5	0.57371074
55	0x3ebd2108	0.36939263
56	0x3f007a31	0.5018645
57	0x3ee6b1b3	0.4505745
58	0x3f10b690	0.5652857
59	0x3ec99265	0.39369503
60	0x3f03e505	0.5152133
61	0x3ea38730	0.31939077
62	0x3ec944d2	0.39310318
63	0x3ecd131e	0.40053648

model.transformer.layers.0.1.branch.0.bias f4 [64]
0	0x3bb4c508	0.005516652
1	0x3d29b9b1	0.041436855
2	0xbd979f39	-0.07403416
3	0xbe0d4cc0	-0.13798809
4	0x3cd07cff	0.025450228
5	0x3dbfee86	0.093716666
6	0x3df6c522	0.12049319
7	0x3d9b7ab6	0.07591765
8	0x3de20bc4	0.110374
9	0x3dd2e2aa	0.10297139
10	0x3e1a37de	0.15060374
11	0x3d085021	0.033279542
12	0x3c2a7453	0.01040371
13	0xbdb1d8ed	-0.086839534
14	0x3c2fe4b2	0.010735678
15	0x3d995ca7	0.07488375
16	0x3d2acb58	0.04169783
17	0xbcf5a054	-0.029983677
18	0xbce846be	-0.028354045
19	0xbd0cdef3	-0.03439231
20	0x3dd283d6	0.10279052
21	0x3d23d952	0.040002175
22	0x3dbcf1a2	0.09225775
23	0xbbcf56ae	-0.0063274717
24	0xbccf7b96	-0.025327485
25	0x3db79551	0.08964027
26	0x3df80737	0.12110751
27	0x3d2e3179	0.04252765
28	0xbc835666	-0.016032409
29	0xbce2972a	-0.027659971
30	0xbc81d9d2	-0.015850935
31	0xbdc7bba0	-0.097525835
32	0x3e044537	0.12917028
33	0xbd6407b3	-0.055671405
34	0xbd37fdf6	-0.04491993
35	0xbd2cf266	-0.042223357
36	0xbe27bb81	-0.16380121
37	0xbcda9c19	-0.026685761
38	0xbcfc40cf	-0.030792622
39	0xbdb1bab8	-0.08678192
40	0x3e082b50	0.13297772
41	0x3d2214a6	0.039570473
42	0x3e2bd8c2	0.16781905
43	0xbd078804	-0.0330887
44	0xbdf0f6bf	-0.11765813
45	0x3dc23f4c	0.09484729
46	0xbd0883b6	-0.033328734
47	0x3cb8646f	0.022508828
48	0x3d546e46	0.051862977
49	0xbe2530a1	-0.16131832
50	0x3b7ff22b	0.0039054255
51	0xbc96962f	-0.01838216
52	0x3bfdaed9	0.0077417907
53	0x3d76318c	0.060105845
54	0xbe56a67b	-0.20961945
55	0xbcc108be	-0.023563739
56	0x3e251cc4	0.16124254
57	0xbc03ed37	-0.008052162
58	0xbdf27fa1	-0.118407495
59	0xbdc79f9e	-0.097472414
60	0xbd674efc	-0.05647181
61	0x3d5b81b6	0.0535905
62	0x3cf2e8b1	0.029651972
63	0xbdbdc217	-0.09265535

model.transformer.layers.0.1.branch.1.weight f4 [512, 64]
0	0xbeb686c5	-0.35649696
1	0xbe9eedc2	-0.3104077
2	0xbe9315f7	-0.28727695
3	0xbde09634	-0.10966149
4	0xbd9d19ed	-0.076709606
5	0xbe37257e	-0.17885396
6	0xbcc8d91d	-0.02451759
7	0x3e926c04	0.28598034
8	0xbddf6215	-0.109073795
9	0xbe767e3d	-0.24071594
10	0x3e91eb2e	0.2849974
11	0xbdf3c316	-0.11902444
12	0xbdbb56de	-0.09147428
13	0x3e05226b	0.1300141
14	0x3dce30a8	0.10067874
15	0x3e08c63a	0.13356867
16	0x3e09c595	0.13454278
17	0xbed859d2	-0.42256027
18	0x3d033979	0.032037232
19	0xbd197802	-0.037467964
20	0xbf0cda4a	-0.5502058
21	0x3e55d9a5	0.20883806
22	0xbe618c7b	-0.22026245
23	0xbe1d6ed4	-0.15374309
24	0xbd38f470	-0.04515499
25	0x3db4913e	0.08816765
26	0xbcc9c31c	-0.024629168
27	0x3e0e7bed	0.13914461
28	0x3ebee58c	0.37284505
29	0x3f099e6b	0.5375735
30	0xbefbc801	-0.49176028
31	0xbe66547d	-0.22493167
32	0xbea0c2a7	-0.31398508
33	0x3e1bbc9e	0.1520867
34	0x3ce3aeb2	0.027793262
35	0x3e13e30c	0.1444208
36	0x3e14407c	0.14477724
37	0x3eaa2e75	0.3323857
38	0x3f4679d4	0.77529645
39	0x3e3eddaa	0.18639246
40	0xbe41108d	-0.1885397
41	0x3e5f91f4	0.2183302
42	0xbd686ed9	-0.056746338
43	0xbe0d3fa7	-0.13793813
44	0x3dfc7f54	0.123289734
45	0x3d00768b	0.03136305
46	0x3f17b57e	0.5926131
47	0xbea94bea	-0.3306573
48	0xbe8db4f7	-0.27677128
49	0xbe3e8c72	-0.18608263
50	0xbeda34e0	-0.42618465
51	0x3e5da56e	0.21645138
52	0x3aea538e	0.0017877684
53	0x3e3e0cdc	0.18559593
54	0x3b9d52d4	0.0048011336
55	0x3dddcd98	0.108302295
56	0x3e97dd38	0.29660964
57	0x3b558c1d	0.0032584735
58	0xbe024b89	-0.12724127
59	0xbe4d1b08	-0.20029843
60	0xbc3ef46d	-0.011654955
61	0xbe0fb53e	-0.14033982
62	0x3e43a3bb	0.19105427
63	0xbe82aad1	-0.25520948
64	0x3f15be9c	0.5849397
65	0xbc8fe11e	-0.017563399
66	0xbe1650e8	-0.14679301
67	0x3e41252a	0.18861833
68	0xbe2f23a9	-0.17103447
69	0x3cff7406	0.031183254
70	0xbed16a18	-0.40901256
71	0xbeada080	-0.33911514
72	0xbe78126a	-0.24225774
73	0xbe0b3aa4	-0.13596588
74	0x3e24132b	0.16022937
75	0x3d8090df	0.06277632
76	0x3d160730	0.03662795
77	0x3ed152a1	0.40883353
78	0xbf0a5379	-0.5403362
79	0xbce87a30	-0.028378576
80	0x3db0abad	0.086264946
81	0xbd02bdcb	-0.031919282
82	0xbf12c57f	-0.57332605
83	0x3d235e63	0.039884936
84	0x3e92a834	0.28643954
85	0x3d97ddbd	0.0741534
86	0x3c80cdb5	0.015723089
87	0x3da91714	0.08256355
88	0x3edf8686	0.4365732
89	0x3e96b6b2	0.2943626
90	0x3c910d0b	0.017706415
91	0x3e8279c9	0.2548354
92	0x3d8f26e2	0.06989838
93	0xbe9eed69	-0.31040505
94	0x3d17134e	0.036883645
95	0xbada923b	-0.001667566
96	0xbee32b6e	-0.44369072
97	0x3cf57b0e	0.029965904
98	0xbe98056f	-0.29691646
99	0xbcc33e14	-0.023833312
100	0x3e743029	0.23846497
101	0xbd1719b6	-0.036889754
102	0x3c9f8a14	0.01947502
103	0xbe315429	-0.17317261
104	0x3ec59ff9	0.38598612
105	0xbd47f5a7	-0.048818257
106	0x3c9e49fe	0.019322392
107	0xbe280da2	-0.1641145
108	0x3e9da6f1	0.3079143
109	0xbda5aa56	-0.080891296
110	0xbdb0ea64	-0.086384565
111	0xbe17e68e	-0.14834043
112	0x3e31b395	0.17353661
113	0x3ea90fec	0.3301996
114	0x3e61452c	0.21999043
115	0x3e518ca5	0.20463808
116	0x3e4e2be5	0.20133932
117	0xbe6cfbde	-0.23142955
118	0x3d11afcf	0.035568055
119	0xbebace6e	-0.36485618
120	0xbe63aac0	-0.22233105
121	0x3e425618	0.18978155
122	0xbf523abe	-0.82120883
123	0xbd9f9a5f	-0.07793116
124	0x3d663a52	0.056207962
125	0xbe2b5bc0	-0.16734219
126	0x3e6a7018	0.22894323
127	0x3e375fb4	0.17907602
128	0xbe53d52e	-0.2068679
129	0xbe07bfe9	-0.13256802
130	0x3df4d28e	0.119542226
131	0x3b0fa73e	0.0021919752
132	0xbe2509dc	-0.16117042
133	0x3e5454d7	0.20735489
134	0x3e28a22a	0.1646811
135	0x3f0bfb10	0.54679966
136	0x3e5dc44a	0.2165691
137	0xbe80c77b	-0.25152192
138	0x3ea89d5f	0.32932565
139	0x3e6e284c	0.2325756
140	0x3de96c9b	0.11397668
141	0xbcd50d1f	-0.026007233
142	0x3f354fa0	0.70824623
143	0x3e2d94a5	0.16951235
144	0x3e6616d9	0.22469653
145	0xbeb13649	-0.3461173
146	0x3ce03e42	0.027373437
147	0xbe53c970	-0.20682311
148	0x3e03dd76	0.1287745
149	0x3e49ad69	0.19695057
150	0xbeb81bbe	-0.35958666
151	0xbc0cf797	-0.008603952
152	0x3c15f5b8	0.009152822
153	0xbe7f6ced	-0.24943896
154	0xbe001cf3	-0.12511043
155	0x3e9eec5c	0.31039703
156	0xbe118daf	-0.14214204
157	0xbcfb9040	-0.030708432
158	0x3e6734b3	0.22578697
159	0x3e005b7b	0.12534897
160	0xbeffc622	-0.4995585
161	0x3ee3d361	0.44497207
162	0x3de29685	0.110638656
163	0xbdb977fa	-0.09056087
164	0xbf0f18db	-0.558973
165	0x3bf52f8a	0.0074824737
166	0x3c5c0cfa	0.013430828
167	0x3d1e9fe4	0.038726702
168	0xbdfaa772	-0.12238969
169	0xbef8ea93	-0.48616466
170	0xbe310641	-0.17287542
171	0xbe3d0c2a	-0.18461671
172	0x3ef9a1c0	0.48756218
173	0xbe25e702	-0.16201404
174	0x3e0d95cb	0.13826673
175	0x3d4cd19e	0.050004594
176	0xbd142c5b	-0.036175113
177	0xbe9ed901	-0.31024936
178	0x3e7014ef	0.23445486
179	0x3d129c49	0.035793576
180	0xbe2e841d	-0.17042585
181	0x3abe645a	0.0014525757
182	0x3e9e64cc	0.30936277
183	0xbe563b59	-0.20921077
184	0x3df78d87	0.12087541
185	0x3eca32d4	0.39491904
186	0xbe2dfcc9	-0.16990961
187	0x3c7db1cb	0.015484284
188	0xbe305115	-0.1721843
189	0xbe2d1e0a	-0.1690599
190	0x3e789663	0.24276118
191	0xbea6bf1b	-0.32567677
192	0x3d7c42d9	0.06158719
193	0x3d6a4dfe	0.057203285
194	0xbcb58abf	-0.022160886
195	0x3de0becb	0.10973891
196	0xbe47567c	-0.19466585
197	0xbcad974e	-0.021190312
198	0xbe930864	-0.2871734
199	0xbeed5bcd	-0.463591
200	0x3edeb620	0.43498325
201	0xbd6f2786	-0.0583873
202	0x3e24babb	0.16086857
203	0x3dc4feb5	0.09618894
204	0x3e570c49	0.2100078
205	0x3e8c412f	0.2739348
206	0x3c9bbb66	0.019010257
207	0x3e338b53	0.17533617
208	0x3d962275	0.07330791
209	0xbe31a612	-0.17348507
210	0x3dbfedca	0.093715265
211	0xbe3e04ea	-0.18556562
212	0x3ecfd1ee	0.4058985
213	0xbe25d1b7	-0.16193281
214	0xbe4bbf0d	-0.19897099
215	0xbb72be4e	-0.00370397
216	0x3f065bf7	0.5248408
217	0x3e17ccfc	0.14824289
218	0xbeb43fcf	-0.35204932
219	0x3dc058c0	0.09391928
220	0x3cdf13d2	0.02723113
221	0xbe02daed	-0.12778826
222	0x3e46443f	0.19361971
223	0xbbfbdbc9	-0.0076861125
224	0xbef2f8d4	-0.47455466
225	0xbdbef963	-0.093249105
226	0x3e8593c9	0.26089314
227	0xbdc760cc	-0.097352594
228	0xbd9a55c5	-0.075358905
229	0xbcc3dd60	-0.02390927
230	0xbe693492	-0.2277396
231	0x3cd5ed0e	0.026114013
232	0x3e30b77b	0.17257492
233	0xbe34026c	-0.17579049
234	0x3e7259e4	0.23667103
235	0xbcfe63ae	-0.03105339
236	0x3f232b17	0.63737625
237	0x3e4bd5cb	0.19905774
238	0x3e2df7e8	0.169891
239	0xbeb07b6e	-0.3446917
240	0xbe047f1a	-0.1293911
241	0x3e3c90da	0.18414631
242	0x3ed2f072	0.4119907
243	0x3e0afcf1	0.13573052
244	0xbb92e6f0	-0.0044830963
245	0x3e3c7aa6	0.18406162
246	0x3e84aa64	0.25911248
247	0xbdd6827b	-0.10474106
248	0xbdd04751	-0.101698525
249	0xbd80e04f	-0.062927835
250	0xbc6c6cde	-0.014430253
251	0xbefa8599	-0.48930052
252	0xbe779446	-0.24177656
253	0xba882090	-0.0010385681
254	0xbf0d0b19	-0.5509506
255	0xbd0471c0	-0.032335043
