models/ft_transformer_best_state.pth (torch, 572945 bytes, 28 tensors)

model.cls_token f4 [1, 1, 64]
00000000: 6408 833e 216e b93f c286 d1be 8679 013f
00000010: ccb0 223f 814c 243f 6277 14c0 bab8 44bf
00000020: af85 bbbe 06a4 413f 7430 04be 14ad a0bf
00000030: c73c 813f 99b6 8e3e 6b4f 0840 a307 b9bc
00000040: ee5e 873e e54e 8d3f 60eb e43e 500d 6b3e
00000050: a262 bebf 560f 4fbe 994b 1bbf 267d a2bf
00000060: d9a8 e2bc 72f2 c73f 0215 f7be d116 1740
00000070: 6f2d 5cbe 32d0 8e3f 2526 c0be 88ed 013f
00000080: f299 673d 791a 143f d935 86bf 833d 4340
00000090: 8a6f b83f 415b 233f 22f4 b93c 6e90 1240
000000a0: 348e d73e f0f0 1e3f 19d4 1cbf 7b4e 0bbf
000000b0: 4fdb 953e 23cd 3dbd 9488 43bf 521d b53e
000000c0: d233 05bc e161 113f 76f4 ce3d 79df 963e
000000d0: 8a73 6bbe f843 9fbf 5d68 3abf bb3e c43f
000000e0: 7765 81bd b8be 3b40 1a7d 93bd 1168 563e
000000f0: e73d efbe 9596 bfbf 3aa5 313e 8546 b13e
0.2559234 1.4486734 -0.40923125 0.50576055 0.6355102 0.64179236 -2.3197865 -0.7684437
-0.3662543 0.75640905 -0.12909108 -1.2552819 1.0096673 0.27873686 2.1298473 -0.02258665
0.26439613 1.1039702 0.44710827 0.22954297 -1.487385 -0.20220694 -0.6066223 -1.2694442
-0.027668403 1.5620863 -0.48258215 2.3607676 -0.21501707 1.1157286 -0.37529102 0.5075307
0.056543298 0.57852894 -1.0485183 3.0506294 1.4409039 0.6381112 0.02269942 2.2900653
0.4210068 0.6208639 -0.61261135 -0.54416627 0.29268882 -0.04633821 -0.76380277 0.35373932
-0.008130031 0.56789976 0.10105221 0.2946737 -0.22993293 -1.2442617 -0.72815496 1.5331644
-0.06318181 2.9335155 -0.072015956 0.20938136 -0.46726915 -1.4967829 0.17348185 0.34624115

model.categorical_embeds.weight f4 [26, 64]
00000000: 1ea7 24bf 4111 21c0 8bf0 993e 00b7 7d3e
00000010: f012 02c0 5dc3 48bf c61d fe3e 39b6 c93f
00000020: 7772 03c0 6a43 a8bf ae2c 45bf 1d5d 36bf
00000030: cb83 7bbf bd55 57bf 237a dabf f4e5 aebf
00000040: 3521 0bbf 528b 01c0 77fc 0fbe 30b1 5f3f
00000050: 4410 cebf e094 0bbf 0aab 8b3e 226f ad3f
00000060: 3237 11c0 f57c 74be 8ad9 d5bf 0fcd 863f
00000070: e6a9 0bbf 7df3 c03f f7ec 40bf 1ab5 3e3f
00000080: e8fb 0abc 5dec 0bbf f04f 633f 952c 91bd
00000090: 9724 2e3f c0ba 76bf 716b b23f 8612 21bf
000000a0: 2db0 c43e e4f7 02bf d3e7 09bf de5e 183f
000000b0: ca2c 033e b14e 22bf a91d 6c3e 5802 37be
000000c0: cb1c 30be de17 443f 152f 313f 172d 813f
000000d0: 5d50 d6bf 57f5 92bf 2403 0abf bb73 d9be
000000e0: 4c4e c93e 3705 673e cbf4 b93f c046 893f
000000f0: 38ff a03e 2eea 0e3f 8ed3 a43f 22ab c33f
00000100: d41e 5dbe fc2f 2cbf 9c64 44bf 0b55 83be
00000110: 9215 03be 2468 5e3f 756f ac3f d3a0 96bf
00000120: 3330 16bf 97b8 babe 3b2f 30bf 752c 803f
00000130: ea35 86be 1594 dbbe f422 2a3f 6367 173e
00000140: 6b4e a63e d430 903f bd9f e83f 3b22 cdbf
00000150: 5e9c 273f ad42 8cbf 05d8 893f b021 96bf
00000160: c746 96bf 08b0 753f 8117 513f 7109 79bf
00000170: d5f1 0bbe a837 9d3f 9a65 083f 087c 003f
00000180: c9ce 01bf ed50 96bf d592 c2bf dc9a 73be
00000190: 9161 c9bf b3ca 533e 33e7 bb3f bdbf 65bf
000001a0: 7f15 44bf 0cce 093f f75b 263f af3d e23f
000001b0: e20c 803e 72d3 4b3d 7635 ef3e db16 bfbe
000001c0: fea4 673f c0b8 e23f 544c 193f 29d2 91bf
000001d0: e198 c2bf ee93 1940 ad9f 0140 e700 4e3f
000001e0: a0bc 0abf 88bd c1be 00b5 7bbf 2946 30bf
000001f0: c9cc 5abf cda2 b83f c0e5 46bf c462 9cbe
00000200: 8b26 10bf 41d4 a33e 6945 8d3e b7cc 0140
00000210: 4354 153f 8916 a33f e532 b93e e525 85bf
00000220: 8238 ff3e 95e4 22c0 9282 3bbe a9d3 4dbf
00000230: 0c61 c13f 593d 8b3d 9f83 953f 2637 d53f
00000240: 85f3 babf b404 82be 3f35 b5be 020c b63e
00000250: 9869 bd3e 59e3 e0bf 2bf8 1bbf 16eb 7d3f
00000260: 679a 53be da75 143f fb23 ad3e 17a0 b2bf
00000270: 16b9 203f 5b48 0cbf fe96 1dc0 fc80 4fbf
00000280: b9e0 20be e798 3a3f f6b6 443e 8b8e 0bc0
00000290: 4f1e 43bf 9802 ebbe bfc2 adbf 6ab2 423f
000002a0: 74c8 7c3f 090a ad3f 7bc1 c53f 907d 0340
000002b0: 00e1 5bbf 2ae8 2cbf 0f6d 9ebf 9ed0 d9bf
000002c0: 84d1 15be 29fd 64be d515 1dbf cf2f 48be
000002d0: 4003 f6bd 8c0b 563f dfc3 e3bd 5376 d03f
000002e0: 44c0 3e3f a188 a13f 58cb 823e be3c d43e
000002f0: 3026 e33f c1cd d9bd cb27 f9bd 742c b5bf
00000300: 2060 29bf ef4c 9dbe b3ab 873f b65c 8f3f
00000310: f859 f8be 9248 0740 31e1 6b3e 073e a1be
00000320: d970 b63f 8158 403f 61ef 34bf d061 d63c
00000330: cb7b 7abf 9aa3 193f bc0f 7d3d 3d7a 723e
00000340: 7ce4 e73e 33e7 febf 59d0 20be 3d87 a1be
00000350: 9df1 983d 6e31 b33f 9496 b0bf 219d a3bf
00000360: 6547 e3be 480c 9a3f 164a 233f 15aa 99bf
00000370: c813 de3f 2a2c e1bf 9593 dabe c43a 20c0
00000380: a3ab b3bf 9274 713f cf95 e63d 9b2f f8bf
00000390: b18a 99bf 61eb 4e3f 6875 28bf efc0 56be
000003a0: 0bc0 6dbd d1ed 923e 2df9 94bf a98c 193f
000003b0: c375 203e 71d9 a5be f2e4 a9bc 5796 3dbf
000003c0: ca10 953f 837a 18bf 14b0 7abf 73a2 26be
000003d0: 6477 933f 4a61 913d a31d 36be 68f7 ccbf
000003e0: 17f8 26bd 7986 31bf 9115 ffbe 4309 b23f
000003f0: 2183 2c40 8965 a83f 9410 92bd d663 51c0
-0.643175 -2.516678 0.30066332 0.2477684 -2.0324059 -0.784231 0.4963209 1.5758735
-2.0538614 -1.3145573 -0.770213 -0.7123583 -0.98247975 -0.841152 -1.7068523 -1.3663926
-0.54347545 -2.0241284 -0.14061151 0.8737974 -1.6098714 -0.5452404 0.2727893 1.354954
-2.2689939 -0.23875792 -1.6707013 1.0531329 -0.5455612 1.5074307 -0.7536158 0.7449509
-0.008482911 -0.54657537 0.8879385 -0.070885815 0.6802458 -0.9637871 1.3939039 -0.6291889
0.3841566 -0.511595 -0.5386936 0.59519756 0.12810054 -0.63401324 0.2305819 -0.17871988
-0.17198484 0.7659892 0.69212466 1.0091885 -1.6743275 -1.1481122 -0.5391104 -0.42471108
0.39317548 0.22560583 1.452783 1.0724716 0.31444716 0.5582608 1.2877061 1.52866
-0.21593791 -0.6726072 -0.7671602 -0.2565082 -0.12801197 0.86877656 1.3471514 -1.176783
-0.58667296 -0.36468956 -0.6882207 1.0013567 -0.26213008 -0.42886415 0.66459584 0.14785533
0.32481703 1.1264901 1.8173748 -1.6026071 0.6547297 -1.0957848 1.0769049 -1.1729031
-1.174035 0.9597173 0.8167649 -0.9728003 -0.1366647 1.228261 0.5328003 0.50189257
-0.50706154 -1.1743447 -1.520106 -0.23789543 -1.57329 0.20682792 1.4679931 -0.89745694
-0.765953 0.5383003 0.6498408 1.7675074 0.2500983 0.049762197 0.46720475 -0.37322125
0.90486133 1.7712631 0.5988209 -1.1392261 -1.5202905 2.399654 2.0253708 0.80470127
-0.5419407 -0.37839913 -0.9832306 -0.68857056 -0.8546873 1.4424683 -0.7769432 -0.30544102
-0.5630881 0.31997874 0.27592018 2.0281198 0.583317 1.2741252 0.36171642 -1.040219
0.498478 -2.5452015 -0.18311527 -0.8040109 1.5107741 0.067988105 1.1680793 1.6657455
-1.4605566 -0.25394213 -0.35392186 0.35556036 0.36994624 -1.7569381 -0.6092555 0.9918684
-0.20664369 0.5799233 0.33816513 -1.3955106 0.6278242 -0.54797906 -2.4623408 -0.8105619
-0.15710725 0.7288956 0.19210419 -2.1805751 -0.7621812 -0.45900416 -1.3575057 0.7605349
0.9874337 1.3518687 1.544967 2.0545387 -0.858902 -0.67541754 -1.2377032 -1.701679
-0.14630705 -0.22362198 -0.6136144 -0.19549488 -0.12012339 0.8361137 -0.11121344 1.628611
0.74512124 1.2619821 0.25545764 0.41452593 1.7746029 -0.106349476 -0.12165793 -1.4154191
-0.661623 -0.30722758 1.0599273 1.1200168 -0.4850614 2.1138043 0.23035122 -0.31492636
1.4253188 0.75135046 -0.70677763 0.026169688 -0.97845143 0.6001526 0.061782584 0.23679443
0.45291507 -1.9914306 -0.15704478 -0.3154849 0.07467959 1.399946 -1.3795953 -1.2782327
-0.44390407 1.2034998 0.6378492 -1.200503 1.7349787 -1.7591603 -0.4269072 -2.5035868
-1.4036754 0.943185 0.112590425 -1.9389528 -1.199545 0.8082791 -0.6580415 -0.20972036
-0.058044475 0.28697065 -1.1638542 0.59980255 0.15669923 -0.32392457 -0.020739052 -0.74057525
1.1645749 -0.5956194 -0.97924924 -0.16272907 1.152081 0.070986345 -0.17784743 -1.6013002
-0.04076394 -0.69345814 -0.4982114 1.3909076 2.6955035 1.3155986 -0.07132068 -3.2717185

model.numerical_embedder.weights f4 [41, 64]
00000000: 28cf 983f c81d a1bf d60e 1fbf ffe5 32be
00000010: f208 d4be 7753 4d40 3e8a 0abe 04d2 f53d
00000020: 4353 3fbf 3004 493f 59b8 f53f 2319 3a3f
00000030: e4e9 ac3f 17d1 eabe d0b9 8bbe 858d 2cbf
00000040: 8ddb 93bf 7067 13c0 f1e3 9bbc 0b25 d7bf
00000050: 896b 4ebf 9be5 febf c42f 53bf 26b8 efbe
00000060: c786 abbe a96b 3bbf 46e0 efbf ada8 0c3f
00000070: 6d72 27bf d837 c3bf 4334 7a3f b6bc 873f
00000080: f0e5 223d 7328 923f efe4 31bf 2b18 2dbf
00000090: 514a 11c0 1818 87bf 9963 a2bf 47c4 743f
000000a0: 1f11 c33d 44f4 e03f 3f9e 22be 61d5 0d3f
000000b0: 8da4 c43f 0c5e 6fbe b537 b03f 4dad 12bf
000000c0: 0f69 7e3f 81f9 2abf a916 043f 9f21 aa3f
000000d0: 719c 303f bf38 863f 73fd 133f 6e94 00be
000000e0: 888f b9be d158 aa3f 8f32 043f 1dde a73e
000000f0: 4770 7dbf 6ea7 d43f 46cb 07bf 9e23 84bf
00000100: 44c3 673d 33bf 87be c174 1340 3e7c e53f
00000110: 2ef7 5dbf 6c15 82bf f3a2 2cbf c3cf 103f
00000120: f8fa ce3f adc6 543e 2743 803e 63b7 74bf
00000130: 6d20 49bf acb2 bc3f 59c2 2cbf 9c4e 9ebf
00000140: dc1a 773f a82f 95bf 2a4a d73e 7def 1e3e
00000150: c99f 4f3d c601 c7bf ca1f 9cbf 8902 64bf
00000160: d72b b53e 8ebe 573f a792 8b3e e66d 2dbe
00000170: 816d 10bf 1f14 57be 6bc4 db3f e496 be3f
00000180: 7d67 933e cd6d 9dbf b5c8 c9bf 50f0 aabe
00000190: 51ac 07bf 9371 bbbf bb29 b7be 4fb6 723e
000001a0: adad c4bd 7d83 cfbf 2e4e bebe 760f 16bf
000001b0: f8fd c43f 827a b73d 86de 0c40 b649 21be
000001c0: 1325 b6bf 5207 2a3e c35d 64bf c6a3 383c
000001d0: e6a9 dcbe 6f87 093f e04a 83bd 20ca bdbc
000001e0: 5d7a 9abe 3d0e 153f c6d4 4440 5841 b03f
000001f0: d1e8 8ebd 1e7f 22bf 48f6 893f 4bb5 bcbe
00000200: 530a 363e 8b74 6a3e 64de 2abf 8aea 1bc0
00000210: 42bf f2bd 6fcf 41bf 408e 923f d9eb d0bf
00000220: 3585 f63e 5258 093e 4331 57be 9e5d a63e
00000230: e247 56bf 1f3e e53e 3483 8bbf 66a4 903e
00000240: 2798 d1be 66a9 6d3f ccad dfbf 6c68 0340
00000250: 9d02 a83d 1abc 97bc 70b8 e33e 5ff6 c6bf
00000260: 6f3a cebe f218 6a3e 0028 11c0 8a0f cb3e
00000270: 2298 983e 441c a53d 2c99 033f 6415 c63e
00000280: f857 f83f 0b59 79bf a4bf 3a3f fbcb 8abf
00000290: 3644 533f c028 3d40 c740 873f 11be c5bf
000002a0: 98d5 913f d3b7 a13f f496 dabe dab7 0b3e
000002b0: e094 3abf cabc 513f dc56 633e 4c52 c83e
000002c0: cd2d 203f b1b9 7b3e 8050 153f 2b3a 28bf
000002d0: eb5f 193e a37b 9cbe 73a9 d1bf 9dd9 0d40
000002e0: 0286 dd3f de8b 63bf 84b4 02be 73c7 b03f
000002f0: ab18 7a3c 38de 453f b222 35be 1f7b f03f
00000300: ca21 ee3e 2791 933f e362 15be b128 0640
00000310: 1ab1 fe3e f4f0 3f40 8200 dfbf a59d f7be
00000320: 0495 a53f 0e8b 9e3e d9dc 27be c44c 2f3f
00000330: 0e5d 0240 7665 5b3f 0728 303e ea68 debf
00000340: 9900 843f 8f60 a6bf e518 d4be 087e 3fbf
00000350: cad7 7f3c fcfb 243e e2b8 8cbf 459e 4fbf
00000360: 33d0 38bd 62c1 a73e 79a9 923f da63 c63f
00000370: 29a2 a43f 3069 13bf 1351 4f3d 27f9 9c3f
00000380: 1ca5 853f c7fd 683c dfdd d53e f280 50be
00000390: 7539 fb3f 81c3 bbbf d14f 0dc0 2c6e d3bf
000003a0: f07d d33f 4411 46bd f102 2e3e f41d 0340
000003b0: 46fd a3bd a065 0b3f cede b73e ccf3 873d
000003c0: e41c b13f 8db5 47bf befc 01bf c6b7 c33f
000003d0: 5d6c bbbf 6856 953e 7a21 c73f 7eb4 ddbf
000003e0: 3a55 81be 9ddf 7f3e eb87 383f 9046 8e3f
000003f0: deb0 2abe 363f dc3e e596 b6be f41b 54bf
1.1938219 -1.2587214 -0.6213201 -0.17470549 -0.41413075 3.2082193 -0.13529298 0.12002948
-0.7473642 0.78522015 1.9196883 0.72694606 1.3508878 -0.45862648 -0.272902 -0.6740344
-1.1551377 -2.3031883 -0.01902959 -1.680818 -0.80632836 -1.991382 -0.8249476 -0.46820182
-0.33501264 -0.7321115 -1.8740318 0.5494488 -0.65408975 -1.5251417 0.97735995 1.0604465
0.039770067 1.1418594 -0.6948995 -0.67615 -2.270161 -1.0554228 -1.2686645 0.95611995
0.0952475 1.7574544 -0.15880679 0.55403715 1.5362717 -0.2337572 1.3767 -0.57295686
0.99379057 -0.6678696 0.51597077 1.329151 0.6898871 1.0486068 0.5780861 -0.12556621
-0.36242318 1.3308355 0.51639646 0.32786646 -0.98999447 1.6613595 -0.53044546 -1.032337
0.056582704 -0.2651306 2.304001 1.7928541 -0.8670529 -1.0162787 -0.6743614 0.5656702
1.617034 0.20778914 0.25051233 -0.95592326 -0.785651 1.4742026 -0.6748405 -1.236774
0.9652536 -1.1655169 0.4204877 0.15521045 0.050689492 -1.5547416 -1.2197201 -0.8906637
0.3538501 0.8427514 0.27260324 -0.16936454 -0.5641709 -0.2100377 1.7169317 1.4889798
0.28789893 -1.2299134 -1.5764376 -0.3338647 -0.5299731 -1.4644035 -0.35774025 0.23702358
-0.096034385 -1.6212002 -0.3716902 -0.5861734 1.5390005 0.089589134 2.2010818 -0.15750775
-1.4230064 0.16604355 -0.8920557 0.011269515 -0.43098372 0.5372228 -0.06410766 -0.02316767
-0.3017148 0.5822485 3.0754867 1.3769941 -0.06978 -0.63475215 1.0778284 -0.36857066
0.17777376 0.2289602 -0.6674559 -2.4361901 -0.11852886 -0.75707144 1.1449661 -1.6321975
0.48148504 0.13412598 -0.21014886 0.324933 -0.83703434 0.44773957 -1.0899415 0.28250426
-0.40936396 0.92836607 -1.7474914 2.0532484 0.082036234 -0.018522311 0.44476652 -1.5543936
-0.40278956 0.22861078 -2.2680664 0.39660293 0.29803568 0.08062032 0.51405597 0.38688195
1.9401846 -0.97401494 0.7294867 -1.08435 0.82525957 2.9556122 1.0566643 -1.5448629
1.1393309 1.2634224 -0.42693293 0.13644353 -0.72883415 0.81928694 0.22201103 0.39125288
0.62569886 0.24582554 0.5832596 -0.6571376 0.14977996 -0.30563077 -1.6379837 2.216407
1.7306521 -0.88885295 -0.12764174 1.3810867 0.01526467 0.77292204 -0.17689016 1.8787574
0.46510154 1.1528672 -0.14588504 2.0962336 0.49744493 2.9990816 -1.742203 -0.4836246
1.2936101 0.30965465 -0.1639284 0.6847651 2.0369296 0.8570169 0.17202769 -1.7375767
1.0312682 -1.2998217 -0.41425243 -0.74801683 0.015615413 0.1611175 -1.0993922 -0.81100875
-0.04512043 0.32764727 1.1457969 1.5499222 1.2861987 -0.5758238 0.050614428 1.2263535
1.0441012 0.0142206615 0.41770837 -0.20361689 1.962691 -1.4669038 -2.2079966 -1.6517997
1.6522808 -0.04835631 0.1699331 2.0487032 -0.080072924 0.5445194 0.35912174 0.066382974
1.3836942 -0.780114 -0.5077628 1.5290458 -1.4642445 0.29167485 1.5557091 -1.7320707
-0.25260335 0.24987645 0.72082394 1.1115284 -0.16669032 0.43016976 -0.35661998 -0.82855153

model.numerical_embedder.biases f4 [41, 64]
00000000: 024c 73be 8d20 63be e458 4f3e 4e5e 2ebe
00000010: 36c5 01c0 4aa3 8abe 5810 9c3e 6812 e3be
00000020: 1faf 2abf c2ca 2540 93de e93e db8f f5bf
00000030: ecaa a5bf be91 3cbf 0f9c ac3f e44a e33e
00000040: a748 e7bf 5610 af3f fc21 7cbf 7d7b 37bf
00000050: 1bd8 9d3e 13f4 17c0 012f 843f 4397 87bf
00000060: 30b5 0b3e 8044 e3bf 9f05 1240 efa8 4a40
00000070: 23fe fc3d 578f 2b3f 2ff8 723f ebfd 2e3f
00000080: 33d9 81be 063c b9bf bdd6 b8be 72a4 ab3f
00000090: 5757 64bf 7ce0 9abf 5f8b 323f 176b b33e
000000a0: 04d1 a8bf f831 3d3f a0f1 743e a930 b8be
000000b0: aca3 0d3f a8bf 2340 55bb 493f 3144 8dbe
000000c0: 67d5 21bf 62d2 963f a117 c5be fcc5 07c0
000000d0: 1a29 e0bf aa70 4a3f 409a 2c3f db30 943f
000000e0: 4340 debf c403 893e 0ed6 2ebf 4b5a 3e3f
000000f0: de22 9d3f b112 df3f e16f 0cc0 7b45 793f
00000100: 70af 5abf 5bb4 ca3f fa6c 25bf ee26 dcbf
00000110: 1492 a8bf 2a71 ab3f ac3e 26bf 8a9b 8b3e
00000120: 2464 25be b8e7 16c0 556f 0fbf ba29 2abe
00000130: 80e9 143e 6c4f 833f ba32 873f 7f42 3cc0
00000140: 2c02 53bf f9f1 b8bf b520 b13e e7f2 e8be
00000150: 0ba7 f9be dc7d 523f e2b6 d6be bda0 cfbe
00000160: 0d9b 05bf d66b 9b3f 19c4 323f 6ea2 88be
00000170: f3ce e1be 35d7 cabf a2eb ebbd b52f a83f
00000180: 9688 833d b6e3 d03e 04fb 603d 1b6d bb3f
00000190: 25a4 013c 4c9d 623f 5e0c 90bf 72e3 45bf
000001a0: 77e2 dcbf 20c4 f8be 053f 09bf 783e a3bd
000001b0: acc3 063f 203e 9bbe 38b5 663e 1282 e63e
000001c0: b856 713e 8a97 0f3f 9ad2 56bf 4bc7 3abf
000001d0: 278f 423e 8d5d c33f 925b 0cbf e01b 1840
000001e0: eab1 90be 8d0b b7be 231b b1bf b1b9 81bf
000001f0: 22a5 52be 43f7 ce3f 9915 fdbe 6f7d 5fbf
00000200: d078 c13f 958e 513f b62d 00bf ef28 0c40
00000210: be8f 283f f03f 7cbe b2f4 1b3d 8249 8b3f
00000220: 3667 19bf 0070 93bf 3149 193f 7bba 803f
00000230: 9565 e73f 5c23 09c0 c71e 8fbf ef95 a1bf
00000240: ed3a b03f 5dcb 5cbf 1454 b83f 111b 88bf
00000250: e501 1dbe ba8d 913c 6c3e d13f c082 22be
00000260: 2b1c 963f bb60 7bbf 8d44 6ebb 8ae3 0b3e
00000270: 3370 5cbe 8a3a e4bf 60e9 713f fc39 f9bf
00000280: b397 afbd 198c 2fbf ed46 69bf 19c8 33bf
00000290: ebb0 babe ebd7 c53f 7857 883f 5bd7 f23e
000002a0: c030 4b3d 2a72 f1bd 1b0f c23e 72ed d83e
000002b0: f78a 323d 43d1 893f 65a2 503f fb48 983f
000002c0: 4ffb 87bf 8dfa 8a3e ef00 463e 59cd bf3f
000002d0: c7c7 913f fa6a b8bd 5f8c 2b40 2bdf c83e
000002e0: ff45 d73e 8ff0 13bf 8034 f73e fcc2 963f
000002f0: 10f1 b8bf 0e5e a0bf b5b1 2f3f 4f89 7e3e
00000300: 547a a0bf 4048 dfbf 8776 983e a9e4 2a3e
00000310: 727a bd3e 65dd 7d3f 2857 c1bf 26ba 32bd
00000320: 7d13 093f 8bf7 dc3e ac7f 51bf df9b c5bf
00000330: c42f 58bf 8774 3ebf 2152 00c0 7ccb 153f
00000340: 85a4 cfbc 10fd fd3c e1d3 9abd 7cdc 923e
00000350: a060 cf3d 01b3 f3bf e42f 4c3f c376 bdbd
00000360: b588 c4bf 1986 1bc0 f504 b2bf d34c d6bf
00000370: bb07 edbd 7239 be3e 6f36 963e e3a3 0e3f
00000380: dc72 c83e 3b78 a83f 27f0 0a3f d70d ce3e
00000390: 27c4 f4be 9103 803f 3b04 383e edae 93be
000003a0: 75c7 b3be 1da0 b63e 7819 843f 74ae b93f
000003b0: ab2e bf3f 7954 5bbf a73f 873d 2920 cebd
000003c0: ed72 0840 dbd2 8ebf 8bf3 603f 8f16 e23f
000003d0: 864c e03e f739 c73d 1e05 4bbf 2669 86be
000003e0: 3662 a3bc a479 05bf 2c2c 5bbe 8277 99be
000003f0: 4c34 8fbf 181a 13c0 64fa 3a3d 43fb 8ebf
-0.23759463 -0.22180386 0.20248753 -0.17028162 -2.0276618 -0.27077705 0.3048122 -0.4434998
-0.66673464 2.5905004 0.45677623 -1.9184526 -1.2942786 -0.73659885 1.3485125 0.44393075
-1.8069047 1.367686 -0.98489356 -0.71672803 0.30828938 -2.374272 1.0326844 -1.0593036
0.13643336 -1.775528 2.281593 3.166561 0.1235316 0.67015594 0.9490995 0.683562
-0.25361022 -1.4471443 -0.36101332 1.340956 -0.8919577 -1.2099757 0.69743913 0.3504264
-1.3188787 0.7390437 0.23920298 -0.35974625 0.5532787 2.5585728 0.7880147 -0.27591088
-0.6321625 1.1782954 -0.3849459 -2.121459 -1.7512543 0.7907816 0.67422867 1.157741
-1.7363361 0.26760685 -0.6829537 0.74356526 1.2276266 1.7427579 -2.1943285 0.97371644
-0.85423946 1.583629 -0.6461941 -1.719938 -1.316958 1.339391 -0.6493938 0.27267104
-0.16151482 -2.357893 -0.56029254 -0.1661748 0.14542198 1.0258613 1.0562356 -2.9415586
-0.8242519 -1.4448844 0.34595266 -0.4549782 -0.48760256 0.82223296 -0.41936404 -0.4055232
-0.52189714 1.2142284 0.6983047 -0.26686424 -0.44103202 -1.5846926 -0.11519553 1.3139559
0.06422536 0.4079873 0.054926887 1.4642671 0.00791267 0.88521266 -1.1253774 -0.7730018
-1.7256612 -0.48587132 -0.53611785 -0.07970899 0.5264232 -0.30320835 0.22530067 0.4502111
0.23568237 0.56090605 -0.839151 -0.72960347 0.18999921 1.5262924 -0.54827225 2.3767014
-0.28260738 -0.35751 -1.3836406 -1.0134794 -0.20570806 1.6169208 -0.4943054 -0.8730077
1.5114994 0.8185819 -0.5006975 2.1899984 0.65844333 -0.24633765 0.038075157 1.0881808
-0.5992311 -1.1518555 0.59877306 1.0056909 1.8077875 -2.1427832 -1.1181267 -1.2623881
1.3767983 -0.8624781 1.4400659 -1.063326 -0.15332754 0.017767776 1.6347175 -0.1587019
1.1727346 -0.98194474 -0.0036356777 0.13661018 -0.21527176 -1.7830365 0.94496727 -1.947082
-0.08573856 -0.6857315 -0.9112385 -0.702272 -0.36463103 1.5456518 1.0651693 0.47429928
0.04960704 -0.11789353 0.3790215 0.42368656 0.04358956 1.0766987 0.81497794 1.1897272
-1.0623568 0.2714428 0.19336294 1.4984542 1.1389092 -0.09004779 2.6804426 0.39232764
0.4204559 -0.5778894 0.48282242 1.1778255 -1.4448566 -1.2528703 0.68630534 0.24857067
-1.2537332 -1.7443924 0.2977793 0.1668879 0.3700748 0.99165946 -1.5104723 -0.043634556
0.5354536 0.4315761 -0.81835437 -1.5438193 -0.84447885 -0.74396557 -2.0050128 0.5851362
-0.025347004 0.031004459 -0.07559944 0.2868384 0.10125852 -1.9039003 0.79760575 -0.092511676
-1.535422 -2.4300597 -1.3907763 -1.6742195 -0.1157374 0.37153202 0.29338405 0.5571882
0.3915013 1.3161691 0.54272693 0.40244934 -0.47805902 1.0001088 0.17970364 -0.28844395
-0.3511311 0.35669032 1.0320272 1.4506364 1.4936117 -0.8567577 0.066039376 -0.10064728
2.1320145 -1.1158098 0.8787162 1.7663134 0.43808383 0.09727853 -0.79304683 -0.26252097
-0.019944292 -0.52138734 -0.21403569 -0.2997399 -1.1187835 -2.2984676 0.045648947 -1.1170429

model.transformer.layers.0.0.branch.norm.weight f4 [64]
00000000: 068a 3b3f 1fb3 383f f377 383f 8121 523f
00000010: 6ee7 313f fd78 4d3f 3705 9a3e ed04 263f
00000020: d96b 323f 57ad 393f 8f0f 4a3f bfec 0f3f
00000030: 1158 213f 4dfa 2e3f 9ae8 4c3f 1c16 0e3f
00000040: 5b6d 503f e7ff 4f3f ea1f 853f a5b6 593f
00000050: 8aa9 2e3f a579 463f 9827 413f 0bd5 463f
00000060: 144e 153f 8c04 ef3e fdd4 083f e2b9 253f
00000070: 892e 123f c91c e83e f722 153f e14e 193f
00000080: 146a 2a3f 15d2 153f 693a 1d3f ab3a cf3e
00000090: 1e08 233f 7e3c 0f3f 7807 3b3f 1d36 413f
000000a0: 7850 693f 2fde 2c3f c163 533f f685 1b3f
000000b0: 9ca0 233f b717 d33e 2feb 0e3f aaae 4f3f
000000c0: af7e 3c3f a179 233f 90d0 593f 8def 2c3f
000000d0: 75bc 6f3f f90e 1e3f 503d 623f 63fe 123f
000000e0: edcf 133f 2b8d bf3e ee4f 4b3f b209 3b3f
000000f0: d9aa 103f ed1a 043f 1abb 3e3f abd3 263f
0.7325748 0.7214832 0.7205803 0.8208237 0.6949376 0.8026274 0.30082104 0.64851266
0.6969581 0.7253012 0.7892999 0.5622062 0.63025004 0.6835068 0.8004242 0.55502486
0.81416863 0.8124985 1.0400364 0.8504432 0.68227446 0.77529365 0.7545104 0.7766883
0.5832226 0.46683156 0.53449994 0.6473676 0.57102257 0.4533446 0.5825648 0.59885985
0.6656811 0.58523685 0.6141725 0.40474448 0.6368426 0.5595168 0.7305827 0.75473195
0.9113841 0.67526525 0.8257409 0.60751283 0.63916945 0.4122903 0.5582761 0.8112589
0.73630804 0.63857466 0.85083866 0.67553025 0.9364694 0.61741596 0.88374805 0.57419413
0.57739145 0.3741239 0.7941884 0.7306167 0.5651069 0.51603585 0.74504244 0.6516673

model.transformer.layers.0.0.branch.norm.bias f4 [64]
00000000: 2874 483d 32d8 e53d 60df 133e 4de5 993c
00000010: 6b24 1c3e 380d c3bd 5568 6a3d f384 49bc
00000020: 3803 f63d f496 0abd c8a2 6f3c e80b 623d
00000030: c9ee 283d 4799 f3bd c857 293d 6ec3 8c3d
00000040: dab9 e83d c52b 13be 0528 b1bc 14fc d33a
00000050: c578 943d fdd9 48be 119f beba e211 883c
00000060: 285d 68bb 848c 8fbd 2f4f b43d 3c74 dcbd
00000070: b6a0 403d 2231 87bc 05f3 f03c f36c b2bc
00000080: fede e53d 0e69 f2bc a26e 923d ae76 803d
00000090: 566f a5bd bc21 cfbc a422 93bd 9dae e0bd
000000a0: 6cc8 74bd 4f9e b6bd 70b1 973c 30a5 15bc
000000b0: bdaa 97bd 8703 a3bd 6edd 9a3c 445d 18bd
000000c0: ad29 06be ef76 a13c 1f93 143d a8c8 42bc
000000d0: 3395 3cbe eaea ab3d 4ae3 2f3c 83b9 63bd
000000e0: 40ba ef3d 49f2 953c 279c ae3b 4e92 0a3d
000000f0: 4158 693d c87d 193d 1da0 093e dcf2 99bc
0.0489389 0.112228766 0.1444068 0.018786097 0.15248267 -0.09524006 0.057228405 -0.012299764
0.12012333 -0.033835366 0.014626212 0.055187136 0.04124335 -0.1189447 0.04134348 0.06873213
0.11363573 -0.14372166 -0.021625528 0.0016173148 0.072495975 -0.19614406 -0.0014543255 0.01661009
-0.0035455916 -0.07009223 0.088041656 -0.107643574 0.047028266 -0.01650292 0.029412756 -0.021780467
0.11224173 -0.02959111 0.07150008 0.06272636 -0.08077876 -0.02528464 -0.071843415 -0.10970805
-0.05976145 -0.08916914 0.018517226 -0.009133622 -0.074056126 -0.07959657 0.018904414 -0.03719832
-0.13101836 0.019710032 0.036273118 -0.0118886605 -0.1841629 0.08394416 0.010735342 -0.05559684
0.11705446 0.018304007 0.0053286734 0.033830933 0.05696893 0.03747347 0.13439985 -0.018792562

model.transformer.layers.0.0.branch.to_qkv.weight f4 [192, 64]
00000000: 3478 443e 433b b13d f0e6 b5bd cde1 b83e
00000010: ac19 4dbe a9c7 903d a6d4 a4be 6ed8 25be
00000020: 39dd f23d 1d05 d23d ebf5 77be ff89 b8be
00000030: db7a 403e d0d4 823d 0986 863e d37a 0fbf
00000040: 2496 433e 9375 763e a203 4b3d b850 f1bc
00000050: 6e11 0d3e 4cbd 6fbd 4ae2 98be 803a a8bd
00000060: 3b3b 8ebe 3f43 813e 0a5e f33e aa91 2a3e
00000070: 7050 043e d09b a53e d16b b5bd 543a 933b
00000080: 18d4 94bd 7a52 9fbb eb85 c9be 0c89 f43e
00000090: 2c71 493d 790a 94b8 8f73 15be 9722 b93e
000000a0: 3cec 52be e74f ac3e 6d1f 10be dacf 0abe
000000b0: 9ad2 e3be de56 983d f285 873e ae62 4c3e
000000c0: 57a2 febd 0bc2 8dbe 5f73 14be 4044 51be
000000d0: fed4 4ebe db19 e4be c3b1 e8be 0b41 e13d
000000e0: 88ac e93d 865a 723e 1002 99be 4f89 f5be
000000f0: 11bf 4a3d b09c 88be ba68 aa3d c011 d3bc
00000100: 593b 30be ce0f 633d e8d1 9d3e 48b9 69be
00000110: 6885 633d e471 5b3e 2a73 a43d d007 99bd
00000120: e8af c43e 7f3c 00bd f4ea 8bbe 0cc5 09be
00000130: 8fac 1b3e 153b 393e 4234 2a3c d695 4e3e
00000140: 6b40 95be 1995 423e 3dd3 d1bd 95d6 ea3b
00000150: df9f f33d 4fa4 f93d 5986 943e 0024 c1bd
00000160: 1008 d83d 453b 833e adc6 fbbd b7e2 9e3e
00000170: 8c2d dbbd 4bfb 0e3d fcb9 6bbd f2b3 df3d
00000180: b01c 3fbe 8af4 4a3e 9027 8b3e 2838 35bd
00000190: 3f9e f8bc b0ff 1cbe 26dd 7439 b564 73bd
000001a0: 658e b83d b53a aabd e928 5d3e 0f56 26be
000001b0: 819c 003d aff4 adbe 4b63 1ebd 462a 85be
000001c0: f00e 283e 4686 bcbd b247 96be 5478 e1bc
000001d0: d5c9 273e 0758 b63e e92e 3fbe 6040 9abe
000001e0: 8fc2 c8bc 6832 72be 66f1 78be e7c4 5ebd
000001f0: a480 d43d 3cdd 193e 71af bdbe b03e 083d
00000200: f9c7 103f 5e57 183e c0dc 6abe 0c6b fe3e
00000210: c691 1a3d f206 4cbe f722 e1bc e47e 703e
00000220: 0414 1dbe ab48 f2be 448b ddbe 8fe0 d9be
00000230: fb97 cbbe 9d80 ac3d aca9 32be bf6c 91bc
00000240: 54ff 793d 9720 95bd c6f1 a43e 89d7 46be
00000250: 87fe 9f3e 8ca4 59be f3e5 063c 6e8a 733e
00000260: f672 af3d 6b10 3dbe 184b 383e 70fc 2abe
00000270: 7e5e cfbd e6cc 25be 1d29 9a3d 4d38 24be
00000280: ffec aabe 631a cd3e 35e3 c43d d4d5 933e
00000290: b767 30bc 0989 cb3b 9546 f23e 8ded bf3d
000002a0: 3ed0 2bbe f841 21be c728 6cbd e18b 373e
000002b0: b893 283e 7df1 803d 0f18 893c 0584 96bd
000002c0: 9d9b cd3e c6c0 b03e 1bd9 98be 852d dbbd
000002d0: 1a35 07be c45a 3b3e 9781 0b3e 2bb0 0dbd
000002e0: c977 64bc 3236 873e 51d0 0cbd df6c dd3d
000002f0: 91ad 4ebe ee47 59be a294 1dbf fad2 363e
00000300: 8fee 08bf 8a18 74be 8341 a3bd 3624 99be
00000310: 556e 21be 2538 f3bc 64ae 1ebe 5b59 073d
00000320: cffe 033e 7b67 063d 7338 ad3e 8f71 863d
00000330: f273 44bd 6425 82bd 29e8 9dbd b473 313f
00000340: 1ec1 b4bd 29e9 8dbd 2d15 35be 5f0c 263e
00000350: 0b46 a73d 1cfd e8bd bcac 043e 349e 1fbe
00000360: c184 cabc 3261 54be c71c 36be 5edc 963e
00000370: 20f3 3bbe 64cf 0fbd 38c7 a93d e242 bf3d
00000380: 482f 943e 1f98 293e 756d 4f3e 6b08 a23d
00000390: 6c83 0f3c 84f7 31bc fe1c c6be 9410 40be
000003a0: facf 63bd a794 683e f00f 95bd e8fa 1dbe
000003b0: de0c 153e 0118 6f3e 2de6 823e 6d13 39be
000003c0: f5ad 5ebd 0ff9 09bc 7a6b dd3e b6b9 d4bd
000003d0: 7ccd cf3d 7f7e d73d 87f2 86be 4770 77bd
000003e0: 68fe fbbd ed06 73be 8da8 34be a10e b33e
000003f0: d09a fd3e 228a 393e 608a a7be 5c1f 4e3e
0.19186479 0.086538814 -0.088819385 0.36109772 -0.20029324 0.07069332 -0.32193488 -0.16195843
0.11858601 0.102548815 -0.24214904 -0.36042783 0.18796866 0.06388247 0.26274136 -0.5604679
0.19100243 0.24068289 0.04956401 -0.029457435 0.1377618 -0.058530137 -0.29860145 -0.08214283
-0.27779564 0.25246617 0.47532684 0.16657129 0.1292131 0.32345438 -0.08858455 0.0044930372
-0.07267016 -0.004862127 -0.39359984 0.47760808 0.049180195 -7.0591406e-05 -0.14594863 0.36159202
-0.20597929 0.3365471 -0.14074488 -0.13555852 -0.44496614 0.074384436 0.2646938 0.19959518
-0.124333076 -0.27687106 -0.14497136 -0.20436192 -0.20198438 -0.44550976 -0.4544812 0.10998734
0.11409861 0.23667344 -0.29884386 -0.4795632 0.04949862 -0.26682043 0.08320756 -0.0257653
-0.1721014 0.055434994 0.30824208 -0.22824585 0.055547148 0.21430165 0.08029778 -0.07472193
0.38415456 -0.031307694 -0.27327693 -0.13454074 0.15202545 0.18088944 0.010388436 0.20174345
-0.2915071 0.19002189 -0.10245369 0.0071666935 0.11895727 0.121895425 0.2900875 -0.094306946
0.10548413 0.25631157 -0.12293754 0.31032345 -0.10702047 0.03490762 -0.057550415 0.10922994
-0.18663287 0.19819847 0.2717862 -0.044243008 -0.030348895 -0.15331912 0.00023352038 -0.059422214
0.090115346 -0.08311979 0.21597637 -0.16243766 0.031399254 -0.3397574 -0.038668912 -0.26008815
0.16411948 -0.09205298 -0.29351574 -0.027523197 0.16385587 0.35614035 -0.18670239 -0.3012724
-0.024506835 -0.23652041 -0.24310836 -0.054387 0.10376099 0.150258 -0.37047914 0.03326291
0.56555134 0.14877078 -0.22935772 0.49691045 0.037736677 -0.19924524 -0.027482493 0.23485905
-0.15339667 -0.47321066 -0.43270314 -0.42554137 -0.3976439 0.084229685 -0.17447537 -0.01775205
0.061034516 -0.07281607 0.32215708 -0.19418158 0.31248876 -0.21254176 0.008233535 0.23783275
0.08566849 -0.18463294 0.17997396 -0.1669786 -0.10125445 -0.16191444 0.07527373 -0.16037102
-0.3338394 0.40059194 0.09613649 0.28874075 -0.010766915 0.006211404 0.47319475 0.09371481
-0.16778657 -0.15747821 -0.057656076 0.17924453 0.164626 0.0629606 0.016735105 -0.073493995
0.40157786 0.34522074 -0.29853138 -0.107020415 -0.1320385 0.18296343 0.13623653 -0.034591835
-0.013944575 0.26408535 -0.034378354 0.10811781 -0.20183398 -0.21218845 -0.6155492 0.17853919
-0.5348901 -0.23837486 -0.0797148 -0.2991044 -0.15764745 -0.029689858 -0.15496212 0.0330442
0.1289017 0.03281353 0.3383213 0.06564628 -0.047962137 -0.06354788 -0.07710297 0.69317174
-0.08825897 -0.069292374 -0.17683859 0.16215657 0.081676565 -0.11376402 0.12956518 -0.15587693
-0.024721505 -0.20740202 -0.17784415 0.29465002 -0.18354464 -0.035109892 0.08289951 0.09338929
0.28942323 0.16561936 0.20256598 0.07911762 0.008759361 -0.010862235 -0.38693994 -0.18756324
-0.055618264 0.22712956 -0.072784305 -0.15427744 0.1455569 0.23349 0.25566235 -0.18073817
-0.054365117 -0.008421197 0.4324606 -0.10386984 0.10146615 0.10522174 -0.2635691 -0.06040981
-0.123043835 -0.2373311 -0.17642422 0.34972098 0.49532175 0.181191 -0.3272276 0.2012915

model.transformer.layers.0.0.branch.to_out.weight f4 [64, 64]
00000000: 109d 2c3e d1cb 83be c5a0 7f3e 26aa e33e
00000010: 3dff 383e b3e1 0d3f 6c94 8cbe 8f57 9cbe
00000020: 0327 90bd 5ac1 fdbd 94d9 773e c37e b03d
00000030: c2c5 3abe f1ea 7f3c f8af e43e df60 e4bd
00000040: 4d88 123d 4e6e 14be cabe 37be 381a 61be
00000050: 17c8 003e ac05 803e 1598 043d 8095 c6bd
00000060: 48d6 953d 3567 e5bc 2b95 853e 9256 81be
00000070: 2f06 893e e301 823e 8d1f f6bd d340 a13d
00000080: d532 3e3e 9362 fb3d a63b 45be 49d6 de3e
00000090: 6555 56bd bf71 4f3d 89b7 4abd db31 443e
000000a0: d591 73be ce69 f93d 8a1d 3e3e 0c08 c7bd
000000b0: 35af 6f3e a0a1 ef3d 480d 503e 0589 a2bd
000000c0: e110 a4be 2391 2d3d a173 23be 4c23 143e
000000d0: dea3 62be d1be 3fbd acd4 f8bd eed1 2ebe
000000e0: d15f 82bd 0c97 c5be 06a2 30be cc2f 813e
000000f0: c110 43be c87a 0b3e 7912 f1bd 7635 803e
00000100: e3b8 863c cef4 813e 0633 023e db49 8cbc
00000110: 9213 8b3d 828b bdbc 356e 1ebe b54a 02bd
00000120: 27ad 8e3d db18 a7be 76f5 783e 9d39 ecbd
00000130: aeef c9bd 8153 d7bd 3064 09be 4d7d 123d
00000140: 77e9 7d3e 67c2 703d 34a6 7dbd 44ac c33d
00000150: 3498 843e 5c36 653d 3544 fcbd 4bef d13d
00000160: 453b b53d 6cf2 a13e 5f03 8abe 84b7 4b3d
00000170: 3834 7a3e e26e 323e 1c84 5d3e 361c d53d
00000180: 020e 84bc 346a 353e 63c0 3e3e b258 5bbe
00000190: 4a81 d93d a457 9cbe 594a 8c3d 1ccd 85bd
000001a0: 3c96 56be 711f 8abd 355a 1f3e 8263 11be
000001b0: a188 2e3c f859 52bd 19f0 c8be 6fe4 903e
000001c0: 4984 2c3e 4e16 96be 3095 3cbe 24f2 0f3d
000001d0: e3c4 c93d bfa0 39bd 8ea0 1c3e 1b85 2cbd
000001e0: 7e91 34be 3581 c5be eb9b 4fbe ad0c aebd
000001f0: 47b9 d2bd f35c edbd 14f3 29be 12bc 1d3e
00000200: 090c ec3c 3f4e e93d ba49 bcbc e3ed dcbd
00000210: dd5e 543d 8f25 f0bd 5403 75bc 361a c13c
00000220: 0aba 123c 1c72 c73d c311 163d 1309 e8be
00000230: 516e 973d f4f8 1b3d f34d c93d 95a6 49bd
00000240: c9d7 21bd b9c7 513d dda7 ecbd a22e acbe
00000250: d418 85be 7593 2abe 672a f8bc fbb8 34be
00000260: 4960 dbbd 5f05 9c3d 8873 40be ab67 613e
00000270: 610c 983e 72af d4bc 6b9b 713e 7d99 723e
00000280: 1fab 903d 5b25 e3bc 57bd 88be 5904 29be
00000290: e93b 533e cfa6 d1bd d59f 0cbe fdc6 91bc
000002a0: fd12 3d3e ed40 8bbd 69c9 683e 8987 823e
000002b0: 4d9f d33e 4134 003e a423 053d d7f4 ddbd
000002c0: 711d 353e 78b9 9e3c 5ab7 58be 683c b63d
000002d0: ed97 053e 6af4 963e c7ce 413e 25db b4bd
000002e0: 9895 413e 1112 803e c248 e7bd 5867 67bd
000002f0: f2d0 213e 043c c6bd 4f21 a23c 3d3a 5d3d
00000300: f17e b13d e819 e3bd 8163 933d cf84 023e
00000310: 2004 e33c ab31 393e bf94 83bc ae34 563e
00000320: 85bf c7bd 4c3d ee3d 4fb0 a4bd 99be c83e
00000330: c7e8 a43d 187c 65be 93ce ac3d cdc2 71be
00000340: 456c f5bc e6f5 2ebe 9edb 203c b696 5abe
00000350: 5bc6 d3bd c0ed 0cbd 61d8 e5be ac1c e33d
00000360: a20e b4bd c1c7 7bbe 1a45 79bd 3401 2abe
00000370: 1483 393d 745b ab3e 44c3 c33d 7dfa 573e
00000380: e724 6dbe ae55 02bd 3c6e e1bb 940e d1be
00000390: ed24 f73d 4249 c43c 5b73 97bb fb5b ccbc
000003a0: eb22 313d a322 ba3d c3b5 ee3e 06d6 273e
000003b0: 2505 193e e45f 6c3d f76d 2dbe be20 92be
000003c0: 60df 0fb9 1020 e43d 0e6e b93e 3874 8bbb
000003d0: 1e6e 6c3d d5d7 36be 23fa c33d c388 643e
000003e0: 4383 f3be db51 5ebe 5d5c 02be d454 063d
000003f0: e635 c0be 0234 783e 58b8 10be 4682 e53d
0.1685679 -0.25741437 0.24963672 0.4446575 0.18066116 0.55422515 -0.27456987 -0.30535552
-0.07038691 -0.123903945 0.24204093 0.08617928 -0.18239501 0.015619979 0.44665504 -0.11151289
0.035774518 -0.14495203 -0.17943874 -0.21982658 0.12576328 0.25004327 0.0323716 -0.096964836
0.073162615 -0.028003315 0.2609037 -0.2526136 0.2676253 0.25392064 -0.120177366 0.07873692
0.18574078 0.12274661 -0.19261035 0.43522862 -0.052327532 0.050645586 -0.04949144 0.19159643
-0.237861 0.12178384 0.18565956 -0.09718332 0.2340668 0.117007494 0.20317566 -0.07936291
-0.32044128 0.04237474 -0.15962078 0.1446659 -0.22132823 -0.046812836 -0.12149939 -0.1707227
-0.06365932 -0.38591802 -0.17249307 0.2523178 -0.1904936 0.13621056 -0.117711015 0.25040787
0.016445583 0.25382084 0.12714776 -0.01712506 0.06790842 -0.023137812 -0.15471728 -0.031809527
0.0696662 -0.3263615 0.24312386 -0.11534426 -0.098601684 -0.10513974 -0.13417125 0.035764027
0.24796091 0.058779147 -0.06192608 0.095543414 0.25897372 0.055960044 -0.12317697 0.1025072
0.088491954 0.31630266 -0.26955697 0.04973556 0.24433982 0.17425111 0.21632427 0.104057714
-0.01611996 0.17716295 0.18628077 -0.21420553 0.10620363 -0.30535614 0.06850118 -0.06533262
-0.20955747 -0.06744278 0.15561755 -0.14198115 0.010652692 -0.051355332 -0.3924568 0.2829928
0.16847338 -0.29313892 -0.18416286 0.035143033 0.09852006 -0.045319315 0.15295622 -0.042119127
-0.17633626 -0.3857514 -0.20274322 -0.084985115 -0.10289245 -0.11589994 -0.16596633 0.15403774
0.028814333 0.113918774 -0.022984374 -0.10787561 0.05184828 -0.11725914 -0.014954407 0.023572069
0.008955488 0.097385615 0.036638033 -0.45319423 0.07394088 0.038079217 0.09829321 -0.04923113
-0.03951243 0.05121586 -0.11555455 -0.33629328 -0.25995505 -0.16657813 -0.030293657 -0.1764869
-0.10711724 0.07618212 -0.18794072 0.22012202 0.29696944 -0.025962565 0.23594444 0.23691364
0.07063889 -0.027727773 -0.26706955 -0.16505565 0.20628323 -0.10236894 -0.13732846 -0.01779508
0.18464275 -0.06799493 0.22733082 0.2549403 0.41332474 0.12519933 0.032504693 -0.10837715
0.17687012 0.019375548 -0.21163693 0.0889824 0.13046236 0.29483348 0.18926536 -0.08830861
0.18904722 0.25013784 -0.11293174 -0.05649504 0.15802363 -0.09679416 0.019791273 0.05401062
0.0866679 -0.110889256 0.07196713 0.12745975 0.027711928 0.18085353 -0.016062139 0.20918533
-0.09753326 0.11632785 -0.08041441 0.39207914 0.08052211 -0.2241062 0.084378384 -0.23609467
-0.029958853 -0.1708599 0.009817986 -0.21346554 -0.10340568 -0.034406424 -0.44891647 0.11089453
-0.087918535 -0.24587919 -0.060856916 -0.16602021 0.04529102 0.3346821 0.09558728 0.21091647
-0.23158608 -0.03181999 -0.006879596 -0.40831435 0.1206759 0.023960713 -0.0046219057 -0.024946203
0.04324619 0.09088638 0.46623048 0.16390237 0.14943369 0.057708636 -0.1693648 -0.28540605
-0.00013720756 0.11138928 0.36216778 -0.0042557977 0.057722203 -0.17855771 0.09569194 0.22317795
-0.47561082 -0.21710913 -0.12730546 0.032795742 -0.3754112 0.2423859 -0.14132822 0.11206488

model.transformer.layers.0.1.branch.0.weight f4 [64]
00000000: 26c4 373f dea1 cf3e 5d1e 323f c186 343f
00000010: 223e 0b3f f816 1f3f 51ef b13e 124a 013f
00000020: b48f e43e 1227 ed3e 4c89 e83e 06d8 f83e
00000030: ba74 1f3f 7c6f 013f 2ce1 c93e afb2 313f
00000040: a62f eb3e 1a84 fe3e fa32 df3e e0aa 033f
00000050: 69ab 853e 7b0a ed3e 3d44 f13e 0115 fa3e
00000060: ee85 133f 4b88 1b3f 0e5b 0b3f 195c 013f
00000070: 2f95 003f 91bc 113f cf6d 2d3f b339 0e3f
00000080: 5000 e73e 2351 173f fae1 a23e dc27 bd3e
00000090: 488d f73e 85ae 0a3f 0217 343f 9765 023f
000000a0: 4832 d93e 54b5 243f 15d0 143f 0a4b 103f
000000b0: 5d5f 303f d412 eb3e b9ca de3e 354c 243f
000000c0: e6b5 1c3f ed78 de3e 85ff 253f af1a 2f3f
000000d0: e3de d43e 2eca f33e 8f24 143f ca30 dd3e
000000e0: 80de 003f 2a21 bd3e 062b 0a3f aa90 053f
000000f0: cdbc ed3e 8f0c d93e 7e85 123f 8e7d fa3e
0.71783674 0.40553182 0.6957758 0.7051812 0.5439168 0.6214442 0.34752896 0.5050365
0.44640887 0.4631887 0.4541725 0.48602313 0.62287486 0.50560737 0.39429605 0.69413275
0.4593479 0.4971016 0.4359358 0.5143261 0.26107338 0.46297058 0.47122374 0.4884415
0.57626235 0.6075484 0.54435813 0.50531155 0.50227636 0.56928355 0.6774568 0.5555679
0.45117426 0.5910818 0.3181303 0.36944473 0.48349977 0.54172546 0.7034761 0.50936264
0.42421174 0.64339185 0.5813001 0.563645 0.6889551 0.45912802 0.4351404 0.6417878
0.61215055 0.43451634 0.64843017 0.6840009 0.415763 0.47615188 0.57868284 0.43201286
0.5033951 0.36939365 0.539719 0.52173865 0.46433106 0.42392394 0.5723494 0.48923916

model.transformer.layers.0.1.branch.0.bias f4 [64]
00000000: 6957 ecbd adf4 aebc ba37 33bd b64f b13d
00000010: 22a5 65be b948 b73b a4b5 babd 3b78 87bc
00000020: 8c0c 053e fb46 643e 6bf7 313e 5b80 6b3d
00000030: d7cf f4bc fd0a fabc 90cc 3bbd 950f db3c
00000040: bbf4 24be 6f02 a93d fee4 01be ccee 8cbd
00000050: bd98 a93d 6515 bc3d 9d68 763d d365 203c
00000060: 8b6e 28be a16c b33d 160c 81bd 7af4 a23d
00000070: e902 ff3c 9b5b 783e 54c9 0abe da85 d03d
00000080: 6d12 4a3e da8b 01be d799 413c 5107 033c
00000090: 0479 89bb fee8 0f3e 1a53 883d fd6f 66be
000000a0: 1dd3 8c3e aa4e 28be 462a 96be 64cf 6dbd
000000b0: 5fa3 953d 3cb2 afba 5066 62be bce0 a63d
000000c0: 7b44 4abe 2e98 b83d ec1f 353d ed44 b0bc
000000d0: 7adb 07be 7dfa 4c3e 2622 c9be c7be 08ba
000000e0: 7d1e f5bd cfc6 c2bb 3a16 24bc 4084 933e
000000f0: 4c32 68be 6b8f 553c 96bb 3f3e 3523 eabd
-0.1154011 -0.021356905 -0.043754317 0.08657782 -0.22426274 0.005593386 -0.091166764 -0.016536823
0.12993068 0.22292702 0.17379539 0.057495456 -0.029884262 -0.030522818 -0.045849383 0.026740829
-0.16108982 0.08252417 -0.1268501 -0.068814844 0.08281086 0.09183768 0.06015836 0.009789902
-0.16448419 0.08760954 -0.06301133 0.079567865 0.031129317 0.24253695 -0.13553363 0.1018178
0.19733591 -0.12651005 0.011816463 0.00799735 -0.0041953344 0.14053723 0.06656475 -0.22503658
0.27504817 -0.16436258 -0.29329127 -0.05805911 0.07306551 -0.0013404558 -0.22109342 0.081483334
-0.19752686 0.09013401 0.044219896 -0.021517241 -0.13267317 0.20017429 -0.39283866 -0.00052164163
-0.11968706 -0.00594411 -0.010015065 0.28811836 -0.22675437 0.013034682 0.18723902 -0.114324965

model.transformer.layers.0.1.branch.1.weight f4 [512, 64]
00000000: fd23 39be 1ec0 c63e 4ae5 04be 58cc 9c3e
00000010: c9ec e63e ddbd 053e 9e73 cdbe 070d 983c
00000020: d229 2c3e 47b0 a2be 94ab 493d 0026 8ebe
00000030: 371e 9ebe 7c6b 173e 302e cbbc 17f3 613d
00000040: b49d fdbb b653 cf3e 1eb1 13be 9668 cb3d
00000050: e603 8abd 584f 263e 74e1 97be c8d5 66bd
00000060: 0662 353e 7f07 d2bc cc15 ebbc 67e5 febc
00000070: fd8c 10bd b1d5 0abf 3f5a 6c3e 9209 3dbe
00000080: c220 4bbd ef5d 4e3e c923 87be efbf 923e
00000090: ac8c 4b3e 81e2 92bc 820d 7cbd 06b7 603e
000000a0: 6eaa 303e 7e20 1fbe e6fd 213e 43e5 99be
000000b0: 7a76 073f a36f 1abd 3a64 22bf 21d4 cebe
000000c0: e5b3 96bc b4c0 453e 04b3 7a3d ba8d 753e
000000d0: 01a1 813e fb72 cabe 7180 a93d 594f 9cbd
000000e0: 61ce 94be eabd 2b3e b57e af3d 13f2 1dbe
000000f0: 6038 db3e fea2 35be 996e 53be 29e8 a03d
00000100: 3b21 743e 8b3f 323e 55b5 3d3e 560c b4bb
00000110: 92d3 8b3e 897f 0c3e 3df9 45bc 4810 8bbd
00000120: ecb6 d13d 7032 d0be f472 c8be f2e9 a93c
00000130: 3446 af3d 53de b33e 4942 ed3d af21 813e
00000140: 69dd 45bf 690c 363d c7a8 0cbf bc93 693e
00000150: 5dd2 1ebe 3f17 d1be b9b2 efbd 6e89 a53e
00000160: 784e 1d3e 77ee c1be c7b4 c9bc 0a1a a5bd
00000170: 8d90 c1bd c24f fd3d ff05 523e da7e 76bd
00000180: fc67 8a3d 6637 433d fecb 6bbb d4d8 f63c
00000190: 0324 8a3e 7c00 af3d 7c86 79bd c10a 0cbd
000001a0: 5d0f 4d3e 78a0 d0be f892 a5be 6b8c af3e
000001b0: fff8 dfbd 40f7 cc3c 1cc9 6abd 5a48 cb3e
000001c0: 61d6 28bd 1814 afba 8aad 543d e5b8 893e
000001d0: 3da3 b2bd 1ab6 0dbe 6559 59bc c94a cabe
000001e0: 0737 b83d 2ef6 943e 245b 563e df59 093e
000001f0: 45ea b03d 420b ac3d 9722 90be ef00 7fbe
00000200: d321 ac3c cdc8 803e 424d a33d 7754 ba3d
00000210: 9113 8e3e 27ff 693e 3b00 b23d 1347 ffbe
00000220: c0c1 bd3d 5586 e7bd 0760 083e e101 82be
00000230: 22cf b6bd 944d 94bd fd72 31be 1c20 663d
00000240: e269 c93d 24a1 49be a5d3 4d3e f769 08bf
00000250: f552 3a3e 847b c1bd 4ad8 27be 743a abbd
00000260: 8e0d 573e c171 823d 56cc cebe 5072 453e
00000270: 4b86 5a3d ec6b 403c 3676 a3be a771 b73e
00000280: ae22 923e ada7 473d e9b7 4cbe 39d6 a8be
00000290: 6204 e2bd 79e4 7d3e d8cf 203e 3fc9 e53c
000002a0: 650c c6bb b4ac e9be 1e2f dabe 9d90 23be
000002b0: d312 9fbe d0a0 f5bd d9ab 683e 45b4 903e
000002c0: cf8b 9e3e c1f2 e03d c3b4 7b3d 882a 973e
000002d0: 9975 103e d025 773e 3ecd 803e 3ae4 c5bd
000002e0: f596 c03c 068a 793c 4ae1 80be ec20 7fbe
000002f0: fa4b 8f3d efe4 383e 43b8 873d fbae 243d
00000300: 25bf a9bd 78bb 6d3e 60a7 d8bc e6b3 c0be
00000310: c1b1 e43c f500 8a3e 96bd 21bb bf34 a4be
00000320: f76b 733e 8a22 ec3e 3740 66bb c17f dfbd
00000330: 4e37 a7bd 3089 6fbd 0218 8eba 52c1 163f
00000340: dcd1 9cbe ba9c 293d a954 23be 2609 713e
00000350: 8044 5abe e85a 853e ae38 783e 1118 12be
00000360: a5af ca3e 872c 2c3f a278 04bf 4bf9 6ebd
00000370: 186d 5fbe 1143 7dbe e003 63be 3496 54be
00000380: 1918 1e3e 205d 5bbe 8358 7fbd 233c 58bd
00000390: 9c04 463d 3dd8 ba3e 4a97 23be d68e b33d
000003a0: 982d 84be ab1c 983e 9713 923e 641a 6dbe
000003b0: 863d 873e 2b1b 41be c2a9 f6bd e14a ca3d
000003c0: 3e21 803e 58cc 95be 2c0c 81bc 0361 7a3b
000003d0: 77cc 6c3e 36b2 eb3c c9c6 a1be ee92 adbb
000003e0: 79d0 b03e 51a4 04be 2056 95be c8f3 35bc
000003f0: 4ca5 30bd 071d 033e d12e f1bb 45ab 173e
-0.18080135 0.3881845 -0.12978092 0.30624652 0.45102528 0.13060708 -0.4012727 0.0185609
0.16812828 -0.31775114 0.049235895 -0.27763367 -0.30882427 0.14787096 -0.024802297 0.05516347
-0.007739747 0.40493554 -0.14423034 0.099320576 -0.06739025 0.16241205 -0.29664195 -0.05635622
0.17713174 -0.02563834 -0.028696917 -0.031115247 -0.035290707 -0.5423232 0.23081301 -0.18460682
-0.049591787 0.2015302 -0.2639449 0.2866206 0.19877881 -0.017930271 -0.06153632 0.21944818
0.17252514 -0.15539739 0.15819511 -0.30057725 0.52915156 -0.03770412 -0.63434184 -0.40396217
-0.018396327 0.19311792 0.06120588 0.23979846 0.2531815 -0.39540848 0.082764514 -0.07632322
-0.29063705 0.16771665 0.08569089 -0.15424375 0.42816448 -0.17737958 -0.20647658 0.07856781
0.23840801 0.17407052 0.18526204 -0.0054946346 0.27309853 0.13720526 -0.012083349 -0.06790215
0.10239968 -0.4066348 -0.39150202 0.020741437 0.08558312 0.35130557 0.115849085 0.2522101
-0.7729097 0.04444543 -0.54945034 0.22810262 -0.15509935 -0.40838048 -0.117040105 0.32331413
0.15361965 -0.37877247 -0.024622334 -0.08061607 -0.09451399 0.12368728 0.205101 -0.06017957
0.06758115 0.047660254 -0.0035979743 0.030132689 0.269806 0.08545014 -0.06091927 -0.034189943
0.20025392 -0.40747428 -0.3233869 0.34286818 -0.10936164 0.025020242 -0.0573207 0.39703637
-0.041220073 -0.0013357429 0.051923312 0.26898876 -0.087225415 -0.13838997 -0.013265942 -0.39510182
0.08994871 0.2909407 0.20933205 0.1341319 0.08638433 0.08400585 -0.2815139 -0.249027
0.021012222 0.251532 0.0797372 0.09098142 0.27749303 0.22851239 0.0869145 -0.49858913
0.092654705 -0.11304919 0.13317882 -0.25392058 -0.08926226 -0.07241359 -0.17329021 0.056182966
0.09834649 -0.19690377 0.20100267 -0.5328669 0.18195708 -0.09447387 -0.16391101 -0.083607584
0.21001264 0.06369353 -0.4039027 0.19281888 0.053350728 0.011744481 -0.31926125 0.35828897
0.28542084 0.048743892 -0.19992031 -0.3297594 -0.11035992 0.24794187 0.15704286 0.028050063
-0.006043958 -0.45639575 -0.42614073 -0.15973134 -0.3106905 -0.11993563 0.22721805 0.28262535
0.3096604 0.10983802 0.061451685 0.29524636 0.1410736 0.24135518 0.25156587 -0.096626714
0.023509482 0.015230661 -0.25171882 -0.24914902 0.06996913 0.18056081 0.06626942 0.040205937
-0.08288411 0.23216045 -0.026446998 -0.37637252 0.02791679 0.26953855 -0.0024679652 -0.32071492
0.23771654 0.461201 -0.003513349 -0.10913039 -0.081648454 -0.05848044 -0.0010840895 0.58888733
-0.3062886 0.04140923 -0.15950264 0.23538646 -0.21315193 0.26045918 0.24240372 -0.14266993
0.3958713 0.67255443 -0.5174657 -0.058343213 -0.2181896 -0.24732615 -0.22169447 -0.20760423
0.1543888 -0.21422243 -0.06234027 -0.052791726 0.04834424 0.36493102 -0.15975681 0.08767478
-0.25816035 0.29709372 0.2853057 -0.23154598 0.26414126 -0.1885802 -0.120440975 0.09877563
0.25025362 -0.29257464 -0.015752874 0.0038204796 0.23124872 0.028771501 -0.31596974 -0.0052970564
0.34534052 -0.12953307 -0.2916727 -0.011105485 -0.04312639 0.12804042 -0.0073603173 0.14811428
