models/ft_transformer_best_ros_state.pth (torch, 573077 bytes, 28 tensors)

model.cls_token f4 [1, 1, 64]
-0.26526392 -0.0633705 -0.7253633 -1.0709369 -1.2200454 -0.03964983 1.5926286 -1.7473173
-0.3610002 -0.11337423 0.15150014 -1.198568 0.2880475 -0.885111 -0.31041735 -0.0018793658
0.25401825 -0.21842495 -1.649017 0.61586714 0.35020992 -0.45954072 -1.2017732 -0.32997963
-0.010411036 -0.7459445 -0.6618032 0.9550176 -0.6939151 -0.1252155 0.64984643 1.0977321
0.8031938 -1.5783271 0.5856235 -0.6028286 -0.66649395 2.1439216 0.27928445 -1.3613906
-1.156093 3.8599143 -0.9891832 -0.5745104 -0.030746821 1.2633654 -1.3264381 2.7330945
-1.8280799 1.1311208 0.9340976 -0.47477153 -0.6452615 -0.71967757 0.5098488 2.5295208
-1.523689 0.24987175 0.04269371 0.29942733 0.19841725 2.40035 -0.065223224 -0.93860155
00000000: acd0 87be 65c8 81bd 69b1 39bf 7614 89bf
00000010: 732a 9cbf dc67 22bd 41db cb3f 18a8 dfbf
00000020: 05d5 b8be c030 e8bd da22 1b3e ad6a 99bf
00000030: f67a 933e a296 62bf 06ef 9ebe 0d55 f6ba
00000040: ae0e 823e caaa 5fbe fd12 d3bf 78a9 1d3f
00000050: b74e b33e ec48 ebbe b4d3 99bf 17f3 a8be
00000060: 0d93 2abc 38f6 3ebf ef6b 29bf 097c 743f
00000070: 6ca4 31bf 7e38 00be 565c 263f 7c82 8c3f
00000080: 1c9e 4d3f 9f06 cabf 6ceb 153f fa52 1abf
00000090: 599f 2abf 0336 0940 5ffe 8e3e 0c42 aebf
000000a0: dbfa 93bf d608 7740 1c3b 7dbf 1d13 13bf
000000b0: c2e0 fbbc f5b5 a13f b9c8 a9bf 05eb 2e40
000000c0: 86fe e9bf 91c8 903f 0521 6f3f 4115 f3be
000000d0: dc2f 25bf ca3c 38bf 7385 023f abe3 2140
000000e0: 3e08 c3bf 61de 7f3e 9adf 2e3d 8a4e 993e
000000f0: e42d 4b3e 569f 1940 c193 85bd 3148 70bf

model.categorical_embeds.weight f4 [26, 64]
-0.4193267 1.1084487 -0.7201345 -0.4694994 -0.67371756 -0.028297354 0.20161302 -0.0945155
-0.583634 1.2842299 1.4513965 -1.538803 0.31974232 0.9254718 0.6519141 1.8038257
0.6267232 -0.13634916 1.4290301 1.1826243 1.0143063 -1.7035441 -0.45366737 -1.0654242
0.3017629 -0.8441923 -0.26044846 1.8052104 0.10616576 1.4363582 1.0827068 -0.9003105
-1.7537719 -0.72175324 -0.66470474 1.5609331 1.9337094 -1.4803298 -1.434822 -2.0852113
0.52401125 1.5565556 -0.46969733 -2.3759885 -1.5865974 0.3021594 0.49187133 1.3965389
0.86471754 0.35951322 0.8250191 -0.7477607 0.9053096 0.0052580084 -2.013951 -1.3515422
-0.39778164 -0.46185806 -1.4623414 0.7411286 -0.98293906 0.13900104 -1.6931767 0.38224217
0.63180834 0.26048326 1.2576876 -1.7398056 -0.79773235 -0.1441417 1.8344262 2.0503383
-0.7201159 0.47557938 0.27300498 0.08640892 0.011631321 0.2297464 0.9261116 1.4989537
2.15186 -1.2969344 0.22627671 0.37827793 0.79326534 -0.43047822 -0.006012678 -1.3662734
-0.7392233 -0.0033034454 -0.41720277 2.6928241 1.6166215 1.4740961 -0.3088661 -1.0040089
1.3119661 0.3681062 2.0714028 0.7125813 0.66631585 1.0536085 -2.0462847 1.6683154
-1.3669109 -1.1626445 -1.0457315 -0.23434106 1.0742168 1.0767176 0.6896447 -2.0886045
0.83117354 -1.9696751 -0.030171325 1.4186064 -1.032167 -0.19100365 -0.76055115 -2.1008701
-0.37677604 -1.2844656 0.13027199 0.5895314 0.77754337 0.9755034 -0.75489396 -1.0273468
-2.0702565 -1.3573203 -0.5504437 0.48439276 1.4468042 -0.79648596 -0.42830196 -0.85935324
0.82738113 0.83215934 0.26136872 1.0843798 -0.8780805 -2.152697 -0.82388234 0.7288005
-0.42742473 -0.15494013 -0.014900481 -2.4758759 -1.0122638 -0.9283952 -2.3238177 -0.8930067
-1.0343585 -0.78029484 -1.0746566 -0.91288 0.124133095 -0.8031346 0.34747374 -1.7826655
0.3472472 0.40881416 -0.46625465 -0.37911543 -1.376572 -0.7650501 -0.3556055 1.8637769
0.67107296 -0.58769196 0.4296137 0.52734387 0.40014935 -0.60887 -3.9086561 0.5069665
1.2086694 -0.45289323 -1.0215989 0.1651278 -0.5316852 -1.338439 0.87470233 -0.06807966
0.59497935 1.2660643 -1.5028306 -0.69534 -1.8986374 -0.87694216 1.4344662 -1.160947
2.0271978 0.5702189 -0.6016539 -0.9033367 1.5384248 0.9247449 -1.5789063 1.8388804
-0.8680399 1.603031 -0.5193303 1.0815856 -0.9758128 -0.14589535 0.6926829 -0.6926206
1.4143023 0.5654986 -0.13217898 0.8300248 0.17312644 -0.18843089 -1.7087827 -1.0085486
-0.37432536 -1.3184569 -2.3893538 0.057161365 0.3020012 1.3591361 0.7725328 -2.0978255
-0.4228719 -1.150109 0.40041283 -0.32020655 -0.8053247 0.6665168 0.32039902 1.1126493
-1.06673 -1.4883008 1.2749398 1.8664219 -0.6934795 -0.5761213 -3.5464935 1.7045797
0.16337469 0.21606502 -0.50157106 0.80769706 1.0404603 0.18832299 -1.0983098 -0.73251337
-1.6349432 0.7677361 -1.1811486 0.21611471 0.006104577 -0.21620749 1.0237485 -1.283323
00000000: fdb1 d6be a6e1 8d3f bc5a 38bf 3a62 f0be
00000010: c178 2cbf dacf e7bc a573 4e3e 5891 c1bd
00000020: 0a69 15bf a561 a43f 5cc7 b93f 7ff7 c4bf
00000030: 44b5 a33e b8eb 6c3f d8e3 263f c3e3 e63f
00000040: ee70 203f 1d9f 0bbe 75ea b63f 3c60 973f
00000050: cad4 813f bc0d dabf 1747 e8be d25f 88bf
00000060: ab80 9a3e fd1c 58bf 8059 85be 2211 e73f
00000070: 6f6d d93d 96da b73f 2396 8a3f c07a 66bf
00000080: 997b e0bf d2c4 38bf 172a 2abf a8cc c73f
00000090: ca83 f73f 727b bdbf 3fa8 b7bf 1a74 05c0
000000a0: 9a25 063f 373d c73f 2b7c f0be 3210 18c0
000000b0: a015 cbbf a3b4 9a3e 8fd6 fb3e c9c1 b23f
000000c0: 215e 5d3f 1e12 b83e 7434 533f 3f6d 3fbf
000000d0: 5fc2 673f 5f4b ac3b 93e4 00c0 56ff acbf
000000e0: 09aa cbbe a978 ecbe 012e bbbf 9bba 3d3f
000000f0: e5a1 7bbf 4a56 0e3e 04ba d8bf 3fb5 c33e
00000100: 31be 213f 105e 853e e8fb a03f f3b1 debf
00000110: 3038 4cbf e299 13be 7ace ea3f be38 0340
00000120: 8459 38bf 247f f33e 4fc7 8b3e 29f7 b03d
00000130: 4c91 3e3c a442 6b3e a615 6d3f b7dd bf3f
00000140: 13b8 0940 f201 a6bf 15b5 673e a5ad c13e
00000150: 7013 4b3f a467 dcbe 0006 c5bb 0ce2 aebf
00000160: bd3d 3dbf 9e7e 58bb 9a9b d5be 3b57 2c40
00000170: 74ed ce3f 2eaf bc3f b323 9ebe 5d83 80bf
00000180: 81ee a73f 6a78 bc3e dd91 0440 ba6b 363f
00000190: ad93 2a3f a5dc 863f 54f6 02c0 5c8b d53f
000001a0: f0f6 aebf 89d1 94bf 88da 85bf 1af7 6fbe
000001b0: f07f 893f e2d1 893f 8e8c 303f b2ab 05c0
000001c0: cac7 543f 501e fcbf db29 f7bc e594 b53f
000001d0: 0c1e 84bf 7696 43be 7bb3 42bf a874 06c0
000001e0: cae8 c0be 5e69 a4bf 0566 053e 88eb 163f
000001f0: 150d 473f 97ba 793f bb40 41bf 1a80 83bf
00000200: 157f 04c0 acbc adbf e1e9 0cbf 5402 f83e
00000210: e130 b93f 81e6 4bbf 654a dbbe 93fe 5bbf
00000220: 40cf 533f 6508 553f 1fd2 853e f5cc 8a3f
00000230: e2c9 60bf cac5 09c0 f4e9 52bf ab92 3a3f
00000240: 6ad7 dabe a0a8 1ebe 2621 74bc c074 1ec0
00000250: dc91 81bf 4fab 6dbf 6eb9 14c0 169c 64bf
00000260: dc65 84bf 67c1 47bf 598e 89bf 81b2 69bf
00000270: 7e39 fe3d 3b9a 4dbf 14e8 b13e 622e e4bf
00000280: 63ca b13e 1750 d13e eeb8 eebe 6b1b c2be
00000290: 8333 b0bf 53da 43bf ed11 b6be 3e90 ee3f
000002a0: 70cb 2b3f fb72 16bf 54f6 db3e 0200 073f
000002b0: 60e0 cc3e e8de 1bbf 6c27 7ac0 8ec8 013f
000002c0: aeb5 9a3f 9fe1 e7be c1c3 82bf 4317 293e
000002d0: 851c 08bf f851 abbf 7eec 5f3f 596d 8bbd
000002e0: 9150 183f 650e a23f c15c c0bf cd01 32bf
000002f0: 8d06 f3bf 487f 60bf 979c b73f e999 94bf
00000300: 9cbd 0140 def9 113f fd05 1abf 1341 67bf
00000310: 1beb c43f 15bc 6c3f 9a19 cabf 6f60 eb3f
00000320: dd37 5ebf 1f30 cd3f d5f2 04bf 6671 8a3f
00000330: dece 79bf 9765 15be ab53 313f 954f 31bf
00000340: dc07 b53f 84c4 103f ed59 07be 817c 543f
00000350: 0f48 313e 07f4 40be 64b9 dabf 1f18 81bf
00000360: 93a7 bfbe 32c3 a8bf 2ceb 18c0 0922 6a3d
00000370: e79f 9a3e 2cf8 ad3f b6c4 453f c642 06c0
00000380: aa82 d8be c636 93bf e902 cd3e 1df2 a3be
00000390: c229 4ebf d8a0 2a3f 570b a43e 4b6b 8e3f
000003a0: 9c8a 88bf a480 bebf 3a31 a33f eae6 ee3f
000003b0: df87 31bf af7c 13bf c0f9 62c0 ab2f da3f
000003c0: b24b 273e 2640 5d3e f666 00bf 3cc5 4e3f
000003d0: ce2d 853f bed7 403e 6a95 8cbf ff85 3bbf
000003e0: d245 d1bf 5a8a 443f e12f 97bf 2d4d 5d3e
000003f0: e708 c83b 7f65 5dbe 310a 833f ee43 a4bf

model.numerical_embedder.weights f4 [41, 64]
-0.39582965 -0.111329764 1.6806157 0.71725637 -0.23827045 1.3837302 0.3670776 0.45760563
0.32684496 0.85732436 -0.03224405 -0.05585729 1.2210938 -1.1012343 -0.22883749 1.9863771
-2.0854301 -0.13545704 0.20471857 0.034378733 -0.47891843 -1.2453538 -1.0094148 -0.28356817
0.2529179 -0.72452927 -1.6778033 -0.41195408 2.3751762 1.4276056 1.9220986 0.2561713
0.76060104 1.0947783 1.6709018 -0.43478894 -1.5578065 -0.6265152 0.93553144 2.2032306
-0.26870242 -1.0537308 -2.087822 -1.738144 1.8212221 2.207137 0.67336404 -0.73383546
-1.4538232 1.1801105 -0.2813308 -2.3433065 0.773048 -0.3846197 -0.5618049 -0.2897366
0.5204257 -0.34618655 0.12315986 2.1505032 0.9398755 1.1298585 2.2981367 -0.0787338
1.5000075 2.035647 -0.57987356 0.41072038 -2.700934 1.1691855 1.8676864 0.24221148
1.4758079 -0.2842821 0.880123 -1.4966631 1.0697271 -1.0829939 0.92043734 -0.35037738
0.047681544 0.90127265 0.66657835 -2.1102471 -0.61522853 0.21918768 1.2673881 -0.7382204
0.3510081 -1.9143999 2.015566 0.576782 1.7303914 0.51509845 -0.8986188 -0.9301358
0.3447365 0.30910072 -0.5969683 0.92838585 -0.231052 -0.016304767 -0.19321153 -3.1170652
0.34772727 -0.3522367 0.46495938 0.6701801 0.17752443 -0.27805936 0.6223298 1.0263041
-1.1084533 -0.9279852 0.44087902 -0.5138655 1.8409231 -1.3682433 -1.4250787 0.013233872
-1.3888364 -1.3225932 0.76019055 -0.48515716 -0.7839194 0.04883121 -0.02133015 0.4988753
0.17245442 0.9671563 0.9450905 1.1211094 -1.4973034 -1.1745296 -0.35167062 0.8506579
-0.40257257 3.0095553 -0.67772216 -1.075879 0.09318774 0.5706274 -0.16821201 -1.6051483
-1.3550167 0.6006292 0.03876045 -1.511039 -1.9109224 -1.7691027 0.42837942 -1.1023701
-1.6880445 -1.408453 2.8161798 1.224882 -2.7614355 -1.8587617 0.65132636 -0.09085342
1.5995634 -1.3117013 0.17670244 0.32591864 -0.69601285 -0.026112 -1.238525 2.2008626
0.63419193 -0.010747323 0.32858628 -3.1830757 -1.0973958 1.2037117 0.035188463 -0.33440268
-2.608202 0.13463975 -0.38020304 0.64188105 -1.6189369 3.2859263 -0.5473027 -0.6223341
1.2947767 0.7303168 0.20287055 0.8798495 0.33091608 0.88202864 0.76778615 1.5702574
0.3950527 -1.1234542 -1.0323224 0.42542142 -2.5455828 0.35661542 0.18921831 -0.99437493
-1.8160481 1.9431032 2.0252779 -0.17015272 -0.16632259 -0.23076537 -0.23962028 -1.0001975
3.5802035 -0.19093233 -0.7736042 -0.6382799 0.102044515 0.6736139 -0.033414435 4.250201
0.59177667 1.4978776 -2.4591866 1.2136399 -1.1175243 0.8338898 -0.665034 0.522361
1.7632996 1.7184013 -0.7887939 1.4138469 0.04524492 -1.2659669 0.0036653103 -0.81160486
2.198195 -0.29576454 1.5673542 0.16443473 -0.8545246 1.8267307 -0.55271137 -1.061686
-1.2593379 1.2730404 2.1807733 0.79916656 -0.9263539 -0.30779514 -1.338945 -0.49636745
2.353122 1.3472998 -0.84265417 -1.0291544 1.2266822 0.4337003 -1.1277176 -2.5675879
00000000: 2faa cabe dc00 e4bd 6a1e d73f 1d9e 373f
00000010: 2bfd 73be 121e b13f 98f1 bb3e 494b ea3e
00000020: 3958 a73e 9c79 5b3f 5612 04bd 9dca 64bd
00000030: cd4c 9c3f 3ff5 8cbf 6054 6abe 9b41 fe3f
00000040: b077 05c0 40b5 0abe bfa1 513e b7d0 0c3d
00000050: cc34 f5be c167 9fbf 8134 81bf d92f 91be
00000060: 747e 813e c07a 39bf 42c2 d6bf a5eb d2be
00000070: e302 1840 c8bb b63f 5407 f63f e228 833e
00000080: c0b6 423f b221 8c3f 1ce0 d53f a89c debe
00000090: 3466 c7bf 4d63 20bf fd7e 6f3f bb01 0d40
000000a0: 5d93 89be a7e0 86bf e09e 05c0 817b debf
000000b0: ce1d e93f bc41 0d40 9661 2c3f a4dc 3bbf
000000c0: e116 babf dc0d 973f 970a 90be bcf8 15c0
000000d0: 79e6 453f e0ec c4be 72d2 0fbf 5b58 94be
000000e0: 9e3a 053f 5d3f b1be 3d3b fc3d d8a1 0940
000000f0: ae9b 703f 349f 903f ac14 1340 303f a1bd
00000100: 3f00 c03f 0a48 0240 9872 14bf f149 d23e
00000110: 1adc 2cc0 dfa7 953f 5910 ef3f 4906 783e
00000120: 46e7 bc3f 6c8d 91be be4f 613f a892 bfbf
00000130: d1ec 883f 8b9f 8abf c8a1 6b3f aa64 b3be
00000140: b94d 433d ceb9 663f e1a4 2a3f 4a0e 07c0
00000150: 9e7f 1dbf bc72 603e c639 a23f 03fc 3cbf
00000160: 55b7 b33e 0e0b f5bf 09ff 0040 fca7 133f
00000170: 777d dd3f 7edd 033f e20b 66bf 611d 6ebf
00000180: 4d81 b03e 7342 9e3e ead2 18bf b2aa 6d3f
00000190: e598 6cbe 9391 85bc 3ed9 45be ff7d 47c0
000001a0: 4f09 b23e 5e58 b4be 280f ee3e ec90 2b3f
000001b0: f7c8 353e cc5d 8ebe 0151 1f3f ef5d 833f
000001c0: cce1 8dbf 7090 6dbf e5ba e13e b08c 03bf
000001d0: 5ea3 eb3f 9922 afbf fb68 b6bf e2d2 583c
000001e0: 64c5 b1bf bc4a a9bf d99b 423f 8566 f8be
000001f0: f1ae 48bf 3c03 483d 91bc aebc 956c ff3e
00000200: e497 303e 8e97 773f 73f1 713f 8380 8f3f
00000210: a3a7 bfbf fc56 96bf 2c0e b4be b7c4 593f
00000220: fe1d cebe 8e9c 4040 337f 2dbf 67b6 89bf
00000230: 37d9 be3d a314 123f c53f 2cbe 8075 cdbf
00000240: 3071 adbf d6c2 193f 47c3 1e3d ba69 c1bf
00000250: 1b99 f4bf f571 e2bf 8c54 db3e 771a 8dbf
00000260: d811 d8bf 3048 b4bf 4a3c 3440 efc8 9c3f
00000270: 5cbb 30c0 e7eb edbf 53bd 263f 5c11 babd
00000280: 7ebe cc3f d4e5 a7bf 7cf1 343e cfde a63e
00000290: e62d 32bf d5e8 d5bc fd87 9ebf efda 0c40
000002a0: 675a 223f 8a15 30bc 763c a83e 83b7 4bc0
000002b0: 7777 8cbf 3a13 9a3f c721 103d d436 abbe
000002c0: c8ec 26c0 01df 093e f9a9 c2be 5152 243f
000002d0: 5339 cfbf 9e4c 5240 081c 0cbf 4a51 1fbf
000002e0: 3ebb a53f 0bf6 3a3f 4cbd 4f3e d13d 613f
000002f0: d56d a93e a1cc 613f a28d 443f 32fe c83f
00000300: 5944 ca3e 59cd 8fbf 2423 84bf d6d0 d93e
00000310: d4ea 22c0 4c96 b63e 72c2 413e 5b8f 7ebf
00000320: 4474 e8bf 9bb7 f83f 279e 0140 843c 2ebe
00000330: 7850 2abe c24d 6cbe 055f 75be 7906 80bf
00000340: 0e22 6540 c483 43be ed0a 46bf 5066 23bf
00000350: b7fc d03d f671 2c3f 93dd 08bd a601 8840
00000360: ad7e 173f 74ba bf3f 5063 1dc0 8d58 9b3f
00000370: 090b 8fbf cd79 553f ab3f 2abf 73b9 053f
00000380: cdb3 e13f 93f4 db3f 66ee 49bf eff8 b43f
00000390: bd52 393d 340b a2bf b435 703b 56c5 4fbf
000003a0: 3aaf 0c40 736e 97be 109f c83f 9461 283e
000003b0: 20c2 5abf 50d2 e93f 7e7e 0dbf 54e5 87bf
000003c0: fc31 a1bf fdf2 a23f ca91 0b40 2e96 4c3f
000003d0: 8725 6dbf 5397 9dbe 8d62 abbf e023 febe
000003e0: 8d99 1640 5274 ac3f 2fb8 57bf 55bb 83bf
000003f0: ec03 9d3f f70d de3e 0d59 90bf 5c53 24c0

model.numerical_embedder.biases f4 [41, 64]
0.20682156 0.09036113 -0.012486341 -1.2704136 -0.43131983 -0.38600975 1.7265891 0.85353214
-0.9177077 0.3355368 -0.45141357 -1.2242106 0.2782935 1.4776932 1.0524808 -1.6878693
-1.099571 0.005258214 2.3291209 1.0913842 -0.6136804 0.39107504 1.5899962 0.14999984
0.91511166 -0.35637748 1.3955759 -0.29300877 -0.37856922 -0.23682283 -0.08117243 -0.18269612
0.85568315 0.91924405 -1.427695 -0.45356703 -0.21615498 0.09400146 -0.3951404 -0.12136843
0.88173693 1.3619524 1.9843477 0.5291805 0.354796 -0.7542004 -0.29459742 -2.0758429
0.6364064 0.52564466 2.6247547 0.1231387 1.868223 -0.61171794 0.86216915 0.9981013
0.056336574 -0.34099257 0.5563033 0.13472301 -0.18439242 -1.5610242 -0.26540658 -0.5905246
-0.3496208 0.24644108 2.1629379 -3.1294699 -0.18314837 0.47326785 -0.26812842 0.26104409
0.22064869 0.62655735 0.098329194 -0.56631476 -0.08536233 1.0881444 0.9387349 0.65391517
-0.3742896 0.35467473 -0.6006024 -0.9429316 -0.16663626 -0.41689122 2.0401642 -0.017599367
-0.49708182 1.0717645 -1.4248228 0.66537404 0.19891573 -0.2100858 0.1296241 1.7459514
0.024707107 -0.5554133 0.05985903 0.20023046 0.7543408 -1.3017528 1.2808316 0.47533825
-1.6864998 1.1951019 1.5121683 -1.2277161 -0.11166986 0.82233864 -0.3320272 0.37415925
0.17918932 1.1267303 -1.7388928 -1.1783825 -0.44437608 0.17032261 -0.13919607 0.13948688
0.11998074 -0.032125253 -1.5643939 -0.7800077 -1.5107343 0.68305707 -0.8497764 0.5142611
0.49095407 -0.44947517 -1.1341635 -0.1735881 0.50726855 0.6749839 -0.9584233 0.75948805
0.75973153 0.80106395 -1.6278101 -1.3380575 1.2577384 0.09063058 -0.2132823 0.35604107
0.7059572 -1.489053 -0.1003413 -1.4023036 0.49100366 -0.20598672 -0.12675397 -0.121871196
0.6889221 -0.30363208 -1.5175908 -1.3845435 -1.7265185 1.1593394 -0.6741623 -1.3085113
-0.07980076 1.1894182 -1.350319 -1.3483839 0.6792243 -0.9524617 0.5273286 -0.35574168
-1.3877376 0.9563639 0.52138376 0.6075181 1.8545738 0.3921687 -1.6212943 -0.44876623
0.8950539 -1.053772 -0.33069065 -0.91131103 -1.1525006 -0.11931181 0.35150966 0.6305131
0.37055808 -0.29782048 0.052901775 -0.23586684 -0.82037777 0.8908204 -0.07374929 -0.7226937
1.0703961 -1.3355182 -0.08708619 0.24666779 1.1509166 -0.32888508 -0.82416433 1.0821822
0.6801709 1.1687725 -0.33562246 -0.5529105 2.2622533 0.35319617 0.98397726 0.64456254
-0.48990628 -1.7025476 -0.8390543 0.7650634 -0.17441846 -0.13085145 1.2539816 -0.13092987
0.87597704 -0.66146964 -1.3922043 0.2820159 1.3386447 -0.48708814 -1.0541905 -0.66302705
-0.03185178 1.2432033 -0.19631581 -0.6940955 -0.87647444 2.547627 -0.2500002 -0.005436139
1.1562804 -0.15360586 -0.44718403 0.2336972 0.8102186 1.0335461 0.9876022 0.46373263
-0.25782588 -0.8627831 1.6464367 -0.8944916 1.3622947 0.9611398 1.3822544 1.0935855
-1.2457958 -0.9160696 -0.2600348 -0.42120066 -0.31569695 -0.08169482 -0.88809794 1.4685661
00000000: 08c9 533e 420f b93d 8393 4cbc ea9c a2bf
00000010: f4d5 dcbe 12a3 c5be df00 dd3f 1581 5a3f
00000020: e4ee 6abf 7bcb ab3e ae1f e7be efb2 9cbf
00000030: 7c7c 8e3e 0d25 bd3f b1b7 863f 1a0c d8bf
00000040: bebe 8cbf 194d ac3b 5110 1540 7ab2 8b3f
00000050: 291a 1dbf fd3a c83e ff84 cb3f 8f99 193e
00000060: c244 6a3f 1c77 b6be 3ba2 b23f 3f05 96be
00000070: d3d3 c1be af81 72be bb3d a6bd b114 3bbe
00000080: 0d0e 5b3f 9453 6b3f b6be b6bf f039 e8be
00000090: bb57 5dbe d683 c03d d84f cabe 0390 f8bd
000000a0: 83b9 613f 7554 ae3f 1bff fd3f 6078 073f
000000b0: d2a7 b53e 4713 41bf 79d5 96be 9cda 04c0
000000c0: 88eb 223f a690 063f fbfb 2740 2530 fc3d
000000d0: ee21 ef3f 8c99 1cbf 1eb7 5c3f 9183 7f3f
000000e0: 2ec1 663d 9496 aebe e569 0e3f d4f4 093e
000000f0: 5ed1 3cbe a4cf c7bf 5fe3 87be 9f2c 17bf
00000100: 7f01 b3be 0d5b 7c3e 936d 0a40 3c49 48c0
00000110: 3f8b 3bbe 2a50 f23e 2148 89be 92a7 853e
00000120: bbf1 613e 1066 203f d160 c93d 01fa 10bf
00000130: 72d2 aebd 5148 8b3f ee50 703f fc66 273f
00000140: e3a2 bfbe ed97 b53e 14c1 19bf f763 71bf
00000150: b2a2 2abe c472 d5be 0d92 0240 8c2c 90bc
00000160: 8281 febe 942f 893f 9860 b6bf f455 2a3f
00000170: 91b0 4b3e bb20 57be 2ebc 043e 567b df3f
00000180: 8f66 ca3c 912f 0ebf be2e 753d 3709 4d3e
00000190: 7b1c 413f d69f a6bf 4af2 a33f 895f f33e
000001a0: 3adf d7bf 19f9 983f bb8e c13f cd25 9dbf
000001b0: 2bb3 e4bd c984 523f 78ff a9be cd91 bf3e
000001c0: 687d 373e b338 903f 0a94 debf 3dd5 96bf
000001d0: 4385 e3be 0d69 2e3e 6a89 0ebe a6d5 0e3e
000001e0: 76b8 f53d c595 03bd 0f3e c8bf 96ae 47bf
000001f0: be5f c1bf d4dc 2e3f f28a 59bf 9ea6 033f
00000200: 555e fb3e 9c21 e6be 452c 91bf 14c1 31be
00000210: 5adc 013f bfcb 2c3f 3b5b 75bf cf6d 423f
00000220: c47d 423f 8712 4d3f 155c d0bf 7845 abbf
00000230: 92fd a03f 879c b93d ad66 5abe 044b b63e
00000240: 9cb9 343f 4a99 bebf bd7f cdbd af7e b3bf
00000250: d564 fb3e 2fee 52be cbcb 01be 9b97 f9bd
00000260: 335d 303f aa75 9bbe 6a40 c2bf b938 b1bf
00000270: 8ffe dcbf 3c65 943f e795 2cbf 4c7d a7bf
00000280: 956e a3bd db3e 983f 41d7 acbf d897 acbf
00000290: a5e1 2d3f 88d4 73bf 02ff 063f c623 b6be
000002a0: 63a1 b1bf 44d4 743f 6879 053f 4e86 1b3f
000002b0: ad62 ed3f 56ca c83e 9286 cfbf b0c4 e5be
000002c0: 4122 653f 00e2 86bf 4950 a9be ae4b 69bf
000002d0: 2485 93bf c059 f4bd 13f9 b33e 4e69 213f
000002e0: cab9 bd3e ed7b 98be 88af 583d 1487 71be
000002f0: 4704 52bf ce0c 643f de09 97bd 7402 39bf
00000300: bd02 893f 43f2 aabf 3f5a b2bd 7b96 7c3e
00000310: 3c51 933f a063 a8be 6ffc 52bf f284 8a3f
00000320: ae1f 2e3f 569a 953f b5d6 abbe 8b8b 0dbf
00000330: c2c8 1040 21d6 b43e efe5 7b3f 0d02 253f
00000340: ffd4 fabe 14ed d9bf 43cc 56bf 32db 433f
00000350: c19a 32be ecfd 05be 7882 a03f 7b12 06be
00000360: 0840 603f 1356 29bf c033 b2bf 6364 903e
00000370: b658 ab3f 9e63 f9be b7ef 86bf 24bc 29bf
00000380: 0377 02bd 4921 9f3f 0307 49be 3eb0 31bf
00000390: a160 60bf 520c 2340 0700 80be a421 b2bb
000003a0: ff00 943f db4a 1dbe 4ef5 e4be 524e 6f3e
000003b0: 7c6a 4f3f 3d4b 843f 7fd3 7c3f 5d6e ed3e
000003c0: c101 84be 5adf 5cbf 70be d23f 67fd 64bf
000003d0: ac5f ae3f 420d 763f b6ed b03f 9cfa 8b3f
000003e0: 3d76 9fbf 8a83 6abf 4823 85be 9da7 d7be
000003f0: 08a3 a1be 9d4f a7bd 635a 63bf f9f9 bb3f

model.transformer.layers.0.0.branch.norm.weight f4 [64]
0.31479505 0.43660215 0.68687433 0.5041382 0.47448683 0.5044336 0.5604191 0.6440607
0.5046031 0.48954633 0.52289206 0.2942942 0.612817 0.32691157 0.37606713 0.5254581
0.51143914 0.5068647 0.42753676 0.58849484 0.46973413 0.7304042 0.4928541 0.40731958
0.62517154 0.42302683 0.5824578 0.5127471 0.5934364 0.49815217 0.3652627 0.2984423
0.35139832 0.4430641 0.53478694 0.43226242 0.7078704 0.40030175 0.801504 0.72437143
0.64319 0.19434196 0.616621 0.61046463 0.5108702 0.6062432 0.42909858 0.45825884
0.6323756 0.6354736 0.4791304 0.592769 0.7218706 0.77202255 0.47272536 0.4643653
0.38586777 0.6331288 0.44152823 0.65460664 0.5695345 0.4053402 0.6227218 0.48173773
00000000: d12c a13e 518a df3e ffd6 2f3f 330f 013f
00000010: f0ef f23e 8f22 013f a077 0f3f 29e1 243f
00000020: ab2d 013f d1a5 fa3e 41dc 053f bbad 963e
00000030: 93e1 1c3f f460 a73e df8b c03e 6c84 063f
00000040: aded 023f e3c1 013f 19e6 da3e 99a7 163f
00000050: fe80 f03e c5fb 3a3f 5f57 fc3e 318c d03e
00000060: 3e0b 203f f996 d83e f41b 153f 6543 033f
00000070: 73eb 173f cd0d ff3e b603 bb3e 6ecd 983e
00000080: 7bea b33e 4cd9 e23e cce7 083f 8051 dd3e
00000090: ff36 353f 5af4 cc3e 5e2f 4d3f 6870 393f
000000a0: 1aa8 243f 9401 473e e0da 1d3f 6947 1c3f
000000b0: 64c8 023f c132 1b3f cfb2 db3e e7a0 ea3e
000000c0: 5ee3 213f 66ae 223f 9450 f53e b6bf 173f
000000d0: 83cc 383f 45a3 453f 0f09 f23e 4ac1 ed3e
000000e0: 7690 c53e bb14 223f fd0f e23e 4d94 273f
000000f0: 03cd 113f c088 cf3e b26a 1f3f 54a6 f63e

model.transformer.layers.0.0.branch.norm.bias f4 [64]
-0.015187501 -0.029439267 0.12697963 0.0044610933 0.09253912 -0.044879355 -0.013547777 -0.08304681
0.009440427 0.12049685 0.21143444 0.08229555 -0.04912803 -0.001968625 -0.05567649 0.0036664808
0.010580497 0.11596874 -0.06009545 0.041273717 0.0023005467 0.03589161 0.03158088 -0.04819667
-0.088540934 0.05697106 0.09805021 -0.082690544 -0.072666354 -0.018213885 0.022904541 -0.09092666
0.038754936 0.085319154 0.029380301 -0.0005161057 0.034106225 -0.13250484 0.0053766505 0.07803989
0.14559574 -0.086804904 -0.12510623 0.12090509 -0.11139044 -0.10415947 0.04989399 -0.019870942
0.102024436 -0.03450109 -0.08626042 0.09780698 -0.028787864 -0.03586101 -0.15434481 -0.11147738
0.06885726 0.0031677848 0.021352297 0.107422665 0.06453052 -0.04061446 0.0665118 0.09454541
00000000: ffd4 78bc 9e2a f1bc f306 023e 5d2e 923b
00000010: 2685 bd3d 6ad3 37bd 7ff7 5dbc 7214 aabd
00000020: 05ac 1a3c 0dc7 f63d 4582 583e 928a a83d
00000030: 793a 49bd 0c04 01bb 080d 64bd 5749 703b
00000040: d259 2d3c 0581 ed3d a626 76bd a10e 293d
00000050: c5c4 163b 1503 133d f45a 013d df69 45bd
00000060: f354 b5bd 7c5a 693d 8cce c83d a959 a9bd
00000070: 19d2 94bd 4935 95bc 4ea2 bb3c c237 babd
00000080: 7fbd 1e3d cfbb ae3d f5ae f03c 444b 07ba
00000090: f8b2 0b3d 59af 07be 9d2e b03b 61d3 9f3d
000000a0: 0d17 153e c5c6 b1bd d91b 00be 169d f73d
000000b0: ac20 e4bd 8f51 d5bd a45d 4c3d 63c8 a2bc
000000c0: 30f2 d03d 0451 0dbd 4ea9 b0bd 074f c83d
000000d0: 87d4 ebbc ffe2 12bd 910c 1ebe 414e e4bd
000000e0: 0905 8d3d 9c9a 4f3b 03eb ae3c 6a00 dc3d
000000f0: 9428 843d 595b 26bd 5737 883d 06a1 c13d

model.transformer.layers.0.0.branch.to_qkv.weight f4 [192, 64]
0.14069687 0.5105193 -0.696431 -0.2068776 0.078339316 -0.03593249 0.2796973 0.24156342
0.22600874 -0.13482147 -0.10619144 0.0934412 -0.18718328 -0.18674336 -0.12407808 0.19328915
0.44057173 0.07744132 0.021695564 0.2950911 0.011669686 -0.050743487 -0.21445031 0.1527421
0.21698698 0.16788037 -0.049029537 0.079941824 -0.36445087 0.0021944558 0.18491748 0.1741924
0.1779292 -0.1192983 0.18561964 -0.2825715 0.2283823 -0.028105404 0.12772138 -0.30235875
0.19501273 -0.12897554 -0.23911422 0.095017314 0.12352841 -0.11454108 -0.0045085526 -0.039526217
0.11566649 -0.046892155 -0.2733702 0.6954289 0.2419394 -0.15029006 -0.04264308 -0.117648035
-0.17578536 -0.09174725 0.21265133 -0.044211287 -0.6425049 -0.05004549 0.17013602 0.06413039
-0.28688493 -0.009954128 0.22172229 0.08425466 0.22252962 -0.22543107 0.07925008 -0.20141329
-0.2223763 0.38870984 -0.046885658 -0.32086092 0.41223478 0.36911184 0.2266151 -0.72204757
-0.22922216 0.21901004 -0.30289632 -0.0712611 0.31349266 -0.24013095 -0.20172401 0.16303118
-0.087680005 -0.01739921 -0.3730379 -0.25399384 0.06708492 0.6378287 0.039875813 0.019351281
-0.38063043 0.3185674 -0.14049794 0.1846469 -0.44865412 -0.249082 -0.25236028 0.3013359
0.21733843 -0.32171845 0.11199148 0.034590565 -0.18303825 0.22009286 0.0804704 0.24394059
-0.17580362 -0.12737873 0.21104862 0.3489049 -0.3788409 0.28146523 -0.2216328 -0.0947135
-0.39518777 -0.2770291 0.31343782 0.54740506 0.0718106 0.10888117 0.36379296 0.40183502
0.05574122 -0.27756742 0.24594888 0.17518695 -0.18065365 -0.22097147 -0.17520845 -0.326971
-0.035105046 0.37753114 0.19041158 -0.25699824 0.16821863 0.35457945 0.10081837 -0.20064197
0.10700586 -0.15272251 0.13739218 -0.031217514 0.2321034 0.2831313 0.033510204 0.34956768
0.03811842 -0.44315124 -0.36799884 -0.09475941 0.12654403 0.0979627 0.14406921 0.009278247
0.0788583 0.45017776 -0.012326203 -0.11403723 -0.12069097 0.11949241 -0.29748157 0.19734877
0.06277375 -0.42025262 0.38377887 -0.34707668 0.038492363 -0.22816616 0.02696716 -0.08178568
-0.24804536 0.102932334 0.047242943 -0.16578768 -0.26928535 -0.010066573 -0.4754497 -0.0078002824
-0.06991915 -0.040025093 -0.040909477 0.13166195 0.28677475 0.055617858 0.27432427 -0.124667384
0.2174278 0.07762212 0.0124024935 0.27193975 0.14652711 0.130549 -0.29892802 0.27417108
0.080302574 0.41306353 0.23341395 -0.06599534 -0.10961668 0.3228913 -0.12678936 -0.47466907
-0.3276333 0.23049952 0.11437808 -0.36924613 0.4681094 -0.41566727 -0.33221674 -0.34989256
0.08078618 -0.14909141 -0.191192 -0.20168678 -0.08364321 0.14612186 0.24783084 -0.031564698
-0.44211414 0.5052806 -0.23628192 -0.51328546 -0.33204597 0.0042802165 0.024064248 0.15776196
0.064451136 -0.030964982 0.45355728 0.28990012 0.20072575 0.048524007 0.009503373 -0.39134368
0.08518868 0.060781434 -0.5637193 0.017858084 -0.013268715 0.18775252 0.30225655 0.07095728
-0.11085663 0.13037497 0.09302102 0.16908272 0.25303936 0.24868953 0.15252079 -0.076248154
00000000: d712 103e 65b1 023f 4d49 32bf b9d7 53be
00000010: 5d70 a03d f22d 13bd 7c34 8f3e 675c 773e
00000020: d66e 673e a40e 0abe e67a d9bd 1a5e bf3d
00000030: f9ac 3fbe a739 3fbe a61c febd 97ed 453e
00000040: 9e92 e13e 8e99 9e3d e5ba b13c 2e16 973e
00000050: 3632 3f3c 67d8 4fbd dd98 5bbe 6d68 1c3e
00000060: d631 5e3e d5e8 2b3e 32d3 48bd 8ab8 a33d
00000070: 4e99 babe dcd0 0f3b 025b 3d3e 7e5f 323e
00000080: 1233 363e ab52 f4bd 1313 3e3e 36ad 90be
00000090: 0ddd 693e 4e3d e6bc 65c9 023e c4ce 9abe
000000a0: 6bb1 473e 2a12 04be 5cda 74be 7098 c23d
000000b0: 77fc fc3d 8494 eabd 7bbc 93bb 3ee6 21bd
000000c0: 8de2 ec3d fd11 40bd 2ef7 8bbe a107 323f
000000d0: f6be 773e a3e5 19be 83aa 2ebd 74f1 f0bd
000000e0: 1401 34be fbe5 bbbd 45c1 593e e516 35bd
000000f0: 337b 24bf 80fc 4cbd 2338 2e3e cb56 833d
00000100: 95e2 92be a416 23bc 2b0b 633e b58d ac3d
00000110: cede 633e 67d7 66be de4d a23d 493f 4ebe
00000120: 9db6 63be fa04 c73e 2d0b 40bd e247 a4be
00000130: 7010 d33e 3afc bc3e ca0d 683e 1cd8 38bf
00000140: 37b9 6abe 2b44 603e 3a15 9bbe 57f1 91bd
00000150: 1c82 a03e e3e4 75be bd90 4ebe a5f1 263e
00000160: 9391 b3bd ca88 8ebc d3fe bebe 7b0b 82be
00000170: d263 893d be48 233f d254 233d 9486 9e3c
00000180: fee1 c2be 441b a33e b1de 0fbe 1414 3d3e
00000190: feb5 e5be 5a0f 7fbe 5e35 81be b348 9a3e
000001a0: f78d 5e3e 48b8 a4be ca5b e53d d6ae 0d3d
000001b0: 616e 3bbe 0660 613e aacd a43d 90cb 793e
000001c0: dd05 34be 926f 02be 211d 583e aaa3 b23e
000001d0: 6ff7 c1be 361c 903e b5f3 62be 27f9 c1bd
000001e0: 0d56 cabe c2d6 8dbe ec7a a03e bd22 0c3f
000001f0: 7011 933d 17fd de3d 1243 ba3e 52bd cd3e
00000200: e850 643d 511d 8ebe 06da 7b3e 3564 333e
00000210: 45fd 38be 5846 62be d869 33be be68 a7be
00000220: 4fca 0fbd c34b c13e 41fb 423e 4695 83be
00000230: 8141 2c3e 708b b53e dd79 ce3d 1775 4dbe
00000240: e325 db3d 4a63 1cbe 89b0 0c3e dfbb ffbc
00000250: 84ac 6d3e 96f6 903e ff41 093d 89fa b23e
00000260: 0f22 1c3d b8e4 e2be 586a bcbe 3911 c2bd
00000270: c294 013e aba0 c83d e186 133e ca03 183c
00000280: 7680 a13d b37d e63e d8f3 49bc 5a8c e9bd
00000290: d42c f7bd 70b8 f43d 814f 98be cc15 4a3e
000002a0: 868f 803d 5a2b d7be aa7e c43e 09b4 b1be
000002b0: 2baa 1d3d 64a4 69be 3cea dc3c 407f a7bd
000002c0: 9aff 7dbe 30ce d23d d181 413d 3fc4 29be
000002d0: c5df 89be 44ee 24bc 256e f3be 8399 ffbb
000002e0: c531 8fbd 5af1 23bd b290 27bd 64d2 063e
000002f0: 24d4 923e 8dcf 633d 3b74 8c3e 9d51 ffbd
00000300: 65a5 5e3e 59f8 9e3d d433 4b3c b03b 8b3e
00000310: 340b 163e a3ae 053e 180d 99be 2760 8c3e
00000320: ad75 a43d 107d d33e 1104 6f3e 9128 87bd
00000330: b67e e0bd 0252 a53e 12d5 01be d307 f3be
00000340: 8dbf a7be 1108 6c3e 0e3f ea3d d40d bdbe
00000350: 09ac ef3e 57d2 d4be 5018 aabe 1e25 b3be
00000360: 3a73 a53d 6bab 18be d6c7 43be fb86 4ebe
00000370: 224d abbd f8a0 153e 5ec7 7d3e fc49 01bd
00000380: c95c e2be 125a 013f e3f3 71be ad66 03bf
00000390: ee01 aabe 0f41 8c3b 6322 c53c 5a8c 213e
000003a0: f5fe 833d 46aa fdbc a938 e83e ca6d 943e
000003b0: 0d8b 4d3e 1cc1 463d 09b4 1b3c 335e c8be
000003c0: 6777 ae3d f4f5 783d e84f 10bf 1e4b 923c
000003d0: 0665 59bc 3242 403e 5fc1 9a3e 0d52 913d
000003e0: cd08 e3bd 0481 053e ce81 be3d 0524 2d3e
000003f0: 608e 813e 78a8 7e3e 692e 1c3e fe27 9cbd

model.transformer.layers.0.0.branch.to_out.weight f4 [64, 64]
-0.18136017 0.1754851 -0.19250281 -0.03339203 -0.30807722 -0.06947234 0.0150104 0.23203418
0.21904781 -0.24339849 -0.17732961 -0.33285704 -0.13810363 0.41849986 0.03756546 -0.14010243
-0.13774478 0.28532764 -0.21187568 0.109221265 0.060711745 -0.034882165 -0.03847457 -0.109932825
0.19169658 0.17785405 -0.0011878965 -0.08724799 -0.112059884 -0.040445596 -0.020389939 0.15174167
0.2363166 -0.07241759 0.03930582 -0.24207595 0.1576791 -0.20722562 0.67748773 0.036297478
0.03007582 0.22174528 0.25367787 0.23727372 0.03713734 -0.22679196 -0.16898352 -0.19593506
0.21559249 0.14216898 0.27262688 0.19616121 0.049757637 0.15070105 -0.1032442 -0.24143668
0.048122942 -0.20228876 0.41215718 0.67814684 -0.47299215 -0.28053528 0.12951086 -0.123473555
-0.55223167 0.68002194 -0.0041708024 -0.22766873 -0.060347367 0.39880282 -0.0479672 -0.5608384
-0.24080476 0.18581484 0.088069156 0.23493858 -0.0044267736 -0.24195577 0.5921687 0.36909
0.046709217 0.2733623 -0.1870672 0.343476 0.1022129 -0.31633347 -0.027441243 -0.5275068
0.26724344 0.14723645 -0.061327253 -0.19181517 0.007105639 -0.37863916 0.16409504 0.16229422
-0.4740152 0.38884473 -0.42155132 -0.1390165 0.18877487 -0.015711876 0.34397665 -0.32723936
0.1827151 0.613549 -0.2551889 0.13245483 -0.11472041 -0.14991236 -0.12750128 0.4994474
0.026415074 -0.15165222 0.13745461 -0.12851255 -0.11783035 0.3305411 0.17524183 -0.22464655
-0.26875192 0.18667716 0.028567014 -0.15033518 -0.3546325 -0.21406196 -0.29614687 -0.03885972
-0.4644883 -0.39026245 0.14617188 -0.051490232 -0.12228344 0.11713091 -0.59945107 0.134706
-0.22493623 -0.4399414 -0.01616476 0.12638636 -0.29509622 -0.32703114 0.011050075 -0.0010019596
0.33016968 0.491807 -0.31843802 -0.2929023 -0.112103075 0.27073878 -0.120241925 -0.08658664
0.013182048 -0.5480093 0.008133818 -0.29544377 -0.13417727 0.2873414 -0.21919015 -0.19644555
0.070000045 -0.5486163 0.15413347 0.074159674 0.36417064 -0.09087835 0.21536759 0.28898728
-0.029525308 0.15892555 0.1439962 -0.3011149 -0.17948839 -0.18207934 0.40420404 -0.10253742
-0.32316428 -0.010933207 -0.22847338 0.11029816 -0.1443667 0.21373942 0.20871933 0.096832186
0.06301963 -0.21540135 0.034513935 -0.31831685 0.049980167 -0.20639941 -0.029912261 -0.32342598
0.25366828 0.5988403 0.0472153 -0.081131965 -0.0753759 0.13915223 -0.01545786 -0.03721648
0.0016621415 0.020370223 -0.26901844 -0.29570153 0.2583737 0.3616321 -0.039231483 -0.115522005
-0.186577 0.22130376 -0.08567427 -0.3989085 -0.28268313 0.3057717 0.2945156 0.20425165
0.096923485 -0.12143493 -0.00725873 0.27222893 0.10790699 -0.060592104 -0.34006596 -0.009492474
-0.07911632 -0.05180213 0.23255374 -0.2845024 -0.09935556 0.14467673 -0.052346043 -0.09740962
-0.10920295 -0.04913124 0.13088126 0.036325805 -0.21757035 -0.17869969 0.2377937 0.01523392
-0.12502766 -0.22987534 -0.006225017 -0.01974601 -0.20032948 -0.2745827 0.11744147 -0.3133244
-0.22138642 -0.35456353 0.5316242 -0.21737656 -0.2294562 0.054099277 -0.338523 -0.24935794
00000000: 7bb6 39be 5eb2 333e 751f 45be 15c6 08bd
00000010: 4cbc 9dbe 8447 8ebd 2eee 753c 5e9a 6d3e
00000020: 124e 603e 743d 79be e595 35be 3d6c aabe
00000030: 0a6b 0dbe 9d45 d63e 3dde 193d 0377 0fbe
00000040: f80c 0dbe 7716 923e f0f5 58be 66af df3d
00000050: e1ac 783d 9ae0 0ebd 8397 1dbd 7624 e1bd
00000060: 1c4c 443e 5f1f 363e 31b3 9bba 13af b2bd
00000070: a77f e5bd 48aa 25bd cd08 a7bc 2b62 1b3e
00000080: fbfc 713e ac4f 94bd 24ff 203d c2e2 77be
00000090: a176 213e f432 54be d66f 2d3f aaac 143d
000000a0: 9161 f63c 3211 633e 11e2 813e e2f7 723e
000000b0: 531d 183d 273c 68be 040a 2dbe 33a3 48be
000000c0: 47c4 5c3e bf94 113e c095 8b3e 7cde 483e
000000d0: aace 4b3d 6051 1a3e b271 d3bd 2d3b 77be
000000e0: 901c 453d c924 4fbe 4406 d33e 089b 2d3f
000000f0: 072c f2be 52a2 8fbe 7f9e 043e b4df fcbd
00000100: 0e5f 0dbf eb15 2e3f 3aab 88bb fe21 69be
00000110: cd2e 77bd e22f cc3e 4179 44bd 1b93 0fbf
00000120: 8695 76be 3f46 3e3e 9a5d b43d bd93 703e
00000130: 780e 91bb 41c3 77be 5e98 173f 5df9 bc3e
00000140: 2a52 3f3d 25f6 8b3e 8b8e 3fbe 16dc af3e
00000150: ff54 d13d 76f6 a1be 75cc e0bc b00a 07bf
00000160: 22d4 883e 27c5 163e 4932 7bbd 326b 44be
00000170: 6cd6 e83b fedc c1be 8808 283e 7530 263e
00000180: 1fb2 f2be a816 c73e 93d5 d7be 575a 0ebe
00000190: 334e 413e 31b6 80bc b51d b03e eb8b a7be
000001a0: ab19 3b3e 8c11 1d3f 1fa8 82be 3da2 073e
000001b0: 89f2 eabd a082 19be b28f 02be 92b7 ff3e
000001c0: 6d64 d83c b84a 1bbe e7c0 0c3e cb98 03be
000001d0: 0a51 f1bd af3c a93e 9872 333e bf09 66be
000001e0: da99 89be 4c28 3f3e 5f05 ea3c 77f1 19be
000001f0: 6492 b5be 0f33 5bbe 90a0 97be 5f2b 1fbd
00000200: 69d1 edbe 7bd0 c7be 15ae 153e 6ce7 52bd
00000210: bd6f fabd 55e2 ef3d a075 19bf 5ff0 093e
00000220: af55 66be 0040 e1be f56b 84bc 6d6b 013e
00000230: da16 97be a070 a7be 600b 353c 2f54 83ba
00000240: 000c a93e 21ce fb3e 4f0a a3be 4af7 95be
00000250: 4c96 e5bd 469e 8a3e 6641 f6bd 5654 b1bd
00000260: 84f9 573c 564a 0cbf b543 053c 6844 97be
00000270: c465 09be 691e 933e 6273 60be 0629 49be
00000280: 2f5c 8f3d 1e72 0cbf 2ad5 1d3e 07e1 973d
00000290: 9374 ba3e 6e1e babd 5289 5c3e 24f6 933e
000002a0: 0fdf f1bc 61bd 223e bd73 133e bb2b 9abe
000002b0: cecb 37be 0273 3abe d5f3 ce3e 24ff d1bd
000002c0: ca75 a5be 3221 33bc edf4 69be 00e4 e13d
000002d0: ddd4 13be 82de 5a3e 85ba 553e f44f c63d
000002e0: 7010 813d 2c92 5cbe 7c5e 0d3d 6dfa a2be
000002f0: 01b8 4c3d 5e5a 53be 8f0a f5bc 1798 a5be
00000300: cfe0 813e 994d 193f d564 413d 8428 a6bd
00000310: ae5e 9abd ec7d 0e3e f742 7dbc 4f70 18bd
00000320: 37dc d93a 74df a63c c9bc 89be 3166 97be
00000330: 8f49 843e d827 b93e 31b1 20bd cd96 ecbd
00000340: 0b0e 3fbe 749d 623e fe75 afbd bc3d ccbe
00000350: d8bb 90be 1c8e 9c3e c0ca 963e 5827 513e
00000360: d27f c63d e0b2 f8bd a4da edbb 9761 8b3e
00000370: 57fe dc3d 6d2f 78bd 201d aebe 5286 1bbc
00000380: bd07 a2bd 782e 54bd 9122 6e3e 4caa 91be
00000390: ee7a cbbd 2326 143e ce68 56bd b27e c7bd
000003a0: cca5 dfbd d73d 49bd bd05 063e 5eca 143d
000003b0: c3ca 5ebe 0dfd 36be 3180 733e b197 793c
000003c0: 4007 00be 7164 6bbe 3afb cbbb 62c2 a1bc
000003d0: 2c23 4dbe 1b96 8cbe 2785 f03d 0e6c a0be
000003e0: 1fb3 62be 5a89 b5be 8618 083f f697 5ebe
000003f0: 91f6 6abe 3497 5d3d e352 adbe b057 7fbe

model.transformer.layers.0.1.branch.0.weight f4 [64]
0.5302003 0.43611825 0.42678383 0.44141868 0.36144963 0.4787295 0.24747686 0.47383597
0.39224994 0.3007166 0.558388 0.3438433 0.47491115 0.35205218 0.36416054 0.50089335
0.43561795 0.46070617 0.24243484 0.32162234 0.5076384 0.5882559 0.3089875 0.51218593
0.51791465 0.6218748 0.5491219 0.34363732 0.41981894 0.36918974 0.35305837 0.47562057
0.44524512 0.4718383 0.4283028 0.41990504 0.5311048 0.38225222 0.49209073 0.35236698
0.41715378 0.23827253 0.5057222 0.53154373 0.5324333 0.464627 0.3423518 0.2787706
0.3712338 0.45478284 0.44754618 0.6420051 0.39182076 0.37001306 0.5598148 0.3010952
0.3375376 0.56477875 0.39329588 0.43668324 0.48630792 0.38079798 0.5319688 0.4268087
00000000: 35bb 073f e44a df3e 6983 da3e a101 e23e
00000010: ed0f b93e 081c f53e 936a 7d3e a19a f23e
00000020: fcd4 c83e 87f7 993e 84f2 0e3f 3b0c b03e
00000030: 8e27 f33e 2f40 b43e 4073 ba3e 8c3a 003f
00000040: 5109 df3e aee1 eb3e d740 783e afab a43e
00000050: 97f4 013f f097 163f 9c33 9e3e 9e1e 033f
00000060: 0e96 043f 3033 1f3f 4193 0c3f 3bf1 af3e
00000070: 82f2 d63e 7006 bd3e 11c4 b43e 8a84 f33e
00000080: 2bf7 e33e ca94 f13e 814a db3e cbfd d63e
00000090: 7cf6 073f 90b6 c33e 51f3 fb3e 7269 b43e
000000a0: 2e95 d53e b7fd 733e 0377 013f 4013 083f
000000b0: 8c4d 083f 97e3 ed3e bc48 af3e 05bb 8e3e
000000c0: 5b12 be3e 4cd9 e83e c624 e53e 725a 243f
000000d0: bb9c c83e 5a72 bd3e 0650 0f3f 2629 9a3e
000000e0: bad1 ac3e 5795 103f 145e c93e f294 df3e
000000f0: 5afd f83e f4f7 c23e 1b2f 083f ac86 da3e

model.transformer.layers.0.1.branch.0.bias f4 [64]
-0.18237914 -0.054835815 -0.098251425 -0.0011545529 0.11636335 0.054573674 -0.009913165 -0.11140501
-0.028345676 0.12945418 0.019263119 -0.0915777 -0.14766337 -0.02049648 0.10066224 0.043742206
-0.0078082928 -0.05564916 0.09900808 -0.041453294 0.07075827 0.060247403 0.014759203 0.06409329
0.2628582 -0.18219396 -0.24040131 0.07236458 0.1819495 -0.04516486 0.09453417 -0.006645965
-0.17872095 0.2225163 0.10000113 0.089175045 -0.14671847 -0.09015179 0.025616787 -0.11027317
0.025556847 -0.042685702 0.020101102 -0.13296531 -0.12818432 -0.1411751 0.02763197 -0.059300806
0.040957823 -0.016030246 0.15721357 -0.124667265 0.0021355178 0.018609323 0.14683352 0.021100324
0.22859474 -0.17769063 0.18457738 0.14614888 -0.037331514 -0.074408814 0.09747189 0.025817534
00000000: 99c1 3abe 859b 60bd 0b38 c9bd 5e54 97ba
00000010: e84f ee3d a588 5f3d d46a 22bc 4f28 e4bd
00000020: 3135 e8bc a38f 043e b0cd 9d3c 178d bbbd
00000030: 1135 17be 3ce8 a7bc 0128 ce3d 072b 333d
00000040: b5dc ffbb 60f0 63bd c0c4 ca3d eeca 29bd
00000050: b6e9 903d fbc5 763d 96d0 713c 5843 833d
00000060: 5a95 863e 0e91 3abe c32b 76be e233 943d
00000070: f850 3a3e cafe 38bd 229b c13d 65c6 d9bb
00000080: a002 37be 50db 633e 64cd cc3d 68a1 b63d
00000090: 5e3d 16be 80a1 b8bd 4cda d13c e6d6 e1bd
000000a0: 985c d13c 34d7 2ebd 11ab a43c 0f28 08be
000000b0: c042 03be 3590 10be 715c e23c 67e5 72bd
000000c0: 64c3 273d dd51 83bc 98fc 203e 8d51 ffbd
000000d0: 0bf4 0b3b 9472 983c 875b 163e 96da ac3c
000000e0: bd14 6a3e 88f4 35be da01 3d3e 0da8 153e
000000f0: eee8 18bd a663 98bd 589f c73d 4b7f d33c

model.transformer.layers.0.1.branch.1.weight f4 [512, 64]
-0.26120892 -0.2746441 -0.08827464 0.42050803 -0.13986073 -0.2002244 -0.24688812 -0.084018484
-0.22097111 0.18862323 -0.2663095 0.36643046 0.3453792 0.19595602 0.114692844 -0.5705205
0.15985449 -0.15893897 -0.09801716 -0.01327188 -0.36084047 -0.0076809325 -0.2368592 0.3241713
-0.43457565 -0.20594643 0.2440197 0.10427929 0.09743022 0.058621857 0.14191489 -0.017715992
-0.0747292 0.273743 -0.21344243 -0.058863454 0.16549748 -0.18695222 0.119795345 0.45926645
0.07181048 -0.05983844 0.15121078 0.08158654 -0.13353539 -0.2223877 0.009972298 0.5189127
-0.24244931 -0.20091888 -0.22007374 0.100174494 -0.38156977 -0.04667518 -0.22023873 0.02913267
0.65235585 0.2850423 -0.28111267 -0.054829247 -0.24536076 0.12369916 -0.054757748 0.33300707
-0.14386961 0.11716583 0.11324701 -0.11137349 0.20379105 -0.32568964 -0.14885403 0.19505717
-0.37568218 -0.358859 -0.28630286 0.4141602 0.31066534 0.003268226 0.18621477 0.649658
-0.004259976 0.018589329 0.09448862 -0.4810406 -0.14680877 0.16919029 -0.08780369 -0.38794014
-0.11654275 -0.423166 -0.27310804 -0.28807005 0.11114657 0.27960032 -0.24888213 0.16648728
-0.21562833 0.2435887 -0.12237806 -0.039116442 0.28586015 0.40851286 -0.03789131 -0.017701264
-0.5095249 0.16298549 0.028142205 -0.061791662 0.59646124 0.44552657 0.0020480966 -0.08514189
0.33305383 0.244806 0.039193366 0.16954887 0.07541974 0.5758143 -0.3691178 -0.07210541
-0.1882547 -0.072226636 0.073586136 0.5467689 0.09289984 0.030322526 -0.0013828407 0.16768682
-0.5361109 -0.30423692 -0.016073177 0.08445647 -0.22145446 0.33953622 -0.08830895 -0.34336525
0.18423966 0.1873094 -0.3310158 0.07150075 0.045630507 -0.49904075 -0.06921877 -0.38155413
-0.13901274 0.14057876 -0.25181592 -0.19775988 -0.24975811 0.4934573 0.4216466 0.12066827
-0.22824794 -0.035683822 0.4430267 -0.07597709 0.101632036 0.19499156 0.3747539 -0.13424943
-0.10572683 0.5836303 -0.3237768 0.084977396 0.2037211 -0.102117896 0.4166022 -0.19764863
0.4767116 0.43543342 -0.15500577 -0.0682566 -0.20495802 0.16740851 0.31454572 -0.049480725
0.22045022 -0.70363134 -0.33740103 -0.19393574 0.10174977 0.0271739 -0.24152894 -0.05032094
0.0812901 0.55619156 -0.46666119 -0.081902154 -0.27698287 0.20796952 0.06329514 0.0122841755
0.29407534 0.39317778 -0.105620556 0.024071671 0.3165274 -0.25596857 0.34727162 -0.3260937
0.2280762 -0.06353889 0.25808275 -0.36434367 -0.057214823 0.49611133 -0.64283645 0.027884077
0.029743355 0.47346056 0.25202322 -0.21661648 -0.11142624 -0.25610343 0.20340528 -0.64795005
0.015900271 -0.21080807 -0.28456837 0.07350349 -0.03924088 -0.25800648 0.21393797 -0.27001795
-0.078437015 0.0015814792 0.23129262 0.21900342 0.37000054 0.23890366 -0.13582939 0.47841054
0.2900084 -0.0458087 -0.15197642 -0.36584955 -0.04014394 -0.4054294 0.032734912 0.077444375
-0.14979935 -0.1274463 0.40491435 0.15039319 -0.62390435 -0.39155927 -0.21519946 -0.20089746
0.13418928 0.20860416 0.22881953 0.0035961906 0.109702975 0.27795988 -0.20028414 -0.053777978
00000000: 2dbd 85be 279e 8cbe 56c9 b4bd d44c d73e
00000010: a737 0fbe a007 4dbe 3dd0 7cbe e211 acbd
00000020: 4046 62be 7326 413e b859 88be c69c bb3e
00000030: 8bd5 b03e b2a8 483e 15e4 ea3d a20d 12bf
00000040: e5b0 233e e6c0 22be 39bd c8bd 4d72 59bc
00000050: 15c0 b8be 55b0 fbbb 388b 72be c8f9 a53e
00000060: b380 debe 9fe3 52be 4de0 793e 6190 d53d
00000070: 7f89 c73d 791d 703d 2352 113e 2121 91bc
00000080: 9f0b 99bd 0b28 8c3e a790 5abe ce1a 71bd
00000090: 2c78 293e 6770 3fbe 4357 f53d f924 eb3e
000000a0: 5f11 933d 2719 75bd 00d7 1a3e d816 a73d
000000b0: 80bd 08be 9ab9 63be d962 233c 76d7 043f
000000c0: a244 78be aebd 4dbe 035b 61be 4928 cd3d
000000d0: 1d5d c3be 792e 3fbd 4386 61be a3a7 ee3c
000000e0: cb00 273f 10f1 913e 00ee 8fbe a294 60bd
000000f0: da3f 7bbe fc55 fd3d a949 60bd e77f aa3e
00000100: 8e52 13be a4f4 ef3d 0cee e73d c917 e4bd
00000110: 9aae 503e cbc0 a6be 316d 18be 11bd 473e
00000120: 6a59 c0be 5ebc b7be 4a96 92be ce0c d43e
00000130: 870f 9f3e bc2f 563b 16af 3e3e fd4f 263f
00000140: 4597 8bbb a648 983c 4083 c13d f44a f6be
00000150: 0a55 16be 3840 2d3e 6cd2 b3bd 17a0 c6be
00000160: f7ad eebd 37a9 d8be d1d4 8bbe eb7d 93be
00000170: d0a0 e33d c627 8f3e f5da 7ebe a47b 2a3e
00000180: accd 5cbe 516f 793e 59a1 fabd 9038 20bd
00000190: 435c 923e 9928 d13e eb33 1bbd 3e02 91bc
000001a0: 3970 02bf abe5 263e 7b8a e63c 4119 7dbd
000001b0: afb1 183f 0f1c e43e 5c39 063b df5e aebd
000001c0: 0886 aa3e 6dae 7a3e 3989 203d 389e 2d3e
000001d0: aa75 9a3d 9168 133f 02fd bcbe 00ac 93bd
000001e0: d7c5 40be 8feb 93bd 54b4 963d 0cf9 0b3f
000001f0: 4542 be3d f266 f83c 6f40 b5ba 18b6 2b3e
00000200: 903e 09bf f1c4 9bbe e5ab 83bc 84f7 ac3d
00000210: f5c4 62be b1d7 ad3e 53db b4bd 92cd afbe
00000220: 52a9 3c3e 09ce 3f3e e77a a9be fc6e 923d
00000230: 0ee7 3a3d 4582 ffbe 92c2 8dbd 105b c3be
00000240: 5b59 0ebe e1f3 0f3e 04ee 80be 9181 4abe
00000250: 97c0 7fbe 6fa6 fc3e 10e2 d73e ed20 f73d
00000260: d4b9 69be 3329 12bd 65d4 e23e e099 9bbd
00000270: 7524 d03d deab 473e bedf bf3e af78 09be
00000280: 4f87 d8bd cc68 153f 13c6 a5be a108 ae3d
00000290: 449c 503e 3023 d1bd e24c d53e 6764 4abe
000002a0: 8b13 f43e 21f1 de3e d5b9 1ebe 1eca 8bbd
000002b0: 84e0 51be 236d 2b3e 230c a13e 4dac 4abd
000002c0: b4bd 613e 2f21 34bf d4bf acbe 1797 46be
000002d0: 2f62 d03d cc9b de3c 5d53 77be 541d 4ebd
000002e0: 6d7b a63d 9262 0e3f 37ee eebe 51bc a7bd
000002f0: b3d0 8dbe f6f5 543e e2a0 813d 9143 493c
00000300: 0b91 963e 994e c93e 974f d8bd f431 c53c
00000310: e10f a23e 500e 83be 96cd b13e c1f5 a6be
00000320: cf8c 693e ad20 82bd 6c23 843e 418b babe
00000330: 175a 6abd 4e02 fe3e ee90 24bf 266d e43c
00000340: 56a8 f33c 6c69 f23e 3009 813e b6d0 5dbe
00000350: 7133 e4bd fd1f 83be 7949 503e 0ee0 25bf
00000360: 4941 823c 12de 57be f2b2 91be ff88 963d
00000370: 0cbb 20bd 6d19 84be 8e12 5b3e cb3f 8abe
00000380: 96a3 a0bd a349 cf3a f9d7 6c3e 6f42 603e
00000390: b670 bd3e 29a3 743e dc16 0bbe 3af2 f43e
000003a0: fb7b 943e e7a1 3bbd b59f 1bbe a250 bbbe
000003b0: f96d 24bd 7194 cfbe 0b15 063d 289b 9e3d
000003c0: 0065 19be 4881 02be ef50 cf3e ac00 1a3e
000003d0: 32b8 1fbf 757a c8be 3f5d 5cbe 10b8 4dbe
000003e0: ea68 093e 549c 553e ab4f 6a3e 11ae 6b3b
000003f0: f4ab e03d c250 8e3e 4917 4dbe 4c46 5cbd
