models/mlp_best_smote_state.pth (torch, 60810 bytes, 6 tensors)

model.0.weight f4 [128, 46]
-0.3183465 -0.011781294 0.06632548 -0.036016703 0.11201212 -0.13139002 0.018065952 0.21745172
0.42187524 0.13205914 0.027946215 -0.14358576 1.0977225 0.041377794 -0.039899636 -0.07985349
0.037270114 0.13532934 0.090007335 0.10085353 -0.23031409 0.060243327 0.09905044 -0.1783591
-0.10761436 0.09703926 0.047901265 -0.36537772 -0.06525193 -0.055047758 -0.054526526 -0.1294995
-0.27980185 -0.012885543 -0.2817251 -0.24209504 -0.39347276 -0.2979809 -0.27506983 -0.5428655
-0.37485653 -0.28776386 -0.1416068 -0.38991025 -0.4362589 -0.056290895 -0.04732687 0.042367227
0.028430266 -0.23082724 -0.73866963 0.32885927 0.29774228 0.64496475 0.809822 -0.23246656
-0.5545847 0.05686117 0.22164309 0.19890562 0.008284833 -0.13714142 0.07375309 -0.09580726
-0.015735084 0.04827078 -0.32275242 0.056156784 -0.38608527 0.120667435 -0.14649558 -0.09042309
-0.64713496 -0.26643735 -0.6288702 -0.10865285 -0.01205502 0.06574363 -0.49327412 -0.46940145
-0.4559739 0.49549952 -0.11688639 -1.8496231 0.79977465 -0.04061198 -0.1597196 -0.4750503
-0.14207792 0.0722361 -1.3179444 -1.0708314 0.13129564 0.1854191 0.006051665 -0.19478872
0.03936938 -0.49572644 -0.14638202 -0.24953003 0.046995897 0.22888507 0.117001586 -0.6754511
-0.400299 0.2527674 -0.03350876 0.07953318 -0.008316988 0.10053057 0.19665518 0.026380917
0.39400116 -0.25376216 -0.5083024 -0.19601518 0.24396129 -0.5001262 -0.7301518 -0.080750644
0.46640202 0.08360812 -0.29937857 -0.24537018 0.60154563 0.50350004 -1.2363582 0.8725152
-0.34552026 0.5576394 -0.28748915 0.7634591 -0.08273608 -1.0958539 0.17386168 0.11435836
0.6739554 -0.36462012 -0.047547814 -0.12125152 0.14500451 0.13336316 -0.035110407 0.18267345
0.4401589 0.26678202 -0.06348513 0.20567635 0.770026 -0.0466033 -1.5543022 -0.09594311
-0.014152048 -0.16132188 -0.16371964 -0.11891605 -0.33498392 -0.3187168 0.12945253 0.06333809
0.031651787 0.4347392 -0.20774762 -0.26227415 -0.38337323 -0.35174823 -0.0054598446 0.06373747
0.05014342 -0.10198614 -0.51722175 -1.6401879 -0.2232064 0.0073364107 -1.0363986 -0.49334493
-0.4015199 0.06624888 0.21714269 0.30035162 -0.20908916 0.20510083 -0.32770976 -0.54129297
0.02630481 0.34227878 0.006794868 -0.07516881 0.44627008 -0.104371466 0.0014013947 0.40868077
-0.09649322 0.51720846 0.10489239 -0.20050272 -0.14159942 0.12120485 0.009628123 -0.09150398
0.05389846 0.089261904 -0.21673965 0.6416914 0.0756654 -0.26303655 -0.16357167 0.55767256
-0.17159452 -0.39464942 -0.9094307 -0.10404462 -0.12264269 0.18819802 -0.007826688 0.61578816
0.27190843 -1.3843538 -0.493844 0.94291884 0.12644607 0.56864715 0.20635816 -0.7097153
0.3722707 -1.3324529 -0.5413288 -0.7787859 0.077061966 -0.48521498 -0.034914 0.20485435
-0.16582751 -0.038687855 -0.2425886 -0.18877123 -0.10937043 -0.27892718 0.0008710267 0.14042701
0.42224413 0.20449087 -0.17495705 0.34071535 0.020685848 0.18181151 -0.027694713 0.015913462
-0.010502626 0.60959387 0.73588616 0.024437968 0.07515016 -0.060652867 -0.41971958 -0.09076874
00000000: 50fe a2be 5406 41bc a7d5 873d 4086 13bd
00000010: 9c66 e53d 1b8b 06be 0cff 933c aaab 5e3e
00000020: 0800 d83e 833a 073e 76ef e43c 2508 13be
00000030: 2c82 8c3f c37b 293d cd6d 23bd 3a8a a3bd
00000040: 8ca8 183d c693 0a3e c455 b83d 4c8c ce3d
00000050: 75d7 6bbe b5c1 763d f5da ca3d c5a3 36be
00000060: eb64 dcbd 85bc c63d 1e34 443d ca12 bbbe
00000070: cea2 85bd c279 61bd 3557 5fbd 849b 04be
00000080: 3042 8fbe e21d 53bc 463e 90be c3e7 77be
00000090: 4375 c9be f490 98be f4d5 8cbe 3cf9 0abf
000000a0: 32ed bfbe c955 93be 5f01 11be 51a2 c7be
000000b0: 545d dfbe 4891 66bd d2d9 41bd 4289 2d3d
000000c0: 97e6 e83c fa5d 6cbe 7419 3dbf 3e60 a83e
000000d0: ad71 983e 691c 253f 7f50 4f3f b70b 6ebe
000000e0: 43f9 0dbf 42e7 683d 68f6 623e eaad 4b3e
000000f0: 1cbd 073c cd6e 0cbe dc0b 973d 9936 c4bd
00000100: dde6 80bc 95b7 453d ce3f a5be a804 663d
00000110: f8ac c5be 7d20 f73d f002 16be be2f b9bd
00000120: a3aa 25bf 7a6a 88be a3fd 20bf 6385 debd
00000130: 6b82 45bc 99a4 863d 6d8e fcbe 6355 f0be
00000140: 6975 e9be 1db2 fd3e 2262 efbd 73c0 ecbf
00000150: 08be 4c3f bf58 26bd 898d 23be cb39 f3be
00000160: e07c 11be 85f0 933d 67b2 a8bf 0111 89bf
00000170: 5d72 063e 81de 3d3e 0c4d c63b b276 47be
00000180: c941 213d dbcf fdbe 2be5 15be cd84 7fbe
00000190: c57e 403d d960 6a3e 879e ef3d 5dea 2cbf
000001a0: fef3 ccbe bb6a 813e 7b40 09bd 4be2 a23d
000001b0: fa43 08bc f9e2 cd3d fa5f 493e cb1c d83c
000001c0: 85ba c93e 1ded 81be 1b20 02bf 34b8 48be
000001d0: fdd0 793e 4508 00bf 3aeb 3abf 9860 a5bd
000001e0: 3fcc ee3e bc3a ab3d 2648 99be 5242 7bbe
000001f0: e5fe 193f 61e5 003f fc40 9ebf 285d 5f3f
00000200: 08e8 b0be 75c1 0e3f c731 93be 0e72 433f
00000210: 8971 a9bd f144 8cbf cc08 323e b734 ea3d
00000220: 5788 2c3f 7daf babe 7fc1 42bd b852 f8bd
00000230: 107c 143e 5a90 083e eecf 0fbd c00e 3b3e
00000240: 825c e13e a797 883e 7e04 82bd d29c 523e
00000250: 6d20 453f 1ae3 3ebd 60f3 c6bf d27d c4bd
00000260: fedd 67bc 9031 25be 1fa6 27be 428a f3bd
00000270: 0383 abbe d92e a3be 348f 043e 67b7 813d
00000280: 4ea5 013d 2396 de3e cbbb 54be cc48 86be
00000290: 7f49 c4be 5818 b4be 7fe8 b2bb ca88 823d
000002a0: 3063 4d3d 1cde d0bd a568 04bf adf1 d1bf
000002b0: 3890 64be 4666 f03b b6a8 84bf b597 fcbe
000002c0: 0494 cdbe 7ead 873d a75a 5e3e b0c7 993e
000002d0: 781b 56be f405 523e 93c9 a7be 2d92 0abf
000002e0: 2f7d d73c 2a3f af3e 7ca7 de3b 1bf2 99bd
000002f0: 837d e43e b5c0 d5bd 01af b73a 9b3e d13e
00000300: 3d9e c5bd c667 043f d2d1 d63d 9650 4dbe
00000310: 70ff 10be 403a f83d 46bf 1d3c 7066 bbbd
00000320: a2c4 5c3d f2ce b63d 00f1 5dbe e345 243f
00000330: 76f6 9a3d baac 86be 557f 27be a1c3 0e3f
00000340: 79b6 2fbe 7d0f cabe 73d0 68bf 5915 d5bd
00000350: 172c fbbd fbb6 403e 823b 00bc 4ba4 1d3f
00000360: 9537 8b3e 8132 b1bf 1fd9 fcbe 2163 713f
00000370: 147b 013e dc92 113f 8e4f 533e e7af 35bf
00000380: 449a be3e d18d aabf 8694 0abf 835e 47bf
00000390: aad2 9d3d 196e f8be fc01 0fbd 57c5 513e
000003a0: b0ce 29be 2877 1ebd 2569 78be 3f4d 41be
000003b0: 9bfd dfbd 8bcf 8ebe 9d55 643a 19cc 0f3e
000003c0: 6230 d83e 0e66 513e f127 33be 3e72 ae3e
000003d0: 5e75 a93c cc2c 3a3e 06e0 e2bc f35c 823c
000003e0: 3513 2cbc 580e 1c3f 0963 3c3f 2232 c83c
000003f0: 54e8 993d 246f 78bd 7ce5 d6be f6e4 b9bd

model.0.bias f4 [128]
-0.9014752 -0.06760145 -0.6533706 -1.0420899 -0.41598758 -0.54958594 -0.5995361 -0.38393378
0.12280573 -0.03684954 -0.075373456 -0.14546308 -0.6612525 -0.28538996 -0.46849447 -0.61274374
-1.2118734 -0.5563444 0.4214819 -0.48894683 -0.3344263 -0.92894334 -0.65247077 -0.5429648
0.48294905 -0.9315456 1.4802636 0.2724986 -0.02730813 -1.0099039 -0.18969858 -0.53267646
-0.4839876 -0.46598965 -0.5395886 -0.4950535 -0.3154717 -0.40572083 -0.29070762 0.85632956
-0.54968894 -0.39784452 0.7172111 -0.0987636 -0.8255139 -0.50544757 -0.23327228 -0.54927266
0.03323004 -0.34169915 0.6410995 -0.6919922 0.1171759 0.14551075 -0.16071366 -0.43313172
0.53854614 -0.62170905 -0.9126164 0.44029957 -1.0233964 -0.20933188 -0.006497145 -0.49957684
-0.5847451 -0.3112284 -0.6302265 -0.55542785 0.13957572 -0.47190934 0.3486591 -0.68593395
-0.16169225 -0.23593336 -0.43299145 0.08225401 -0.27832523 0.3516654 -0.23457809 0.012668944
-0.2508894 -0.56439847 -1.2653565 0.40905812 -0.34769762 -0.055414714 -0.57990915 -0.61744004
-0.36340567 -0.8092069 -0.3997108 -0.4354369 -0.73038125 -0.7211765 -0.017626075 -0.22356218
-1.0938789 0.5676769 -0.16509023 -0.9871733 0.1682663 -0.7814244 -0.18662634 -0.9945858
-0.102058515 0.1240797 0.19143543 0.008287667 -0.40995452 -0.052608993 0.33464348 -0.949286
-0.5425072 -0.1508666 -0.2648065 -0.8538607 -0.33058968 0.40563723 0.104377635 0.5479638
-0.2752343 -0.36619982 -0.47058344 -0.19787663 -0.23320429 -0.30891916 -0.59170836 -0.021685923
00000000: 14c7 66bf a172 8abd 4c43 27bf 3463 85bf
00000010: 53fc d4be aab1 0cbf 337b 19bf f892 c4be
00000020: 9281 fb3d 8bef 16bd 665d 9abd 46f4 14be
00000030: d847 29bf a21e 92be 82de efbe c6dc 1cbf
00000040: ab1e 9bbf 966c 0ebf 7acc d73e 3d57 fabe
00000050: ed39 abbe 3bcf 6dbf 5308 27bf beff 0abf
00000060: 1945 f73e c679 6ebf 4779 bd3f f084 8b3e
00000070: 4db5 dfbc 8844 81bf 5840 42be 7c5d 08bf
00000080: 39cd f7be 3296 eebe 7a22 0abf a777 fdbe
00000090: 8285 a1be a4ba cfbe a1d7 94be 6a38 5b3f
000000a0: 6ab8 0cbf 47b2 cbbe 269b 373f 9244 cabd
000000b0: e154 53bf 0365 01bf eede 6ebe 229d 0cbf
000000c0: 391c 083d 31f3 aebe 191f 243f 6726 31bf
000000d0: ebf9 ef3d c500 153e 1f92 24be 71c3 ddbe
000000e0: 29de 093f 5328 1fbf 3aa1 69bf f26e e13e
000000f0: a7fe 82bf 195b 56be 01e6 d4bb 89c8 ffbe
00000100: dbb1 15bf 5459 9fbe 8656 21bf 8530 0ebf
00000110: f0ec 0e3e 1a9e f1be 7283 b23e 5e99 2fbf
00000120: a792 25be 8498 71be 0eb1 ddbe ca74 a83d
00000130: a580 8ebe 7d0d b43e 3d35 70be 6791 4f3c
00000140: 9374 80be 6b7c 10bf 34f7 a1bf 1170 d13e
00000150: 6c05 b2be 8afa 62bd ed74 14bf 8d10 1ebf
00000160: 4f10 babe 2f28 4fbf e5a6 ccbe 96f1 debe
00000170: 44fa 3abf 069f 38bf 8f64 90bc 7ced 64be
00000180: 3904 8cbf 4653 113f 6a0d 29be 64b7 7cbf
00000190: 004e 2c3e 6e0b 48bf fa1a 3fbe 2d9d 7ebf
000001a0: 0e04 d1bd 7f1d fe3d a607 443e ffc8 073c
000001b0: 8fe5 d1be 877c 57bd 6456 ab3e 6804 73bf
000001c0: c0e1 0abf c67c 1abe b894 87be 9d96 5abf
000001d0: 0d43 a9be afaf cf3e f1c3 d53d 5b47 0c3f
000001e0: 83eb 8cbe 8b7e bbbe 50f0 f0be 2ca0 4abe
000001f0: 1bcd 6ebe a72a 9ebe 337a 17bf ada6 b1bc

model.3.weight f4 [64, 128]
-0.010374956 -0.18807253 -0.30250075 -1.5809476 -0.44662255 0.036273807 -3.2721987 0.37973744
-0.32130498 -1.5389988 -0.69033706 0.13965723 -0.19918822 -0.030853694 -0.066824965 -0.15856203
-0.33811212 -0.04860983 0.23661101 0.33879915 0.12412717 -0.92135066 -0.06266779 -0.06113504
-1.5313649 -0.19629376 -0.10022507 -0.0713439 0.53677416 -0.06952632 0.113426514 0.0535036
0.285801 0.027835496 0.50949335 -2.573701 7.2078874e-05 -0.09191765 -0.03717755 -0.36093137
-0.09404761 -0.010312878 -0.39382482 0.08622719 0.14972372 0.21472286 -0.07470341 0.27472463
-0.18543716 -0.47858796 0.21085511 0.32530892 -0.117216475 0.13848397 0.18571304 -0.10187812
0.2506444 -0.018213095 -0.19753298 0.15746322 -0.14393513 -0.95410794 -0.43467107 0.17211686
0.1390764 -0.20245995 -0.2032848 -0.51465577 -0.49955174 -0.019121513 -0.027838249 -0.682996
0.0075634867 -0.0285528 -0.1770807 0.22313078 -0.43961447 0.3571001 0.16140458 0.18744875
-0.004057623 0.28110102 0.23644328 -0.0852109 0.06034651 -0.26156092 0.0849267 -1.7609489
-0.19676706 0.092606105 -0.034461126 -1.003819 0.30501103 0.043923717 0.29903936 0.43493223
0.5817561 0.08852842 -0.07987094 0.06943599 0.047887035 -0.3964051 -0.17189915 0.43208268
-0.019563993 -1.2084175 0.4103625 -0.71905637 -0.026830753 -1.7941532 0.20437479 0.3403681
-0.5720074 -0.16282661 0.71607536 -0.20191397 0.37568334 0.12822178 -0.6993765 -0.20092316
0.087562114 -0.82895124 0.4278104 -0.17607297 -0.050492343 -1.7487247 -0.19942594 -0.3738781
-0.28433877 0.3173376 0.15333226 0.18084985 -0.41700953 -0.3898545 0.12769488 -0.56158704
-0.334513 -0.0561301 0.14695577 0.16218269 0.06617552 0.36599684 0.06131005 0.15956758
0.03639986 -0.2533999 -0.80819166 -0.7251496 -0.2406326 0.44165862 0.6459737 0.2898557
-0.0057337815 -0.043769337 -1.4803586 0.10042357 -0.1350989 -0.16840667 -0.20047952 -0.36978805
0.18925759 0.095740356 -0.556086 -0.12582076 0.053835507 -0.26596722 -0.22807187 0.06709003
0.10725495 -0.570888 -1.3635596 0.04487009 -1.4233755 0.12824325 0.3464284 0.15462911
-0.29474965 0.0006151665 0.46021265 0.07954125 0.80567026 0.2690745 0.007818658 -0.17955342
-0.5278479 0.0545979 0.05653814 0.27451876 -1.6674304 0.29525685 -0.44806617 -0.006919996
-0.5544455 -0.113102615 1.1908653 0.09107939 -0.0030815692 0.2791956 0.20835517 -1.5790231
-0.11879214 -0.13529314 -0.1717713 -0.5953985 -0.21721636 0.18959172 0.19283818 -0.039867043
0.11025442 -0.53101045 -0.09533086 0.21106023 0.077792436 -0.44498584 -0.011624031 -0.22522146
-0.1709236 -0.13107298 -0.30584508 0.16138013 0.46909663 -0.18799004 -0.54608136 -0.2821712
-0.09529972 0.026308654 -1.2024515 0.26534188 0.10898237 -0.20974767 0.17165059 0.101938546
0.05148524 0.2536428 0.19530034 0.24680683 0.13110703 0.29223382 0.15191346 -0.028099414
0.003930362 0.19478096 -1.2966287 -0.058349095 -0.59541273 0.6342279 0.5535158 0.4817541
-0.19466889 0.17382823 0.115141906 0.10025557 0.13273518 0.14298846 -1.3228143 0.43057808
00000000: b8fb 29bc 1696 40be 61e1 9abe 7e5c cabf
00000010: b6ab e4be d893 143d b46b 51c0 f26c c23e
00000020: 1682 a4be eafd c4bf eeb9 30bf 4e02 0f3e
00000030: fff7 4bbe e3c0 fcbc 87db 88bd 165e 22be
00000040: 081d adbe 1a1b 47bd 284a 723e 1577 ad3e
00000050: 6336 fe3d a3dd 6bbf f857 80bd bc68 7abd
00000060: c403 c4bf 3b01 49be cd42 cdbd c01c 92bd
00000070: 086a 093f d163 8ebd 294c e83d 9726 5b3d
00000080: 8254 923e 4407 e43c 286e 023f 84b7 24c0
00000090: 0d29 9738 523f bcbd 7d47 18bd ffcb b8be
000000a0: 099c c0bd 58f7 28bc 68a3 c9be e297 b03d
000000b0: 2d51 193e 4fe0 5b3e 1afe 98bd b5a8 8c3e
000000c0: 3de3 3dbe 7b09 f5be 67ea 573e e48e a63e
000000d0: 310f f0bd bece 0d3e 8f2b 3e3e 7aa5 d0bd
000000e0: 7654 803e a133 95bc 1646 4abe 0a3e 213e
000000f0: bb63 13be 6b40 74bf 358d debe 673f 303e
00000100: 0b6a 0e3e a951 4fbe e429 50be 7bc0 03bf
00000110: 3fc5 ffbe b8a4 9cbc 0a0d e4bc d3d8 2ebf
00000120: 20d7 f73b 90e7 e9bc a554 35be 657c 643e
00000130: 2615 e1be d3d5 b63e 3e47 253e 91f2 3f3e
00000140: cff5 84bb 79ec 8f3e 301e 723e 0d83 aebd
00000150: e72d 773d 50eb 85be 0dee ad3d c666 e1bf
00000160: 4e7d 49be 45a8 bd3d 1c27 0dbd 247d 80bf
00000170: 682a 9c3e 5be9 333d b01b 993e 70af de3e
00000180: f8ed 143f 634e b53d 6093 a3bd 7534 8e3d
00000190: 3225 443d 9cf5 cabe 5506 30be f139 dd3e
000001a0: ab44 a0bc 6dad 9abf 091b d23e 1414 38bf
000001b0: 2bcc dbbc d0a6 e5bf a047 513e ba44 ae3e
000001c0: 146f 12bf 05bc 26be b750 373f 89c2 4ebe
000001d0: 9159 c03e 924c 033e 570a 33bf cdbe 4dbe
000001e0: c453 b33d 2636 54bf f709 db3e 794c 34be
000001f0: 0fd1 4ebd 36d6 dfbf 5036 4cbe f36c bfbe
00000200: da94 91be 137a a23e 2203 1d3e b430 393e
00000210: 4682 d5be 029b c7be 72c2 023e 2bc4 0fbf
00000220: 4a45 abbe ade8 65bd 937b 163e 3813 263e
00000230: 0887 873d f063 bb3e 3f20 7b3d af65 233e
00000240: 0518 153d a2bd 81be a6e5 4ebf 67a3 39bf
00000250: 6468 76be 1421 e23e 885e 253f f767 943e
00000260: 72e2 bbbb 7a47 33bd 647c bdbf dfaa cd3d
00000270: 5e57 0abe cc72 2cbe 814a 4dbe dc54 bdbe
00000280: becc 413e 8513 c43d a75b 0ebf 28d7 00be
00000290: 9f82 5c3d db2c 88be ac8b 69be 7f66 893d
000002a0: 7ca8 db3d b725 12bf 1f89 aebf b3c9 373d
000002b0: 2b31 b6bf 3352 033e 105f b13e 1857 1e3e
000002c0: 6de9 96be 2043 213a fea0 eb3e 86e6 a23d
000002d0: 6840 4e3f 22c4 893e d419 003c dadc 37be
000002e0: 0a21 07bf 0ca2 5f3d 8994 673d b98d 8c3e
000002f0: 5c6e d5bf e82b 973e ee68 e5be 22c1 e2bb
00000300: 24f0 0dbf 58a2 e7bd 466e 983f d587 ba3d
00000310: 27f4 49bb baf2 8e3e 0f5b 553e 6e1d cabf
00000320: 4b49 f3bd 498a 0abe d1e4 2fbe 096c 18bf
00000330: f76d 5ebe 5524 423e 5f77 453e a04b 23bd
00000340: 12cd e13d 4df0 07bf d33c c3bd 2c20 583e
00000350: a451 9f3d 2fd5 e3be b872 3ebc 74a0 66be
00000360: 9906 2fbe ff37 06be ba97 9cbe d540 253e
00000370: 6f2d f03e 7680 40be fdcb 0bbf be78 90be
00000380: 802c c3bd 3f85 d73c eee9 99bf e4da 873e
00000390: 2632 df3d 18c8 56be 2cc5 2f3e 28c5 d03d
000003a0: 30e2 523d 78dd 813e d0fc 473e eeba 7c3e
000003b0: ec40 063e ac9f 953e 348f 1b3e be30 e6bc
000003c0: 44ca 803b a974 473e eef7 a5bf 76ff 6ebd
000003d0: f86c 18bf c25c 223f 36b3 0d3f 79a8 f63e
000003e0: 4857 47be 0700 323e 85cf eb3d cb52 cd3d
000003f0: bbeb 073e 916b 123e fb51 a9bf bb74 dc3e

model.3.bias f4 [64]
0.20481549 -0.38451505 0.4986208 0.13739812 -0.02285409 -0.21196003 0.6415171 0.10209944
0.7200599 0.09597129 0.18809938 -0.10330708 -0.22095157 0.26717052 -0.58188856 0.15127644
-0.14750807 0.6843073 0.22091714 0.21635312 0.20994914 0.15011615 0.5375113 0.2440162
0.061170865 0.5347145 -0.04360041 0.3204362 0.2043198 0.77478564 -0.2780609 0.0810142
0.35978824 0.4831978 0.10771394 0.3958043 0.091383375 0.42124426 -0.51485026 0.089227095
-0.15959547 -0.09351139 -0.054351885 -0.69013816 0.24339487 0.45304325 -0.38637713 0.490213
0.1704465 0.37985113 0.22903904 0.33653817 0.044311028 -0.21245156 0.03146527 0.32394367
0.35434216 0.15427968 0.59971917 0.17266919 0.27953738 0.31426522 0.2611297 0.71330476
00000000: 27bb 513e 28df c4be 3a4b ff3e 18b2 0c3e
00000010: 8038 bbbc 0d0c 59be 773a 243f 8319 d13d
00000020: d855 383f 988c c43d 209d 403e aa92 d3bd
00000030: 2141 62be 93ca 883e a6f6 14bf 36e8 1a3e
00000040: 5b0c 17be c32e 2f3f 1a38 623e ac8b 5d3e
00000050: e8fc 563e 0cb8 193e 579a 093f 62df 793e
00000060: 4d8e 7a3d 0de3 083f 5896 32bd 3710 a43e
00000070: 3639 513e 5a58 463f 005e 8ebe c6ea a53d
00000080: 2a36 b83e b465 f73e 2099 dc3d dca6 ca3e
00000090: 3527 bb3d 54ad d73e 3acd 03bf b2bc b63d
000000a0: ff6c 23be e682 bfbd 15a0 5ebd e5ac 30bf
000000b0: 813c 793e 49f5 e73e 39d3 c5be 33fd fa3e
000000c0: 8789 2e3e d97b c23e 3689 6a3e bb4e ac3e
000000d0: 7b7f 353d e78c 59be bae1 003d f2db a53e
000000e0: 566c b53e 7efb 1d3e 3287 193f 31d0 303e
000000f0: 861f 8f3e 5fe7 a03e cbb2 853e 249b 363f

model.6.weight f4 [3, 64]
-1.1019402 0.31146246 -1.3923576 0.514301 0.19678414 -0.29278803 -0.77332234 -0.8686909
0.38544798 -0.43126306 -0.45044962 -0.9154698 0.16411412 0.69032 0.14645988 -0.8966552
0.4446128 0.14431171 0.13984494 0.3408355 0.2539644 0.13574155 0.3862292 0.5241982
0.93589264 0.462293 -0.17792079 0.28400347 -1.1673559 0.27653235 0.21199577 1.2772688
-0.620876 0.42613447 0.19203499 0.6526077 0.34458002 0.2431112 -0.48317194 -0.5429346
-0.86460704 -1.0681274 0.074392766 -0.62956727 0.31483865 0.14290826 0.5031714 -0.39121747
0.42786157 -0.7764194 0.31605285 0.9488219 0.15056421 0.16780363 -0.9212749 -0.8671503
0.2799748 0.061523117 0.36433983 0.47993243 -0.9584358 -0.2634779 0.8697531 -0.97489995
0.1843997 0.38577747 0.12952785 -0.739233 0.13994089 0.17000896 -0.16279018 0.27023387
-0.28146324 0.2004384 0.40440625 0.12579606 -0.47350097 -0.6260293 0.2764519 -0.3191878
0.0010583431 -0.59445405 0.0109229535 0.055037312 -0.8362482 0.16511533 -0.0081276735 -0.08863336
-0.13386059 -0.2452262 0.40334055 -0.750028 0.13670178 -1.0224258 0.27518857 -0.6222779
0.384066 -0.2445163 0.21141987 -0.5821435 0.16427697 0.2214772 0.029403092 0.3475937
0.15366179 -0.020164555 0.22530876 0.18895738 -0.056447588 -0.55578196 0.071573004 -0.33969158
-1.3376621 -0.10107698 -0.59768295 -0.67291963 0.13593242 0.1189188 0.21665992 0.19409466
-0.62634563 0.35718983 -0.081151105 0.046718854 0.75145763 -0.65831226 0.19817743 -0.13765089
0.4484006 -1.283306 1.0482279 0.15228932 -0.8559205 0.21047981 0.7585779 0.43142432
-0.31166026 0.03396006 -0.030128678 0.2136042 0.20299868 -0.06490855 -0.6611933 1.1655469
-0.7744455 1.0356418 -2.1389658 -1.2184848 0.2802057 -1.877691 -2.574833 -2.114819
-1.0400214 -2.040559 -0.5548022 0.28649715 0.4833621 0.2685987 -1.2499228 -0.48420662
0.1988859 -1.3443055 -0.7876989 -0.48165312 -1.0101384 -1.5195422 0.26795244 0.2797437
0.4217409 0.8678818 -1.8363305 0.33600855 -1.4467552 0.15431991 -0.9823602 0.5937923
0.23381373 0.6401287 0.2899146 -1.7048005 -1.264661 -2.302042 0.27951616 0.33950308
0.28364742 -1.62505 -2.2465858 -1.2345344 -0.071513504 0.5519925 -1.3870201 0.9091318
00000000: 600c 8dbf 0278 9f3e c638 b2bf 3ba9 033f
00000010: c881 493e 50e8 95be 74f8 45bf 8762 5ebf
00000020: 7059 c53e 83ce dcbe 55a1 e6be 3b5c 6abf
00000030: 880d 283e d0b8 303f 94f9 153e 328b 65bf
00000040: 4aa4 e33e 73c6 133e 8333 0f3e fe81 ae3e
00000050: 9f07 823e d5ff 0a3e d5bf c53e da31 063f
00000060: a996 6f3f abb1 ec3e de30 36be e768 913e
00000070: eb6b 95bf a695 8d3e 6b15 593e 8b7d a33f
00000080: bbf1 1ebf 4c2e da3e d2a4 443e 4c11 273f
00000090: cb6c b03e 24f2 783e 5062 f7be c3fd 0abf
000000a0: e356 5dbf 66b8 88bf 3c5b 983d 522b 21bf
000000b0: 8832 a13e 8b56 123e d7cf 003f a84d c8be
000000c0: ac10 db3e 6cc3 46bf aed1 a13e fee5 723f
000000d0: 812d 1a3e b7d4 2b3e acd8 6bbf 90fd 5dbf
000000e0: db58 8f3e aaff 7b3d c08a ba3e b4b9 f53e
000000f0: 0c5c 75bf 93e6 86be 24a8 5e3f 0b93 79bf
00000100: 46d3 3c3e a084 c53e f3a2 043e 603e 3dbf
00000110: aa4c 0f3e d416 2e3e 78b2 26be 185c 8a3e
00000120: f31b 90be b93f 4d3e 560e cf3e afd0 003e
00000130: b86e f2be 7543 20bf 1a8b 8d3e 956c a3be
00000140: 1ab8 8a3a 242e 18bf 30f6 323c ce6e 613d
00000150: 5d14 56bf fe13 293e ef29 05bc 6885 b5bd
00000160: c012 09be 941c 7bbe a782 ce3e d601 40bf
00000170: 8dfb 0b3e d9de 82bf 84e5 8c3e 9b4d 1fbf
00000180: 4ca4 c43e 7b62 7abe 737e 583e 5b07 15bf
00000190: 3938 283e ebca 623e c1de f03c cdf7 b13e
000001a0: 8459 1d3e 2330 a5bc 57b7 663e 0b7e 413e
000001b0: 9635 67bd ba47 0ebf de94 923d 0eec adbe
000001c0: 8338 abbf 7301 cfbd c001 19bf 7644 2cbf
000001d0: de31 0b3e b38b f33d 19dc 5d3e c0c0 463e
000001e0: 3058 20bf 96e1 b63e 8d32 a6bd 455c 3f3d
000001f0: 875f 403f 2787 28bf 06ef 4a3e 5bf4 0cbe
00000200: c394 e53e 5f43 a4bf 552c 863f bbf1 1b3e
00000210: 9b1d 5bbf 0588 573e 2932 423f a6e3 dc3e
00000220: ef91 9fbe b419 0b3d 6bd0 f6bc 0fbb 5a3e
00000230: e3de 4f3e c6ee 84bd f743 29bf a430 953f
00000240: 0f42 46bf e98f 843f d1e4 08c0 4ff7 9bbf
00000250: 1f77 8f3e 2e58 f0bf 10ca 24c0 3259 07c0
00000260: 6c1f 85bf 8598 02c0 8407 0ebf c1af 923e
00000270: 3d7b f73e c585 893e 78fd 9fbf eee9 f7be
00000280: bfa8 4b3e 3412 acbf a3a6 49bf 3d9b f6be
00000290: 374c 81bf 5c80 c2bf 1031 893e 913a 8f3e
000002a0: 6cee d73e 802d 5e3f e10c ebbf 5009 ac3e
000002b0: 462f b9bf 0a06 1e3e f57b 7bbf c602 183f
000002c0: de6c 6f3e 79df 233f b06f 943e e736 dabf
000002d0: 69e0 a1bf a854 13c0 be1c 8f3e 59d3 ad3e
000002e0: 3c3a 913e a301 d0bf 10c8 0fc0 3905 9ebf
000002f0: ac75 92bd 614f 0d3f e089 b1bf ddbc 683f

model.6.bias f4 [3]
-0.3161411 -0.0011513076 0.19941834
00000000: 3fdd a1be 79e7 96ba 5234 4c3e
