models/mlp_fold_2_f1_0.7660.pth (torch, 61258 bytes, 6 tensors)

model.0.weight f4 [128, 46]
-0.029151138 0.17621054 -0.27914166 -0.093992956 0.04180031 -0.7335161 -0.008353302 -0.43090725
0.16109242 0.3273401 0.116742805 0.31568834 -0.6096257 -0.026027808 0.011132042 -0.04058131
-0.06273541 0.11151384 0.31717205 0.36515486 -0.14707631 0.3757927 0.09768232 -0.20565842
-0.16796283 0.36163053 -0.07224229 -0.44834954 -0.24472025 -0.111229606 -0.084020935 -0.051914714
0.08023854 0.3082178 0.2762026 0.024408579 0.3902115 0.18583001 -0.37741306 0.24313487
0.008257937 -0.8992041 0.5678647 0.14987563 -0.803838 0.1917152 0.019066012 -0.084774755
-0.22422251 0.24253581 0.17798214 0.10219878 0.68071043 0.15501964 -0.26114663 0.36012882
-0.14163296 0.026108881 -0.13429807 -0.27354324 -0.0174694 0.113412276 -0.081519894 -0.10326571
-0.27932343 0.47380352 -0.40876767 0.04769116 -0.15889494 -0.1444345 -0.25885785 0.096914716
-0.39894316 0.020906558 0.40182868 0.07289605 0.15466675 -0.36457503 0.44127202 -0.074715406
0.6083089 0.7733368 0.13795134 -0.49401954 -0.08208764 -0.22711506 0.2503029 -0.44925886
-1.0252329 -0.34152228 -0.47578478 0.062972754 -0.0582078 -0.07203516 0.034233566 0.21162003
-0.002251119 -0.20248422 -0.15079129 0.16101976 -0.419028 0.1274482 0.015375454 0.061261404
-0.7555482 0.16755684 0.014278883 -0.19412856 -0.3892246 0.038234863 0.0501759 0.49607107
-0.5550363 0.5183212 -0.18226941 0.24844822 0.23338756 0.445752 -0.19039285 -0.31699032
-0.38873285 -0.0056422804 0.0004811327 -0.8681615 0.40644488 -0.22051536 0.25595564 0.52179873
-0.11747866 0.18573135 -0.8551822 0.3219606 0.3544803 0.22814576 -0.84539056 -0.18465891
0.27221572 0.23357022 0.057928577 -0.35157788 -0.09987388 -0.10083145 -0.16798523 0.1229793
-0.41404957 -0.27778205 0.6081858 0.10000067 0.42659703 -0.093977205 -0.22492807 -0.05969701
0.0066023166 -0.09181749 0.047871444 -0.050340433 0.091893815 0.20541686 0.3596746 -0.003910827
-0.6537828 -0.07401405 0.06632883 -0.15017077 -0.7607162 0.13807169 0.030506061 -0.10853579
-0.078717664 -0.2483826 -0.4253679 -0.031791028 -0.5622336 -0.5381172 -1.2065992 0.28219956
-0.43444806 0.4029556 -0.18703185 0.13927998 0.15439552 1.0878532 -0.25083074 0.20872764
0.020830872 -0.52743804 -0.049425468 -0.09961223 -0.711502 -0.47029814 -0.1437134 0.41318297
0.40818068 0.15504745 -0.09010029 -0.16636865 -0.5172283 -0.40075365 -0.04324581 0.12581892
-0.011233646 -0.030880481 -0.019561132 -0.20311172 -0.15143652 0.2535675 -0.2911395 -0.29050535
-0.24293084 -0.37925276 -1.6777903 -0.072249256 0.11702366 -0.017663207 0.061720826 -0.15334736
0.49241596 0.2982846 0.19104962 0.014834235 -0.041395653 0.22690956 0.092759065 -0.15057857
0.24917938 -0.6833715 0.30775613 -0.042166777 -0.08249596 -1.2155011 0.004276925 0.4201845
0.015809307 -0.16275883 -0.06453624 -0.52705777 -0.49893898 0.16484708 -0.0032670326 0.015750058
-0.2933814 -0.22049774 -0.06925769 -0.05738448 0.02076932 0.21125565 -0.011114572 -0.06981437
-0.08002532 -0.14020155 0.15395264 -0.38912126 -0.07592867 0.14770012 0.108607784 -0.34833837
00000000: 5ece eebc 8970 343e a8eb 8ebe 617f c0bd
00000010: cd36 2b3d b6c7 3bbf 4adc 08bc e09f dcbe
00000020: 69f5 243e 1f99 a73e da16 ef3d e7a1 a13e
00000030: 6e10 1cbf 4538 d5bc 2b63 363c 9638 26bd
00000040: 6c7b 80bd 5e61 e43d 6064 a23e 94f5 ba3e
00000050: 2c9b 16be e767 c03e ab0d c83d 1f98 52be
00000060: 73fe 2bbe a327 b93e c4f3 93bd 128e e5be
00000070: f297 7abe 59cc e3bd 2b13 acbd 86a4 54bd
00000080: 1b54 a43d b9ce 9d3e 6d6a 8d3e 80f4 c73c
00000090: cdc9 c73e 394a 3e3e 493c c1be 59f8 783e
000000a0: 4c4c 073c 3d32 66bf 955f 113f ff78 193e
000000b0: 54c8 4dbf fd50 443e 5330 9c3c 639e adbd
000000c0: 969a 65be 4f5b 783e f340 363e 984d d13d
000000d0: 0a43 2e3f 78bd 1e3e 03b5 85be ce62 b83e
000000e0: 3b08 11be 4be2 d53c 6f85 09be dc0d 8cbe
000000f0: fd1b 8fbc b244 e83d e7f3 a6bd f97c d3bd
00000100: 7b03 8fbe 6096 f23e ff49 d1be ce57 433d
00000110: 5bb5 22be a3e6 13be 0489 84be 397b c63d
00000120: 4742 ccbe 3b44 ab3c 7dbc cd3e 864a 953d
00000130: f660 1e3e 94a9 babe 68ee e13e 6404 99bd
00000140: 22ba 1b3f 67f9 453f 1e43 0d3e 21f0 fcbe
00000150: 911d a8bd da90 68be b427 803e 4205 e6be
00000160: d53a 83bf 02dc aebe 109a f3be dcf7 803d
00000170: 4d6b 6ebd 2c87 93bd 7f38 0c3d ecb2 583e
00000180: 8287 13bb 0658 4fbe 0869 1abe 5de2 243e
00000190: d78a d6be c881 023e 54e9 7b3c 3ded 7a3d
000001a0: 9b6b 41bf 0594 2b3e faf1 693c a3c9 46be
000001b0: 7248 c7be 299c 1c3d 3f85 4d3d 07fd fd3e
000001c0: dc16 0ebf b3b0 043f d5a4 3abe 3669 7e3e
000001d0: 26fd 6e3e 9b39 e43e 58f6 42be 8e4c a2be
000001e0: fe07 c7be e1e2 b8bb 8a40 fc39 d53f 5ebf
000001f0: 8b19 d03e c7ce 61be 9e0c 833e 9a94 053f
00000200: a798 f0bd 5c30 3e3e 38ed 5abf 05d8 a43e
00000210: 717e b53e 0b9f 693e 846b 58bf 3a17 3dbe
00000220: dc5f 8b3e 082d 6f3e 8446 6d3d 0402 b4be
00000230: ad8a ccbd b880 cebd 5204 2cbe 92dc fb3d
00000240: 4efe d3be 7339 8ebe 11b2 1b3f 27cd cc3d
00000250: ed6a da3e 1f77 c0bd 8b53 66be da84 74bd
00000260: 3f58 d83b cf0a bcbd d914 443d c531 4ebd
00000270: d332 bc3d cc58 523e 4527 b83e 6526 80bb
00000280: 4f5e 27bf ae94 97bd 69d7 873d 5ec6 19be
00000290: 4cbe 42bf aa62 0d3e d9e7 f93c 0348 debd
000002a0: ba36 a1bd 0258 7ebe d2c9 d9be 4f37 02bd
000002b0: 8bee 0fbf 0cc2 09bf d871 9abf 767c 903e
000002c0: fa6f debe 3250 ce3e 4785 3fbe 699f 0e3e
000002d0: dc19 1e3e c63e 8b3f e36c 80be b3bc 553e
000002e0: 81a5 aa3c 2e06 07bf 5c72 4abd 7f01 ccbd
000002f0: ff24 36bf ebca f0be 9b29 13be b88c d33e
00000300: 0ffd d03e c2c4 1e3e 8086 b8bd 8b5c 2abe
00000310: 1369 04bf 952f cdbe 8522 31bd add6 003e
00000320: 540d 38bc 10f9 fcbc ab3e a0bc 85fc 4fbe
00000330: 2d12 1bbe 99d3 813e 3d10 95be 1ebd 94be
00000340: ddc2 78be 6b2d c2be d5c1 d6bf 6bf7 93bd
00000350: 1aaa ef3d 6eb2 90bc face 7c3d 1707 1dbe
00000360: f21d fc3e c2b8 983e 83a2 433e 4b0b 733c
00000370: 7d8e 29bd fb5a 683e 77f8 bd3d 4531 1abe
00000380: e128 7f3e 6ff1 2ebf 3692 9d3e 12b7 2cbd
00000390: a4f3 a8bd 8a95 9bbf 7325 8c3b 6c22 d73e
000003a0: 8582 813c 40aa 26be 942b 84bd 42ed 06bf
000003b0: ee74 ffbe accd 283e b61b 56bb 4406 813c
000003c0: 1636 96be 29ca 61be fad6 8dbd fd0b 6bbd
000003d0: 6c24 aa3c 6753 583e e519 36bc d6fa 8ebd
000003e0: 51e4 a3bd ff90 0fbe c3a5 1d3e e73a c7be
000003f0: 7e80 9bbd b33e 173e c26d de3d 6859 b2be

model.0.bias f4 [128]
0.36724347 -0.1727762 0.22187544 0.03611505 -0.016613731 -0.3590654 0.6739091 -0.6483465
-0.70120436 0.16973136 -0.32754508 -0.3675575 -0.10388455 0.06936614 0.41534787 -0.11867402
-0.5134073 -0.20361483 -0.38934347 -0.019249175 -0.054010723 -0.23213318 0.12877865 -0.47373745
0.059492446 -0.6383503 -0.52578235 -0.06073633 0.35124788 -0.43145725 -0.05889813 -0.5205634
-0.19312309 -0.03595784 0.2082776 -0.41846526 0.45434207 -0.3676833 0.008904811 0.24577874
-0.015420675 -0.38440353 0.34081748 0.27620348 -0.76725125 -0.33037454 -0.22259034 -0.47353208
0.10368117 -0.52786124 -0.58440936 0.07044183 -0.363634 -0.1765115 0.25112784 -0.6174141
-0.29787177 -0.28972644 0.13328178 0.22196504 -0.18770659 -0.0817202 0.35083205 -0.09226575
0.2510761 -0.023875616 0.5926135 -0.20883329 -0.65178233 -0.94286543 -0.21714245 0.05824479
-0.10978782 -0.5373684 -0.19272584 -0.8524327 0.18251234 -0.56011134 -0.57781786 0.07691632
-0.7768544 0.19956313 -0.09787124 0.23735118 -0.079555355 -0.5021064 0.5020554 -0.7943356
-0.61723953 -0.1456402 0.23431501 -0.67385876 -0.23397227 -0.25541514 -0.40540737 0.17663595
-0.28853473 -0.3589476 -0.78307694 0.17121246 -0.4171388 -0.71186525 -0.94085306 0.5019219
0.05457111 0.51667315 -0.4478743 -0.3393751 -0.04754982 0.08933647 0.18688244 -0.30636474
-0.9019796 -0.3775702 0.19213139 0.7686246 -0.38827485 -0.31513342 -0.074081466 -0.123328514
-0.24220002 -0.052850503 -0.24940608 -0.023999268 0.20380011 -0.16479483 -0.119307496 -0.15583862
00000000: 5607 bc3e 3fec 30be 5133 633e 60ed 133d
00000010: 8519 88bc 6cd7 b7be 4f85 2c3f 09fa 25bf
00000020: 2182 33bf 0fce 2d3e fdb3 a7be 7f30 bcbe
00000030: 6cc1 d4bd d60f 8e3d 7aa8 d43e 5d0b f3bd
00000040: a96e 03bf 6880 50be 0758 c7be 72b0 9dbc
00000050: 593a 5dbd 52b4 6dbe 8dde 033e b78d f2be
00000060: 5aae 733d ed6a 23bf ac99 06bf a8c6 78bd
00000070: c3d6 b33e f7e7 dcbe 2a3f 71bd a543 05bf
00000080: 0fc2 45be 8748 13bd b946 553e 1441 d6be
00000090: 869f e83e fc40 bcbe 7ce5 113c 6cad 7b3e
000000a0: 00a7 7cbc 8ad0 c4be a17f ae3e 8b6a 8d3e
000000b0: 946a 44bf da26 a9be b9ee 63be cc72 f2be
000000c0: cb56 d43d ea21 07bf da9b 15bf ce43 903d
000000d0: 3c2e babe 6ebf 34be d493 803e da0e 1ebf
000000e0: a682 98be 0657 94be 057b 083e ce4a 633e
000000f0: 2836 40be ec5c a7bd 42a0 b33e d3f5 bcbd
00000100: 0c8d 803e cc96 c3bc 85b5 173f 65d8 55be
00000110: 35db 26bf a15f 71bf 975a 5ebe 1792 6e3d
00000120: 70d8 e0bd fa90 09bf ec59 45be 0839 5abf
00000130: 84e4 3a3e 7563 0fbf dfeb 13bf 4e86 9d3d
00000140: eedf 46bf 475a 4c3e b770 c8bd 300c 733e
00000150: ebed a2bd 0c8a 00bf b486 003f 9459 4bbf
00000160: 6903 1ebf b422 15be 46f0 6f3e 0282 2cbf
00000170: 6d96 6fbe c6c5 82be 8e91 cfbe 0ee0 343e
00000180: d3ba 93be fbc7 b7be bb77 48bf 5252 2f3e
00000190: 3793 d5be cd3c 36bf bfdb 70bf f47d 003f
000001a0: f585 5f3d b144 043f c84f e5be 93c2 adbe
000001b0: 9ac3 42bd 0af6 b63d 1c5e 3f3e d7db 9cbe
000001c0: 23e8 66bf e250 c1be 17be 443e 95c4 443f
000001d0: f6cb c6be 2b59 a1be 06b8 97bd a993 fcbd
000001e0: 4803 78be c579 58bd 4f64 7fbe 1d9a c4bc
000001f0: fab0 503e fabf 28be 7d57 f4bd 2994 1fbe

model.3.weight f4 [64, 128]
-0.578297 0.32944268 -0.22467169 -0.26644263 0.10239356 0.063424446 0.7601619 -0.21203816
-0.3055832 -0.3694837 -0.14710858 0.2773016 0.40586284 -0.0055716108 0.027250325 -0.6606492
0.03967963 0.077291295 0.0045956923 -0.71260524 -0.024375068 0.10247107 -0.12510288 0.11734542
-1.6217339 0.20603256 0.09596155 0.49288303 -0.14229986 -0.099060036 -0.13181317 -0.08920781
-0.36061478 -0.06295547 -0.10004492 0.008538357 -0.15126194 -0.1857863 0.3978044 0.43105286
-1.9386042 -0.43283692 0.13696982 -0.11029997 -0.0029838015 0.06703825 0.23408884 0.21759908
-0.690947 -0.074055366 0.08153968 0.23540612 0.15839222 0.13739957 0.2538577 0.023449004
0.34072205 -0.4705999 -0.07038832 -0.049096823 0.42450774 0.032573767 0.32853803 -0.20386694
-0.5359772 0.21663107 -0.064342774 0.09866645 0.058504146 -0.061876494 -0.57631487 0.24364105
0.17171869 -0.22948907 -0.1066109 -0.38057962 -1.9497037 -0.3686018 0.07603649 -0.1441157
-0.061299253 0.7027699 -1.4119574 0.04194691 -0.18650162 -0.5836266 -0.14529926 0.083242595
0.48934892 -0.797836 0.18714502 -0.01565417 0.26099986 0.0017027048 -0.19394974 0.40750426
0.029293235 -0.37009683 0.09774105 0.11138438 0.35838518 0.11926142 0.0638808 0.4463229
-0.08726089 0.059414413 0.13028714 0.34792107 -0.6482047 0.40681753 0.32788187 0.24449076
0.9987001 0.16418898 0.13251153 0.1974405 -0.027671367 -0.06609772 -0.32218966 -0.29707685
-0.7117121 0.06650766 -0.20848769 0.12569237 0.12181603 0.085935 0.032252356 -0.1722066
0.26283747 -0.37802678 -0.4486143 0.16232054 -0.34037215 -0.17004198 0.1373015 -0.03729238
-0.36487848 -0.15946224 -0.19562477 -0.296437 -0.38348013 -0.17291361 0.0692585 -0.021143302
-0.09758966 -0.48856094 -0.27769682 -0.67266244 0.2232251 -0.15389106 0.0013309383 0.237818
-2.013176 0.0023259462 -0.18359399 -0.009326198 0.2252522 -1.0746868 0.09671042 0.10853128
-0.33026403 0.4229881 0.079936534 0.047241922 0.29570237 0.16971464 0.28328267 -0.72560424
0.07916911 0.014765614 0.14582615 0.16252214 -1.5107515 -0.015099022 0.08848067 -0.15913163
-0.28616613 -0.11914703 -0.84521174 -0.04227327 -0.19137606 0.646822 -0.0016855728 -1.7530987
0.103097245 -0.22740026 0.02571367 0.22093973 -0.12918371 -0.089562245 0.17301267 -0.8513098
0.18889406 0.14795478 0.38049233 -0.061206274 -0.09237084 -0.5607527 0.14891216 -0.24641088
-0.085044146 -0.18877932 -0.5442775 -0.14788812 0.035126142 -0.35389847 -0.034919918 -0.16433977
-0.3259862 -0.032892324 -0.7660322 0.38405898 0.03903918 -0.9168909 0.09170613 -0.7186568
0.5250361 -0.5575115 -0.1063743 0.052182667 0.015806166 -0.4204375 0.13137765 0.08342114
0.26787338 0.1591103 0.0014643964 0.07011995 -0.10328803 -0.15351728 -0.24760959 0.13015616
0.03521923 -0.08967332 0.30837414 -0.057028938 -0.5368277 -0.025438098 0.069128655 0.07484806
-0.9863507 -0.4018425 0.0774184 -0.034188226 -0.6846677 0.55152947 -0.011917788 0.3305233
-0.2740062 -0.19192973 -0.06414258 0.5207424 -0.36641786 -0.16209893 0.24915408 0.082337886
00000000: 460b 14bf b6ac a83e 5610 66be 2b6b 88be
00000010: b7b3 d13d ade4 813d f899 423f 8820 59be
00000020: 6775 9cbe f82c bdbe a2a3 16be 7afa 8d3e
00000030: 41cd cf3e 0f92 b6bb 133c df3c 4e20 29bf
00000040: 1c87 223d e64a 9e3d 7697 963b 4c6d 36bf
00000050: 39ae c7bc 5adc d13d f81a 00be cc52 f03d
00000060: fa94 cfbf 33fa 523e 7d87 c43d 2a5b fc3e
00000070: 0eb7 11be fddf cabd 08fa 06be 96b2 b6bd
00000080: 80a2 b8be ccee 80bd 5ae4 ccbd 77e4 0b3c
00000090: 69e4 1abe c43e 3ebe 05ad cb3e f6b2 dc3e
000000a0: 2f24 f8bf cd9c ddbe d141 0c3e f3e4 e1bd
000000b0: e28b 43bb 5a4b 893d fcb4 6f3e 4bd2 5e3e
000000c0: e7e1 30bf 57aa 97bd 47fe a63d 4d0e 713e
000000d0: 9231 223e 79b2 0c3e a3f9 813e 2018 c03c
000000e0: 1f73 ae3e 78f2 f0be c027 90bd c019 49bd
000000f0: 1459 d93e 126c 053d 2336 a83e 7fc2 50be
00000100: cd35 09bf 89d4 5d3e 25c6 83bd a311 ca3d
00000110: 0ba2 6f3d 3572 7dbd 5f89 13bf 0a7d 793e
00000120: 06d7 2f3e 2fff 6abe d156 dabd 55db c2be
00000130: e48f f9bf 60b9 bcbe 05b9 9b3d 1193 13be
00000140: ed14 7bbd bae8 333f 05bb b4bf 86d0 2b3d
00000150: 48fa 3ebe 8e68 15bf 54c9 14be 187b aa3d
00000160: f18b fa3e fb3e 4cbf f2a2 3f3e 2d3d 80bc
00000170: c6a1 853e 4b2d df3a c39a 46be 66a4 d03e
00000180: 5ef8 ef3c 557d bdbe 762c c83d 7e1d e43d
00000190: 437e b73e 553f f43d f0d3 823d 6f84 e43e
000001a0: d6b5 b2bd 875c 733d fe69 053e b622 b23e
000001b0: bef0 25bf 634a d03e 22e0 a73e c95b 7a3e
000001c0: cfaa 7f3f 2821 283e 1ab1 073e d82d 4a3e
000001d0: 10af e2bc 3e5e 87bd 0bf6 a4be 751a 98be
000001e0: c432 36bf 2b35 883d cc7d 55be 80b5 003e
000001f0: af7a f93d b0fe af3d 0c1b 043d ed56 30be
00000200: a292 863e ba8c c1be c6b0 e5be 5b37 263e
00000210: 4245 aebe 7c1f 2ebe c498 0c3e e5bf 18bd
00000220: 5ad1 babe 124a 23be dc51 48be 97c6 97be
00000230: 8257 c4be 4410 31be 67d7 8d3d b834 adbc
00000240: 16dd c7bd a924 fabe 472e 8ebe 9b33 2cbf
00000250: 1f95 643e 9e95 1dbe e172 ae3a 9086 733e
00000260: e0d7 00c0 e76e 183b 1000 3cbe e9cc 18bc
00000270: 83a8 663e 568f 89bf 1d10 c63d a645 de3d
00000280: 5e18 a9be e591 d83e c4b5 a33d bf80 413d
00000290: 4d66 973e adc9 2d3e 6d0a 913e 33c1 39bf
000002a0: 6a23 a23d 79eb 713c 7353 153e 346c 263e
000002b0: 4e60 c1bf e361 77bc 5a35 b53d 67f3 22be
000002c0: 5e84 92be 5c03 f4bd cc5f 58bf bd26 2dbd
000002d0: 16f8 43be 2096 253f 70ee dcba 8a65 e0bf
000002e0: a624 d33d 9ddb 68be 79a5 d23c 063e 623e
000002f0: bc48 04be 696c b7bd 3c2a 313e 70ef 59bf
00000300: 726d 413e 7581 173e e4cf c23e 6eb3 7abd
00000310: ec2c bdbd 7d8d 0fbf 6e7c 183e 2253 7cbe
00000320: a02b aebd 5e4f 41be c555 0bbf fc6f 17be
00000330: 6ee0 0f3d 2e32 b5be 3008 0fbd af48 28be
00000340: aae7 a6be 1aba 06bd b01a 44bf 61a3 c43e
00000350: 8ce7 1f3d 5db9 6abf 6cd0 bb3d e4f9 37bf
00000360: c468 063f 13b9 0ebf c5da d9bd 7ebd 553d
00000370: ef7b 813c 9643 d7be dd87 063e b4d8 aa3d
00000380: b326 893e cfed 223e fdf0 bf3a 0c9b 8f3d
00000390: ad88 d3bd a233 1dbe 5e8d 7dbe a847 053e
000003a0: 0a42 103d a5a6 b7bd 37e3 9d3e 2d97 69bd
000003b0: 8a6d 09bf 8f63 d0bc 5393 8d3d f149 993d
000003c0: 7b81 7cbf 4dbe cdbe 8a8d 9e3d f408 0cbd
000003d0: 6246 2fbf 0931 0d3f d342 43bc 5a3a a93e
000003e0: 8a4a 8cbe 3a89 44be 2f5d 83bd 604f 053f
000003f0: 1f9b bbbe 43fd 25be 3f22 7f3e c4a0 a83d

model.3.bias f4 [64]
-0.26342174 0.23386642 -0.36778653 0.16250542 0.17644748 0.12070894 0.09618524 0.23911399
0.19767115 0.07294323 0.6509676 0.16793123 0.13833961 0.22434369 0.17961086 -0.20204793
0.032839585 0.12231183 0.192181 -0.29128775 -0.10473988 -0.025400667 -0.2457402 0.3143185
0.19327813 0.07222771 0.23229584 0.1518084 0.07515116 0.29336277 0.0695541 0.28491396
0.29369247 -0.10848394 0.14920147 0.09537854 -0.1380992 0.23603673 -0.20095225 -0.21339956
0.16996615 0.047788832 0.076099776 -0.01740685 0.053565484 0.14998971 -0.12125332 0.13465981
-0.082844235 -0.08616995 0.11652546 0.3081835 0.009646177 -0.042989206 0.3277466 0.13308373
0.33462995 0.02910217 0.0051969867 0.074290924 -0.17350848 0.3130208 0.022684181 0.0443609
00000000: 37df 86be ae7a 6f3e 844e bcbe d267 263e
00000010: a6ae 343e 4036 f73d c4fc c43d 4cda 743e
00000020: 4e6a 4a3e 4363 953d d0a5 263f 2af6 2b3e
00000030: e6a8 0d3e 5aba 653e e9eb 373e a7e5 4ebe
00000040: cd82 063d a07e fa3d 19cb 443e ab23 95be
00000050: dd81 d6bd 0f15 d0bc 52a3 7bbe 5bee a03e
00000060: b4ea 453e 1fec 933d f6de 6d3e a973 1b3e
00000070: dae8 993d a533 963e 6172 8e3d 3ee0 913e
00000080: dc5e 963e d42c debd 45c8 183e d355 c33d
00000090: e069 0dbe 9db3 713e 6dc6 4dbe 6a85 5abe
000000a0: 9b0b 2e3e 39be 433d 33da 9b3d cf98 8ebc
000000b0: 7b67 5b3d e796 193e a953 f8bd 43e4 093e
000000c0: 3daa a9bd df79 b0bd e6a4 ee3d 3aca 9d3e
000000d0: 000b 1e3c 7315 30bd 67ce a73e 1a47 083e
000000e0: 9e54 ab3e ad67 ee3c 7c4b aa3b d725 983d
000000f0: 35ac 31be 4344 a03e 2dd4 b93c c6b3 353d

model.6.weight f4 [3, 64]
-0.9254994 -1.3666551 -0.48635176 -1.2748126 0.541946 -1.6179585 -0.70349777 0.6917915
-0.77655935 0.15542841 0.92969996 0.49041983 -1.7536453 0.21002617 -0.8195813 0.37352145
-0.90832835 0.015430761 0.19047266 -0.41892052 -0.5458972 -0.67723614 1.004092 0.6607773
0.112253435 0.2132233 -0.8714956 -0.64221805 -1.6462299 0.4402399 0.6464574 0.3518337
-1.4667921 0.1766384 0.67340934 0.08439654 -1.0864749 -1.0240405 -1.0453519 1.1316624
-0.89180416 0.21600682 -0.40364414 -1.035786 1.5735916 -1.2280658 0.14906868 0.51663923
0.52457786 0.18461831 0.4291781 -1.7950245 -0.7450101 -1.1352098 0.284161 -1.3483533
0.07518777 0.18793407 -0.8283021 0.41315544 -0.9126196 0.65778035 0.2874933 0.7556737
0.2350406 0.31970266 -1.0067754 1.4573709 0.16493799 0.82459295 0.74049973 0.010519436
0.24778716 0.14261243 -0.63806874 0.020147573 0.13546161 -0.5632281 -0.08746654 0.18579903
0.43050182 0.10165483 0.001713665 0.4587869 0.36651006 0.23410185 -0.053188056 -0.45098847
0.08040952 0.22593309 0.19205678 0.57625455 0.3719762 -0.30652553 -0.40846062 -0.96905655
-0.08730402 0.18824457 -0.13233158 0.036117 0.36089823 0.099410184 -0.0001564143 -0.57426727
0.18638831 0.16037345 0.63306355 0.1841999 -0.6218916 0.053516973 0.11546673 -0.022113191
-0.0108338175 0.22452398 0.06962801 0.679319 0.170562 0.15973714 0.015822602 0.7284041
-0.76241434 0.15311512 1.1108088 0.3064549 0.34034413 -0.5836192 0.08392391 -0.6066656
0.33356535 0.92327845 1.2872288 -0.71468574 -1.6130061 0.17247164 -0.46778056 -2.0239491
0.23410362 -1.861165 -1.2485476 -0.9755892 0.5710174 0.39670715 0.6747087 -1.4671412
0.106648244 -0.95276517 -2.6271574 -0.38853222 0.40795746 0.45774817 -1.093702 -0.37964827
-1.8585984 -1.2044019 0.41091886 -0.16910872 0.4886513 -1.0905546 0.08087526 0.83254945
1.0240362 -1.7596079 -0.91640204 -1.2219923 0.34542087 0.54062766 0.26953354 -0.7189688
0.36522454 -1.4981763 -0.47320265 0.29111436 -0.96589315 0.74848974 -1.3694628 -1.0349624
-0.8737267 -1.23056 -1.286725 0.51847017 0.13470201 0.36314735 -2.144871 0.72053933
0.6710198 -1.5804862 -0.8190541 -0.9629554 0.2687577 0.06727444 -1.6147348 0.1265846
00000000: 87ed 6cbf 8eee aebf 1903 f9be 0f2d a3bf
00000010: f9bc 0a3f 4419 cfbf 6e18 34bf 3f19 313f
00000020: 98cc 46bf a028 1f3e d100 6e3f 4f18 fb3e
00000030: 7377 e0bf 1a11 573e 14d0 51bf 343e bf3e
00000040: 3588 68bf 4dd1 7c3c 440b 433e c07c d6be
00000050: ebbf 0bbf 595f 2dbf 1686 803f b328 293f
00000060: 21e5 e53d 3557 5a3e 561a 5fbf 6768 24bf
00000070: a9b7 d2bf 2067 e13e 3b7e 253f 8c23 b43e
00000080: d8bf bbbf b2e0 343e 8e64 2c3f 18d8 ac3d
00000090: 9c11 8bbf c213 83bf 17ce 85bf 50da 903f
000000a0: 474d 64bf e430 5d3e 72aa cebe a394 84bf
000000b0: 736b c93f 4331 9dbf 76a5 183e 7842 043f
000000c0: bc4a 063f 950c 3d3e 3bbd db3e 5dc3 e5bf
000000d0: fbb8 3ebf 8e4e 91bf 8d7d 913e d796 acbf
000000e0: 0cfc 993d ca71 403e 9b0b 54bf 1c89 d33e
000000f0: 70a1 69bf 4b64 283f 5232 933e d573 413f
00000100: 7cae 703e 11b0 a33e 04de 80bf 218b ba3f
00000110: 81e5 283e 8618 533f 6491 3d3f b659 2c3c
00000120: ebbb 7d3e fe08 123e 7958 23bf 860c a53c
00000130: 73b6 0a3e b72f 10bf a821 b3bd 1a42 3e3e
00000140: bc6a dc3e 6830 d03d 0e9d e03a 1ee6 ea3e
00000150: 35a7 bb3e 65b8 6f3e b8db 59bd f6e7 e6be
00000160: bfad a43d 015b 673e 88aa 443e 6b85 133f
00000170: aa73 be3e eaf0 9cbe c021 d1be 1714 78bf
00000180: 73cc b2bd 2fc3 403e ee81 07be 6bef 133d
00000190: a7c7 b83e 9197 cb3d 2503 24b9 2e03 13bf
000001a0: 94dc 3e3e f038 243e 7410 223f e69e 3c3e
000001b0: 4a34 1fbf 9d34 5b3d d279 ec3d b926 b5bc
000001c0: 5380 31bc 9de9 653e 2199 8e3d dae7 2d3f
000001d0: cea7 2e3e 2292 233e 679e 813c b178 3a3f
000001e0: 962d 43bf 36ca 1c3e fc2e 8e3f a8e7 9c3e
000001f0: 9641 ae3e 1168 15bf 4de0 ab3d 704e 1bbf
00000200: 14c9 aa3e fa5b 6c3f eac3 a43f a5f5 36bf
00000210: fc76 cebf 689c 303e ef80 efbe 6288 01c0
00000220: dcb8 6f3e a83a eebf 68d0 9fbf 37c0 79bf
00000230: 322e 123f 331d cb3e b6b9 2c3f 48cb bbbf
00000240: 656a da3d 6be8 73bf 5923 28c0 b2ed c6be
00000250: cddf d03e f85d ea3e 6dfe 8bbf 4261 c2be
00000260: 8de6 edbf d729 9abf f563 d23e d62a 2dbe
00000270: 8130 fa3e 4b97 8bbf eea1 a53d f621 553f
00000280: 9e13 833f d53a e1bf 5399 6abf 3e6a 9cbf
00000290: 01db b03e 9366 0a3f 4d00 8a3e 570e 38bf
000002a0: b6fe ba3e 3ec4 bfbf 9e47 f2be f10c 953e
000002b0: c644 77bf 069d 3f3f 8f4a afbf a679 84bf
000002c0: 8eac 5fbf fd82 9dbf 68b3 a4bf 76ba 043f
000002d0: 53ef 093e 73ee b93e 9145 09c0 4475 383f
000002e0: f4c7 2b3f 5f4d cabf 88ad 51bf 3f84 76bf
000002f0: 9c9a 893e 2ec7 893d a1af cebf 659f 013e

model.6.bias f4 [3]
-0.018226564 -0.03337316 0.26606315
00000000: e04f 95bc 4bb2 08bd 6e39 883e
