models/mlp_best_ros_state.pth (torch, 60790 bytes, 6 tensors)

model.0.weight f4 [128, 46]
00000000: e176 00bd 9394 743f 0f5b 8f3b d646 3b3e
00000010: 1cc4 9dbd ede4 123f ff32 073e 2552 b93e
00000020: c4e1 1b3e 62a4 48be fcbd 18bd 78f8 bf3e
00000030: 4f2d 5cbe 84f9 ae3e 722e 1c3c 38b6 5e3e
00000040: e184 9cbd 398a bfbd 69ae 13bc 8408 003e
00000050: 4fdf f4be 159b 16bf f940 c7bd 917f 893e
00000060: 5fc8 68be f04d 2f3b 976e 21bf cbb9 693f
00000070: 9d32 16bf a88e bebc 5708 3cbd bc09 8bbf
00000080: 911d 313f 53a5 253e 5e4d 21bf e97a 41bf
00000090: 206d 7ebe b1b3 6a3e bfa9 803f 299d 92bf
000000a0: 2eb6 b0bc 7487 193d 0bec 55bf d9ef 8fbf
000000b0: 2707 073f 8cd8 d5be f295 fdbc fb40 7a3c
000000c0: 2ddc 67bd ed10 ce3e 2cdb 2f3e 50c7 4c3e
000000d0: 106d 613e b11c 32be 2118 e93e 3568 5c3e
000000e0: 1d57 a83e 902d 53be 0171 a5bd d4a4 00bf
000000f0: 67c7 8dbd f4a5 993e 2429 e23d daff b4be
00000100: 153c 66be 2043 e93e e445 b63e 74c3 c1bc
00000110: 1558 f8be 6073 0d3e d71c 1abf 7ae1 12be
00000120: c96b ddbe 580a 12bd 619a b73c e1f3 52be
00000130: 77f3 93bd ba1c 333e 45bb 4cbd 82f2 d9bf
00000140: 2910 7abe 2b6a 8f3e b22d 38bf b025 5a3f
00000150: 81a0 71bf 38bd db3c 6831 443f ab69 afbe
00000160: 3754 ab3e e909 1fbf a176 d63e 28d3 b1bf
00000170: 5215 efbd 6842 673c 4aac 22be 20cd ac3e
00000180: 8a64 9b3e d585 dd3d 263f 153c fdcb b83e
00000190: 90f7 a63e 37b3 bdbd 23ef eebe 9e82 6cbf
000001a0: 18ea 9bbe c251 c53e 7518 01bc 8629 58bd
000001b0: 7117 553c 24ec bbbd c0cf c4bc 43f7 89be
000001c0: 7884 73bf 82ae 82bf 5b1c b1bb e3dd 6abe
000001d0: 8ffc 17be 2043 233e d180 abbc 9be4 3f3f
000001e0: c46b ef3e 8630 bdbd 752d 9fbc c21f a93e
000001f0: e40b e1be 3ecb 573f c79f e3bc 72ea 6b3e
00000200: eac1 92be 4c35 b0be 4cb7 50be 1147 8fbe
00000210: 2a04 87be 6c8f c6be f0af 1c3f 42eb 123f
00000220: 0e8a 43bf 5173 603f 7d7e e6bc b812 49bd
00000230: 1b79 bebe c7eb 193e 0730 b6be 165d 09bf
00000240: 9e1c 76bf 8b71 13be b2b5 e33e 0f55 b63c
00000250: d6cb 1c3d 8d77 f03d e5af 8abf 34e7 2abe
00000260: b3ea 61bc 405c 27be 9e79 1b39 5bca a7bc
00000270: d050 f43d 7e76 b33d a06c 1e3e 7aae da3d
00000280: 7d99 503e 55c5 5cbe f169 8fbe e48a 75be
00000290: a990 123f 272f 853e 9c83 e5bc 9288 9fbc
000002a0: e90b 41bb 6b9a 5cbf 3a02 143e b62b dbbc
000002b0: aa75 5b3e e2e9 74bf 3eb7 573e fd53 52bf
000002c0: c973 3abe f6b2 603e 6bcd 463f 70f2 5c3f
000002d0: 13c3 c93e 7952 41bf 528d 223f 1f48 69be
000002e0: 8393 153d 6c98 be3d f95a 6ebf 8be1 9a3d
000002f0: 2df2 123f 5983 cebe 6d65 81be 2888 10bd
00000300: f103 cbbe 3388 313e 2251 1c3e 29d0 8ebe
00000310: e174 30bf da73 b2be 6fba 553c 5c0c d9bd
00000320: 1ea9 e23a 5a0f 82bc 1471 2b3e fc9e c23d
00000330: dcab b33e 7400 cdbe e453 233f 75ad f8bf
00000340: 4257 353f 332e 9dbd 36c2 803d d069 03bf
00000350: 264c b63e 408c 3dbe 49cb 2cbd 16f2 96be
00000360: 965f e6bf d732 103e f327 f43e 2b1b 293f
00000370: df84 01bf 04ad e83e f99c f2bf bf36 9fbf
00000380: ddc7 653e a349 23bf 7e55 e33b 3d33 623f
00000390: b230 443d b16c 94bf eeb8 133e 5791 cb3e
000003a0: 4c4d 4bbe dccd 273f 7e3c 2a3e 40b5 3bba
000003b0: 7149 6b3e f808 ff3d 347b ba3e 59dc 7bbd
000003c0: eaf1 7c3e 4393 4d3d b997 9bbe 37cc a73d
000003d0: d779 00be 35dc 30be 5f28 fabc 65fa 1bbe
000003e0: 1122 97bb 2463 fcbd a2af 833e 1e63 95be
000003f0: 2b3b 90be e876 75be d59f 88bf 03aa a8bf
-0.03136337 0.95539206 0.0043748687 0.1828874 -0.077034205 0.57380563 0.13203047 0.36195484
0.15222842 -0.19593957 -0.03729056 0.37494254 -0.21501659 0.3417474 0.009532558 0.21749198
-0.07642532 -0.09352536 -0.009013751 0.12503248 -0.4782662 -0.58830386 -0.097291894 0.26855138
-0.22732686 0.0026749335 -0.6305937 0.9129912 -0.5867098 -0.023261383 -0.04590639 -1.0862346
0.6918574 0.16176347 -0.6300868 -0.7557817 -0.24846315 0.2292011 1.0051802 -1.1454211
-0.021571245 0.037482694 -0.835633 -1.1245071 0.5274529 -0.41766775 -0.030955289 0.015274282
-0.05660646 0.40247288 0.17173451 0.19997907 0.2201426 -0.17393757 0.4552622 0.21524127
0.32878962 -0.2062285 -0.080781944 -0.5025151 -0.069227986 0.30009425 0.11043003 -0.3535145
-0.22483857 0.45559025 0.35600197 -0.02365277 -0.485047 0.13813543 -0.60200256 -0.14343825
-0.43246296 -0.035654396 0.02241248 -0.20600845 -0.072241716 0.17491427 -0.04998328 -1.7027133
-0.24420227 0.28010687 -0.71944726 0.85213757 -0.94385535 0.026823625 0.7663789 -0.34260306
0.33462688 -0.62124497 0.41887382 -1.3892565 -0.116739884 0.014114954 -0.15886036 0.33750248
0.30350143 0.10816542 0.009109294 0.3609313 0.3261075 -0.09262698 -0.46666822 -0.92386806
-0.30452037 0.3853894 -0.007879366 -0.052773975 0.013006077 -0.091758996 -0.024024844 -0.26946458
-0.95124006 -1.0209506 -0.0054049916 -0.22936206 -0.14842437 0.15943575 -0.020935448 0.749582
0.46761906 -0.09237771 -0.019430855 0.33032042 -0.43954384 0.842945 -0.027786149 0.23038653
-0.2866357 -0.34415662 -0.20382422 -0.27983907 -0.26370364 -0.38781297 0.6120596 0.57390225
-0.7638253 0.8767596 -0.028136486 -0.049090117 -0.3720177 0.15031348 -0.35583517 -0.5365766
-0.96137416 -0.14398782 0.4447456 0.022257356 0.03828033 0.117415525 -1.0834929 -0.1668976
-0.013788867 -0.16343784 0.00014827258 -0.020482233 0.11929476 0.08762835 0.15471125 0.1067781
0.20371051 -0.21559651 -0.28010514 -0.23978764 0.57251984 0.26012537 -0.028016858 -0.019474301
-0.0029456562 -0.86173123 0.14453974 -0.026754241 0.21431604 -0.95669377 0.21065995 -0.82159406
-0.18208231 0.21943268 0.7765719 0.8630743 0.39406642 -0.7551647 0.6349689 -0.22781418
0.03651763 0.09306416 -0.93107563 0.0756255 0.5740078 -0.40334585 -0.25272694 -0.0352861
-0.39651445 0.17337112 0.15265325 -0.2789319 -0.68928343 -0.34854013 0.0130449375 -0.105980605
0.0017292832 -0.01587646 0.16742355 0.0950298 0.35092056 -0.40039408 0.6379988 -1.9427935
0.7083627 -0.076748274 0.06287043 -0.5133333 0.35604972 -0.18510532 -0.042186055 -0.29481572
-1.799792 0.14081894 0.4768673 0.6605708 -0.5059337 0.454445 -1.8954154 -1.2438582
0.22439523 -0.63784236 0.0069376817 0.88359433 0.047898002 -1.159567 0.14426014 0.39759323
-0.19853705 0.6554849 0.16624638 -0.0007160492 0.22977234 0.124528825 0.36422122 -0.061489437
0.24701658 0.050189268 -0.30389193 0.08193248 -0.12546478 -0.17271502 -0.030536829 -0.15232237
-0.0046122153 -0.12323597 0.25719935 -0.29177183 -0.28170142 -0.2397114 -1.0673777 -1.3176883

model.0.bias f4 [128]
00000000: 6e4d 81be 651d 67bd c0ce f13d 4130 e83e
00000010: 1b29 6fbe 7f63 7a3e 1d56 68bf 7a9c 053e
00000020: 167a 89bf db78 173d 54e0 66bf ad9a 55bf
00000030: 99b6 31bf 9ce0 4fbd 24eb 10bf dada 753e
00000040: d839 febe cfdf 59be 81bb 1ebf 000b 08bf
00000050: cac4 24be b046 52bf 22d5 253e 7a4b d2be
00000060: 427e 82be b8f0 e63b 6f0d 9dbe 6f24 3c3f
00000070: 4dd7 6ebe ed6f 33bd b6ef 923e 1b3f 483f
00000080: 1625 08be 5fe5 09bf 83b1 52bf 956f 36be
00000090: 2567 1cbf f911 c6bc 30d3 e5be 9694 f53d
000000a0: 938a 63bf 369b acbe 16e7 0abf 9ce0 a6be
000000b0: ddc6 84bf 9fe0 06bf 7aac 51be f37b 403d
000000c0: ed37 513e 1f80 a9bd 7781 02bf 2601 cf3d
000000d0: 64c2 1abf 877b 333e aaae 29bf ce08 123f
000000e0: e1ca 1dbf 0e2c a2be e70e 55bf 2f26 a9bd
000000f0: 96e0 25bd ea8e 0bbe ab27 12bf 1272 6b3f
00000100: b0a6 adbe 2dcf 423e aefa 083f 55e1 89be
00000110: b835 ebbd bda0 99bd 1405 21bf 62b8 02bf
00000120: 7628 903e 875b c53e 9f09 0ebf a9e3 87bf
00000130: b191 06bf ab68 91be 686f 4cbe d6c2 c13d
00000140: 52cd c4be 5ef3 14bf faa9 11bf a7ce 3e3e
00000150: 6e56 0abe 09ba 79bd cab9 2bbf eac5 453e
00000160: f0f7 45bf a5c5 b23e 9f96 d73e 1e99 79bf
00000170: 0038 993e 9546 dfbe fd0a c7bd ad09 99bf
00000180: 55c1 443d bb3a 9abd 94d7 c0be 5267 0bbf
00000190: 6a05 c23e 5f63 59bf 479a 14bf 457d dbbe
000001a0: 9861 6cbe 4020 21bf 82d6 9fbc b653 20bf
000001b0: 7880 35bf 9ccb d7be 97c4 fd3d 45d8 c73e
000001c0: fbb9 4bbe 38f9 11bf 9852 5c3e 011d 2abf
000001d0: 792f 93bf 2d20 9f3f 9f7e 54bf 5529 b73d
000001e0: 6813 d3be f4ef 4fbf 5460 95bf df17 24bf
000001f0: 6daa 19bf 2998 273d 8d24 12bf 243f 7dbf
-0.25254387 -0.056424517 0.118070126 0.45349315 -0.23355524 0.24452017 -0.907564 0.13047972
-1.0740383 0.03698049 -0.9018605 -0.8343914 -0.69419247 -0.050751314 -0.56608796 0.24009266
-0.49653506 -0.21276782 -0.6200486 -0.53141785 -0.16090694 -0.8213911 0.16194585 -0.4107321
-0.25486952 0.007047739 -0.30674312 0.73493093 -0.23324318 -0.043807913 0.2869851 0.7822129
-0.13295397 -0.5386562 -0.8230211 -0.17816003 -0.61094886 -0.024178492 -0.44887686 0.11991231
-0.8888332 -0.33712167 -0.5425886 -0.32593238 -1.0373188 -0.52686495 -0.20475951 0.046993207
0.2043149 -0.0827639 -0.509788 0.10107641 -0.60452867 0.1752759 -0.6628214 0.57044685
-0.61637694 -0.31674236 -0.83225864 -0.08259236 -0.040497385 -0.13628736 -0.5709178 0.9197093
-0.33916235 0.19024344 0.53507507 -0.26929727 -0.114848554 -0.075013615 -0.62898374 -0.51062596
0.2815587 0.38546392 -0.5548343 -1.0616351 -0.5256606 -0.28400168 -0.19964373 0.0946099
-0.38437897 -0.5818385 -0.5689999 0.18633519 -0.13509533 -0.060968433 -0.67080367 0.1931378
-0.7733145 0.34916416 0.42107102 -0.97499263 0.29925537 -0.43608537 -0.09718893 -1.1956078
0.04803594 -0.07530733 -0.37664473 -0.5445453 0.37894756 -0.84917253 -0.5804791 -0.4286901
-0.23084104 -0.62939835 -0.019511465 -0.6262773 -0.7089915 -0.4214753 0.12391012 0.39032188
-0.19895165 -0.570209 0.21515882 -0.66450506 -1.1498863 1.2431694 -0.8300571 0.0894343
-0.41225743 -0.81225514 -1.1670022 -0.64098924 -0.60025674 0.040916596 -0.5708702 -0.9892447

model.3.weight f4 [64, 128]
00000000: 4cb6 a33e 4449 a1bd 784c 2a3e 2c05 ba3e
00000010: 8345 933d 74c7 b7be ab73 dabf 8e26 08bf
00000020: 83e1 17be f377 263f f15a 27be 7845 883e
00000030: e20d bcbe 9467 5ebe ac42 543d 29bd 473e
00000040: 68cb 7dbf 8b59 1fbe 4271 8dbd a083 8cbe
00000050: c85b f73d f4f1 1abf 917b 11bd 8261 d2bf
00000060: 26df 9bbf 8825 dfbd 1076 89be 8aad 5f3e
00000070: b01b d7be 4210 6f3e 7d72 413f a856 1c3e
00000080: 0333 dfbd d71f db3c c159 94bf c48c d83d
00000090: 27dc efbf c346 57be 2cfb 8fbf 8342 023f
000000a0: bd66 edbe 489e f03d 9992 4abe da3a 8b3e
000000b0: a87f 21be 7f38 a6be 774b dabd 3a6b 9bbd
000000c0: 110a cabe 83fd d1bc 6139 383e 8f32 b03e
000000d0: d464 9fbe b996 9ebc 6b55 c83d b1ba 7bbc
000000e0: 8951 023d 3a87 39be 9607 a83e bd1b a93e
000000f0: 475e 1d3e 2a17 05be 31b0 86be d2c6 193e
00000100: 86f1 91bd a10b 9a3c 2d78 8e3d 3f0c 63be
00000110: ed0e 13be 1fb3 60bd 3a1b 81bd 76b1 d6bd
00000120: d23e 323f cc14 8f3e 3f91 38be 1c13 1a3e
00000130: c50e 043f 0840 33be 2da0 02be acad a6be
00000140: 64e7 313e d83a b13e a10e fdbd 3788 a13d
00000150: b0ae 843e f234 aabe f0cc 56bf 6af3 99be
00000160: 0e99 f0be 3808 ae3e 0859 c33d 00c8 543e
00000170: 808c f63d f30c aabd 3354 fbbe 6bc3 813d
00000180: 6d59 77be a0ed 0abd b3ca 253f 32a1 33be
00000190: ba93 933e cbc6 cdbe 2679 abbe 964f 1c3f
000001a0: fdf7 3fbe 0ffa d73e 240c fe3c 4b21 71be
000001b0: d51c f3bd c827 ac3c 1ef3 f2bf 53ff 073f
000001c0: 54ac 4ebf ed80 52be d9fb d53d 446f 07bf
000001d0: c4e3 0ebf 138c d3bd 2906 283e ef47 32be
000001e0: 93fe 693e 3959 aebe 3d8c 213f 455e b83e
000001f0: 7801 853e 701b 24be f593 123e 42c1 a1bf
00000200: 5518 00bf f580 f2ba 1ce6 d33e 7fca 313e
00000210: 0210 22bd d742 a8bd 2b43 9a3d 1eef 3a3d
00000220: 562a d83d 8e7d 84bf 7bf0 eb3c 8729 98be
00000230: fd79 303e be1f 69bf b7e9 543e 42c8 eb3d
00000240: c0f1 523f 27de 46bf 7c3b 00bf aa06 c33c
00000250: 18ad 423d e86d ae3d 708b 23be 648d 24be
00000260: ff1e 1e3e 6b6e cbbc 6827 ad3e 6f71 9c3e
00000270: 207f 2cbf 46ca afbd 314d 41be 9179 5e3e
00000280: 9a20 48bf 71a7 b7be 8341 dcbe 9a39 b8bd
00000290: 47d2 cbbe 6d7b 513f c0b4 1c3e ca19 02bf
000002a0: a6f3 41be 959c dbbe 79cc 8cbd f49c 8abe
000002b0: 126c 0a3e 38b1 303e b5e6 f13d d5cc f13c
000002c0: 5d75 b8bd 6c54 0f3d 7483 ac3e 07b5 243e
000002d0: f923 d83d adb1 033e 476e bc3c c9b3 26be
000002e0: db75 8ebf 326a d33d 45de fabd 74f3 0abf
000002f0: ee0d 54c0 6c6f 61be 7b57 a63d c71f 5b3b
00000300: a4ca a23a 0143 04be a5de 6f3e 2de2 6fbd
00000310: 42d2 0cbf 5f18 6b3e e8be 1b3e 3f21 c8bd
00000320: 366e 51be caed 783b d050 fcbe 59b7 92bf
00000330: 87d4 263f 0e41 303d 4257 81bf 6ae5 983d
00000340: 6c29 d2bd daf2 aa3e a3de 91be a394 bbbe
00000350: 648d 82be 479c 903d d5ad 60be 988f 633e
00000360: a771 19bf b18b 003e 7fb9 98be c2b8 6b3e
00000370: 3e4f 26be deb9 8dbf b3da 48bf 3d08 17bf
00000380: b437 1ebf 0182 5dbc 74c7 85bb 9c81 6bbf
00000390: f7de 17bd 2f62 70be d77b 363f f555 8dbe
000003a0: 78df 1e3c 51bb 8cbb 86be 043f 1cd4 7bbc
000003b0: 0e2c 81bf ae21 793e 378d 953d 27ba 953d
000003c0: fce3 853e e63a 2a3e b463 95bd 12f9 5bbe
000003d0: 93a6 09be 7f32 f33d 27b0 c13d d74d 083c
000003e0: 93cd 173e 5489 babb 32ba 6bbe 6974 583e
000003f0: e77e d43d d024 0abf c235 6abd a33b ef3d
0.3197502 -0.078753024 0.16630733 0.3633207 0.07190993 -0.35894358 -1.7066549 -0.5318383
-0.1483212 0.6502678 -0.16343285 0.266155 -0.36729342 -0.217192 0.051821396 0.19505753
-0.991385 -0.15561502 -0.06906368 -0.27444172 0.12078053 -0.6052544 -0.035518233 -1.6436007
-1.2177474 -0.108958304 -0.26847887 0.21843544 -0.4201331 0.23346046 0.7556532 0.15267432
-0.108984016 0.02674858 -1.1589891 0.10573724 -1.873906 -0.21023087 -1.1248527 0.5088274
-0.46367446 0.1174894 -0.19782485 0.27193338 -0.15771353 -0.32464978 -0.10658925 -0.07588811
-0.39460805 -0.02563358 0.17990638 0.34413573 -0.31131613 -0.01935898 0.09781917 -0.015364335
0.03181604 -0.18117991 0.32818288 0.33028975 0.15367995 -0.12997118 -0.26306298 0.1501725
-0.07126145 0.018804373 0.069565155 -0.2217264 -0.14361162 -0.054858323 -0.06304021 -0.10483067
0.69627106 0.27945554 -0.18024157 0.15046352 0.51585037 -0.17504895 -0.12756415 -0.32554376
0.17373425 0.34615207 -0.12356306 0.07887309 0.25914526 -0.3324352 -0.8390646 -0.30068523
-0.4699177 0.33990645 0.09538466 0.20779419 0.12038517 -0.08303251 -0.49087676 0.06336101
-0.24155207 -0.033918023 0.6476242 -0.1754196 0.28823644 -0.4019073 -0.33490866 0.6105894
-0.18746944 0.42182967 0.031011648 -0.23547857 -0.11870734 0.021015063 -1.8980443 0.5312397
-0.807317 -0.20556994 0.10448427 -0.5290415 -0.5581629 -0.103294514 0.164086 -0.17410253
0.22851019 -0.34052446 0.6310461 0.36009422 0.25977683 -0.16026092 0.14314254 -1.2637103
-0.5003713 -0.0018501567 0.41386497 0.17362402 -0.039566047 -0.08215874 0.075323425 0.045638196
0.1055495 -1.0350816 0.028801193 -0.29719183 0.17234035 -0.9106406 0.2079228 0.115128055
0.8240013 -0.7768273 -0.50090766 0.023806889 0.047528356 0.08517057 -0.1597116 -0.16069561
0.15441512 -0.024832925 0.33819127 0.30555293 -0.6738148 -0.085835025 -0.18877102 0.21726061
-0.78174746 -0.35869935 -0.4301873 -0.089953616 -0.39808866 0.8182896 0.15303326 -0.508206
-0.18940601 -0.428929 -0.068749376 -0.2707287 0.13517788 0.17255104 0.11811582 0.029516617
-0.0900676 0.03499262 0.3369404 0.16084681 0.10553736 0.12860747 0.023001803 -0.1627952
-1.1129717 0.103229895 -0.12249426 -0.5427773 -3.3133502 -0.2201516 0.08122154 0.0033435689
0.0012420011 -0.12916185 0.23424776 -0.058565307 -0.5500833 0.22958516 0.15209544 -0.09771966
-0.20452198 0.003798353 -0.49280405 -1.1462203 0.6516804 0.04303079 -1.0104754 0.07465632
-0.10261807 0.33388406 -0.2849017 -0.36636838 -0.25498497 0.070610575 -0.21941312 0.22222745
-0.59939045 0.12553288 -0.29829022 0.23019698 -0.16241166 -1.1072347 -0.7845871 -0.58996946
-0.61803746 -0.013519765 -0.0040826146 -0.91994643 -0.03707787 -0.23474954 0.71282715 -0.27604643
0.009696834 -0.004294791 0.51853216 -0.015370395 -1.009157 0.24329254 0.07302325 0.07310896
0.261505 0.1662403 -0.072944075 -0.21481732 -0.1344245 0.11874866 0.094574265 0.00831934
0.14824514 -0.0056926403 -0.23020247 0.21138157 0.10375767 -0.5396242 -0.057180174 0.11681297

model.3.bias f4 [64]
00000000: 23af 5d3d 91d0 e33e b2cd 9a3e ef89 8abe
00000010: 16a3 9e3d 4053 423f 974e 1a3e fa8a 843e
00000020: 5c1b a83d 2e39 b4bd 6508 443e e5f3 2b3e
00000030: b084 5bbe c5a0 de3e bf35 333d 8933 18be
00000040: e186 82bd 057c 4a3e d97b f83e 4866 093f
00000050: 3b58 923e 7932 243f 7e81 84bc 1871 553e
00000060: bf21 f0be 7cbe 143e ddda 08be 4532 633d
00000070: fd4f 86be f955 463f 2d21 303f 019c 033f
00000080: 26d0 05be 4567 bb3e 4476 86be 3ee9 f13d
00000090: 1c37 2b3e 84a0 433e 5c46 d7be 7b9c ae3d
000000a0: 8c8b 763e 15ab 623d 3d98 213f fe2b a8be
000000b0: 1d11 0b3e cd9e 05bf 13f3 dabd 9f0b a63e
000000c0: b982 8fbe e693 143f 31e5 0abd 235b 943e
000000d0: 4420 883e e891 ebbd f521 223e fa97 6f3e
000000e0: 49e4 3e3e 82df 103c b4c7 a93e ae16 cb3e
000000f0: 5232 d93d 3dcc 913e 4832 213f c705 ff3e
0.0541221 0.4449506 0.30235058 -0.2705836 0.0774595 0.7590828 0.15069042 0.2588728
0.082083434 -0.08799969 0.19143827 0.16792257 -0.21437335 0.43482032 0.04375243 -0.14863409
-0.06373382 0.19773872 0.48531988 0.53671694 0.2858294 0.64139515 -0.016175028 0.20843923
-0.46900746 0.14525789 -0.1336474 0.055467863 -0.262329 0.77474934 0.6880062 0.5140992
-0.13067684 0.36602226 -0.26262105 0.118120655 0.16720241 0.191042 -0.42045867 0.0852594
0.2407667 0.055338938 0.6312292 -0.32846063 0.13580747 -0.52195436 -0.10690894 0.3243074
-0.2802942 0.58038175 -0.03390998 0.28975782 0.26587117 -0.11502439 0.15833266 0.23397818
0.18641771 0.008842351 0.33160174 0.3966574 0.10605301 0.28476134 0.6296735 0.49809095

model.6.weight f4 [3, 64]
00000000: 4786 d63e bace 62bf 4471 e33d 47e4 34be
00000010: dfb4 9ebf 81ab 90be 3e05 773e d479 993f
00000020: 844f 593e d1aa 9bbf d421 733e c795 57bf
00000030: fcd6 83bf b2b4 32bf 4760 b13d 0dd5 c5be
00000040: fd79 70bf ba47 5a3e 487d 43bf 090a 183f
00000050: eb6a e73e 8fc2 46bf 9e63 2b3f e883 843f
00000060: 3be9 463d 08eb f4be 542f 823e c72f 67bf
00000070: 8b09 abbf 0404 013f 4de1 553f 087f cb3d
00000080: 8abd 35bf 4d75 af3e 4c36 713f 0f1a 1f3f
00000090: b6c8 1a3e 8786 09bf db70 9fbf 7241 84bf
000000a0: 4d8d 0c3f 549a 37bd f1d7 acbf 54d8 1cbf
000000b0: 047d 7e3e 8d20 86bf 4f97 5a3e bad5 afbf
000000c0: 617f 793f 682c 05bf 537d 8a3f 4038 853e
000000d0: 5bc9 133f b3d1 3f3f 5372 31bf 6239 2abf
000000e0: f387 77bf 2289 65bf 99d4 75bf 3138 52bf
000000f0: 4860 bbbd d559 c73e de98 fbbd 1877 043f
00000100: a315 21bd 544e b13e 4087 5b3e 399a b7be
00000110: 2ba5 3cbd e946 e0be 0811 483e 07e6 80be
00000120: c682 563e 4552 2f3e 56da 753d de31 3ebe
00000130: 2847 1abd 8ce6 12be d329 f33d c036 1ebd
00000140: 9c92 4d3e 4925 1f3e f9e4 423f 9f7c b0be
00000150: 2d3b 48be 5a3f 903c 18ca 3d3d fb9a dabe
00000160: 855a f03e a46b d2be 3b99 803e de83 5e3e
00000170: 5d61 af3e 9b81 9dbe c1ac 39bf 7782 edbe
00000180: 2a57 10bf 255e 2e3e 68a3 acbe 20df 8b3d
00000190: ba82 b63b 419e 583f b256 013e 4197 fabe
000001a0: 7fbe 553e 55f1 4b3f 230f aa3c 1ae4 693e
000001b0: e7ee 83bb 31cc 013e ac93 4f3e 9c3d 203f
000001c0: e411 923e a280 d2be 0249 1cbf 8817 d43d
000001d0: 137c e9be 660f b23e 4647 203d b027 723d
000001e0: 2eec 2d3e 93e5 c7be 1abc 6f3e 7cb6 6e3e
000001f0: a92d afbe 776d 9abe 631d 41be 4edb 93be
00000200: b435 aebf 6150 8b3e 1ede e8bf 6fd7 283f
00000210: beb1 203f fec8 3d3f 3ded 19c0 ced2 bcbf
00000220: 1d6e c1bf 9ef0 fe3e 6f84 06c0 09c4 063f
00000230: 38c0 0e3f 77b6 7c3f 3343 dcbf 6f37 de3e
00000240: 5323 a63e 7cfb e7bf 7d9f 04bf 7094 e3bf
00000250: f3e1 b1bf 45cc 593f 9c9b 78bf 18bd 22bf
00000260: 1d12 81bf 17a9 9c3f aed5 97bf 9fc1 923e
00000270: 844e 093f 72f5 bcbf 9ad5 27bd cab7 b53e
00000280: d317 8b3f f847 11c0 0eaf f3be 543d a7bf
00000290: 4fe2 08c0 6e88 35bf f33c 033f b952 bf3f
000002a0: f845 06c0 5280 c7bf ff0d 683f 5925 8c3e
000002b0: bcd8 ecbf 420d a53e 2795 e7bf 1c92 bd3e
000002c0: f7b9 d7bf 8cc1 0f3f 88a7 8fbf 96bf a6bf
000002d0: 5b84 6abc 0c6f e4bf 0f95 a83e b457 ab3e
000002e0: 8103 383f a641 583f 60a1 9f3e accd 6d3e
000002f0: f463 7e3e 30dc 123e aa21 7e3f c01e 98be
0.4189932 -0.8859669 0.11105588 -0.17665206 -1.2398947 -0.28255847 0.24123093 1.1990304
0.21221739 -1.2161504 0.23743373 -0.8421292 -1.0299983 -0.6980697 0.086609416 -0.38639107
-0.9393614 0.21316424 -0.7636304 0.5939031 0.4519876 -0.7764062 0.6694888 1.0352755
0.04856227 -0.47835565 0.25426733 -0.9030728 -1.3362287 0.5039675 0.83546907 0.09936339
-0.7099234 0.3426918 0.94223475 0.6214914 0.15115628 -0.537209 -1.2456316 -1.0332472
0.5490311 -0.044824913 -1.35034 -0.6126759 0.24852377 -1.0478684 0.21346782 -1.3737099
0.9745999 -0.52020884 1.0819496 0.26019478 0.5772912 0.7492935 -0.6931507 -0.6649381
-0.9669182 -0.89662373 -0.96027523 -0.8211699 -0.091492236 0.38935724 -0.122850165 0.5174422
-0.039327275 0.34630072 0.21438313 -0.3585985 -0.046055954 -0.438041 0.19537747 -0.25175497
0.20948324 0.17121227 0.060022675 -0.1857371 -0.037665516 -0.14345759 0.11873212 -0.038626432
0.20075458 0.15541567 0.76130635 -0.34470078 -0.19553824 0.017608333 0.04633531 -0.42696366
0.4694406 -0.41097748 0.25116906 0.21729991 0.3425397 -0.30762944 -0.72529227 -0.463886
-0.56383 0.17028101 -0.3371842 0.06829667 0.005569783 0.84616476 0.12630728 -0.48943523
0.2087345 0.7966512 0.02075917 0.2284092 -0.004026282 0.12675549 0.20271176 0.6259401
0.28529274 -0.41113764 -0.610489 0.10356051 -0.45602474 0.34777373 0.03913047 0.05911988
0.16984627 -0.3904234 0.23411599 0.233118 -0.34214523 -0.3016164 -0.18858866 -0.28878254
-1.3610139 0.27209762 -1.8192785 0.65953726 0.62771213 0.74134815 -2.4051049 -1.4751832
-1.5111729 0.4979295 -2.101833 0.52642876 0.5576205 0.9871592 -1.7208008 0.43401667
0.32448825 -1.8123622 -0.5180586 -1.7779675 -1.3897079 0.85077316 -0.9711244 -0.63569784
-1.0083653 1.2239102 -1.1862085 0.28663346 0.5363543 -1.4762404 -0.04097519 0.35491782
1.0866646 -2.2700176 -0.47594494 -1.3065591 -2.1388128 -0.709113 0.51264876 1.494712
-2.0980206 -1.5586035 0.90646356 0.27372244 -1.8503642 0.32236677 -1.8092393 0.37025535
-1.6853627 0.56154704 -1.1223001 -1.3027217 -0.014313783 -1.7846389 0.32926223 0.3346535
0.71880347 0.8447517 0.31177807 0.23222989 0.24842817 0.14341807 0.9927012 -0.2971096

model.6.bias f4 [3]
00000000: 1971 8f3d 9afd ff3c e97d c1bd
0.070039935 0.031248856 -0.094478436
