models/mlp_best_ros_state.pth (torch, 60790 bytes, 6 tensors)

model.0.weight f4 [128, 46]
-0.06039375 0.18764478 -0.8720519 -0.075223215 0.19760187 -0.31834853 -0.6388599 0.47546878
-0.1638378 0.02200261 0.13695678 -0.2451209 -1.0015116 -0.26673055 0.09257691 0.32843485
-2.3275666 0.06452155 0.05232458 0.10487498 -0.24643849 -0.24708487 -1.0325361 0.16959544
0.025975993 -0.28716952 -0.6088817 0.13915531 -0.117030345 -0.11710183 -0.14303438 -0.41900575
0.18587105 -1.0674864 -0.7096259 -0.25099263 -0.2818054 0.59647155 0.33619988 0.7930515
0.3769985 0.15571472 0.3182704 0.45532125 0.7100933 0.033923022 -0.043475036 0.1437197
-0.12588467 -0.0967836 -0.6805778 -0.18364067 -0.07991019 0.5484417 0.17574859 0.0489437
0.05792012 0.16485108 -0.6224322 -0.884429 0.0027497401 0.07727088 -0.25171918 -0.12854315
-0.033961453 0.5168949 0.4204873 0.54010326 0.2778055 -0.58930075 0.48353752 -0.44310746
0.29095063 0.15598975 -0.21895732 0.02494486 -0.07426383 0.6458186 -1.6979022 -1.2778296
-0.42742056 -0.644088 -0.22634181 -1.0333441 -0.032771885 -0.16148195 0.468972 -0.6169115
-0.099265404 -0.9687277 0.06788201 0.6426483 -0.014841927 -0.3370592 -0.17632534 -0.06948291
0.31148884 -0.48796764 -0.21264398 0.0070780483 -0.2848503 0.24895404 0.2555545 -0.21181248
0.67035407 0.72150123 -0.020442767 -0.2313129 -0.20232852 -0.001966852 0.34161326 0.09247954
-0.20000467 -0.48073772 0.2350781 0.4022493 0.20271099 -0.06169375 0.42798683 0.06774831
-0.42035294 -0.13038152 -0.08232594 -0.07448653 -0.21097659 0.19693938 -0.44215757 -0.8981396
-0.11948718 -1.9994068 0.15304418 -0.85956776 0.15163381 -0.044728376 -0.58881193 0.057827245
0.22533426 -1.0913013 -0.0054201595 0.16466129 -0.09214208 -0.19262303 -0.11207751 0.43047705
-0.49261773 -0.61644137 -0.50754905 0.3488357 0.02031224 0.048228294 -0.9091829 -0.3766291
-0.019323887 0.040478125 -0.65828454 -0.09076348 -0.1527052 0.036349837 -0.31416297 -0.115466595
0.39985698 -0.16884883 0.42376602 -1.2668626 0.1461853 0.23287036 0.20553868 0.001681995
-0.06918363 0.0010686376 0.19078371 0.24572258 -1.2772938 -0.55871975 -0.4866676 0.05227187
0.48014385 0.5383878 0.11922082 0.37417817 0.12641098 -0.27782 0.40867257 -1.5667173
-0.18579595 0.32194236 0.016398959 0.48432794 -0.59952754 0.061414607 0.52258617 0.54110914
-0.4343166 0.21087733 0.22275165 0.29198757 0.25320235 -1.3214847 0.006814266 -0.115852185
0.01976949 -0.114610374 0.399326 0.036880173 -0.35554394 -0.21338722 -0.55230725 0.5364226
-0.5635715 -0.15786724 0.08679473 -0.4891705 0.015931144 -0.21654783 -0.20233287 0.3721466
-0.6414338 -0.45852706 -0.3783277 0.15277654 0.40916196 0.13263732 -0.8083513 -0.8970299
-0.083978824 0.030880129 -0.6764215 0.6548969 -1.193496 -0.40050572 -0.025845595 -0.20810719
0.027618498 -0.053481065 0.5171843 -0.04171616 0.8856942 -0.049936168 -0.064844824 -0.34462655
-0.15257727 0.43050447 0.35348132 -0.504083 -0.026614256 -0.12444419 -0.15255137 -0.16527434
0.086292796 -0.016091695 -0.580226 -0.03841163 0.080964774 0.7428491 0.33429164 -0.42715764
00000000: 705f 77bd f425 403e cb3e 5fbf a10e 9abd
00000010: 2558 4a3e 94fe a2be 538c 23bf a570 f33e
00000020: 19c5 27be d13e b43c 663e 0c3e f900 7bbe
00000030: 8831 80bf e890 88be f798 bd3d 9d28 a83e
00000040: daf6 14c0 e023 843d 4c52 563d b2c8 d63d
00000050: 5f5a 7cbe d103 7dbe 252a 84bf 6daa 2d3e
00000060: 9bcb d43c e207 93be acdf 1bbf bb7e 0e3e
00000070: 9bad efbd 16d3 efbd 9b77 12be ec87 d6be
00000080: fb54 3e3e 65a3 88bf 0baa 35bf 1b82 80be
00000090: cc48 90be 5cb2 183f 6422 ac3e 6c05 4b3f
000000a0: f305 c13e ae73 1f3e 56f4 a23e de1f e93e
000000b0: adc8 353f def2 0a3d e112 32bd 422b 133e
000000c0: e9e7 00be 7b36 c6bd 593a 2ebf 4d0c 3cbe
000000d0: f4a7 a3bd ad66 0c3f 70f7 333e 3079 483d
000000e0: a63d 6d3d b9ce 283e b757 1fbf f069 62bf
000000f0: fc34 343b 3240 9e3d 56e1 80be d1a0 03be
00000100: 2a1b 0bbd 3953 043f 1d4a d73e 3544 0a3f
00000110: 863c 8e3e 6adc 16bf 3b92 f73e fbde e2be
00000120: 7bf7 943e c7bb 1f3e 5936 60be 2a59 cc3c
00000130: a317 98bd 5e54 253f dc54 d9bf ec8f a3bf
00000140: ded6 dabe f3e2 24bf 26c6 67be 9f44 84bf
00000150: d03b 06bd 865b 25be 191d f03e e9ed 1dbf
00000160: a94b cbbd 8afe 77bf b905 8b3d 9984 243f
00000170: 8e2b 73bc 0693 acbe a18e 34be 0e4d 8ebd
00000180: 777b 9f3e e5d6 f9be 58bf 59be f9ee e73b
00000190: e6d7 91be cfed 7e3e 0ad8 823e 5fe5 58be
000001a0: 539c 2b3f 4eb4 383f 9777 a7bc 4add 6cbe
000001b0: 352f 4fbe 4de6 00bb efe7 ae3e ea65 bd3d
000001c0: 06ce 4cbe 4123 f6be 50b8 703e 9ff3 cd3e
000001d0: 7893 4f3e 96b2 7cbd 1721 db3e a0bf 8a3d
000001e0: 8038 d7be bc82 05be 819a a8bd 658c 98bd
000001f0: 3f0a 58be 7aaa 493e 7a62 e2be 7aec 65bf
00000200: b2b5 f4bd 90ec ffbf 9db7 1c3e a20c 5cbf
00000210: e545 1b3e 1a35 37bd 61bc 16bf 43dc 6c3d
00000220: 06be 663e c3af 8bbf 989b b1bb f89c 283e
00000230: fdb4 bcbd f93e 45be e588 e5bd 7d67 dc3e
00000240: 6438 fcbe 1acf 1dbf bcee 01bf 989a b23e
00000250: db65 a63c 088b 453d 36c0 68bf 88d5 c0be
00000260: 214d 9ebc 64cc 253d 5685 28bf 34e2 b9bd
00000270: c05e 1cbe 91e3 143d f8d9 a0be c079 ecbd
00000280: 0eba cc3e b5e6 2cbe dcf7 d83e 8e28 a2bf
00000290: 99b1 153e 9175 6e3e bb78 523e 6376 dc3a
000002a0: 26b0 8dbd 8711 8c3a ce5c 433e b39e 7b3e
000002b0: 5d7e a3bf 4208 0fbf 7f2c f9be 071b 563d
000002c0: 6ad5 f53e c8d3 093f 0c2a f43d 4894 bf3e
000002d0: e171 013e 6c3e 8ebe 883d d13e 318a c8bf
000002e0: 4b41 3ebe a1d5 a43e 1c57 863c d5f9 f73e
000002f0: a37a 19bf e28d 7b3d 35c8 053f 2186 0a3f
00000300: bf5e debe 3af0 573e 0219 643e 657f 953e
00000310: bda3 813e 6926 a9bf 354a df3b e943 edbd
00000320: a0f3 a13c d8b8 eabd 7574 cc3e aa0f 173d
00000330: db09 b6be 2e82 5abe 0264 0dbf fe52 093f
00000340: 3946 10bf f3a7 21be 6fc1 b13d 8e74 fabe
00000350: 0882 823c b7be 5dbe 5930 4fbe 008a be3e
00000360: 0135 24bf 0fc4 eabe 2bb4 c1be 7471 1c3e
00000370: ad7d d13e 14d2 073e 1cf0 4ebf c0a3 65bf
00000380: 17fd abbd 53f8 fc3c f629 2dbf 53a7 273f
00000390: 7ac4 98bf 160f cdbe 24ba d3bc 0d1a 55be
000003a0: 3040 e23c f60e 5bbd 3166 043f 90de 2abd
000003b0: dbbc 623f de89 4cbd 5dcd 84bd e472 b0be
000003c0: 373d 1cbe 156b dc3e 81fb b43e 950b 01bf
000003d0: 2406 dabc 98dc febd 6d36 1cbe ad3d 29be
000003e0: 47ba b03d bbd2 83bc b189 14bf 8355 1dbd
000003f0: dcd0 a53d 5c2b 3e3f 4628 ab3e 68b4 dabe

model.0.bias f4 [128]
0.27266228 -0.8875972 -0.7666239 0.32251078 -0.2558284 -0.32621273 0.07012926 -1.1534637
-0.22437978 -0.82396585 -0.7696368 -0.25248387 -0.07245749 -0.72831947 -0.53153586 0.17390653
0.10029119 -0.2329489 -0.6045865 -0.53015274 -1.0143586 -0.7835726 -0.14346586 -0.6153646
0.4171704 -0.45407617 -1.1783731 -0.66618776 -0.29561237 -0.046384923 -0.16675766 -0.22735073
0.07770574 -0.36570618 -0.6623295 -1.1376643 -0.43257514 -0.010729354 -0.9908952 0.2839826
-0.73124236 -0.53337246 0.16349709 0.5064967 -0.81407607 1.0180213 0.25306588 -0.617918
0.018143103 -0.29644468 0.2653662 -0.11884576 -0.25217772 -0.5864822 -0.092793435 -0.8966346
-0.9810178 0.021419395 -0.61408204 0.06410215 -0.81898624 -0.122760236 0.49021193 -0.42708817
-0.33679375 -0.6196246 -0.96886355 -0.2513822 -0.72605133 -0.46434814 -0.2325519 -0.56307
-0.19220766 -0.21923955 0.20902117 -0.71870244 -0.600559 -0.5594729 -0.46035466 -0.22833677
1.5466412 -0.35752687 0.6286195 0.98899615 0.050376322 -0.049139243 0.30929613 0.090597905
-0.26816338 -0.49580485 -1.0867367 -0.6157489 -0.7381488 -0.5049681 -0.07860158 0.6623039
-0.4506256 0.1403919 -0.4995695 0.14829332 0.045893114 -0.2444263 -0.77021664 -0.80496067
-0.42760673 0.112932354 -0.28685167 -0.449428 -0.37074444 0.90448016 -0.17983525 -0.6326262
-0.69487244 0.33552185 0.19463095 0.13770312 -0.38614962 -0.12953947 -0.83810705 0.22855826
-0.7166903 -0.811572 -0.904932 -1.0744486 -1.3425014 0.27076367 -0.5483189 -0.23411155
00000000: 649a 8b3e 9239 63bf 7741 44bf 2220 a53e
00000010: f1fb 82be 5b05 a7be ee9f 8f3d b3a4 93bf
00000020: d0c3 65be 6def 52bf eb06 45bf 9145 81be
00000030: 9864 94bd 2573 3abf bc12 08bf 8e14 323e
00000040: 7865 cd3d 288a 6ebe 2ec6 1abf 17b8 07bf
00000050: 81d6 81bf 3798 48bf b7e8 12be 8988 1dbf
00000060: 5c97 d53e ac7c e8be eed4 96bf 488b 2abf
00000070: 815a 97be 1efe 3dbd 85c2 2abe a1ce 68be
00000080: 3024 9f3d d73d bbbe 6d8e 29bf fc9e 91bf
00000090: 7d7a ddbe 2cca 2fbc 4fab 7dbf 2b66 913e
000000a0: b332 3bbf 198b 08bf c86b 273e c5a9 013f
000000b0: 4a67 50bf 864e 823f da91 813e e02f 1ebf
000000c0: d8a0 943c 99c7 97be 14de 873e 6865 f3bd
000000d0: 701d 81be b323 16bf 7c0a bebd d889 65bf
000000e0: fc23 7bbf ba77 af3c 7b34 1dbf fd47 833d
000000f0: 15a9 51bf b869 fbbd 0ffd fa3e 4dab dabe
00000100: 3b70 acbe b89f 1ebf 7107 78bf 2bb5 80be
00000110: 80de 39bf 0abf edbe 1622 6ebe 5b25 10bf
00000120: 16d2 44be 5580 60be a509 563e e2fc 37bf
00000130: 3cbe 19bf 9e39 0fbf 9bb3 ebbe 1dd1 69be
00000140: 57f8 c53f c30d b7be 35ed 203f da2e 7d3f
00000150: 6757 4e3d 3b46 49bd 105c 9e3e 658b b93d
00000160: b64c 89be 22da fdbe 301a 8bbf b8a1 1dbf
00000170: 52f7 3cbf 9745 01bf ddf9 a0bd c08c 293f
00000180: 66b8 e6be e5c2 0f3e 93c7 ffbe 34da 173e
00000190: 6bfa 3b3d e34a 7abe eb2c 45bf e711 4ebf
000001a0: 45ef dabe 1449 e73d 39de 92be 6d1b e6be
000001b0: 37d2 bdbe 038c 673f bb26 38be caf3 21bf
000001c0: 29e3 31bf 85c9 ab3e 564d 473e 0c02 0d3e
000001d0: 67b5 c5be ffa5 04be 2f8e 56bf 2d0b 6a3e
000001e0: 0479 37bf 2fc3 4fbf a0a9 67bf 8887 89bf
000001f0: 16d7 abbf 89a1 8a3e a15e 0cbf f0ba 6fbe

model.3.weight f4 [64, 128]
0.6085121 0.225668 -0.55819863 -0.13737236 -0.013432982 0.122036256 -0.10811792 -0.5443379
-0.039802928 0.09538113 -0.12666565 0.08240669 0.53714794 -0.24787904 -0.047775026 -0.15307768
-0.3513013 0.3559333 -0.38454342 -1.1367716 -1.7635431 -0.04720533 1.6088296 -0.23229171
-0.17885534 0.011356091 -0.38418978 -0.30909124 0.10699213 -0.020140756 -0.7089217 0.092535794
0.03240274 0.0056508947 0.1839594 -1.5964793 -0.068234436 0.37588346 -1.708859 0.4833308
-0.68128735 0.2471547 0.23089217 -0.064353794 -0.47128606 0.55293745 0.0070308815 -0.50336045
0.0017581601 0.90702415 -0.36711 0.10228468 0.33462113 -0.052169558 -0.45115402 -0.4007845
-1.0925262 0.022226471 -1.9981753 0.1493589 -0.013839989 0.29808596 -0.31381896 0.015714528
-0.21141502 -0.34377533 0.11786401 -0.14361164 -0.02808876 0.8903902 0.57264835 -0.05205486
0.23297721 -0.23655456 0.02998388 0.038480017 0.11767697 1.0834061 -0.12364988 0.27832633
2.0376406 0.2275017 -0.026127836 0.2641806 0.13413112 -0.13610885 -0.15445621 0.036863316
-0.40349764 0.09137706 -3.1350548 0.09047057 -0.22065435 0.019352043 -0.21308582 0.27553698
-0.35267746 0.33576426 -0.004249316 0.1547999 0.38100034 0.23328461 -1.7801616 -0.5342649
-0.30878416 -0.086126424 0.20675157 -0.09910124 -0.07917882 1.2693807 0.15549044 0.32071042
-0.4042268 0.35268453 0.33201763 0.091517165 -0.08976451 -0.23410703 0.38348776 0.62662077
-0.2657959 -0.044822667 -0.6409629 -0.01958539 -0.9866517 0.41950515 -0.058975287 0.5112516
0.5021781 0.07370877 -0.023080142 0.3571949 -0.32816395 -0.32740414 0.6442244 -0.0032402521
0.08589729 0.0028464536 -0.147321 -0.035127822 0.21649121 0.28081414 0.17441145 -0.2250927
0.062327582 0.025147013 -0.52121216 0.0864813 0.07534866 -0.068084985 -0.42827243 0.08146435
-0.75148284 -2.3513076 0.078324094 -0.005766986 -0.3670484 0.15579642 0.55178535 0.5650631
0.09004855 -1.7481217 -0.3397937 0.09053555 -0.96740186 0.10504747 -0.46523494 0.13484025
-0.8101689 0.0514986 0.25457537 -0.4528157 0.17474386 0.28445795 -1.2469409 -0.21276422
-2.1811945 0.07424955 -0.094700746 0.84519875 -0.12500493 -0.056678157 -0.060369167 0.24154264
1.6459004 0.0632198 -0.9373531 0.23216572 0.28797632 0.21721406 -0.0705974 -0.41184106
-1.4428561 0.095759064 0.15587467 0.06091149 -0.40346384 -0.38426486 -0.32549044 0.22467044
-0.31004897 -0.123550266 -1.8606552 -0.049368028 -0.5850709 0.59688777 0.12995934 0.08830062
-0.2528384 0.01256536 -0.23783298 -0.37106684 -0.28091156 -0.100631975 0.028512573 -0.11265658
0.25418413 0.00067164184 0.19612193 -0.3720477 -0.36098287 0.055885565 -1.8794631 0.56618637
-0.07440593 -0.060753733 -0.16993646 0.58671963 0.3950939 -0.079115026 -0.3016259 -0.31578925
0.101275004 0.14325699 0.09638888 -0.0024829814 0.14275806 0.14878649 -0.24271892 -0.08748602
-0.4817619 -0.79654217 0.22996014 0.591049 -0.3803 0.030841924 -0.10069217 0.7657544
0.10019449 0.111049674 -0.032425772 0.05344364 0.19192737 -0.49315116 -0.15547232 -0.040301796
00000000: 73c7 1b3f 8315 673e 1be6 0ebf 57ab 0cbe
00000010: 0316 5cbc 25ee f93d ee6c ddbd bb59 0bbf
00000020: 6508 23bd 2f57 c33d a4b4 01be d7c4 a83d
00000030: 8782 093f 01d4 7dbe bfaf 43bd 65c0 1cbe
00000040: c4dd b3be e43c b63e e0e2 c4be bb81 91bf
00000050: c8bb e1bf 605a 41bd 21ee cd3f e1dd 6dbe
00000060: db25 37be e60e 3a3c 86b4 c4be 3541 9ebe
00000070: b11e db3d 3afe a4bc e47b 35bf 6883 bd3d
00000080: bcb8 043d 242b b93b da5f 3c3e 6f59 ccbf
00000090: 7fbe 8bbd cc73 c03e e4bb dabf 2277 f73e
000000a0: d968 2ebf 1f16 7d3e ff6e 6c3e eccb 83bd
000000b0: 684c f1be 4f8d 0d3f 4f63 e63b 3bdc 00bf
000000c0: 1072 e63a bc32 683f d8f5 bbbe a17a d13d
000000d0: 7653 ab3e bfaf 55bd a9fd e6be a033 cdbe
000000e0: e6d7 8bbf 4a14 b63c 35c4 ffbf 8af1 183e
000000f0: 1fc1 62bc b99e 983e e1ac a0be c1bb 803c
00000100: 2e7d 58be 5203 b0be b062 f13d ee0e 13be
00000110: 661a e6bc 9df0 633f 1599 123f 7a37 55bd
00000120: 9491 6e3e 5c3b 72be c1a0 f53c 399d 1d3d
00000130: a000 f13d 0dad 8a3f 263c fdbd ca80 8e3e
00000140: b468 0240 35f6 683e 0b0a d6bc ae42 873e
00000150: ab59 093e 1e60 0bbe c529 1ebe fdfd 163d
00000160: 3e97 cebe e523 bb3d bda4 48c0 a248 b93d
00000170: 37f3 61be 2d88 9e3c 2b33 5abe 2f13 8d3e
00000180: 2492 b4be 4be9 ab3e d93d 8bbb dd83 1e3e
00000190: 7a12 c33e 29e2 6e3e 56dc e3bf 96c5 08bf
000001a0: f518 9ebe 0d63 b0bd afb6 533e 97f5 cabd
000001b0: 8128 a2bd 117b a23f e338 1f3e 2834 a43e
000001c0: d1f6 cebe 1193 b43e 37fe a93e 5a6d bb3d
000001d0: 75d6 b7bd c1b9 6fbe 8258 c43e 386a 203f
000001e0: 6616 88be f997 37bd 2516 24bf 8a71 a0bc
000001f0: 3595 7cbf 61c9 d63e 1290 71bd 63e1 023f
00000200: be8e 003f a0f4 963d 9112 bdbc 40e2 b63e
00000210: 1b05 a8be 84a1 a7be e4eb 243f 695a 54bb
00000220: ebea af3d 918b 3a3b 51db 16be 31e2 0fbd
00000230: dfaf 5d3e dfc6 8f3e ea98 323e b37e 66be
00000240: 354b 7f3d 1c01 ce3c 296e 05bf 1c1d b13d
00000250: 6650 9a3d 2470 8bbd 8646 dbbe c8d6 a63d
00000260: 2e61 40bf d37b 16c0 6268 a03d fcf8 bcbb
00000270: c5ed bbbe 1989 1f3e ce41 0d3f faa7 103f
00000280: 606b b83d 74c2 dfbf 71f9 adbe b46a b93d
00000290: a6a7 77bf 2123 d73d 4633 eebe 9013 0a3e
000002a0: 3b67 4fbf 32f0 523d b457 823e 76d7 e7be
000002b0: 0ef0 323e 79a4 913e c29b 9fbf ddde 59be
000002c0: b198 0bc0 2610 983d 77f2 c1bd f25e 583f
000002d0: 4b01 00be 5b27 68bd a945 77bd f456 773e
000002e0: ddac d23f 6279 813d 5ff6 6fbf dabc 6d3e
000002f0: a271 933e 5d6d 5e3e 5f95 90bd d5dc d2be
00000300: 82af b8bf 541d c43d 9c9d 1f3e 547e 793d
00000310: d092 cebe 5dbe c4be afa6 a6be 0210 663e
00000320: bdbe 9ebe ec07 fdbd f329 eebf 2136 4abd
00000330: 35c7 15bf a3cd 183f 1014 053e f5d6 b43d
00000340: 0974 81be f1de 4d3c 7d8a 73be 79fc bdbe
00000350: a4d3 8fbe 2318 cebd 3393 e93c 7eb8 e6bd
00000360: 6c24 823e 1f11 303a 30d4 483e 097d bebe
00000370: bfd2 b8be 43e8 643d 3f92 f0bf 97f1 103f
00000380: 2362 98bd e8d8 78bd d303 2ebe 4233 163f
00000390: bf49 ca3e 0f07 a2bd b66e 9abe 21af a1be
000003a0: 4569 cf3d f6b1 123e 8867 c53d 84b9 22bb
000003b0: 2b2f 123e 7c5b 183e 4f8b 78be df2b b3bd
000003c0: 7fa9 f6be 30ea 4bbf ac7a 6b3e fd4e 173f
000003d0: aeb6 c2be 34a8 fc3c b237 cebd 7b08 443f
000003e0: c532 cd3d 036e e33d e3d0 04bd b8e7 5a3d
000003f0: 9c88 443e 4f7e fcbe 2334 1fbe 7f13 25bd

model.3.bias f4 [64]
-0.3847142 -0.5433888 0.3443775 -0.64626646 -0.2708381 -0.5882591 0.14589243 0.355083
0.025794746 -0.53859764 0.29197755 0.42547885 0.34144366 -0.28659803 0.12014643 -0.0029560444
-0.35395437 0.02029261 0.19102532 0.35456243 0.2929701 -0.59420985 -0.089550294 0.10065365
0.2187357 -0.03523698 0.69029725 -0.28845182 0.060230784 0.3665439 0.63186383 0.052504376
0.37614387 -0.05348671 0.6335155 0.24495155 0.4887605 0.118714824 -0.05584593 0.09470838
-0.23666199 0.3202506 0.38514197 0.30069318 -0.4049098 -0.17643216 0.548899 -0.042580232
0.14850411 0.31788903 0.44802633 -0.56286204 0.85912776 -0.1348765 0.09807034 0.67191654
0.2675406 0.046922117 0.12114118 0.22813219 0.07645645 0.09940299 0.47725606 0.100204386
00000000: 42f9 c4be 871b 0bbf 3f52 b03e b871 25bf
00000010: 4bab 8abe 2698 16bf d364 153e 70cd b53e
00000020: 814f d33c 89e1 09bf 157e 953e 5dd8 d93e
00000030: b4d1 ae3e fabc 92be 550f f63d 32ba 41bb
00000040: 8239 b5be b03c a63c 249c 433e 3589 b53e
00000050: 2d00 963e 231e 18bf 2566 b7bd 8023 ce3d
00000060: 40fc 5f3e a754 10bd 52b7 303f f5af 93be
00000070: 8eb4 763d a4ab bb3e d4c1 213f d40e 573d
00000080: ee95 c03e e114 5bbd 122e 223f 94d4 7a3e
00000090: d13e fa3e c220 f33d b4be 64bd 78f6 c13d
000000a0: 8557 72be e3f7 a33e 5431 c53e 75f4 993e
000000b0: 5650 cfbe a2aa 34be a584 0c3f 9c68 2ebd
000000c0: 7611 183e 5ac2 a23e b563 e53e ba17 10bf
000000d0: ccef 5b3f 111d 0abe 1ad9 c83d b902 2c3f
000000e0: 15fb 883e 6831 403d de18 f83d 7c9b 693e
000000f0: 3395 9c3d cb93 cb3d e85a f43e f537 cd3d

model.6.weight f4 [3, 64]
0.21564731 -1.0452455 -0.2999171 -1.174358 -0.08347143 0.5587759 -1.1155342 0.6977904
0.0950112 -0.9524898 -0.43883625 -0.8302945 -1.0785595 0.19222628 -0.40940538 -0.2193897
0.49918792 0.08470449 -0.6112059 0.37343764 -1.5458167 -1.3209697 0.4597348 -1.2857257
0.46234015 -1.1175461 -1.1990132 0.028865857 0.1966327 -0.23352592 0.4006087 -1.0298742
0.39428425 -0.7395435 0.67362726 0.7567368 0.37784547 -1.1617864 -1.2740194 -1.2715589
0.23781163 -1.3063185 1.1987841 -1.2754021 0.16309147 -1.3516034 -1.0225946 1.1141237
-0.85804754 1.5233073 -0.06884478 -1.1278318 0.45286858 0.1281765 0.18740788 -0.69337505
0.16620612 -0.42547685 0.49407497 -1.113058 0.57061785 1.0476099 0.20658895 0.24557333
0.20083618 0.27734417 1.0851734 0.25997058 1.0165861 -0.08420776 -0.16649134 0.28610992
0.2928533 0.11543872 -0.274392 -0.15286003 0.25711802 0.13998497 -0.87464213 -0.5111443
-0.14526127 0.27130038 -0.046526004 0.44623753 0.026630145 0.1824966 0.17548627 0.24198498
-0.449399 0.01448493 0.29446608 0.8570117 0.23847628 -0.559577 -0.15014993 0.2528928
-0.87678254 1.007889 -0.48106444 -0.3286701 0.14414164 0.2361683 0.34762618 0.4158513
0.19101232 0.5533196 -0.24599768 -0.005061031 0.18447201 0.12910481 0.20126592 0.17676379
0.018627713 -0.2344663 -0.61381406 -0.22515169 -0.23688169 0.20012109 0.037899233 -0.115386896
0.105438225 -0.2246633 0.13638619 0.12115295 -0.15399142 -0.27813622 -0.02288874 0.2083326
-1.5854961 0.35252416 -1.3573328 0.3524317 -1.87175 -1.1218361 0.82951707 -1.4865779
-0.741885 0.46286848 0.5957601 0.69278413 0.53620654 -1.0693063 1.7418715 0.49144667
-1.6811337 -1.4862859 0.58721215 -1.1983579 0.60452455 0.42267355 -1.3936275 0.48669264
0.06720288 0.4342882 0.5758658 -0.8797946 -2.0626733 0.58308953 -1.51493 0.43825457
0.27930066 -0.7288034 -1.4361463 -0.04206923 -1.3083733 0.3955249 0.34754646 0.52896273
-1.2529616 0.30277815 -1.23996 0.951075 -1.3182572 0.58451325 0.4338737 -1.853168
0.60203373 -1.4067686 0.97156394 0.6119939 -1.4865788 -1.2986813 -1.655034 0.5344387
-2.408379 0.63262445 -1.4855684 0.3308138 -0.9570755 -0.6134021 -1.8169997 -1.6664478
00000000: a6d2 5c3e 9bca 85bf bc8e 99be 5d51 96bf
00000010: 12f3 aabd f00b 0f3f d3c9 8ebf 64a2 323f
00000020: 3b95 c23d 5fd6 73bf 25af e0be 2e8e 54bf
00000030: 3d0e 8abf f7d6 443e 959d d1be b2a7 60be
00000040: 8f95 ff3e 8c79 ad3d fd77 1cbf 3833 bf3e
00000050: 52dd c5bf 8915 a9bf 5c62 eb3e a992 a4bf
00000060: d9b7 ec3e c00b 8fbf 4479 99bf 1778 ec3c
00000070: 155a 493e 6b21 6fbe 951c cd3e ebd2 83bf
00000080: a0df c93e b952 3dbf d672 2c3f 81b9 413f
00000090: f674 c13e 6bb5 94bf 1113 a3bf 71c2 a2bf
000000a0: e484 733e 7235 a7bf c271 993f 6040 a3bf
000000b0: 7301 273e 5701 adbf 61e4 82bf 9b9b 8e3f
000000c0: 01a9 5bbf bcfb c23f 7efe 8cbd cb5c 90bf
000000d0: 64de e73e b340 033e dae7 3f3e 0781 31bf
000000e0: f031 2a3e 1ad8 d9be 65f7 fc3e af78 8ebf
000000f0: 0314 123f 1518 863f 0e8c 533e 9377 7b3e
00000100: 00a8 4d3e 0e00 8e3e f6e6 8a3f dd1a 853e
00000110: 7e1f 823f 1e75 acbd b57c 2abe 007d 923e
00000120: def0 953e 236b ec3d 1c7d 8cbe 5787 1cbe
00000130: f9a4 833e 3858 0f3e 8ce8 5fbf 5ada 02bf
00000140: 5fbf 14be e2e7 8a3e 0d92 3ebd 3f79 e43e
00000150: 7627 da3c 64e0 3a3e acb2 333e e9ca 773e
00000160: a017 e6be 3352 6d3c 42c4 963e 1e65 5b3f
00000170: 2033 743e 7040 0fbf e7c0 19be 2a7b 813e
00000180: d274 60bf 8202 813f 144e f6be 7347 a8be
00000190: de99 133e 1ad6 713e 0ffc b13e 76ea d43e
000001a0: bc98 433e 5aa6 0d3f d1e6 7bbe 01d7 a5bb
000001b0: 3be6 3c3e 0d34 043e a718 4e3e 9101 353e
000001c0: 2599 983c ef17 70be eb22 1dbf 2a8e 66be
000001d0: 1d91 72be 8bec 4c3e 3a3c 1b3d f74f ecbd
000001e0: ffef d73d 230e 66be d2a8 0b3e 0a1f f83d
000001f0: edaf 1dbe df67 8ebe 2b81 bbbc 2455 553e
00000200: 89f1 cabf 0c7e b43e 15bd adbf ee71 b43e
00000210: 8195 efbf 5398 8fbf 3b5b 543f 2f48 bebf
00000220: 2dec 3dbf 19fd ec3e bc83 183f 4d5a 313f
00000230: d544 093f 07df 88bf a5f5 de3f e69e fb3e
00000240: 642f d7bf 9e3e bebf 8953 163f cb63 99bf
00000250: 1fc2 1a3f ab68 d83e 6362 b2bf c72f f93e
00000260: aaa1 893d 065b de3e f16b 133f 383a 61bf
00000270: d702 04c0 5b45 153f 3ae9 c1bf e762 e03e
00000280: 7f00 8f3e dc92 3abf a4d3 b7bf c950 2cbd
00000290: c778 a7bf 3d82 ca3e 9cf1 b13e 1a6a 073f
000002a0: 0c61 a0bf bd05 9b3e 02b7 9ebf a779 733f
000002b0: a7bc a8bf a9a2 153f b224 de3e 9c34 edbf
000002c0: e21e 1a3f fe10 b4bf 6ab8 783f a2ab 1c3f
000002d0: 3748 bebf 303b a6bf 27d8 d3bf fad0 083f
000002e0: e222 1ac0 adf3 213f 1b27 bebf 6d60 a93e
000002f0: e602 75bf ec07 1dbf 7293 e8bf 294e d5bf

model.6.bias f4 [3]
0.17105547 -0.25589976 0.1044884
00000000: 2a29 2f3e 4b05 83be 04fe d53d
