models/mlp_fold_5_f1_0.7587.pth (torch, 61258 bytes, 6 tensors)

model.0.weight f4 [128, 46]
0	0xbcafb7c1	-0.021449925
1	0xbba8bbf9	-0.005149361
2	0x3e2c9afd	0.16855998
3	0x3dd45fd0	0.10369837
4	0xbcf179b7	-0.029476983
5	0x3e8751a7	0.26429483
6	0x3eb2a5a4	0.34892
7	0x3e939871	0.2882724
8	0xbebb7afa	-0.3661726
9	0xbe35e47a	-0.17762938
10	0xbec2d476	-0.3805272
11	0x3e447e67	0.19188844
12	0x3ea7f1de	0.32801718
13	0x3f415c5a	0.7553154
14	0x3bcf1a6e	0.0063202893
15	0xbc8f387a	-0.017482985
16	0xbb8ac17a	-0.00423449
17	0xbda6a7ad	-0.0813745
18	0xbda67306	-0.08127408
19	0xbe804f19	-0.25060347
20	0xbef2a532	-0.4739166
21	0xbe1a9823	-0.15097098
22	0xbf069b3b	-0.5258061
23	0x3e152e6d	0.14568491
24	0xbdc07199	-0.09396667
25	0xbdfaec4b	-0.122521006
26	0x3e110b72	0.14164522
27	0x3c89df40	0.016830087
28	0xbf54a6fc	-0.830673
29	0xbdbc84dd	-0.09205029
30	0xbd808f90	-0.062773824
31	0x3ef239b3	0.47309646
32	0x3e727545	0.23677547
33	0xbdf86510	-0.12128651
34	0x3e8b8b63	0.2725478
35	0xbf99f085	-1.2026526
36	0x3e07386d	0.13205118
37	0xbf2c352d	-0.6726864
38	0x3f343b46	0.70402944
39	0xbf31f959	-0.695211
40	0xbe8036c4	-0.25041783
41	0xbde06ddc	-0.10958454
42	0xbe4efded	-0.20214052
43	0xbf179ad7	-0.5922064
44	0xbdd679bf	-0.1047244
45	0xbef41127	-0.47669336
46	0x3c6688c1	0.014070691
47	0x3e98247b	0.29715332
48	0x3d798bb4	0.060924247
49	0x3d39b520	0.04533875
50	0x3f2421a9	0.6411386
51	0x3c62c0b5	0.01383989
52	0xbe6089b0	-0.21927524
53	0xbeb1af42	-0.34704024
54	0x3e55e9a7	0.20889913
55	0x3ebac03e	0.36474794
56	0xbc9c5a42	-0.019086007
57	0x3dde49c8	0.108539164
58	0xbf011b24	-0.5043204
59	0x3e2feefe	0.17181012
60	0xbc95fa38	-0.01830779
61	0xbe24dd9d	-0.16100164
62	0xbd9b7c82	-0.07592107
63	0xbd7ea01b	-0.062164407
64	0xbe5eb655	-0.21749242
65	0x3eae0d32	0.33994442
66	0x3be03045	0.0068416917
67	0xbee0f4b0	-0.43936682
68	0xbdcecdb5	-0.10097829
69	0x3f11aca4	0.56904054
70	0xbf497e33	-0.7870819
71	0xbf6ef225	-0.93338233
72	0x3e306e8c	0.1722967
73	0x3e113feb	0.14184539
74	0x3e4268aa	0.18985239
75	0x3de14a1e	0.11000465
76	0x3dba77ef	0.09104907
77	0x3e222412	0.15834072
78	0x3deddc7d	0.116143204
79	0x3e9e0094	0.30859816
80	0xbe8e77c3	-0.27825746
81	0x3e107721	0.14107944
82	0x3f2e0d13	0.679887
83	0x3e3392a8	0.17536414
84	0xbf0c0b4d	-0.54704744
85	0x3da7787b	0.08177277
86	0xbe51715c	-0.204534
87	0x3da9b7fb	0.082870446
88	0x3ed221d2	0.41041428
89	0xbecf0de9	-0.404403
90	0xbeb13d52	-0.34617096
91	0x3ade9cfb	0.001698404
92	0x3deb0b49	0.11476762
93	0x3c3a05f9	0.011353963
94	0x3df3f826	0.11912565
95	0xbe9537f8	-0.29144263
96	0xbdd7fadf	-0.10545897
97	0x3e1a6437	0.15077291
98	0x3f10f0b4	0.56617284
99	0x3e05cbee	0.13066074
100	0x3e0fbccc	0.14036864
101	0x3eb06970	0.34455442
102	0x3dfe510d	0.12417803
103	0xbc7e6cb3	-0.015528846
104	0xbede93bc	-0.43472087
105	0x3cd318d5	0.025768677
106	0xbd1e920d	-0.038713504
107	0xbe3da82f	-0.18521188
108	0xbc745c41	-0.014914573
109	0xbe10106b	-0.14068763
110	0xbe1dbea5	-0.15404756
111	0xbe13071d	-0.14358182
112	0xbdb00a88	-0.08595759
113	0xbd32bfd9	-0.04363999
114	0xbf0563b6	-0.5210527
115	0xbed5e91d	-0.41779414
116	0xbe0053c0	-0.12531948
117	0xbeabeafa	-0.3357771
118	0xbe87d5f5	-0.26530424
119	0xbd82f2e1	-0.06393982
120	0xbee78889	-0.45221356
121	0x3e526e1e	0.20549819
122	0x3c5e9e84	0.013587598
123	0xbf7e741c	-0.9939592
124	0x3cdf9b3a	0.027295697
125	0xbfd7ac8f	-1.6849536
126	0x3e096040	0.13415623
127	0x3ed0fc0a	0.4081729
128	0xbf3dc488	-0.7412801
129	0xbf1d1880	-0.6136551
130	0x3e201293	0.15632086
131	0xbeec3249	-0.46132115
132	0xbf16d44c	-0.5891769
133	0x3e8ddabe	0.2770595
134	0xbe24f7b9	-0.16110124
135	0x3da21a73	0.07915201
136	0x3e1571f9	0.14594258
137	0xbe9e7865	-0.3095123
138	0xbd173069	-0.036911402
139	0xbe9ac6bd	-0.3022975
140	0x3dcab419	0.09897632
141	0xbd0fef25	-0.035140175
142	0xbf12c310	-0.5732889
143	0x3c836f4f	0.016044287
144	0xbc730a1c	-0.014833953
145	0x3e996ca7	0.29965708
146	0x3f66d667	0.901709
147	0xbe83b225	-0.2572185
148	0xbe1d4c49	-0.15361132
149	0xbd320b59	-0.043467853
150	0xbda5d19b	-0.0809662
151	0x3e1a4246	0.15064344
152	0xbd5eb7cd	-0.054374505
153	0xbd44dea2	-0.04806388
154	0xbf32bcbc	-0.69819236
155	0x3e0b4bbd	0.1360311
156	0x3e76e7fc	0.24111933
157	0x3eae7d17	0.3407981
158	0x3eb319bc	0.3498057
159	0xbe853bb9	-0.26022127
160	0x3d79bc13	0.060970377
161	0xbe1fab57	-0.15592705
162	0x3d598aaf	0.053110775
163	0xbdec2fdb	-0.11532565
164	0xbe65ad1c	-0.22429317
165	0xbda97644	-0.082745105
166	0x3d828cd8	0.0637452
167	0xbdef905c	-0.11697456
168	0x3b7d2ca6	0.003863135
169	0xbd3aaac3	-0.045573007
170	0xbda27526	-0.079325005
171	0xbd8d76a7	-0.06907397
172	0xbeae3e82	-0.34032065
173	0xbec4e598	-0.38456416
174	0xbdb3087a	-0.08741851
175	0xbe8b8e15	-0.27256837
176	0x3f69701a	0.9118668
177	0x3d4f83cc	0.0506628
178	0xbe9acb6c	-0.30233324
179	0xbf039083	-0.5139238
180	0xbf438bbd	-0.763851
181	0x3e6e590c	0.23276156
182	0xbed8642b	-0.42263922
183	0xbf1eb20b	-0.6199042
184	0xbd708127	-0.05871692
185	0x3d9f5f89	0.07781894
186	0x3d81c6ea	0.06336768
187	0x3ec460da	0.38355142
188	0xbdcddcdd	-0.10051892
189	0xbee59b56	-0.44845074
190	0xbe278c99	-0.16362227
191	0x3e482041	0.19543554
192	0xbda17ef3	-0.07885542
193	0xbf0adc49	-0.5424238
194	0x3c83b745	0.0160786
195	0x3e324eaa	0.1741282
196	0xbebfb2ca	-0.37441093
197	0x3eebc599	0.46049193
198	0xbd1326b7	-0.035925593
199	0x3eb090dc	0.3448552
200	0xbd0c4a82	-0.034250744
201	0x3bf56f11	0.007490047
202	0xbd4109ae	-0.047128372
203	0xbea609bc	-0.32429302
204	0xbf4cfc09	-0.80072075
205	0xbec22b28	-0.3792355
206	0xbe38f9a0	-0.18063974
207	0xbef30b16	-0.47469395
208	0xbe567d42	-0.2094622
209	0xbe98fc00	-0.2987976
210	0xbee1821e	-0.44044584
211	0xbddce2f9	-0.10785479
212	0x3e717c08	0.2358247
213	0xbd8a8793	-0.0676414
214	0xbe2a09d7	-0.16605316
215	0x3f1988e6	0.59974515
216	0x3d946d8c	0.07247457
217	0x3f30af69	0.69017655
218	0xbecf14a6	-0.4044544
219	0xbe8b9e1b	-0.27269062
220	0x3e6e4d54	0.23271686
221	0x3d6e1f7b	0.05813549
222	0x3c5a84cb	0.013337324
223	0xbf838d06	-1.0277412
224	0xbd275980	-0.04085684
225	0xbcc7179c	-0.02430325
226	0x3e87d2c3	0.26527986
227	0x3eba169b	0.36345372
228	0x3e3f2590	0.18666673
229	0xbf2fc835	-0.68664867
230	0xbc84b57d	-0.016199822
231	0x3f18ffda	0.597654
232	0x3d05ecfb	0.032696705
233	0x3e7206bd	0.23635383
234	0xbec58488	-0.38577676
235	0xbe214114	-0.15747482
236	0x3df17299	0.11789436
237	0xbd089b46	-0.033351205
238	0xbf4ec45f	-0.8076839
239	0xbb573967	-0.003284061
240	0x3e60a4bc	0.21937841
241	0x3e74afc3	0.23895173
242	0xbefdbdc0	-0.4955883
243	0x3e7c8170	0.24658751
244	0xba810779	-0.0009844146
245	0xbe6a5ca1	-0.22886898
246	0xbd9f5e66	-0.07781677
247	0x3d71cfab	0.05903594
248	0xbd735c38	-0.05941412
249	0xbe3e172b	-0.18563525
250	0x3ed43de1	0.4145346
251	0xbe8847a1	-0.2661715
252	0xbe6f5e8d	-0.23375912
253	0xbdf4c8c5	-0.11952356
254	0xbeb06685	-0.34453216
255	0xbd567058	-0.052353233

model.0.bias f4 [128]
0	0xbe1d9506	-0.15388879
1	0x3e161d5f	0.14659642
2	0xbf31cc79	-0.69452626
3	0xbe9bf94b	-0.30463633
4	0x3e52c68b	0.2058355
5	0xbdab7cdb	-0.08373424
6	0x3e15899c	0.14603275
7	0x3e83e4ea	0.25760585
8	0xbf0b1621	-0.5433064
9	0xbf016061	-0.5053769
10	0x3e96bdea	0.29441768
11	0xbf38ed91	-0.722375
12	0x3c9d8d88	0.019232526
13	0xbecfdb2a	-0.40596896
14	0x3c2d35f8	0.010571949
15	0x3ebe2680	0.37138748
16	0xbee40c77	-0.4454076
17	0xbf1f2c58	-0.6217704
18	0xbeedfa5d	-0.46480075
19	0xbe8674ef	-0.26261088
20	0xbf4c1cbf	-0.79731363
21	0xbf1b4ac8	-0.6066098
22	0x3df2e11c	0.118593425
23	0x3e0a9877	0.13534723
24	0xbed6d940	-0.41962624
25	0xbe560ae7	-0.20902596
26	0xbf039356	-0.5139669
27	0xbf12e04e	-0.5737351
28	0xbf1be6ce	-0.60899055
29	0xbd2b2e9d	-0.0417925
30	0x3f73fbef	0.95306295
31	0x3ea39b26	0.31954306
32	0xbd3fd1ad	-0.04683082
33	0x3e54c8c9	0.20779718
34	0x3e913b5f	0.2836561
35	0xbe62ce47	-0.22149001
36	0xbe1faaec	-0.15592545
37	0xbe5e954b	-0.21736638
38	0x3eb170e7	0.3465645
39	0xbd803461	-0.062599905
40	0xbeb7d940	-0.35907936
41	0xbf62855b	-0.88484734
42	0xbe76fb29	-0.24119247
43	0xbd96eab8	-0.07368988
44	0x3de3f55b	0.11130782
45	0xbf056696	-0.5210966
46	0xbf1eed8f	-0.62081236
47	0x3e9f7ecc	0.31151426
48	0x3ebe0204	0.37110913
49	0xbe22c925	-0.15897043
50	0x3dd992fb	0.106237374
51	0xbe99bc5d	-0.30026522
52	0xbe139c06	-0.14414987
53	0xbe3bc18c	-0.18335551
54	0xbec21f6d	-0.379146
55	0x3e32cd5d	0.17461152
56	0xbf1d3845	-0.61413985
57	0x3d84764a	0.06467874
58	0xbf39c3fb	-0.7256467
59	0x3e540dd0	0.20708394
60	0x3de4054f	0.11133825
61	0xbf2c5051	-0.67310053
62	0xbe1424ee	-0.14467213
63	0xbed787d8	-0.42095828
64	0x3e291cc6	0.16514882
65	0xbeb67851	-0.3563867
66	0x3eb07c8f	0.3447003
67	0xbf204820	-0.62610054
68	0xbe0ace3d	-0.13555236
69	0x3d9ac31a	0.07556744
70	0xbec0f359	-0.3768566
71	0x3f814395	1.0098749
72	0xbe2a3f38	-0.16625679
73	0xbdb0ff23	-0.086424135
74	0xbe5ace86	-0.21367845
75	0x3cfc9202	0.03083134
76	0xbdc09b27	-0.09404593
77	0xbf05ab4d	-0.5221451
78	0xbf0832e7	-0.5320267
79	0xbf00de3c	-0.503391
80	0xbf6dcf65	-0.92894584
81	0xbdb7bab9	-0.089711614
82	0xbec48873	-0.38385352
83	0xbe98dae0	-0.29854488
84	0xbe7fb347	-0.24970733
85	0x3c38387c	0.011243936
86	0x3e132c04	0.1437226
87	0xbed8d36f	-0.4234881
88	0xbf07817a	-0.5293194
89	0xbf1f34fa	-0.6219021
90	0x3d9e3adb	0.077260695
91	0xbe6b0b58	-0.22953546
92	0x3cc1cd19	0.023657368
93	0xbe77ec58	-0.24211252
94	0xbed379e4	-0.41303933
95	0xbf01ce0e	-0.5070504
96	0x3e4bd0af	0.19903825
97	0xbeccb7ac	-0.3998388
98	0x3e4853fc	0.19563287
99	0x3f1b39ac	0.60634875
100	0x3e2e22e4	0.17005497
101	0x3e9a71c1	0.30164912
102	0x3f183b14	0.59465146
103	0x3ea26c20	0.31723118
104	0xbddc3674	-0.107525736
105	0x3e4586c1	0.19289686
106	0x3db40814	0.08790603
107	0xbc537ad4	-0.0129077025
108	0xbf43e2f3	-0.7651817
109	0xbeaed711	-0.34148458
110	0xbf68851a	-0.90828097
111	0x3dc62a14	0.096759945
112	0xbe987fdc	-0.2978505
113	0x3e338e53	0.17534761
114	0xbe5f6844	-0.21817118
115	0x3c9c534d	0.01908269
116	0xbea7448a	-0.3266948
117	0x3edb6462	0.42850024
118	0xbf5003e3	-0.8125593
119	0xbe241e2c	-0.16027135
120	0xbe307b18	-0.17234457
121	0xbf02ca7b	-0.5109021
122	0xbd9adc10	-0.07561505
123	0xbe1ae707	-0.15127192
124	0xbe61dc69	-0.22056736
125	0xbe540266	-0.2070404
126	0xbce611ef	-0.028084723
127	0x3d0b0893	0.033943724

model.3.weight f4 [64, 128]
0	0x3e1d4f3f	0.15362261
1	0x3d1f3ad7	0.038874473
2	0xbf3f1142	-0.7463571
3	0xbf81831a	-1.0118134
4	0x3eeb85d0	0.46000528
5	0x3e082996	0.13297114
6	0xbf724ac4	-0.94645333
7	0x3db9ee16	0.090786144
8	0xbe176a00	-0.1478653
9	0x3d6d446d	0.057926584
10	0x3e7d5100	0.2473793
11	0xbf26ec8b	-0.65204686
12	0xbcccf647	-0.025019778
13	0x3d235ff0	0.039886415
14	0x3cf5c934	0.030003168
15	0xbe2c424e	-0.16822168
16	0x3e360300	0.17774582
17	0x3d5c4255	0.053774197
18	0xbecab694	-0.3959242
19	0x3e3111f0	0.17291999
20	0xbe213e2e	-0.15746376
21	0x3c6e6776	0.014551034
22	0xbf7fa194	-0.99855924
23	0x3e5d418e	0.21607038
24	0x3ea22ab6	0.3167321
25	0xbd6134b5	-0.054981906
26	0x3dbe76f4	0.09300032
27	0xbe03ada2	-0.12859204
28	0x3da21d28	0.07915717
29	0xbe1a418a	-0.15064064
30	0x3d6fc5da	0.058538295
31	0xbf2862d5	-0.65775806
32	0x3e09111c	0.13385433
33	0x3e9c4eaa	0.30528766
34	0xbdccffce	-0.10009728
35	0xbec4cf91	-0.3843961
36	0x3b004256	0.001957079
37	0xbe9a2ef3	-0.30113944
38	0x3d93883d	0.0720372
39	0xbb4be204	-0.0031110058
40	0xbd996d6f	-0.07491576
41	0x3fb52297	1.4151181
42	0x3c47f85d	0.0122052105
43	0xbf06d7a5	-0.526728
44	0xbcc6c659	-0.024264501
45	0x3cd6dd3e	0.026228543
46	0x3ea715c1	0.32633784
47	0xbf1674e5	-0.58772117
48	0xbf9a562a	-1.2057545
49	0x3d7c3cd4	0.061581448
50	0xbe8fc6ca	-0.28081352
51	0x3e8a06fc	0.26958454
52	0xbd737967	-0.05944195
53	0xbeccfc3d	-0.40036193
54	0xbdc385e1	-0.0954702
55	0x3e8e9868	0.27850652
56	0xbd37b618	-0.044851393
57	0xbed7e4d3	-0.42166767
58	0xbe252d65	-0.16130598
59	0xbb55ec6d	-0.0032642141
60	0xbe39bea8	-0.18139136
61	0xbe3ed6c9	-0.18636622
62	0xbde22b08	-0.11043364
63	0xbfc98d57	-1.5746258
64	0xbc9e4106	-0.019318115
65	0xbeab668b	-0.33476672
66	0x3d1084a6	0.035282753
67	0x3d0622e7	0.03274813
68	0xbdadcc76	-0.084862635
69	0xbe6e7dfa	-0.23290244
70	0x3e5fff0b	0.21874635
71	0x3e000ee8	0.12505686
72	0xbe6e465d	-0.23269029
73	0x3dd64ba8	0.10463649
74	0xbf0ff6e2	-0.5623609
75	0x3ee09a89	0.438679
76	0xbeab86a9	-0.33501175
77	0x3e6ef67c	0.23336214
78	0xbe12fb59	-0.14353694
79	0xbc250289	-0.010071405
80	0xbe263f65	-0.1623512
81	0xbd85eb28	-0.06538993
82	0x3da2cbb0	0.079490066
83	0xbdd15e04	-0.1022301
84	0x3d78a560	0.06070459
85	0x3e9f392f	0.31098315
86	0x3ed8d131	0.423471
87	0xbe0c700e	-0.1371462
88	0xbea07b62	-0.31344134
89	0x3dd3a06b	0.10333332
90	0xbfde56d5	-1.7370249
91	0xbefe20fa	-0.49634534
92	0xbd6cd6b2	-0.057821937
93	0x3bf9470d	0.007607347
94	0x3de867b7	0.11347907
95	0x3e57dc56	0.21080145
96	0x3e80e03f	0.25171086
97	0xbf8258c5	-1.018334
98	0xbf34b1f6	-0.70584047
99	0xbe6c99af	-0.231055
100	0x3d342f57	0.04399046
101	0x3d034f92	0.032058306
102	0xbd2f0fe9	-0.042739782
103	0x3dbb4960	0.091448545
104	0xbe1885b2	-0.1489475
105	0x3ccd1778	0.025035605
106	0x3e33d1ff	0.17560576
107	0xbd3014a0	-0.04298842
108	0x3db67663	0.08909299
109	0x3eb81b89	0.35958508
110	0x3e3a0d17	0.18169056
111	0xbced5ee2	-0.028975908
112	0xbd9fd801	-0.07804871
113	0xbe7e91bf	-0.24860285
114	0x3ca41610	0.020030051
115	0xbfa4ac6d	-1.286512
116	0x3eb749d7	0.35798523
117	0xbe869991	-0.26289037
118	0x3e083aa6	0.13303623
119	0x3ee68c4d	0.45028916
120	0xbe25c30c	-0.16187686
121	0x3de5f1e7	0.1122778
122	0x3ed37195	0.41297594
123	0xbc871135	-0.016487697
124	0x3e58adc9	0.21160044
125	0xbd523e6f	-0.051329073
126	0x3e7aafa0	0.24481058
127	0xbef8d50e	-0.48600048
128	0x3d893243	0.0669904
129	0x3eb53dd5	0.35398737
130	0x3c40a065	0.011756991
131	0xbc919256	-0.017769974
132	0xbe085262	-0.13312677
133	0xbe9f7796	-0.31145924
134	0xbd2c3ddf	-0.042051192
135	0xbeb3491b	-0.35016713
136	0x3ed4928d	0.4151806
137	0xbd601c09	-0.054714236
138	0xbf3caeeb	-0.73704404
139	0x3ede5fb9	0.43432406
140	0xbd1d56ca	-0.038412847
141	0xbfa52053	-1.290049
142	0xbe9f3f86	-0.31103152
143	0x3dc7b0f8	0.09750551
144	0xbe60c2d1	-0.21949317
145	0x3c837d5d	0.016050989
146	0xbda6ea3f	-0.08150148
147	0xbe408df3	-0.1880415
148	0x3ccc66d3	0.024951374
149	0x3de7046f	0.112801425
150	0xbe7afa32	-0.24509504
151	0x3d411829	0.04714218
152	0x3d963359	0.073340125
153	0xbcb1f6ba	-0.021724094
154	0x3e508811	0.20364405
155	0x3e7cb7fc	0.2467956
156	0xbf56a786	-0.8384937
157	0x3e4e3cc6	0.2014037
158	0xbe7dfe96	-0.24804148
159	0x3d2ef98e	0.042718463
160	0x3e14858e	0.14504072
161	0xbd8cb0d2	-0.06869663
162	0xbe01b872	-0.12668017
163	0xbe437468	-0.19087374
164	0xbba0807a	-0.004898128
165	0x3e3c5115	0.18390305
166	0x3d69c74f	0.05707484
167	0xbf0bae26	-0.54562604
168	0xbe9a257e	-0.3010673
169	0xbf04e3f3	-0.5191032
170	0xbf1abb85	-0.6044238
171	0x3d5a22be	0.05325579
172	0x3e1d4f16	0.153622
173	0xbc51342f	-0.012768789
174	0x3ec7da1d	0.39033595
175	0x3f168abc	0.5880544
176	0x3f26d1f9	0.6516414
177	0x3df9ca46	0.12196784
178	0x3c97a29b	0.018510154
179	0x3e09eb6b	0.13468711
180	0xbf250320	-0.64457893
181	0xbf070212	-0.52737534
182	0xbea7359e	-0.32658094
183	0xbee52906	-0.4475786
184	0x3dd405b6	0.10352652
185	0xbed1784a	-0.40912086
186	0xbf124aa6	-0.57145154
187	0xbec1b236	-0.37831277
188	0xbd29d51b	-0.041463
189	0xbd29f9dd	-0.041498054
190	0x3e82c109	0.255379
191	0xbecb1f9b	-0.3967255
192	0xbcf3e8a7	-0.029774023
193	0xbc7abbd0	-0.015303567
194	0xbee24392	-0.44192177
195	0xbf49b2f8	-0.7878871
196	0xbe1fcd2f	-0.15605615
197	0x3e5a4f7e	0.21319386
198	0xbe53cee7	-0.20684396
199	0x3dc59177	0.09646886
200	0x3cb23c52	0.021757279
201	0x3e415501	0.18880083
202	0xbf1f704d	-0.6228073
203	0xbf133990	-0.5750971
204	0xbee4bb74	-0.44674265
205	0xbf268b27	-0.6505608
206	0x3c55f4c3	0.013058844
207	0x3e278067	0.16357575
208	0x3dd4db3f	0.103933804
209	0x3e5d4151	0.21606947
210	0xbd35f0e6	-0.04441919
211	0xbcd0c3f2	-0.025484059
212	0xbedfee80	-0.4373665
213	0x3e53a9db	0.20670263
214	0xbf05945e	-0.52179515
215	0x3e6778ce	0.22604677
216	0xbe113c3c	-0.14183134
217	0xbe01900e	-0.12652609
218	0xbc7e070f	-0.015504613
219	0xbe143c28	-0.14476073
220	0x3db003ed	0.08594499
221	0x3c79fbe2	0.015257807
222	0xbf6f375d	-0.9344385
223	0x3e1276df	0.14303158
224	0x3e02828d	0.12745114
225	0x3e3c6a9b	0.18400042
226	0xbf32c4b1	-0.6983138
227	0x3ec79778	0.3898275
228	0xbf2c1524	-0.6721976
229	0xbd8551d0	-0.06509745
230	0xbf13dc5f	-0.57758135
231	0xbec177ff	-0.37786862
232	0xbf03ddfa	-0.51510584
233	0xbedf7d69	-0.43650368
234	0xbd8ecdfe	-0.06972884
235	0xbdd0fd74	-0.10204592
236	0xbd1ad599	-0.03780136
237	0x3e556047	0.20837508
238	0x3eb30a5a	0.34968835
239	0xbdc04ea8	-0.093900025
240	0xbd109800	-0.03530121
241	0xbf83f1a6	-1.030812
242	0xbed42e22	-0.41441447
243	0xbc185973	-0.00929867
244	0xbe4fd37d	-0.2029552
245	0xbfbb141d	-1.4615513
246	0x3e2c7202	0.16840366
247	0xbdddf92a	-0.1083854
248	0x3e2448e9	0.16043438
249	0xbeabd963	-0.3356429
250	0xbe33d58e	-0.17561933
251	0x3ce8465b	0.02835386
252	0x3e679573	0.22615604
253	0xbd0ea2fa	-0.034823395
254	0xbdaec0f7	-0.08532899
255	0xbfc83a7f	-1.5642852

model.3.bias f4 [64]
0	0x3d3dba78	0.04632041
1	0xbde1c89c	-0.11024591
2	0xbdd77f81	-0.10522366
3	0x3e328870	0.1743486
4	0x3dedb9ff	0.116077416
5	0x3eb8c0f6	0.36084718
6	0x3e776307	0.2415887
7	0x3e44a0f2	0.19202021
8	0x3dd2dd7b	0.1029615
9	0x3ee19ec3	0.44066438
10	0x3e101e86	0.14074144
11	0x3d75944f	0.05995589
12	0x3d2a3475	0.041553933
13	0xbe818577	-0.25297138
14	0x3e0cda25	0.1375509
15	0xbe36d453	-0.17854433
16	0x3e7d951d	0.24763913
17	0x3eab1cca	0.33420402
18	0xbe5546d4	-0.208278
19	0x3e00c8c8	0.12576592
20	0x3ec750ac	0.38928735
21	0x3e56b275	0.20966513
22	0x3ea85ec8	0.32884812
23	0xbeb337ef	-0.3500361
24	0xbe58d2d0	-0.21174169
25	0x3ec085af	0.37601992
26	0x3e744598	0.23854673
27	0x3f040898	0.51575613
28	0xbb4048e9	-0.0029340333
29	0xbd2766ad	-0.040869404
30	0x3d838403	0.064216636
31	0x3eb24fd8	0.3482654
32	0x3e7c8e92	0.24663761
33	0xbd87a92b	-0.06624063
34	0x3e84513a	0.2584322
35	0xbc9f4be7	-0.019445373
36	0xbe039ced	-0.12852831
37	0x3e375f68	0.17907488
38	0x3e404036	0.18774495
39	0xbddf9e70	-0.109188914
40	0x3e366083	0.17810254
41	0x3d4526aa	0.048132576
42	0xbdd3cb8b	-0.10341557
43	0x3e4befbf	0.19915675
44	0x3e3d0f82	0.18462947
45	0xbe0f513e	-0.13995835
46	0xbd47f5ec	-0.048818514
47	0x3dbb260d	0.09138117
48	0x3e122a9c	0.14274067
49	0x3e2fb585	0.17159088
50	0xbdef0165	-0.11670188
51	0x3e108725	0.14114054
52	0x3e391e0a	0.18077865
53	0xbe35c05c	-0.1774916
54	0xbe848185	-0.25880066
55	0xbd23877b	-0.039924126
56	0x3e65e2ba	0.2244977
57	0x3e847a3f	0.25874516
58	0x3e929176	0.28626603
59	0x3e8acbc4	0.27108586
60	0x3e4a350f	0.19746803
61	0xbee8004e	-0.45312732
62	0xbdf97890	-0.121811986
63	0xbe9e7355	-0.30947366

model.6.weight f4 [3, 64]
0	0xbf94dd5c	-1.1630054
1	0xbf6cfc2f	-0.925723
2	0x3e71626d	0.23572703
3	0x3e13c1fa	0.14429465
4	0xbf6b8ff0	-0.92016506
5	0x3eb93c35	0.36178747
6	0xbe8857a0	-0.26629353
7	0xbfb172cd	-1.386316
8	0x3e77e13c	0.24207014
9	0xbf9a274e	-1.2043245
10	0xbfc62dbc	-1.5482707
11	0x3ed6885e	0.41900915
12	0x3e55ae88	0.2086736
13	0xbbeb3575	-0.0071780034
14	0xbf38c7ff	-0.7218017
15	0xbfbb2606	-1.4620979
16	0xbd8a5bbb	-0.067557774
17	0x3f03b44f	0.51447004
18	0x3f0852a5	0.53251106
19	0xbf5c8858	-0.86145544
20	0x3f2252f1	0.6340781
21	0xbf4b1a33	-0.7933685
22	0xbf8a4bc0	-1.0804367
23	0xbf2351b6	-0.63796556
24	0x3e609110	0.21930337
25	0x3e9c9099	0.3057907
26	0xbf9e20bb	-1.2353739
27	0x3f5b641c	0.8569963
28	0x3ef56705	0.4793016
29	0x3f03446a	0.51276267
30	0x3d856f4f	0.06515371
31	0x3e4671cb	0.19379346
32	0x3fbf225c	1.4932361
33	0xbf885745	-1.0651633
34	0x3f8ffe6b	1.1249517
35	0x3d3c8b86	0.046031497
36	0x3fb6353d	1.4234997
37	0x3da2b11b	0.079439364
38	0xbf517df0	-0.8183279
39	0x3e3053cf	0.1721947
40	0x3df6d5c7	0.120524935
41	0xbfbc80f8	-1.4726858
42	0xbf838553	-1.0275062
43	0xbfd4b3b4	-1.6617341
44	0x3ec7657f	0.38944623
45	0xbce84f50	-0.028358132
46	0x3f3c4bec	0.7355335
47	0x3e5c2915	0.21500047
48	0x3e55eb94	0.20890647
49	0x3ec390bc	0.3819636
50	0x3f799236	0.97488725
51	0x3e0a1457	0.13484322
52	0x3f4c5b98	0.7982726
53	0xbf584298	-0.84476614
54	0x3e9a5e7e	0.30150217
55	0x3f7d46ed	0.9893635
56	0xbfb0157f	-1.375656
57	0xbfc89604	-1.5670781
58	0xc005a62d	-2.0882676
59	0x3e6a93ec	0.2290799
60	0x3ec62429	0.38699463
61	0x3eb3e3ee	0.35134834
62	0xbd802f59	-0.06259031
63	0x3e5a39a8	0.21311057
64	0x3ea6f75c	0.32610595
65	0x3f4881ca	0.7832304
66	0x3dc3f32a	0.09567864
67	0x3e2bb185	0.16766937
68	0x3e7843b2	0.24244574
69	0xbe0eca74	-0.13944417
70	0xbf067250	-0.5251818
71	0x3e664a2e	0.22489235
72	0x3d3d5303	0.046221744
73	0x3f719335	0.94365245
74	0x3d5e424f	0.054262456
75	0x3e83c6ba	0.25737554
76	0x3e51989b	0.2046837
77	0xbf28462b	-0.6573207
78	0x3e818f51	0.25304654
79	0x3e17ed03	0.14836507
80	0x3f291d30	0.6606016
81	0xbed970dc	-0.42468917
82	0xbe50e9e7	-0.20401727
83	0x3ddd3d2b	0.108026825
84	0xbed684cc	-0.4189819
85	0xbda8fec4	-0.08251718
86	0xbe40ee32	-0.18840864
87	0xbe0aef6b	-0.13567893
88	0x3e3a14c1	0.1817198
89	0xbe33fe3f	-0.17577456
90	0x3e599ab2	0.21250418
91	0xbf50a5b9	-0.8150287
92	0xbf2ce2cf	-0.6753358
93	0x3e3c4671	0.18386246
94	0x3eda527c	0.42641056
95	0x3caa0e1a	0.020758677
96	0xbef47f5e	-0.47753423
97	0x3e33e93d	0.17569442
98	0xbf8385f5	-1.0275255
99	0x3d992ae6	0.07478885
100	0xbf4dc600	-0.8038025
101	0x3dc01c63	0.09380414
102	0x3e519456	0.20466742
103	0x3e5c15de	0.21492717
104	0xbc8f19cc	-0.017468356
105	0x3c8aea18	0.016957328
106	0x3e5ebc7d	0.2175159
107	0x3fa039a5	1.2517592
108	0xbe76ce4a	-0.2410213
109	0xbdb95ef0	-0.09051311
110	0xbf164dbe	-0.58712375
111	0x3de52681	0.11188985
112	0x3e224ed7	0.15850388
113	0xbe2987af	-0.16555665
114	0xbeea4f46	-0.45763606
115	0x3e5e8747	0.21731292
116	0xbefe054b	-0.49613413
117	0x3e88f915	0.26752535
118	0x3e5be1a5	0.21472795
119	0x3e3bc6ad	0.18337508
120	0x3f13a775	0.57677394
121	0x3f0540f4	0.52052236
122	0x3f279fb4	0.6547806
123	0xbd772890	-0.060341418
124	0xbed3744b	-0.41299662
125	0x3e82d84f	0.25555655
126	0xbd00aaa7	-0.031412747
127	0x3e338b4c	0.17533606
128	0x3ea32eed	0.3187174
129	0xbef2dbc4	-0.47433293
130	0xbff440da	-1.9082291
131	0xc019b391	-2.4015849
132	0x3eddbf16	0.4330985
133	0xbe3941da	-0.18091527
134	0x3f342239	0.7036472
135	0x3eee2e7f	0.4651985
136	0xbf36cebd	-0.7140921
137	0xbe05ce00	-0.13066864
138	0x3f6e7ef5	0.9316247
139	0xbfbfac7a	-1.4974511
140	0xbf9e0b3d	-1.234718
141	0x3f9dc6e9	1.2326328
142	0x3daa09e8	0.08302671
143	0x3ee17bd3	0.44039783
144	0xbfa293a5	-1.2701308
145	0xbf040a44	-0.51578164
146	0xbffcfb28	-1.9764147
147	0x3f19c726	0.600695
148	0xbfa3a1b2	-1.278372
149	0x3e84747d	0.25870124
150	0x3f41b8d6	0.7567266
151	0x3f66c9e6	0.9015182
152	0xbfa2571d	-1.2682835
153	0xbfbdaab4	-1.481772
154	0x3eaab813	0.33343562
155	0xbe94804a	-0.29004127
156	0xbcc65e63	-0.024214929
157	0xbfbf4b67	-1.4944886
158	0xbf59cc37	-0.8507723
159	0xc01b6ae0	-2.4283981
160	0xbf89ed7b	-1.0775598
161	0x3efe56d1	0.4967561
162	0xbe7565b3	-0.23964576
163	0xc008468e	-2.1293063
164	0xbfc57c2c	-1.5428519
165	0xbfae67e5	-1.3625456
166	0x3e645c0d	0.2230074
167	0xbfa6d1cf	-1.3032779
168	0xc03bc3c3	-2.9338233
169	0x3f67a981	0.9049302
170	0x3e66f3b9	0.2255391
171	0xbe5861ff	-0.21131133
172	0xbfdb482c	-1.71314
173	0x3d88ab8f	0.06673347
174	0xbdc9733c	-0.09836432
175	0xbfe50774	-1.78929
176	0xbf690770	-0.91026974
177	0xbf7d1eea	-0.98875296
178	0xbfbdc73c	-1.4826427
179	0xbfb93383	-1.4468845
180	0x3bc6c5cc	0.0060660597
181	0x3ed6701c	0.41882408
182	0xbf8d58ed	-1.1042763
183	0xbfd12486	-1.6339271
184	0x3edf9ce8	0.43674397
185	0x3ef6b449	0.48184422
186	0x3f435103	0.7629549
187	0xbfd1d509	-1.6393138
188	0xbf41e043	-0.7573282
189	0xbfb7c8b7	-1.4358128
190	0xbd2fcaef	-0.042918142
191	0xbf6f7f0c	-0.93553233

model.6.bias f4 [3]
0	0xbe3b8de5	-0.18315847
1	0x3d787913	0.06066234
2	0x3ec5ebd8	0.38656497
