models/mlp_fold_1_f1_0.7511.pth (torch, 61258 bytes, 6 tensors)

model.0.weight f4 [128, 46]
000000 c6 a9 8a 3c ab 51 19 3e 34 b9 9d 3c 75 ac 87 3e
       0.016926657 0.1497256 0.01925335 0.26498762
000010 51 44 4f 3e cf 67 1e 3d b5 be a6 bd 1b b7 86 3e
       0.20240904 0.03867322 -0.08141843 0.26311573
000020 b1 12 4f 3e 63 4f c1 be 26 9a 96 bc 63 0a 01 be
       0.20221974 -0.3775588 -0.01838405 -0.12601618
000030 a2 c6 2f 3f b0 7c 49 3e ea e4 19 bd b2 7c 93 bd
       0.68662465 0.19676471 -0.037571825 -0.07201518
000040 3c d6 bc bd da 84 23 bd d6 ab 08 3d 48 95 50 be
       -0.092205495 -0.03992162 0.033367 -0.20369446
000050 11 13 35 3a c0 d5 d2 bd 95 fd 2a be 7b 8a e2 3d
       0.0006907443 -0.10294676 -0.16698296 0.11061569
000060 47 90 ff be 32 29 22 bf 33 60 06 3e cb a8 a4 bd
       -0.49914762 -0.6334411 0.13122635 -0.08040007
000070 ee 8f 9e 3b 7b d7 d8 bd 7b 83 31 3b 1e 00 77 be
       0.004838935 -0.10587975 0.0027086425 -0.24121138
000080 52 21 ea bd 50 5a d5 be 46 11 2c 3e 4d db e2 bc
       -0.114321366 -0.41670465 0.16803464 -0.027692461
000090 f2 c1 b9 be 45 35 73 bf e2 57 1b bf 74 ce 39 bc
       -0.3628078 -0.9500316 -0.60680974 -0.011340726
0000a0 d3 14 0b 3e dd b2 7a 3e 56 15 29 bf 76 e3 37 3d
       0.13582163 0.24482293 -0.6604818 0.044894658
0000b0 da 75 55 bf d5 89 83 3d 33 fd bd bc 28 c6 59 3e
       -0.8338295 0.06422774 -0.023192024 0.21266997
0000c0 ae 53 9e 3d ba 87 05 bf 1b 9c 21 bf ec ea cd bc
       0.077308044 -0.5216023 -0.63128823 -0.025136434
0000d0 9a 90 0b bc f2 a5 e7 3e 82 bd 9f bb 59 2d 72 bd
       -0.008518362 0.45243794 -0.004874886 -0.05912528
0000e0 bd 7f 98 bc db ca 6d 3e be c7 09 bd 1b 94 4c 3c
       -0.018615598 0.23221914 -0.033637755 0.012486483
0000f0 a1 1a a5 bb 5c 90 63 be 85 f7 d5 bd 2a d9 0b be
       -0.005038575 -0.22223037 -0.10447601 -0.1365706
000100 92 44 d3 bd 5a ee c3 bc 1f b7 82 3e 05 a6 db bd
       -0.10315813 -0.023917366 0.25530335 -0.10725025
000110 29 50 3a bf 36 38 13 bf 79 e1 8c 3e a0 a2 b1 be
       -0.72778565 -0.57507646 0.27515772 -0.34694386
000120 c0 8c d5 3e 3b ff 00 bf c3 68 85 bd 47 44 20 3d
       0.41708946 -0.5038945 -0.06514122 0.039127614
000130 26 16 2b bd 6c 0b a2 be b5 3d 79 bb db 37 6c 3f
       -0.04176917 -0.3164934 -0.0038031165 0.9227273
000140 55 42 12 3d fc b1 85 be f5 63 7a 3d ad c2 f6 be
       0.03570779 -0.26112354 0.061130483 -0.481954
000150 1d 6f 0a 3e 75 2f aa be 9e 9d b4 3c bf c9 71 bf
       0.13518949 -0.33239332 0.022047814 -0.94448465
000160 3d 13 2b bf 55 14 14 3f 5a 8d dd 3d be c7 82 bf
       -0.6682623 0.57843524 0.10817976 -1.0217206
000170 ba fb 98 bc 0b 7c 9a 3e b2 dc 6c bd 63 4b 78 be
       -0.01867472 0.30172762 -0.05782766 -0.24247508
000180 4f 96 8b 3e 45 0b e5 bd cb c4 5a 3e ec aa ca be
       0.27263114 -0.1118379 0.21364133 -0.39583528
000190 4e e2 53 bd 15 bf a2 3e b4 b6 1e be 7a 1b ac 3d
       -0.051729493 0.3178641 -0.15499383 0.08403678
0001a0 5f 54 33 3e 39 46 0e bf 27 fa 0e bc 34 e1 78 bd
       0.17512654 -0.555759 -0.008726633 -0.060761645
0001b0 bd 25 ee bd c2 d3 b8 bd 95 97 05 be 54 0c b5 3d
       -0.11628292 -0.090247646 -0.13046105 0.08840242
0001c0 03 01 24 bc dc c2 19 bf a3 72 88 3e 78 5d 2b be
       -0.010010007 -0.60062957 0.2664996 -0.16734874
0001d0 54 8d c3 bd cb 20 d8 bc 0a e4 c0 be 94 86 2c bf
       -0.095484406 -0.026382824 -0.3767398 -0.6739285
0001e0 fd e8 67 bd fc 15 4b 3d 22 e8 90 3b 65 74 0e be
       -0.05661868 0.049581513 0.0044222036 -0.13911588
0001f0 58 48 3f be de 32 24 bf de 52 1e bf 3d 2e 80 be
       -0.1867994 -0.6414012 -0.61845195 -0.25035277
000200 84 b4 1c bf 61 55 9d 3e fc 7c 0b be f4 65 21 bf
       -0.61212945 0.307292 -0.13621897 -0.63046193
000210 fe 68 a7 3e 1d d0 17 bf bc 00 9e be 5a 6a d3 bd
       0.3269729 -0.5930193 -0.30859935 -0.10323019
000220 b8 60 09 3f 8a 7c 91 3e 81 dc 84 bd ce fa ca be
       0.53663206 0.28415328 -0.0648737 -0.39644474
000230 ab 46 6e bc 7c c2 11 bf ad 12 23 3e 15 2c cb be
       -0.014543216 -0.56937385 0.15925093 -0.3968207
000240 3e 11 8b be 30 bc 6d 3e 15 82 27 be f5 e6 11 3e
       -0.27161592 0.23216319 -0.16358216 0.1424826
000250 bd fd 65 3e 77 c3 d4 bd 78 eb f8 bd 01 4b 52 be
       0.22460075 -0.103888445 -0.12154287 -0.20536424
000260 ce 3f 69 3d b9 5e 64 be 66 56 94 3c 4a 68 96 be
       0.056945615 -0.22301759 0.018107604 -0.2937644
000270 33 6d 85 be 72 f4 f1 bd d3 bb 87 be 78 2a 49 be
       -0.26059875 -0.11814202 -0.26510486 -0.19645107
000280 73 f6 d6 3d be 5f a2 3e 63 39 f3 bd 76 29 58 bf
       0.10496225 0.3171367 -0.1187618 -0.84438264
000290 30 87 0a 3f 98 09 08 3e e0 00 33 bd e2 0f 47 bc
       0.5411253 0.1328491 -0.043702006 -0.012149783
0002a0 f7 4a de 3a ea ec 0d bf f5 62 11 bf f4 d5 ad 3d
       0.0016959597 -0.5543963 -0.5679162 0.08488074
0002b0 d6 2d af bc ec 75 0c be c4 cc 93 bf 78 6f 03 3f
       -0.021384161 -0.13716859 -1.1546865 0.5134196
0002c0 5f 46 8f bf 0e 81 c6 3e d8 fe 1f 3e 5c be 00 be
       -1.119335 0.38770336 0.15624559 -0.12572616
0002d0 50 1b 87 bd 89 4a ba 3e 94 b4 ba be 4b 0a 82 bf
       -0.06597006 0.3638499 -0.36465895 -1.0159391
0002e0 07 0a ab 3c 06 00 a9 bd 01 73 8b bc e4 8e 87 bd
       0.020878805 -0.082519576 -0.017022612 -0.06619051
0002f0 98 d9 af 3d 3e 90 db be 12 88 e1 be c0 05 8c be
       0.085864246 -0.42883486 -0.44049126 -0.27348137
000300 5a f3 32 bc d0 01 da bb 51 d2 57 3e c3 56 04 be
       -0.010922277 -0.006653048 0.21076323 -0.12923722
000310 5e 57 0f be 9a 29 8d be 9a 93 f7 3c 94 c6 b2 bc
       -0.13998172 -0.27570802 0.03022175 -0.021823205
000320 df f9 16 bf b5 84 94 bd c4 1b 20 bc 8e 36 8f be
       -0.58975023 -0.07251874 -0.009772245 -0.2797131
000330 a7 8a 89 be 7e 35 a1 be 3b 20 45 3e 1a 73 d3 3e
       -0.26863596 -0.31486124 0.19250576 0.41298753
000340 7d e4 e3 3c e3 6e c6 bd b1 8a 9a bd 3d ad 3c 3e
       0.027818913 -0.09689119 -0.075459845 0.1842546
000350 1f 38 70 bf 94 a7 56 bd 9e 92 47 3c 44 11 b5 3c
       -0.93835634 -0.05240591 0.012180952 0.02210296
000360 9a 73 a6 bb b6 8d 86 bf 62 9b 7a bd b4 7b 82 be
       -0.0050796987 -1.0511997 -0.06118334 -0.25485003
000370 94 58 51 bd 7f 37 09 3f a0 1a f4 bd fe fa 01 bd
       -0.051109865 0.53600305 -0.11919141 -0.031733505
000380 64 b2 45 bf 6c 3d 1c 3e cf 4c 68 bf 5d 4e 30 3f
       -0.7722533 0.15257806 -0.907422 0.6886957
000390 48 f4 22 3d 54 c3 fe bd 52 aa 77 bc 33 4e 65 3d
       0.039783746 -0.124396 -0.015116291 0.05598278
0003a0 b3 d8 3d be 7d 4e b1 3e 6b 0f 0b 3e 2f 7f d0 bc
       -0.18539695 0.34630194 0.135801 -0.02545127
0003b0 88 39 6f 3e d0 aa 9d 3a 73 ac 55 bf fc df a3 bc
       0.2336179 0.0012029056 -0.8346626 -0.020004265
0003c0 73 6e 79 3d 5c 84 af be a3 6f cb 3c 41 a4 43 bf
       0.06089635 -0.3428067 0.024833506 -0.76422507
0003d0 23 86 a5 bc ec b7 b7 bd d8 b5 97 3c 74 f1 d2 bd
       -0.020205563 -0.08970627 0.018519327 -0.1029996
0003e0 3b d3 53 be cf c6 1b 3e 11 20 60 be 62 a8 b8 3a
       -0.20686047 0.15212558 -0.21887232 0.0014088268
0003f0 6d be 81 bf 7f f5 14 bf 6c 25 24 bf dc 1a 53 be
       -1.0136238 -0.581871 -0.641196 -0.20615715

model.0.bias f4 [128]
000000 02 ac 26 bf ad 0d 21 be 5b 85 92 be db 9e e6 be
       -0.65106213 -0.15727873 -0.28617367 -0.45043072
000010 2e 2d 05 be ee a6 ff be 49 d8 03 bf 98 ae 0f bf
       -0.13005516 -0.49932045 -0.515019 -0.56125784
000020 ef f6 e1 be 05 33 82 3d c8 e7 ff bc 34 8f 3b 3b
       -0.44133708 0.063573875 -0.031238452 0.0028619291
000030 5c 39 90 3e 8b 81 8e be e1 eb 90 3e af 75 6f be
       0.28168762 -0.27833208 0.2830496 -0.23384736
000040 77 ae c7 3e 14 1d b7 be 42 8f 07 bf 1a 2f 89 bd
       0.39000294 -0.35764372 -0.5295297 -0.06698437
000050 c8 8c 5b 3e f6 97 25 bd bb 6c 04 be 6c f8 d1 be
       0.21440423 -0.040428124 -0.12932102 -0.41009843
000060 6e 2a 5d 3e 73 2e ca be 61 a9 19 bf 37 c9 b9 be
       0.21598217 -0.39488563 -0.60024077 -0.36286327
000070 ff ad a5 3c 3a 43 c7 3e 4e 7a ee be 5f 10 c8 bd
       0.02022457 0.38918477 -0.46577686 -0.097687475
000080 77 0b 1c 3f d4 d4 a5 be c1 e5 12 bf 45 93 8f be
       0.60954994 -0.32388937 -0.57381827 -0.28042045
000090 84 a7 3e be 14 c1 6f bd 75 e5 c1 be d4 b6 53 be
       -0.1861859 -0.058533743 -0.37870374 -0.20675212
0000a0 6f 12 6b 3c 68 08 43 bf e0 a5 f9 3d 7c 0c c3 3e
       0.014347657 -0.761847 0.12189841 0.38095462
0000b0 3d 23 d6 3c 43 89 2f 3e 46 82 70 3d a7 80 1c bf
       0.02613985 0.17142205 0.05871799 -0.6113381
0000c0 8d 47 92 be 9f 23 d9 bc a2 83 11 bf 2f 70 c9 be
       -0.28570214 -0.026506243 -0.5684148 -0.39343402
0000d0 60 d5 e7 be 42 00 01 bd df 42 7d 3d 09 71 59 3e
       -0.4527998 -0.031494386 0.06183135 0.21234526
0000e0 25 1b ce be d7 b4 45 3e fe a3 bf be 6d a4 e8 be
       -0.40255085 0.19307266 -0.37429804 -0.45437947
0000f0 d0 63 ac be 88 fd 37 bf 07 16 00 bf 8b 89 5f be
       -0.336699 -0.71871233 -0.5003361 -0.21829812
000100 e6 29 49 3e 11 7c 24 bd 32 b7 41 3e 06 0d c7 be
       0.19644889 -0.04015738 0.1891754 -0.38877124
000110 14 91 5d 3d bb 10 2b bd 3b 5f 07 3e 17 27 fa bd
       0.054093435 -0.041764002 0.13219921 -0.12214487
000120 09 03 e0 bc 6c 9c 16 be b2 9a 26 bf 3d 81 0a bf
       -0.027345197 -0.14708108 -0.65079796 -0.5410345
000130 f0 d7 3e bf 00 0e 6c 3d 5d af ec be 02 a7 93 3d
       -0.74548244 0.05763054 -0.46227542 0.072095886
000140 f9 a2 b0 3e e3 4a 8a be 00 70 3e 3e 0f 2e 31 bf
       0.34499338 -0.2701026 0.18597412 -0.69210905
000150 78 f2 2c bf eb e0 b2 3d a7 b6 09 be 40 ec 6e be
       -0.6755748 0.08734306 -0.13448583 -0.2333231
000160 6e 97 2d bd d8 e9 c3 3e d0 ef 6f 3e 11 f2 6d 3d
       -0.042380743 0.38264346 0.23431325 0.05809218
000170 06 70 5a 3d 31 1e 0c 3e e1 cd 51 3f 0c 56 bc 3e
       0.05332949 0.13683392 0.8195477 0.367844
000180 6f fd e7 bd b8 5b ac 3d 56 c4 8a be 59 bb 38 bf
       -0.113276355 0.084159315 -0.27102917 -0.7216087
000190 7e 15 f1 be a2 25 25 bf da 39 31 3e 53 ab de be
       -0.4708671 -0.6451055 0.17307225 -0.43490085
0001a0 10 04 34 3e ec d7 4d bd 14 b5 a3 be a8 34 00 3e
       0.17579675 -0.050254747 -0.3197409 0.12520087
0001b0 35 64 35 be e8 e9 d9 bd 50 cb 0b bf 47 ed a2 be
       -0.17714007 -0.10640317 -0.54607105 -0.31821653
0001c0 65 0a ec 3d 4a 9c 24 bf a0 68 66 3e 7e d7 ac be
       0.1152542 -0.6430098 0.22500849 -0.33758157
0001d0 e1 d6 b5 be 74 74 05 bf 6a c0 cd 3e 25 75 36 3e
       -0.35515502 -0.5213082 0.40185863 0.17818125
0001e0 e5 fa 06 3e 75 5c 6a 3e c1 51 81 3e f3 07 ba be
       0.13181646 0.22886832 0.25257686 -0.3633419
0001f0 94 6c 00 3f 0d b5 9b bd 20 66 ed be c5 2a 7f bd
       0.5016568 -0.07602892 -0.46366978 -0.062296648

model.3.weight f4 [64, 128]
000000 57 70 3a bd 67 84 e6 be ee c8 26 bf 98 d8 21 3d
       -0.045517292 -0.4502289 -0.65150344 0.0395132
000010 c9 bd 9d 3e 0b 37 83 bf 46 2f b1 be 24 62 42 be
       0.30808857 -1.0251173 -0.3460638 -0.1898275
000020 95 51 85 be 11 b3 ed bd 33 f9 2a 3e 55 5a d6 bb
       -0.26038805 -0.1160642 0.16696624 -0.00654153
000030 99 e2 73 be e9 4a 0c bf 3c 05 ce 3d b8 4d 58 bd
       -0.23816909 -0.54801804 0.10059592 -0.052808493
000040 fa 63 34 bb 75 39 1d 3e 1e 54 80 bf e9 31 72 be
       -0.002752541 0.1535395 -1.002567 -0.23651852
000050 a5 7b e2 bd ed 92 61 3b 94 ce 0b bf ba c7 75 3e
       -0.110587396 0.003441985 -0.5461209 0.24001971
000060 65 f1 a0 3e bd 1f 92 3e dc ab 3e 3e 9e 60 3f bd
       0.3143417 0.2853984 0.18620247 -0.046723
000070 0a 0c 1e be 8d 2a 4e bd 77 2a 07 be 76 08 4a 3d
       -0.1543428 -0.05033355 -0.13199793 0.049324475
000080 d0 cd 85 be e1 be cf 3d 29 08 88 bf c1 4f f7 be
       -0.26133585 0.10143829 -1.062749 -0.48303035
000090 3b ec 74 bc 3f b7 53 3d 1a 0d 1f be 13 ea 14 3e
       -0.0149489 0.05168843 -0.15532342 0.14542417
0000a0 22 fd c4 3e 71 33 86 3d 36 f6 a1 3c d9 85 f5 3d
       0.38474375 0.065527804 0.019770723 0.1198842
0000b0 44 92 5a bd 20 b3 1f be f2 ec 0c 3e ff f1 58 bf
       -0.053362146 -0.15595675 0.13762262 -0.84744257
0000c0 41 4b a0 bf a0 ec d4 bd 6e 90 18 3e ec 9b 54 bf
       -1.2522966 -0.10396695 0.14898846 -0.8305042
0000d0 59 58 35 be e9 04 f0 3c 3b af 3c 3e c8 1b 0c 3d
       -0.17709483 0.029299216 0.1842622 0.03420618
0000e0 94 1e 3a be 69 fa b0 3d 5f 95 d4 3d 6b 9f f8 3d
       -0.18175727 0.08641512 0.10380053 0.121397816
0000f0 31 dc 8f 3d 95 44 36 bf a5 9a c3 bd 27 9f 0c 3e
       0.0702442 -0.711984 -0.095509805 0.13732587
000100 dc 81 d0 bb 8f 3b 61 be 25 03 72 bf 4f 88 69 bd
       -0.0063631367 -0.21995376 -0.9453605 -0.05701476
000110 2f 29 8c 3d 05 15 8d bc 9a 39 e2 bd a7 6c 4f be
       0.06843793 -0.017221937 -0.11046143 -0.20256291
000120 6d 0a ab be 9a f0 0c bf 98 e9 eb 3d 7a be 2d be
       -0.33406392 -0.5505463 0.11519164 -0.16967192
000130 b5 f2 85 bf c3 af 0f 3f bb cc 1d bf cb 4c 8e be
       -1.0464693 0.56127566 -0.6164052 -0.27792963
000140 43 75 02 3e e6 51 8c be 2c 01 22 3e 33 d3 c1 be
       0.12740044 -0.27406234 0.1582076 -0.37856445
000150 c7 cc 23 bf 05 66 6d 3e f2 58 35 be 0a ca 32 be
       -0.6398434 0.23183449 -0.17709711 -0.17459884
000160 6e e3 46 bd 41 05 16 3e 8f cd 4c 3e c4 56 54 3e
       -0.048556738 0.14650442 0.2000029 0.20736223
000170 f4 f7 4d 3c 19 9b 79 3d 39 22 ea 3e e1 fd de 3e
       0.012571324 0.06093893 0.45729235 0.4355307
000180 e1 ff b6 bd 1b bb a2 be a5 98 8d 3e 8f b2 26 bf
       -0.08935524 -0.31783375 0.2765552 -0.6511621
000190 92 d5 33 be cd 17 01 bf 0c e7 51 3e ec 90 48 3e
       -0.1756194 -0.5042694 0.20498294 0.19586533
0001a0 bc 72 1b 3e 1c 59 a3 3d f7 34 36 3e 84 2e 16 bc
       0.15180486 0.07975981 0.17793642 -0.009166364
0001b0 90 89 3c bd 08 71 4c 3d 3d bc 82 3e 72 cc 24 3e
       -0.046029627 0.049912483 0.2553424 0.16093615
0001c0 df 7d 6a be 34 74 a8 bf cc 08 79 bd 9b 9c bb 3d
       -0.22899579 -1.3160462 -0.060799405 0.091607295
0001d0 96 31 a3 be 89 3a 79 3d 37 75 01 3d 88 86 73 3d
       -0.3187377 0.06084684 0.031605925 0.05945447
0001e0 c0 67 ed 3d 6f 14 9b 3d ff 43 c7 bc 7d ee 61 be
       0.11592054 0.07572257 -0.024324415 -0.22063632
0001f0 6d d1 96 3e 72 a0 2c be 40 87 3b 3e 87 a3 97 be
       0.29456654 -0.1685808 0.18313313 -0.2961695
000200 f4 24 72 bf 3b b2 37 be 5d b7 4b be 67 f4 05 3f
       -0.94587636 -0.17939083 -0.19894166 0.52326053
000210 38 0a 92 3e 0c de 87 bd db 0c 08 bd c0 63 83 3c
       0.2852342 -0.06634149 -0.033215385 0.016038775
000220 50 ea 26 3f c4 82 ed 3d e6 c5 1b bf 36 04 c2 3d
       0.6520128 0.11597207 -0.60848844 0.094734594
000230 3d ca 10 bf 10 c4 40 3d 32 63 65 bf c4 7d 0b 3e
       -0.5655859 0.04706198 -0.89604485 0.13622195
000240 39 d9 93 bf e0 c3 de 3d e9 37 68 3e 5c e5 bd be
       -1.1550666 0.10877204 0.22677578 -0.3708905
000250 a6 3e 3d bf e5 03 da 3d 71 c7 5c 3e 6c b8 63 be
       -0.7392372 0.10645274 0.21560456 -0.2223832
000260 07 95 97 bc 77 1f 2d 3e b7 81 99 be d9 f0 1a be
       -0.018503679 0.16906534 -0.29981777 -0.15130939
000270 6a 77 4e 3d d6 22 3d bf 25 8e 86 3e a3 32 1e 3d
       0.05040685 -0.7388128 0.26280323 0.03862251
000280 fb 08 4a bd 12 c5 70 bd ca f1 cf ba 60 df 9c be
       -0.04932497 -0.05878169 -0.0015864905 -0.30639172
000290 fa 78 e3 bd 45 9f 1d 3d 9e f0 42 bf 68 22 6e bf
       -0.11107059 0.03848197 -0.761484 -0.9302125
0002a0 81 20 c6 3e e3 4a 08 be a4 a6 03 3a 0c 1c 42 3e
       0.38696674 -0.13309817 0.0005022085 0.18956012
0002b0 ed cf 83 be 5a 1b 42 3b 14 76 4a 3d 31 24 20 be
       -0.25744572 0.0029618354 0.049429014 -0.15638806
0002c0 a0 f4 b4 3c 8a 5c 87 3e 11 40 07 be 77 a8 65 3e
       0.022089303 0.2643779 -0.13208033 0.22427545
0002d0 a5 5a ec 3e b1 78 3f be 72 8f c0 bd f2 5c e4 bb
       0.46162906 -0.18698384 -0.0940236 -0.0069690878
0002e0 ac d4 de 3e ea 76 23 bd 5c 8f d6 bd 1f f7 cc 3e
       0.4352163 -0.039908327 -0.104765624 0.40032288
0002f0 25 50 cc be a5 67 81 3c 16 20 2a bf d1 cb b2 3c
       -0.39904895 0.015796492 -0.6645521 0.021825703
000300 e0 14 21 3e df 81 34 3e 68 cf 0a 3e f2 70 52 3d
       0.1573062 0.17627667 0.13555682 0.051377244
000310 78 ba 3e 3e 0f 83 f7 3e e4 05 09 bf b8 c4 07 3d
       0.1862582 0.48342177 -0.53524613 0.03314659
000320 f7 75 6d 3e 60 23 40 be 14 d4 a4 bf bc a6 a5 be
       0.23189531 -0.18763494 -1.2877221 -0.3235377
000330 5b e3 a9 be db 72 1c bf b8 1a 8d 3e 8a 8d 1f 3e
       -0.3318127 -0.61112756 0.27559447 0.15581337
000340 5b 63 f9 3d fe a4 88 3d bc 42 b3 bd 20 55 3e 3c
       0.12177154 0.06672095 -0.08752963 0.011616975
000350 9c 14 08 3e 12 7d 33 bf 90 4c 4c 3e b8 5c 61 bf
       0.13289112 -0.7011272 0.19951081 -0.880321
000360 f7 bc 78 bd 10 ae 81 be 55 57 1b 3e 72 07 8e bc
       -0.060727086 -0.25328112 0.15170033 -0.017337535
000370 21 be 90 3d 84 6c ce 3e 71 43 ce 3d 7d d2 0d bd
       0.07067514 0.40317166 0.10071457 -0.034624565
000380 8c e4 14 3e 02 c6 20 be 9b 8c 87 3e 54 54 96 3d
       0.14540309 -0.15700534 0.2647446 0.07340303
000390 22 1f cc 3e 94 22 14 3e 86 7a 5b be 64 e7 bf 3e
       0.39867502 0.14466316 -0.21433458 0.37481225
0003a0 3f ff 80 3d 30 b0 d5 bd 5e 47 91 3c 75 b7 ad 3d
       0.06298684 -0.10433996 0.017734226 0.08482257
0003b0 bb 32 46 bd 47 19 ce 3b 9c a4 7f be 64 b4 4b bf
       -0.048388224 0.0062896344 -0.24965137 -0.7957213
0003c0 68 32 67 3e 59 ea 46 be f6 d0 b6 3b b6 c9 c6 3e
       0.22577822 -0.19425334 0.0055791093 0.38825768
0003d0 f7 fc 76 3d 7c 18 59 3e d9 11 16 3e 68 0f 85 be
       0.06029984 0.21200746 0.14655246 -0.25988317
0003e0 1c 0b 2d bf f5 e9 d3 be d5 00 5e be d7 be 13 3f
       -0.67595077 -0.41389433 -0.21680005 0.57713073
0003f0 96 86 a0 bd 1c d2 0c bf 2f d3 ba 3e bb d1 f3 be
       -0.0783817 -0.550081 0.36489245 -0.4762095

model.3.bias f4 [64]
000000 17 ef 58 3e 64 de a1 bd bc 81 e3 3e 60 04 39 be
       0.21184956 -0.07903746 0.44434917 -0.18068075
000010 b3 b4 ce bd d4 ca 93 bd d5 4b d5 3d 4d a4 1c 3e
       -0.100930594 -0.07216421 0.104148544 0.15297051
000020 b1 5f 29 3d cd 3d 23 3e 1e 7d 46 3d 9e 3d 67 3e
       0.041351024 0.15941544 0.048459165 0.22582099
000030 6f bd 41 3d 21 fc 98 3e 23 1c 68 3e 27 96 09 3e
       0.0472998 0.2987986 0.22666983 0.13436185
000040 02 07 d7 bc 97 e1 67 3e d1 fb 69 be 01 be 80 3d
       -0.026248459 0.2264465 -0.22849967 0.0628624
000050 9d ea a9 3d bd 2a 51 be 61 53 36 3e 82 29 87 3e
       0.08296702 -0.2042646 0.17805244 0.26398855
000060 4a 2e f6 3d b9 f8 ab 3e d7 1f 86 3e a7 6c 9a bd
       0.12020548 0.33588198 0.26196167 -0.07540255
000070 b3 5a a4 bd 8f 8a 02 bd c1 67 3e 3e 64 59 a8 3e
       -0.08025112 -0.03187042 0.18594266 0.328807
000080 3b 18 1d 3e 2b cf dd 3e dd f8 f0 bd 78 df e3 bd
       0.15341274 0.4332212 -0.11766217 -0.11126608
000090 fc ef 8d 3d 37 ff 46 bb 55 b2 5d 3d 24 35 f5 3e
       0.06930539 -0.0030364522 0.05412515 0.47892106
0000a0 2a fc 76 3e 51 fa c2 3d 3e 23 4e 3e db 88 2f be
       0.2411963 0.095204 0.20130631 -0.1714205
0000b0 25 0d 86 be 4d 8e 3e 3e 88 dd 77 3d ef e9 9c 3d
       -0.26181903 0.18608971 0.060514003 0.07661807
0000c0 59 1d 61 3e 3a 85 9a be 13 12 b1 3e 2b 8b a7 3c
       0.21983851 -0.3017977 0.34584102 0.020452103
0000d0 6c 85 60 bc 7b 8e 0c 3e ed 60 97 3e 3e 7a ba 3d
       -0.013703685 0.13726227 0.29566136 0.09105347
0000e0 2a 02 6f 3e 8b 97 1f 3e 74 38 a9 3c 02 d9 b5 3e
       0.2334067 0.15585153 0.020656802 0.35517126
0000f0 41 93 e8 bd 18 15 78 3e de 80 dd bd ea eb f1 bd
       -0.113562115 0.24226797 -0.10815595 -0.11812575

model.6.weight f4 [3, 64]
000000 3e 08 8e 3e 52 83 f8 be 69 a1 cf bf 8f 6b 15 3f
       0.27740663 -0.4853769 -1.6221133 0.58367246
000010 75 4e bc bf b2 5b 5d 3e 80 29 bc 3f ff cc 34 bf
       -1.4711443 0.2161701 1.4700165 -0.706253
000020 2a d0 c8 3e 9e 66 68 3e 4f 9a 0d 3f 81 df 28 3f
       0.39221317 0.22695395 0.5531358 0.6596604
000030 75 7a 96 bf 22 e2 c3 bf 2c 20 8c 3e ed 61 b6 3f
       -1.1756121 -1.5303385 0.27368295 1.4248635
000040 d0 9d 7f 3e e3 f2 24 3f 3a 66 a5 bf 3d ea 94 bf
       0.24962544 0.64433116 -1.2921822 -1.1633984
000050 51 eb 64 3e 6f cf 4f 3d eb 84 86 bf 9e 7b 6b 3e
       0.22355391 0.050734933 -1.0509313 0.22996375
000060 97 52 18 3e 02 42 04 3f b5 60 fa bf 1f f0 2b bf
       0.14875256 0.5166322 -1.9560763 -0.6716327
000070 fa a0 56 bf 1e 68 8a 3e d5 f5 05 3f d8 19 55 3f
       -0.8383938 0.2703256 0.52328235 0.8324256
000080 7d a3 3a bf e0 4f a6 3e b3 82 4b 3d c7 b8 9d bf
       -0.72905713 0.32482815 0.04968519 -1.2322015
000090 e1 35 ca be d7 68 4e bf 42 4a 46 3e 73 74 a8 bf
       -0.3949423 -0.8062872 0.19364265 -1.3160537
0000a0 f8 d0 eb 3e b8 9f 25 3e 89 7a 4a bf d0 d5 2f 3f
       0.46057868 0.16174209 -0.79093224 0.68685627
0000b0 22 0f f9 3e 39 53 65 3e 79 43 62 3e 22 84 60 bf
       0.48644358 0.22395028 0.22096051 -0.8770162
0000c0 f4 de e1 3e 1e 5e 35 3e 10 db 43 be 43 b6 a2 3f
       0.44115412 0.17711684 -0.19126534 1.2711872
0000d0 2b 45 cd bf 65 6a 81 3e ce 15 e2 bf 15 44 af bf
       -1.6036733 0.25276485 -1.7662904 -1.3692652
0000e0 f0 8a 8c bf 1b f2 ca bf f3 a7 64 3f cf ca 0c 3f
       -1.09799 -1.5855135 0.8931877 0.5499696
0000f0 25 c3 62 bf 9e db 88 3e cc b8 5b bd 03 c9 74 bf
       -0.88579017 0.26730055 -0.053643033 -0.9561922
000100 42 53 24 bc d1 b9 3a 3e d7 36 9d 3d a9 34 03 bf
       -0.010029616 0.18234946 0.076764755 -0.5125223
000110 1a 6e ab 3e 58 ae d7 3d c0 89 69 bf 03 a5 c5 3e
       0.33482438 0.105313 -0.91225815 0.38602456
000120 82 55 90 3d b5 d3 54 3e 84 69 bf be a5 9f 20 bf
       0.07047559 0.20783885 -0.3738519 -0.627436
000130 44 76 a2 3e 01 62 ab 3f 11 57 9b 3e 11 65 fd be
       0.31730855 1.3389283 0.30339864 -0.4949117
000140 36 70 79 3e 70 12 1f bf d9 76 28 3e ce 7f a4 3f
       0.24359211 -0.6213751 0.16451587 1.2851503
000150 3f bf 61 3e 54 35 9d 3e 8c 28 de 3d bc 01 23 be
       0.22045611 0.3070475 0.108475775 -0.1591863
000160 ff 78 25 3e fd 80 99 be 81 4a 84 3f 90 12 1a 3e
       0.16159438 -0.29981223 1.0335237 0.15046144
000170 bb 86 f3 3e 14 bc 18 3e aa 75 1e bf 3b d2 68 bf
       0.4756373 0.14915496 -0.6189829 -0.90945786
000180 5f 90 94 be 50 16 b3 bd 6b cf 43 bd 9b e8 94 3e
       -0.29016396 -0.0874449 -0.04780523 0.29083714
000190 26 bd 40 3f 75 65 8f be 86 43 07 bd 70 0c 57 bd
       0.7528862 -0.28007093 -0.03302338 -0.052502096
0001a0 2b b8 15 3e 8f b4 22 3c cf b9 89 3e ac 75 39 bf
       0.14621036 0.009930744 0.26899573 -0.7244518
0001b0 67 7e 9f be 90 ba 82 3e 4a 2c 94 3d 98 6e 99 3e
       -0.31151125 0.2553296 0.0723501 0.2996719
0001c0 17 93 80 be 70 70 6d 3e 86 02 65 bf 8e f8 07 bf
       -0.2511222 0.23187423 -0.89456975 -0.5311364
0001d0 32 56 7a bd 4d 0f 7e 3e 5a ec 3c 3f 15 47 2d 3d
       -0.06111736 0.24810524 0.73798144 0.042304117
0001e0 80 ea 0a 3e 6b b9 d5 3d 5b 20 ea 3c f9 88 df be
       0.13566017 0.10435756 0.028579881 -0.4365919
0001f0 2f fc 0c 3f 6a 27 2b 3e e5 1f bb 3e 65 3f 8d 3e
       0.550723 0.16714254 0.3654777 0.2758743
000200 9e b2 17 c0 b5 b8 e3 3e 03 11 83 3f 58 ef 9a 3e
       -2.370277 0.44476858 1.0239567 0.3026073
000210 82 a8 b2 3e 17 6d 8e bf 47 df 8f be a1 e5 c3 3e
       0.34894186 -1.1127042 -0.28100035 0.3826113
000220 16 5c ac bf 30 a7 da bf c4 68 9a 3e e5 64 ba bc
       -1.3465602 -1.7082272 0.30158055 -0.022753188
000230 7a f8 aa 3e 64 34 a1 be 18 29 e4 bf df 4a 47 bf
       0.33392698 -0.31485283 -1.7825041 -0.7784862
000240 54 5c 96 bf 14 7a c6 be 11 3c 6e 3e 77 e3 17 bf
       -1.1746926 -0.38765013 0.23265101 -0.5933146
000250 c0 7b b0 bf 63 f4 8b bf 06 3e b6 3e 68 27 e1 bf
       -1.3787766 -1.0933956 0.35594195 -1.7590151
000260 d5 41 b1 bf 98 cf db bf 0b 2e 34 3e 77 33 65 3e
       -1.3848215 -1.7172728 0.17595689 0.22382914
000270 0d 91 31 3f 33 a6 98 bf bd 86 7d 3e f9 1e 6f 3d
       0.69361955 -1.192572 0.2475843 0.058379147
000280 5d 84 3b 3f 79 6b e0 bf da ab 99 3d 53 46 97 3e
       0.73248845 -1.7532798 0.07503481 0.2954584
000290 0b 44 91 bf 40 5d 8f 3f 3c 22 e8 bf d6 1b 62 3f
       -1.134889 1.1200333 -1.8135448 0.88323724
0002a0 50 55 be bf 34 ea cd bf 7a b8 8f 3e 78 18 44 bc
       -1.4869785 -1.6087098 0.28070432 -0.011968724
0002b0 80 14 ff be 80 8a ed bf 40 c5 19 c0 6d a7 bb 3e
       -0.49820328 -1.8557892 -2.4026642 0.36651173
0002c0 b8 02 bd bf 90 9e 57 bf 7f 11 78 3f 7d 2a 82 bf
       -1.4766455 -0.8422632 0.96901697 -1.0169216
0002d0 59 76 2a 3f 97 5c b7 bf 36 9f 0f 3f ba 25 24 3f
       0.66586834 -1.4325131 0.5610231 0.64120066
0002e0 57 9c ce 3e 24 a4 2f 3f 5d 46 e9 bf d3 9a 15 bf
       0.40353653 0.68609834 -1.8224598 -0.5843937
0002f0 8f bf fd bd 29 80 2c bf 77 e8 66 bf ec 6b c2 3e
       -0.123900525 -0.67383057 -0.90198463 0.37972963

model.6.bias f4 [3]
000000 d4 79 18 3e 0b 84 e4 3d 66 66 2a be
       0.14890224 0.11157998 -0.16640624
