models/mlp_fold_3_f1_0.7636.pth (torch, 61258 bytes, 6 tensors)

model.0.weight f4 [128, 46]
00000000: e630 c73a 5aea 90bd 0d08 803d aade 62bd
00000010: fd1b 0e3f 001f 073b 18b8 6b3f 2ba0 a13c
00000020: 3ea5 6abe 64c9 373e 0f7d babd 05aa 0c3e
00000030: 2e18 4cbf 3482 1b3f 5b1c 0fbd 93e1 6e3d
00000040: df72 8e3c 708c f8bd f5a8 8a3a 7852 6ebe
00000050: fa1c 06bc 75e1 3d3e b664 8d3d 6dc0 2c3e
00000060: fe34 993e 6dd1 eabd d98c 8dbe 9047 1dbe
00000070: 8df1 78bd f93d 873c 7ae2 133d d292 a2be
00000080: 2140 aebe e654 e73b 7c57 b2be 4e5c 62be
00000090: f9b0 2abe 08b4 bbbd a204 503d 8412 4abe
000000a0: 64ac 7d3e 2ee6 493e d393 2bbf 7d7e a83b
000000b0: cbca 2b3e c217 1ebf 349a acbc 9c15 e0bc
000000c0: adb1 aebe baa4 6bbd e55d c23e 0b62 f33d
000000d0: baf8 a1be c5f7 bf3e 29be 22bd a7c6 47bb
000000e0: dc27 92bc 42b2 0fbf 9cd0 28bf 07b0 d6bd
000000f0: 29a0 4cbd 1035 18bd 1253 7a3d 39d8 33ba
00000100: b47b bbbb b2ee 1e3e 0037 78be 010e 9fbe
00000110: 5dba 753e b166 2abf 036d a63d fa12 3f3e
00000120: 6158 953e c3fb 66be 4cca 3e3e 37fe bfbd
00000130: 0187 7b3d aeb6 d1be 8765 d63e 3c2f b8be
00000140: 294c b0bf 19ea 023e 4b01 f13e ac81 a73e
00000150: d19f 5cbe 5619 2bbf 0d12 623e bc2c 01bf
00000160: f229 943e af18 2c3f e2aa 43bf d5f4 9b3e
00000170: 952d 553d 28db 223d 12b3 2bbe ccc9 cdbc
00000180: 9da9 6c3e 30e6 39be 129e 76be 9c56 02bf
00000190: a700 8bbe 2f25 c03d b8cf aabd bcfc bd3d
000001a0: 5d80 3fbf ca8e bcbd 725a e7bc f9cb 1cbd
000001b0: ead7 2b3b 45c6 37be f90b 713e 0ba1 f73d
000001c0: 020f 213e a5ef dd3e 3098 bf3e e9f1 d93d
000001d0: 07c0 a7bd 4fd6 50be d47e a8be dfa8 ddbd
000001e0: 0a2e c83e c810 68be 14db 02be 28fc ce3e
000001f0: 565f 163f fd26 823d e669 ecbc ffd5 ec3e
00000200: c3b1 aebe bbed a23d d99b a13e 03d5 3d3d
00000210: a481 23be c3d2 eabe 12f6 883c 3a13 d1bf
00000220: 019b 6ebf 3521 e4be 1577 b5bb 4b86 4bbe
00000230: c8a6 28bd bf5b 07bf d2fc 51bd c04d 3cbb
00000240: b7a3 3b3d d052 dcbe f553 1b3e ae5e 98bc
00000250: 8f23 1c3e a8d3 c5be 7f96 78be 41cd 08be
00000260: d457 2f3d 4128 41bd a970 b13d 88c6 dbbd
00000270: c1cc ea3d f3ee d1be cfad 2fbf 72f1 adbf
00000280: 18fb 49be 8d24 debd 118a ca3d a1e9 a8bb
00000290: 740c 63be d20f e23e 4806 823d 8fff 81be
000002a0: df7b 84bd b7f5 ac3c 1c83 d1be 9428 b8bf
000002b0: 9f3c 08be 5aa9 a7be 0a11 bdbf 336a 723f
000002c0: d257 213f 15a5 14be 5fa9 683e f720 a23e
000002d0: 27b7 7a3e 1d81 cdbd bbdf a13e 1a52 413d
000002e0: 472c a0bc 3a07 da3d 1b26 08be 39e2 b53e
000002f0: 60e9 8b3e 00fc ed3e aa2e 263f 855d 5dbc
00000300: 967c 43bf 9ee3 063d 5834 113e 02f1 113d
00000310: 1274 353d 5292 183e 8dd9 223c 39bc 94be
00000320: 8b43 793c a76d 0fbd 10d0 903d 7ad5 88be
00000330: e3d1 c1be d732 34bf a025 563e fa7d 503d
00000340: f985 0dbd 8ee9 a63e c92d ac3e e6f2 1cbe
00000350: e40f 19bf 7522 99bd b452 82bd 0c2c f0be
00000360: f47d 0fbf 2cda b83e 502a a33e ef1c b2be
00000370: da80 4a3f 0767 aa3e 1c88 8a3e 4192 16be
00000380: 7cd6 0cbe 4a80 a7be 36fd 09bd 9cb4 5dbc
00000390: 0a4d c7be 7c6f fabe 8f9c c6bd 9e21 12be
000003a0: ef46 d6be 4afa 12bc 74fb 11bd 3e1e adbb
000003b0: 3814 d4bd 8193 0d3e d0cc 69be 91bc 0e3e
000003c0: 7dbb 97be 1400 f93d cb66 ffbe 462a 7dbe
000003d0: 6656 fc3b b229 89be f390 82ba c906 d2bd
000003e0: a722 493d 854d ac3b 5042 c43e ae59 763e
000003f0: f04f dc3e a353 e7bd 0f11 af3d 2ca4 41bf
0.0015197068 -0.07075949 0.062515356 -0.05538813 0.55511457 0.0020617843 0.9207778 0.019729694
-0.22914597 0.17947918 -0.09105884 0.13736732 -0.79724395 0.6074555 -0.03493915 0.058320593
0.01738876 -0.12136161 0.0010578918 -0.23273647 -0.0081856195 0.18543036 0.06903975 0.1687028
0.29923242 -0.11465726 -0.2764652 -0.1535933 -0.060777236 0.016509043 0.036104657 -0.3175264
-0.340333 0.007059681 -0.3483237 -0.22105524 -0.16669072 -0.091651976 0.05078567 -0.19733626
0.24772793 0.19716713 -0.67022437 0.0051420317 0.16776578 -0.61755 -0.021069624 -0.027354054
-0.3411993 -0.057530142 0.3796226 0.118839346 -0.31635076 0.3749372 -0.039732132 -0.0030483396
-0.017841272 -0.56131375 -0.6594331 -0.10482793 -0.049957428 -0.03715998 0.06111438 -0.0006860528
-0.0057215337 0.15520743 -0.24239731 -0.31065372 0.23996873 -0.66562945 0.08126261 0.18659583
0.2916899 -0.22556977 0.18631858 -0.093746595 0.061408047 -0.40959686 0.41874334 -0.35973537
-1.3773242 0.12784614 0.470713 0.3271612 -0.2154534 -0.66835535 0.22077198 -0.50458884
0.28938252 0.67225164 -0.7643262 0.3046023 0.052045424 0.039759785 -0.16767529 -0.025120638
0.23111577 -0.18154216 -0.24083737 -0.50913405 -0.27148935 0.09382092 -0.083404005 0.09276721
-0.7480524 -0.09206922 -0.02824137 -0.03828046 0.0026221224 -0.17946728 0.23539723 0.120912634
0.15728381 0.43346897 0.37420797 0.10641844 -0.08190923 -0.20394252 -0.32909262 -0.10823225
0.39097625 -0.22662652 -0.12778884 0.40426755 0.5873922 0.06355093 -0.02885909 0.46257016
-0.34119996 0.079555 0.31564215 0.046345722 -0.15967423 -0.45863923 0.016718898 -1.6333992
-0.9320527 -0.44556585 -0.0055378773 -0.19875447 -0.04117468 -0.5287437 -0.0512665 -0.0028732866
0.045810428 -0.4303193 0.15168746 -0.018599834 0.1524794 -0.38638043 -0.2427616 -0.13359548
0.04280837 -0.04715753 0.08664066 -0.10731226 0.11464835 -0.41002616 -0.68624586 -1.3589308
-0.19724691 -0.10846815 0.09889615 -0.005154804 -0.22172719 0.44152695 0.06348854 -0.25390288
-0.06468939 0.02111326 -0.4092034 -1.4387383 -0.13304375 -0.32746392 -1.4770825 0.946933
0.6302463 -0.14516099 0.2272086 0.31665775 0.2448393 -0.10034392 0.31616005 0.04719744
-0.019552363 0.106459096 -0.13295786 0.35524157 0.27326488 0.46481323 0.64914954 -0.013511066
-0.7636198 0.032931916 0.14180124 0.035630234 0.044300146 0.14899567 0.009939563 -0.29049852
0.015213857 -0.035016682 0.07070935 -0.2672537 -0.37855443 -0.70390075 0.2091279 0.05090139
-0.034551594 0.32600063 0.3362868 -0.15327033 -0.5978987 -0.07477275 -0.063634306 -0.46908605
-0.56051564 0.36103952 0.3186822 -0.347877 0.7910286 0.3328173 0.27056968 -0.14704229
-0.13753694 -0.32715064 -0.033688746 -0.01353183 -0.38925964 -0.4891318 -0.0969783 -0.14270636
-0.41850993 -0.008970806 -0.035640195 -0.005283146 -0.10355419 0.138258 -0.22832036 0.1393912
-0.2963523 0.12158218 -0.49883112 -0.24723157 0.007700729 -0.26789623 -0.0009961411 -0.102552004
0.049105313 0.0052582645 0.38331842 0.24057648 0.43029737 -0.11295249 0.085481755 -0.7564113

model.0.bias f4 [128]
00000000: 70fb c8bd ca46 993e 240e a03e eb3a c63d
00000010: b742 2e3d 20d7 153f 7a0f 863e fe9b bcbd
00000020: eef2 be3d 111e 72bd 7be8 71be bcf2 c83e
00000030: b45b c7be 974c 423d f7f7 2bbf f796 53bd
00000040: 8930 d4be a0ab c3be 560f b2be 24bb 053e
00000050: d5c8 e83e 3436 97be 4912 adbe 7469 1cbf
00000060: aa2f 07bf c9da cebd 2332 7fbd 9d66 07bf
00000070: b269 9abd 296e a43d 4111 ddbe c663 95be
00000080: 5e12 f83e d487 1cbf 9873 3cbf c09a 2f3c
00000090: 2e50 6fbe 73b6 4cbd a04a d7bd 3831 0dbf
000000a0: 5cdc 013f 7d23 c1be 6bd3 c7be be57 f3be
000000b0: f264 28bf b843 14be 8b3d 1dbf ebb9 30bf
000000c0: 9a4f a23e abca 05bf a567 96be 2f01 24bf
000000d0: 73b6 c33c b9f1 113d f1d0 95be ee5a 48be
000000e0: 60e8 4a3d 3f67 02bd 6a7b 18be 6713 0f3e
000000f0: 00cc 6cbe 761f b03d 353b 373e 4c62 49bf
00000100: 1a3b f1bd bfe4 c7bd 8c01 1a3f 4868 b33b
00000110: de02 de3e 4fe4 60be 2d19 adbd b9e7 3bbf
00000120: 88ce 3ebd 92d0 3dbe ac8f 123e 2b4d 063d
00000130: e6d0 aebd 0d8c 7ebd e568 f73e 53b9 92bd
00000140: 4588 eebe c13d 3b3c 10a8 24bf debe 523e
00000150: a04c a8be 18d7 36bd 53c7 1b3e 0dec a0be
00000160: e109 26bd 6892 32be c06c 14bf 84d9 0a3e
00000170: 4bd6 efbd df61 9dbe fc31 a93c 5b4c c6bc
00000180: 699e 983d c9a8 633e cf34 983a 0fc0 ffbe
00000190: e234 36be 0aba 28be 572a cb3e e5d3 2dbf
000001a0: ded9 c5be a224 e0be ca57 02bd 9ba4 bf3e
000001b0: 3dd9 b23e dc01 ddbe 0a82 c6be b278 c8bc
000001c0: d722 f5be e7d9 873f 5f4f 103e c013 6dbe
000001d0: 42ff 20bf 2db4 3c3d 0161 54bf a337 77be
000001e0: 99af c33d 2693 3dbf 65fe c2bd 0092 f23d
000001f0: 9984 17bf b8fb 17bf c0d5 1cbf 0ec9 1c3f
-0.09813583 0.2993682 0.31260788 0.096792065 0.042544093 0.5853138 0.26183683 -0.09209441
0.09323679 -0.059110705 -0.2362384 0.39247692 -0.3893715 0.047436323 -0.6717524 -0.051657643
-0.4144328 -0.38216877 -0.34777325 0.1305967 0.45465723 -0.2953354 -0.33803013 -0.6109841
-0.52807105 -0.10100324 -0.062303673 -0.5289095 -0.07539691 0.08028824 -0.43177226 -0.29177684
0.48451513 -0.6114476 -0.7361388 0.010718048 -0.2337043 -0.049978685 -0.105122805 -0.55153227
0.50726867 -0.37722388 -0.39028487 -0.4752788 -0.6577903 -0.14478958 -0.6142203 -0.6903369
0.31701356 -0.5226237 -0.2937595 -0.64064306 0.02389071 0.035630915 -0.29260972 -0.19565937
0.049538016 -0.031836744 -0.14890829 0.13972245 -0.23124695 0.08599751 0.1789368 -0.78665614
-0.11778851 -0.09760427 0.6015861 0.005475078 0.43361562 -0.21962093 -0.084520675 -0.73400456
-0.046583682 -0.18536595 0.14312619 0.032788437 -0.08535938 -0.06214528 0.48322216 -0.07164254
-0.4658834 0.0114282975 -0.64318943 0.20580623 -0.3287096 -0.044638723 0.15212755 -0.31430092
-0.040536765 -0.17438662 -0.5797844 0.13559538 -0.11710795 -0.30738732 0.020653717 -0.024206331
0.07452089 0.22232355 0.0011612418 -0.49951217 -0.1779361 -0.16477218 0.3968074 -0.6790145
-0.38642782 -0.4377795 -0.031822003 0.37430272 0.34931365 -0.4316548 -0.38771087 -0.024471615
-0.47878143 1.0613374 0.14092778 -0.23152065 -0.6288949 0.046070267 -0.82960516 -0.24142317
0.09554977 -0.74052656 -0.09521178 0.118442535 -0.591867 -0.5936847 -0.61263657 0.61244285

model.3.weight f4 [64, 128]
00000000: 4cbc d3bf b703 acbe b3af 7b3e 832c 923d
00000010: 611c fdbd b539 f23e 4052 733e f4f6 bbbd
00000020: cc5b 983e 088d 0fbf 1e90 48bf 945d 673d
00000030: c5f7 4fbe 3c82 0c3e e1f1 ba3d dc7e c0be
00000040: e04d cabe f7ae 8c3d 50fe cdbe a909 183e
00000050: ca5b 493d a8cc 983d 0c8d abbe c49a c73c
00000060: 5b4e 3dbe 3388 cdbf 20aa d33d d6f8 17be
00000070: b709 11bf ae50 b03e dc32 4fbe 7a8c e63e
00000080: 4381 673d c380 2cbd 87f7 f7bd 9738 5b3e
00000090: 3edb c93d 8017 07bf eb8d 38bd b234 983e
000000a0: d154 1f3e b0d5 4f3e e008 e53c d8b5 2cbf
000000b0: 1a3a debd a8be 173d 0904 cabb 392b 303d
000000c0: 5a67 9f3d 53d8 9cbd 7acd ee3d 83e3 f13e
000000d0: cce1 e1be 00b0 63bf 8a1a b73d a2cd 8e3e
000000e0: eb5c 77be c352 363e f74d 8e3e a945 8f3d
000000f0: ef8f 053e 43ee 32bf b216 4d3d d7f0 343d
00000100: 6074 563d bc1d 87bf 1bc9 703e 5261 913d
00000110: 0596 23bd 507e c73d 0d92 65be 39a8 133f
00000120: 64a1 02bf f262 78be b023 dfbf 2bf9 193e
00000130: 57d8 243e 9bee 10bf ed54 013f 2c6c 1dbf
00000140: 5d8b 0dbe 718d a0be 484c 29bc 695f 483e
00000150: 33fd 9bbc 8342 f7bd 36ce 7ebd a192 4d3e
00000160: d70b cbbd 056d 33bd cdeb 5cbb ccf0 573e
00000170: f620 c5be 16a6 23bc 0cc4 123e 39f8 cd3c
00000180: 3a68 14be 83a9 d0bc 9a93 c6be 92df 8d3e
00000190: e488 4bbd 83b4 993e 6b75 e8bd 948c 133e
000001a0: 1754 9ebb afb1 f8bd 380f b9bc 9af9 5d3e
000001b0: 6b90 99be 890d a63e 3047 0c3d 0574 133e
000001c0: 4f72 5e3e 9064 98be d9ff 09be 2ec1 1ebd
000001d0: a6e3 053e 6fbc 1cbc d462 e5bd 999a b2bd
000001e0: f8c5 4ebe 9920 0d3f 5066 f5be 0dd3 3f3e
000001f0: 988d c03e 35d4 1abe 3a2f d6bc 1508 903e
00000200: 8651 8cbe 1407 eebc 1bda 2b3e 8feb d43e
00000210: e37f f43e 3458 223e dc6a 093f eb73 ba3d
00000220: f5cd 2f3e 8327 433e d46f c5bd 8b54 723e
00000230: 3748 86bc 1627 bebb 829a 3cbe a079 883e
00000240: f19b cdbe 7873 523b f7bf 8ebd 2eb7 c53e
00000250: 19b8 4bbe 3c0b 71bd 4f60 55be f819 adbe
00000260: a416 29bf e2e5 8ebe 7079 7a3e 6ea9 d23d
00000270: e45a 48be da8d 8fbe 39ad edbe 3832 46be
00000280: 6626 88bd 9c15 07bf 7daa 68bd 4179 a13e
00000290: 2b37 82be c176 6dbe 97b3 cbbe dae8 41be
000002a0: b45b 883d 5bcd 60be 8cea 10bd cd26 bcbf
000002b0: 5b68 a2be 0a03 07be 5e5e 663e 0221 2b3e
000002c0: 67f0 33bc feb1 943c 3314 903e 2708 883e
000002d0: 31c3 f7be 4d31 233e 4f97 8a3b ba06 833e
000002e0: 24d3 103e abb5 9abf bc05 28bf a858 c1be
000002f0: 89b7 ec3e efb8 a8bd 45bb 4ebe 1038 f0be
00000300: 8ef5 35be da04 0fbf daa5 13be 01da 173e
00000310: 78cb 283e 5613 163e 0a00 92bb e6f0 aebf
00000320: 60c7 f03d 9317 15bf abe2 bd3d 49db 18bb
00000330: d0f8 1bbe 814f 6fbe d562 b5bd 8103 4dbe
00000340: f8dd e2be 05c5 d5be 3f4d 65be 51ae 3cbe
00000350: 3256 723e 4f3b 61be a148 853e 4775 7fbf
00000360: d1dc 5a3e 5551 4abf e20f 6bbd 5923 313e
00000370: ffda a83c d29d 5bbd ae40 013f 3bef ebbc
00000380: 2e17 3f3e 63d7 d3bd 4136 99be 53c7 bebd
00000390: 19e1 893e 6be2 a23e 0afd 9fbd 2c32 46be
000003a0: dd6e ecbd 0106 123e c5a0 a33c 6ffa 993d
000003b0: dd31 723d 2f58 0abe 5400 21bf 3251 be3c
000003c0: c5c6 ecbc 3a4b 7f3d 103b f2bc 9797 c3be
000003d0: 2d09 cb3d bf04 f2bc 9c19 78bc 1086 403e
000003e0: ebbd 883e 53d2 84bf c7b2 26bf d9d7 6bbe
000003f0: 8241 24bf 75d8 62bf c253 c5be 9c57 09be
-1.6541839 -0.33596584 0.24578743 0.07137396 -0.123589285 0.47309652 0.23761845 -0.09177962
0.29757535 -0.5607457 -0.78344905 0.056485727 -0.2030936 0.13721555 0.09128166 -0.37596786
-0.3951254 0.068693094 -0.40233088 0.14847435 0.049159802 0.0746091 -0.33506048 0.02436579
-0.18486921 -1.605719 0.10335183 -0.14841017 -0.5665545 0.34436554 -0.20234245 0.4502905
0.056519758 -0.042114984 -0.12107759 0.21408306 0.0985627 -0.52770233 -0.04505722 0.29727703
0.15559699 0.20296359 0.027958333 -0.6746497 -0.10850926 0.03704706 -0.006165032 0.04300997
0.077833846 -0.07658448 0.11660285 0.4724389 -0.44117582 -0.8894043 0.08940609 0.2789126
-0.24156539 0.17805009 0.27793857 0.069957085 0.13043188 -0.6989481 0.050070472 0.044174995
0.052357078 -1.0555949 0.23514216 0.070986405 -0.03993799 0.09740889 -0.22418995 0.5767856
-0.5102751 -0.24256495 -1.7432766 0.15036456 0.16098152 -0.56614083 0.5052021 -0.6149318
-0.13822694 -0.3135791 -0.010333128 0.19567646 -0.019041633 -0.12073233 -0.062208377 0.20075466
-0.09914368 -0.04380514 -0.0033709884 0.2108795 -0.3850171 -0.009988328 0.14332598 0.025142776
-0.14492884 -0.025471454 -0.38784486 0.27709633 -0.049691096 0.30020532 -0.11350521 0.14409095
-0.0048318016 -0.121432655 -0.022590265 0.21677247 -0.29992995 0.32432202 0.034247577 0.14399727
0.21723293 -0.29764223 -0.13476504 -0.03875845 0.13075122 -0.00956641 -0.112004906 -0.087208934
-0.20192707 0.55127865 -0.4792962 0.18732853 0.37608027 -0.15120013 -0.026145566 0.28131166
-0.27405947 -0.02905611 0.1678242 0.41585967 0.4775382 0.1585396 0.5367868 0.09104141
0.1716841 0.19058041 -0.0964047 0.23665063 -0.016391857 -0.0058029993 -0.18418315 0.26655293
-0.40158036 0.0032112282 -0.06970208 0.38616318 -0.19894446 -0.058848605 -0.2083752 -0.33808875
-0.6605017 -0.27909762 0.24460387 0.102862224 -0.19565922 -0.28037912 -0.4642122 -0.19355094
-0.06647949 -0.5276735 -0.056803215 0.31537822 -0.25432715 -0.23189832 -0.39785454 -0.18936482
0.06658116 -0.21953337 -0.03537993 -1.4699341 -0.31720242 -0.13184753 0.22496936 0.1671181
-0.010982609 0.01815128 0.2814041 0.2656872 -0.48391107 0.15936776 0.004229463 0.2559107
0.14143044 -1.2086691 -0.6563375 -0.37762952 0.46233776 -0.08238398 -0.20188625 -0.46917772
-0.17769453 -0.5586678 -0.14418736 0.14829256 0.16483867 0.14655814 -0.004455571 -1.3667266
0.11756778 -0.58239096 0.09271749 -0.0023324064 -0.15231633 -0.23370172 -0.08856741 -0.20020868
-0.44309974 -0.41751876 -0.22392748 -0.18425871 0.23665693 -0.2199528 0.26031974 -0.99788326
0.21373297 -0.7903035 -0.057388194 0.1729864 0.020612238 -0.053617306 0.5048932 -0.028800597
0.18661186 -0.10343816 -0.29924205 -0.09315362 0.26929548 0.31813368 -0.07811935 -0.19355077
-0.11544583 0.14260103 0.019974122 0.075184695 0.059129585 -0.13510202 -0.62891126 0.023232076
-0.028903374 0.0623276 -0.029569179 -0.3820159 0.099138595 -0.029543279 -0.0151428245 0.18801141
0.26707396 -1.0376686 -0.6511654 -0.23031558 -0.64162457 -0.8861154 -0.38540465 -0.13412327

model.3.bias f4 [64]
00000000: c8e7 8e3c 1fce 5c3e e532 40bd 78db e0bd
00000010: ba85 b93d ffcc 2f3e 4792 683d ba9d 8b3d
00000020: cae2 753e ab77 bcbe 444e 7ebe 38e9 b23e
00000030: 5db3 0e3f 13a1 973d 0b95 00be 2466 f33d
00000040: 0b0c 573e ac4d 933e ce88 4d3d da31 533e
00000050: 68d7 d2bd 7180 3c3d 9914 82be efbe 33ba
00000060: d7e7 8bbc ca37 0b3e f8c4 423d ea62 c73d
00000070: ff00 aebe 3a5d 803e e2de 5b3d 9a6a bdbd
00000080: 6e04 583d 9dae d63e c644 433e 92d7 20bd
00000090: 03fd a13d 6161 853e e7c6 943e 46d8 273c
000000a0: 66f5 0e3f 9f06 3fbd 442a 073e cffb 63bd
000000b0: 5f81 453d 31f0 d63d b031 e83e f87d 1f3e
000000c0: dc00 f83d c933 b43d 5e53 63bd dbb6 e8bd
000000d0: a0a4 63be e974 733e 2f76 d8bd 99bf 53be
000000e0: 9270 aa3e f5d0 9abe c7b2 60be 71ee a9bd
000000f0: fa15 bb3b 5943 803e 0b25 4fbe dd6d e43e
0.017444506 0.21563004 -0.046923537 -0.1097936 0.090587094 0.17168044 0.056780126 0.06817193
0.24012294 -0.3681005 -0.24834543 0.34943557 0.55742437 0.07403769 -0.12556855 0.11884716
0.21000688 0.28770196 0.050179295 0.20624486 -0.10294992 0.04602093 -0.2540634 -0.00068567594
-0.017078323 0.135955 0.047551125 0.09735663 -0.33985135 0.25071126 0.053679354 -0.09248848
0.0527386 0.41930094 0.19069204 -0.039268084 0.07909586 0.26050857 0.29058 0.010244435
0.558432 -0.046637174 0.13199717 -0.055660065 0.04821908 0.104950316 0.4535041 0.15575397
0.12109539 0.0879894 -0.055499427 -0.11363002 -0.22230768 0.23775066 -0.10569417 -0.20678557
0.3328901 -0.30237547 -0.21943198 -0.08297432 0.005709407 0.25051382 -0.20228975 0.4461507

model.6.weight f4 [3, 64]
00000000: 6593 7cbf b5ae 14bf fd1d b43e e1fe 56bf
00000010: 0c1b 75bf d280 863e 2e42 d3bf 1665 693e
00000020: f594 93bf a592 7abf 5ee2 82bf 0336 0c3f
00000030: 0e5f 15bf 37d7 bc3d 1db6 783f a23f d73d
00000040: 5869 5c3f eb8a 113e 8773 7ebf 1def 3b3e
00000050: fec0 97bf df8f d4bf befa 433d f6a1 5abf
00000060: 61e8 543e 539d 9e3f ced7 3f3e a173 233f
00000070: 7bf9 aa3e 3f9b 223e 1ed1 e63e 4321 193f
00000080: 6695 7b3e 1ce5 103f 7af3 2cbf 0c01 be3d
00000090: e528 a5bf 8f3d 29bf 4672 463f a6f8 3d3e
000000a0: 14b9 d8bf 883d 04c0 6e87 7fbe 3379 1e3e
000000b0: c273 f43e 9d59 5dbf 68f2 e73e c560 743f
000000c0: 563b c7bd 0c7a c9bf 6519 cbbf b001 803e
000000d0: 7961 bebf df9c c4bf 3e6d 083f 2a3d 87bf
000000e0: 4098 dcbf c973 2bbf 2bb3 b73e c02f 1f3e
000000f0: 3780 053e 43bf cf3e c569 023f 542d 80bf
00000100: e831 cd3e f223 613f 88ad 223e b3e9 683e
00000110: 8ff8 663f 22d0 27bd 5944 4f3e 2543 333d
00000120: 4b96 8f3f bf3a 7a3e 7b40 263e 931f cebe
00000130: d21c f0be 8ef3 bb3d 0680 f3be af02 003e
00000140: c53b 01bf f0a1 e63d d704 1e3f 321b 6b3e
00000150: 1d0c 313d cfa0 be3f 5f52 8f3e 92a8 2dbb
00000160: cad0 6b3d 0c72 adbe 8809 763e 66dd 6abe
00000170: 34c1 19bc 904e 453e 2d11 28bf 583b a5bd
00000180: 377e 313e 0e79 52be 63f3 783e 80f5 2c3e
00000190: 46bb 9a3f 41a0 ebbe 1df7 37bf 084f 363e
000001a0: 92a0 813e 597c 443e f7b5 f5be 7e29 893d
000001b0: 2ab8 9fbd df05 a9be 06e3 abbe 2ff7 d3be
000001c0: 7547 813e 4723 e23d 9180 4d3f 0dda df3e
000001d0: f088 a93e 5fec 9b3e 3184 96be 4ae7 1e3e
000001e0: be41 be3e 9694 d53e 5ffa 2fbe b436 403e
000001f0: 77fa 3fbf 8457 86be 112a e93c 37dc 2d3e
00000200: b524 9f3e 5773 46bf 51ca f2bf a595 d13e
00000210: 72e9 99be 788a eebf 7fca 163f e2ba 15c0
00000220: e68a a6be a716 d83e 7394 853e 9f42 75bf
00000230: c1c0 813f d375 00c0 594d 23bf 7a59 92bf
00000240: defb 22be 9b17 c5bf 48b1 053e b298 9abf
00000250: e756 133f ee8e 00bf dd4c 97bf fb9d 603f
00000260: 84e2 19bf 8f48 92bf 0547 c2bf b439 8ebf
00000270: c194 dcbf 4879 aabf 8460 833e c9f5 c2bf
00000280: 4900 fbbf f377 8cbf aa57 a63e ea81 8dbf
00000290: a0fe 46be acfd 663f 6aea ce3d 4e7b 9abf
000002a0: 6632 7a3f a6b4 033f 5586 503f 82db 85bf
000002b0: f965 b9bf 242a c33f 2a5a 9ebf 6dc5 e6be
000002c0: 030d 6cbf e3df 0e3f 4f8a 8e3e eeb6 80bf
000002d0: d5dd ca3e b029 6b3f a0ff dfbf 154d eb3e
000002e0: 3f0b 3b3f 49fd 353f d6d0 69bf 31dd cdbf
000002f0: d6e2 273f d111 8fbf 40ea aabf 9b96 183f
-0.98662406 -0.5807908 0.3517913 -0.83982664 -0.95744395 0.26270157 -1.6504571 0.22792467
-1.1529833 -0.9788001 -1.0225332 0.54769915 -0.58348167 0.092207365 0.9715288 0.10510184
0.8609824 0.14213149 -0.9939503 0.18352933 -1.1855772 -1.6606406 0.04784655 -0.8540338
0.2079177 1.2391762 0.18734667 0.6384831 0.33393463 0.15879534 0.4508142 0.5981638
0.2456871 0.56599593 -0.67559016 0.092775434 -1.2903105 -0.66109556 0.7751812 0.18551883
-1.6931481 -2.0662556 -0.24954006 0.15475921 0.47744566 -0.86464864 0.4530213 0.9546016
-0.09728114 -1.5740371 -1.5867125 0.25001287 -1.4873496 -1.5360373 0.5329169 -1.0565541
-1.7233963 -0.6697355 0.35878882 0.15545559 0.13037191 0.4057561 0.5094264 -1.0013833
0.40077138 0.87945473 0.1588651 0.22745399 0.9022302 -0.040969975 0.20240916 0.043765206
1.1217741 0.24436472 0.16235535 -0.40258464 -0.46896988 0.09177314 -0.47558612 0.12501024
-0.50481826 0.11261356 0.61726135 0.22959593 0.043224443 1.4892825 0.27992532 -0.002649818
0.057572164 -0.33876073 0.24027073 -0.2293602 -0.009384442 0.1926825 -0.6565121 -0.080679595
0.17333303 -0.20553991 0.24311595 0.16890526 1.2088401 -0.46020702 -0.7186144 0.17803586
0.25317818 0.1918806 -0.4799039 0.06697367 -0.077987984 -0.33012292 -0.33571643 -0.41399524
0.2524983 0.11041885 0.802743 0.43721047 0.33112288 0.30453774 -0.2939773 0.15517917
0.37159532 0.41714925 -0.17185353 0.18770868 -0.74991554 -0.26238644 0.028462442 0.16978537
0.31082693 -0.77519745 -1.8967992 0.40934482 -0.30060917 -1.8636007 0.58902735 -2.3395314
-0.32527846 0.42204782 0.2608982 -0.9580478 1.0136949 -2.0071914 -0.637899 -1.1433556
-0.15916392 -1.5397829 0.13055909 -1.2077849 0.5755448 -0.50218093 -1.1820332 0.8774106
-0.6011126 -1.1428393 -1.5177923 -1.111136 -1.7232896 -1.3318262 0.25659573 -1.5231258
-1.9609462 -1.0974106 0.32488757 -1.1055272 -0.19433069 0.9023082 0.10103305 -1.206888
0.9773315 0.5144752 0.81454974 -1.0457613 -1.4484245 1.5247235 -1.2371266 -0.450725
-0.92207354 0.55810374 0.27839896 -1.0055826 0.3962237 0.91860485 -1.7499886 0.45957246
0.73064035 0.7108961 -0.91334283 -1.6083127 0.655805 -1.1177312 -1.3352737 0.59604806

model.6.bias f4 [3]
00000000: 7eb3 bfbd ee88 1cbd da77 843a
-0.09360407 -0.038216524 0.0010106519
