models/mlp_best_state.pth (torch, 60750 bytes, 6 tensors)

model.0.weight f4 [128, 46]
0	0xbc32ded4	-0.010917384
1	0xbd87decf	-0.06634294
2	0x3d2e924e	0.042619996
3	0x3e0fa3be	0.14027306
4	0x3cba6065	0.022751043
5	0x3e0e9bf5	0.1392668
6	0xbf5608db	-0.8360726
7	0xbea62aaa	-0.32454425
8	0xbeae5ade	-0.340537
9	0x3ea7e43e	0.32791322
10	0x3d06a0cc	0.03286819
11	0x3e3fef2b	0.18743579
12	0xbf013763	-0.5047514
13	0x3e59b552	0.21260574
14	0x3c9d01b4	0.019165851
15	0xbe0c7574	-0.1371668
16	0x3c6e4d1d	0.014544752
17	0x3d19438c	0.037417933
18	0x3cf592d7	0.029977245
19	0xbde7e43a	-0.11322828
20	0xbe820b49	-0.25399235
21	0xbdc6ce42	-0.09707309
22	0xbc86d243	-0.016457682
23	0xbe6ee269	-0.23328556
24	0xbf2b8811	-0.67004496
25	0xbfa2851b	-1.269687
26	0x3da8b6a8	0.08237964
27	0x3f0ef185	0.5583728
28	0xbe60a6ad	-0.21938582
29	0xbbd4b2ca	-0.00649104
30	0x3c94d317	0.018167062
31	0xbfbd8a1f	-1.4807776
32	0xbe844484	-0.25833523
33	0x3f1b9107	0.6076817
34	0x3e4b9dc3	0.198844
35	0xbcc2ce76	-0.023780089
36	0x3f1f66cd	0.62266237
37	0xbf963dc1	-1.1737596
38	0xbd6b3925	-0.057427544
39	0x3e7ae43a	0.24501124
40	0x3eb2beaa	0.3491109
41	0xbe0a4ac5	-0.13505085
42	0x3ecebe49	0.4037955
43	0xbc0e09f8	-0.008669369
44	0xbfbb4f95	-1.4633662
45	0xbf4e6d1a	-0.80635226
46	0xbf101634	-0.5628388
47	0xbe9a7e05	-0.3017427
48	0x3b3c526c	0.002873565
49	0xbb89eb0c	-0.004208928
50	0xbd223d4a	-0.03960923
51	0xbea5c6d9	-0.3237827
52	0x3c1f1d3f	0.009711563
53	0x3e026c80	0.12736702
54	0x3e98b0bb	0.29822335
55	0x3df8ccb3	0.12148418
56	0x3e5a145e	0.21296832
57	0x3e3c7717	0.18404804
58	0xbeff8fe9	-0.49914482
59	0xbf987aa1	-1.1912423
60	0xbb7bb392	-0.0038406593
61	0x3ed1c071	0.40967134
62	0xbd7e3d00	-0.062069893
63	0xbcf723b2	-0.030168388
64	0x3d9a5060	0.075348616
65	0x3e3e091b	0.18558161
66	0xbe8240c9	-0.25440052
67	0xbe89727e	-0.26845163
68	0xbe2b6037	-0.16735922
69	0xbe819fac	-0.25317132
70	0x3dc00ead	0.09377799
71	0xbeb3440c	-0.35012853
72	0x3e8342a2	0.25636774
73	0xbe1d6213	-0.15369444
74	0xbcec0c40	-0.028814435
75	0x3d8bcc9b	0.06826135
76	0x3cdb46b1	0.026767107
77	0x3f329aa6	0.69767225
78	0xbec726fa	-0.38896924
79	0x3e79f7c9	0.24410929
80	0x3ec3a5d2	0.38212448
81	0x3c8a8f52	0.016914044
82	0x3f16b55b	0.58870476
83	0x3ccb5153	0.024819052
84	0x3e754cd1	0.23955084
85	0x3ee58ee3	0.44835576
86	0x3e11ca92	0.1423743
87	0x3e9b53b8	0.3033731
88	0xbf441444	-0.7659342
89	0x3d563066	0.05229225
90	0x3e17cd9c	0.14824528
91	0xbe0f6b81	-0.14005853
92	0x3daab161	0.083346136
93	0x3e1b3a25	0.15158899
94	0xbdcd98b4	-0.100388914
95	0xbdb9738e	-0.090552434
96	0xbe39150e	-0.18074438
97	0xbe1f82b5	-0.15577205
98	0xbdc9c63e	-0.09852265
99	0x3cc0fe93	0.02355889
100	0xbea0f3ed	-0.314361
101	0x3e2e2109	0.1700479
102	0xbe3be162	-0.18347695
103	0xbc5c1d09	-0.013434657
104	0xbf2e50a3	-0.6809179
105	0xbe038d82	-0.1284695
106	0x3d502113	0.050812792
107	0x3e133b74	0.14378148
108	0xbccae47d	-0.024767155
109	0xbda5fb04	-0.08104518
110	0x3ed787c8	0.4209578
111	0xbe420944	-0.18948847
112	0xbe0c54d9	-0.13704242
113	0x3e95e781	0.29278186
114	0x3e51dcd9	0.20494403
115	0xbdaaef53	-0.08346429
116	0x3abd42fe	0.0014439521
117	0x3e310fb5	0.17291148
118	0xbe0edcf1	-0.1395147
119	0xbf518030	-0.81836224
120	0x3ef80653	0.48442325
121	0xbefdbf88	-0.4956019
122	0xbe708b37	-0.23490606
123	0x3ebb97e5	0.36639324
124	0xbd32fac8	-0.043696195
125	0x3eb3535d	0.3502454
126	0xbe37d43a	-0.17952052
127	0xbe996be6	-0.29965132
128	0x3eaf53b0	0.34243536
129	0x3c9297ed	0.01789471
130	0xbee421c2	-0.44557005
131	0xbe738236	-0.2378014
132	0x3dde4fb7	0.10855048
133	0x3e80681a	0.25079423
134	0x3da2669e	0.07929729
135	0xbf12da1e	-0.5736407
136	0x3efa813e	0.4892673
137	0xbedceced	-0.4314951
138	0x3dd3b619	0.10337467
139	0xbeb8979f	-0.36053178
140	0x3dcdf67b	0.10056778
141	0x3e36f255	0.1786588
142	0x3e323825	0.1740423
143	0x3e57ce8b	0.21074884
144	0x3e58bd4d	0.21165963
145	0x3db4df6d	0.088316776
146	0x3d8dd4f5	0.06925384
147	0x3d05a84a	0.032631196
148	0x3ea81a72	0.32832676
149	0xbdd83e4e	-0.10558759
150	0xbf20060f	-0.62509245
151	0xbcb10083	-0.02160669
152	0xbe1178e2	-0.1420627
153	0x3df4f819	0.119613834
154	0x3e2a24d4	0.16615611
155	0x3cb30250	0.021851689
156	0xbe572b3a	-0.21012583
157	0x3e570f1e	0.2100186
158	0xbd7dddac	-0.06197898
159	0x3e20580e	0.1565859
160	0xbe804109	-0.25049618
161	0xbeb12790	-0.34600496
162	0x3d196b59	0.03745589
163	0xbf35d350	-0.7102556
164	0xbdb1a6ec	-0.08674416
165	0xbf33a970	-0.70180416
166	0x3ec3812b	0.38184485
167	0xbcc95141	-0.024574878
168	0x3df4a23f	0.119450085
169	0xbda99fb5	-0.08282415
170	0xbf2f669e	-0.68515956
171	0xbe8a3402	-0.26992804
172	0x3f1ed420	0.6204243
173	0xbf2d9b17	-0.67814773
174	0xbd24fc6f	-0.040279802
175	0xbc82036f	-0.015870778
176	0x3ede3876	0.4340245
177	0xbf91bc5b	-1.1385607
178	0x3ec40c6a	0.3829072
179	0x3f2805a5	0.6563361
180	0xbfebfa4f	-1.8435763
181	0x3e33f8e4	0.17575413
182	0xbf92fff8	-1.1484365
183	0x3e136ca4	0.14396912
184	0x3bcfbd2d	0.00633969
185	0x3da39f9e	0.07989429
186	0xbe250c50	-0.16117978
187	0xbeb7fb24	-0.35933793
188	0x3e67d5b4	0.22640115
189	0xbe66e573	-0.22548465
190	0xbe19d857	-0.15023933
191	0xbe6bcd7e	-0.23027608
192	0x3d5e5892	0.054283686
193	0x3f140624	0.5782187
194	0x3ea8276c	0.32842577
195	0xbe8c8589	-0.2744563
196	0x3e47560f	0.19466422
197	0xbe7d1870	-0.24716353
198	0x3cf1d480	0.029520273
199	0xbe889be4	-0.26681435
200	0xbf264076	-0.6494211
201	0x3cc8d435	0.02451525
202	0x3d0dc3c6	0.034610532
203	0xbf0051d7	-0.5012488
204	0xbeb9d38c	-0.3629421
205	0xbe39e45b	-0.18153517
206	0x3e25aa59	0.16178264
207	0x3c950af2	0.018193696
208	0x3eb60106	0.35547656
209	0xbd479b25	-0.04873194
210	0xbec9fcab	-0.39450583
211	0x3c96b0cb	0.018394848
212	0xbdf8d18f	-0.12149345
213	0x3cac7d1a	0.021055747
214	0x3d482c51	0.04887039
215	0x3e9a17b2	0.30096203
216	0x3eee0d26	0.46494406
217	0xbf0695cd	-0.5257233
218	0xbe5c65e7	-0.21523248
219	0xbf19a941	-0.60023886
220	0xbd1d7996	-0.03844603
221	0x3f09f390	0.5388727
222	0xbdaafd1b	-0.08349057
223	0xbed7ade3	-0.42124853
224	0xbfab056b	-1.3361028
225	0xbe251daf	-0.16124605
226	0xbf1e4455	-0.61823016
227	0x3df94221	0.12170816
228	0x3f3ece80	0.74533844
229	0xbf2fd7d9	-0.6868873
230	0xbd3abd32	-0.045590587
231	0xbd56523a	-0.05232451
232	0xbd3234f1	-0.04350752
233	0x3e819be3	0.25314245
234	0x3e809813	0.25116023
235	0x3f2b767c	0.6697767
236	0x3e3ea521	0.18617679
237	0xbd6a5d36	-0.0572178
238	0x3ebd87b4	0.37017596
239	0x3ec54cb7	0.3853509
240	0xbd946db1	-0.072474845
241	0x3e2d5f86	0.1693097
242	0x3d9868ec	0.07441887
243	0xbe96a385	-0.2942163
244	0xbc71d8f8	-0.014761202
245	0xbe3a0239	-0.1816491
246	0x3c9d9ffa	0.019241322
247	0x3cfecd9f	0.031103907
248	0xbe05bc1c	-0.1306004
249	0x3ed51d33	0.4162384
250	0x3f1dfafc	0.61711097
251	0x3ea69de0	0.32542324
252	0xbe901ca0	-0.2814684
253	0xbe8fe5a0	-0.28104877
254	0xbd1d04c6	-0.03833463
255	0x3ea38b89	0.31942394

model.0.bias f4 [128]
0	0x3e84b047	0.2591574
1	0xbcc8c87e	-0.024509665
2	0x3e7c0ee7	0.2461506
3	0xbe073e3f	-0.13207339
4	0xbeac233d	-0.33620635
5	0xbe8d2f69	-0.27575234
6	0x3e32c7eb	0.17459075
7	0xbe97e5a2	-0.29667383
8	0xbf351f25	-0.7075065
9	0xbe5f02fd	-0.21778484
10	0xbecf4f84	-0.40490353
11	0xbe8961ac	-0.2683233
12	0x398bf224	0.00026692555
13	0x3e2c684b	0.1683666
14	0xbeabf605	-0.33586136
15	0xbe390789	-0.1806928
16	0xbd32d59a	-0.043660738
17	0xbf1321e1	-0.5747357
18	0xba9c3437	-0.0011917417
19	0x3f40df34	0.7534058
20	0xbd2dc221	-0.042421464
21	0x3d297d24	0.04137911
22	0xbea573bb	-0.32314858
23	0xbf557fb5	-0.8339799
24	0xbed65cb6	-0.41867608
25	0x3e95ea5b	0.29280362
26	0x3f155906	0.58338964
27	0xbb5d82c8	-0.0033799876
28	0x3e8c6ea1	0.27428153
29	0x3ece102f	0.40246722
30	0xbe57362d	-0.2101676
31	0xbf131554	-0.5745442
32	0xbf6de7ed	-0.92932016
33	0x3d370d52	0.044690438
34	0xbd9076e4	-0.070539266
35	0xbf29e027	-0.66357654
36	0xbe26a333	-0.16273193
37	0xbe572268	-0.21009219
38	0xbf28ac91	-0.65888315
39	0x3e31d03b	0.1736459
40	0xbe2c250c	-0.16811007
41	0xbf0d6c80	-0.5524368
42	0xbc57b3d6	-0.013165435
43	0x3d5b7695	0.053579886
44	0xbd56d3cb	-0.052448075
45	0xbe0a5730	-0.13509822
46	0xbeb41419	-0.35171583
47	0xbe0f6459	-0.14003123
48	0xbf1250dc	-0.5715463
49	0xbb6c5101	-0.0036059024
50	0xbeaf8f53	-0.34289035
51	0xbe0cb910	-0.1374247
52	0xbf742415	-0.95367557
53	0xbf0f5daa	-0.56002295
54	0xbd116ba4	-0.035503045
55	0xbf6196f4	-0.8812096
56	0xbf537689	-0.82602745
57	0x3ce6e614	0.028185882
58	0xbf0781e3	-0.52932566
59	0xbea3f23f	-0.32020757
60	0xbe9ba107	-0.30396292
61	0xbe4a366b	-0.19747321
62	0xbf35d6d4	-0.71030927
63	0xbde331d0	-0.11093485
64	0xbe022904	-0.12710959
65	0x3e6fb7b8	0.23409927
66	0xba77d862	-0.0009454546
67	0xbedc5b4b	-0.430384
68	0x3d80ffce	0.06298791
69	0xbe1ebb50	-0.15501142
70	0xbde2f089	-0.11081035
71	0xbe93e80b	-0.28887972
72	0xbed922ec	-0.42409456
73	0x3eaa00e9	0.3320382
74	0x3eabf9d5	0.33589044
75	0x3ddaddb8	0.10686821
76	0x3e4553bb	0.19270222
77	0x3e589bec	0.2115323
78	0xbf23dbc8	-0.64007235
79	0xbe67f282	-0.22651103
80	0x3e1662a0	0.1468606
81	0xbe94722c	-0.28993356
82	0xbd9e4726	-0.07728414
83	0xbebcbfc3	-0.36865053
84	0xbf261d13	-0.64888114
85	0xbea5618b	-0.32300982
86	0xbf149261	-0.58035856
87	0xbf19cc7d	-0.6007765
88	0xbf2aabf3	-0.66668624
89	0x3e3e6f2a	0.18597093
90	0xbed44f16	-0.41466588
91	0x3e96b585	0.29435363
92	0xbd061c96	-0.032742105
93	0xbde9febc	-0.1142554
94	0xbd855f92	-0.06512369
95	0xbeca2c47	-0.39486906
96	0x3ee79ac2	0.45235258
97	0x3eeebe50	0.46629572
98	0xbe2484f6	-0.16066346
99	0xbf20b65e	-0.6277827
100	0xbce74f99	-0.028236197
101	0xbe9d0e65	-0.30675045
102	0x3e792e09	0.24333967
103	0xbdcb9c0c	-0.09941873
104	0x3e547d6c	0.2075097
105	0xbe6dde85	-0.23229416
106	0xbdad43d4	-0.08460203
107	0xbeeb4e62	-0.4595824
108	0x3dfbc786	0.122939155
109	0xbf1c82d1	-0.6113711
110	0xbeaeab45	-0.34115043
111	0x3e689351	0.22712447
112	0xbebaa254	-0.36451972
113	0x3f8130bc	1.0092998
114	0x3e0db008	0.13836682
115	0xbdd0f46b	-0.10202869
116	0xbe9b46b6	-0.30327386
117	0x3ceac456	0.028658073
118	0xbd5ec1ac	-0.05438392
119	0xbe93fc21	-0.28903297
120	0xbe5fb544	-0.21846491
121	0x3f3a19a1	0.72695357
122	0xbdfa4452	-0.12220062
123	0xbb0801b8	-0.0020752978
124	0x3c9acbbb	0.018895974
125	0x3e358395	0.17725976
126	0xbe132a61	-0.14371635
127	0xbf211b88	-0.62932634

model.3.weight f4 [64, 128]
0	0xbd65cbd6	-0.056102596
1	0xbd4e96d4	-0.05043681
2	0xbf322e88	-0.6960225
3	0xbdf6fe02	-0.12060167
4	0xbdf10611	-0.11768735
5	0x3e8e004b	0.277346
6	0xbdf599c4	-0.11992219
7	0x3d8eedc4	0.06978944
8	0xbe076cf0	-0.1322515
9	0xbf06ce68	-0.526587
10	0xbf19556e	-0.5989598
11	0xbfd4e60c	-1.6632705
12	0xbf18269e	-0.59433925
13	0xbf3e0a09	-0.7423406
14	0x3e90c8d6	0.28278226
15	0xbe2fe75a	-0.17178097
16	0xbfe0b327	-1.7554673
17	0xbd1ab277	-0.037767854
18	0x3e6fa8d8	0.23404253
19	0xbe673491	-0.22578646
20	0xbf6a1bcb	-0.9144866
21	0x3e4de998	0.2010864
22	0x3e69413a	0.22778788
23	0xbd4f6a0b	-0.05063824
24	0x3e425a09	0.18979658
25	0xbebf7aa5	-0.37398258
26	0xbe02891f	-0.1274762
27	0xbdb22585	-0.086985625
28	0xbfac7cf9	-1.3475639
29	0x3ea958f1	0.3307567
30	0xbf3bef5d	-0.73412114
31	0x3c7960af	0.015220805
32	0x3e08c057	0.13354622
33	0x3daed25e	0.08536218
34	0x3e1a46bb	0.15066044
35	0x3de64d1e	0.11245178
36	0x3e322e62	0.17400506
37	0x3d967916	0.07347314
38	0x3f817ceb	1.0116247
39	0x3d52d419	0.051471803
40	0xbdd59664	-0.10429075
41	0xbe8942bd	-0.2680873
42	0x3e436fc8	0.1908561
43	0x3d083dcf	0.03326207
44	0xbefdfe3c	-0.49608028
45	0xbdd2c6d4	-0.1029183
46	0x3e306d80	0.17229271
47	0xbe62e099	-0.2215599
48	0xbd0bb738	-0.034110278
49	0xbf440b11	-0.76579386
50	0x3f13b3a3	0.5769598
51	0xbcaa07dc	-0.0207557
52	0xbd0f9b82	-0.035060413
53	0x3d9a2da8	0.075282395
54	0xbfec4a23	-1.8460125
55	0xbe0f60ea	-0.14001814
56	0xbdc1ccc6	-0.094628856
57	0xbeadf5b2	-0.33976513
58	0x3d598950	0.053109467
59	0x3e83700b	0.2567142
60	0xbfb780fe	-1.433624
61	0xbf6c36e0	-0.9227123
62	0xbe2266c0	-0.15859509
63	0xbc8196fa	-0.015819062
64	0x3e73fd2b	0.23827045
65	0x3e1417f5	0.14462264
66	0x3e547c52	0.2075055
67	0x3d3f7518	0.04674253
68	0x3eb4b177	0.35291645
69	0xbe2836cf	-0.16427158
70	0xbf4e7221	-0.80642897
71	0x3f0328d1	0.51234156
72	0x3d37b759	0.04485259
73	0x3e492092	0.19641331
74	0xbef8b5c6	-0.48576182
75	0xbf9f4a15	-1.2444483
76	0xbf5c137c	-0.8596723
77	0xbf936123	-1.1514019
78	0xbe6de90e	-0.23233435
79	0xbf3e56ff	-0.74351496
80	0xbe3d7b68	-0.18504107
81	0x3edf33bf	0.43594167
82	0xbf2e48ce	-0.6807984
83	0xbdbbf8a5	-0.091782846
84	0xbfdaaf71	-1.708479
85	0x3dba44c1	0.09095145
86	0xbd1e017b	-0.03857563
87	0x3e2e6646	0.17031202
88	0x3f28c9e9	0.6593309
89	0x3ee3271c	0.44365776
90	0xbe9002db	-0.2812718
91	0xbe4741dc	-0.19458717
92	0xbe3d99cb	-0.18515699
93	0xbe3e4080	-0.18579292
94	0x3db4befc	0.0882549
95	0xbb3bc674	-0.0028652223
96	0xbda417d9	-0.08012361
97	0xbe3fb468	-0.18721163
98	0xbeabf355	-0.33584085
99	0x3c744951	0.014910058
100	0xbd8859d4	-0.06657758
101	0xbbdc4e2b	-0.0067231855
102	0xbfc2539d	-1.5181767
103	0x3d8db7e4	0.0691984
104	0xbd6d3325	-0.057910103
105	0x3c85b89e	0.016323384
106	0xbea0bcda	-0.31394082
107	0xbf305ceb	-0.6889178
108	0x3e8f90a4	0.2804004
109	0x3ddcbddb	0.107783996
110	0xc0141868	-2.3139896
111	0x3e610c81	0.21977426
112	0xbf791a4e	-0.9730576
113	0xbeb7497a	-0.35798246
114	0xbfde0fe6	-1.7348602
115	0x3cce65f9	0.025195109
116	0xbb5fbd7c	-0.003414004
117	0x3e40a70c	0.18813723
118	0xbf01c27e	-0.50687397
119	0x3d92d12c	0.071688026
120	0xbbb19304	-0.005419137
121	0xbe725dde	-0.2366862
122	0x3e6730db	0.2257723
123	0x3ed23f9c	0.41064155
124	0x3e9aebb5	0.30257955
125	0x3e79ded5	0.2440141
126	0xbf4c3687	-0.797707
127	0xbf9b0db8	-1.2113562
128	0x3d1ebc4a	0.038753785
129	0x3e73cd7c	0.23808855
130	0x3dfbc52c	0.12293467
131	0x3e0c1317	0.13679157
132	0x3e4ab4db	0.19795553
133	0xbdd33bca	-0.10314138
134	0xbea144c3	-0.31497774
135	0x3eac542b	0.33657965
136	0x3db141f3	0.08655157
137	0xbcc2276f	-0.023700444
138	0x3e4e1112	0.201237
139	0x3e3c6f3a	0.18401805
140	0xbcbf35e7	-0.023341132
141	0xbf051092	-0.5197841
142	0x3de501da	0.11181994
143	0x3da8eb98	0.08248061
144	0xbd789d64	-0.060696974
145	0xbf113b0f	-0.5673074
146	0xbf2842b8	-0.65726805
147	0xbeb86098	-0.36011195
148	0xbe6d37a9	-0.23165764
149	0xbee0bb11	-0.4389272
150	0x3e6dbf98	0.23217618
151	0x3e6377c6	0.22213659
152	0x3edf607a	0.43628293
153	0xbe3a1d13	-0.18175153
154	0xbd12a241	-0.03579927
155	0x3e8cfb35	0.27535406
156	0x3e0d3f09	0.13793577
157	0xbdc92296	-0.0982105
158	0xbe702778	-0.23452556
159	0xbe4769a4	-0.19473892
160	0xbf587601	-0.8455506
161	0x3e5c1f8f	0.21496414
162	0xbd9d7f03	-0.07690241
163	0xbfbdd07f	-1.4829253
164	0xbe4c047b	-0.19923584
165	0xbf53ea23	-0.8277914
166	0x3e191b64	0.14951855
167	0xbd072d9f	-0.033002492
168	0xbeaaae46	-0.33336085
169	0xbe2349a6	-0.15946063
170	0x3f1acfc7	0.60473293
171	0xbcb81dc5	-0.022475133
172	0xbe29de8a	-0.16588798
173	0xbe8f3c8d	-0.27975884
174	0x3dda53e3	0.10660531
175	0x3e364b06	0.17802057
176	0xbedbc38b	-0.42922625
177	0xbe1c5789	-0.15267767
178	0xbecbc720	-0.39800358
179	0xbd0e22e4	-0.034701243
180	0xbe496299	-0.19666518
181	0x3e39a776	0.18130288
182	0x3f0445d0	0.51669025
183	0x39f5eb09	0.00046905156
184	0xbf5a5a4a	-0.8529402
185	0x3eadea17	0.3396766
186	0xbe964522	-0.2934962
187	0x3d0e4e5e	0.034742706
188	0x3d651692	0.055929728
189	0xbe94d58d	-0.29069176
190	0x3da3f4de	0.08005689
191	0xbe0ccf6f	-0.13751005
192	0xbda6dd5e	-0.08147691
193	0xbddccf7d	-0.10781763
194	0x3e0a1dac	0.13487881
195	0xbf3c0450	-0.7344408
196	0xbcaa501f	-0.020790158
197	0xbfa5cdc3	-1.2953418
198	0xbe2913d6	-0.16511473
199	0x3e2eff1e	0.17089507
200	0xbced7f72	-0.028991435
201	0x3f53f8db	0.828016
202	0x3e8ff54b	0.2811683
203	0x3c859559	0.016306566
204	0x3dab4d62	0.08364369
205	0x3f389c0d	0.72113115
206	0xbd1f7531	-0.03893012
207	0x3dac9249	0.08426339
208	0x3f22423e	0.6338233
209	0x3e1738c8	0.14767754
210	0xbda15f73	-0.078795336
211	0x3d818fe5	0.06326274
212	0xbee337b4	-0.44378436
213	0x3d8efa0d	0.06981287
214	0x3e756a97	0.23966442
215	0xbf8ebaa5	-1.1150709
216	0xbf9ef451	-1.241831
217	0xbebb0aac	-0.3653158
218	0xbded2448	-0.11579186
219	0xbc947ccd	-0.018125916
220	0x3edb702c	0.42859018
221	0x3e75880b	0.23977678
222	0x3edbe87f	0.42950818
223	0x3d3d0007	0.046142604
224	0x3e985e5d	0.29759493
225	0xbf1685d9	-0.58797985
226	0x3e43355d	0.19063325
227	0xbef1b4d8	-0.47208285
228	0x3e908ccc	0.2823242
229	0x3da2deef	0.079526775
230	0xbe87325f	-0.26405618
231	0xbcb28155	-0.021790186
232	0x3da88eb6	0.08230345
233	0x3e651ddf	0.22374676
234	0x3e2aa674	0.1666506
235	0xbc544b2d	-0.012957376
236	0xbe90095b	-0.28132138
237	0xbef09b4e	-0.46993488
238	0xbdd30902	-0.103044525
239	0x3e667689	0.22506155
240	0xbc230142	-0.00994903
241	0x3e9e7682	0.3094979
242	0x3e91e78b	0.28496966
243	0xbe9dbd29	-0.3080838
244	0x3d6f2f30	0.05839461
245	0x3e5905a8	0.21193564
246	0xbf93d4ca	-1.1549313
247	0x3e83ee6b	0.25767836
248	0xbe30235d	-0.1720099
249	0xbf14e05f	-0.58154863
250	0xbd6d50a8	-0.057938248
251	0xbd29b890	-0.04143578
252	0x3deb60d9	0.114930816
253	0x3eade658	0.339648
254	0xbe23aed2	-0.15984657
255	0xbe890ede	-0.26769155

model.3.bias f4 [64]
0	0x3e943e01	0.28953555
1	0x3dc66ccf	0.09688722
2	0x3e51ef58	0.20501459
3	0x3ed27265	0.411029
4	0x3dcf9a33	0.10136833
5	0x3eb3d8aa	0.3512624
6	0x3ebf6b3c	0.373865
7	0xbe739a3f	-0.23789309
8	0x3e4cf21c	0.20014232
9	0x3eb14e31	0.34629968
10	0xbe9e82be	-0.30959123
11	0x3d6e98c8	0.058251172
12	0x3ebf019f	0.37305924
13	0xbbd0f21a	-0.006376517
14	0x3d94329d	0.07236216
15	0xbe252b54	-0.1612981
16	0xbe1b258b	-0.1515104
17	0x3e963746	0.29339045
18	0x3dc89ae5	0.09795169
19	0xbeb1cc1f	-0.34726045
20	0xbf027abd	-0.50968534
21	0x3c860f7a	0.016364802
22	0xbde696a1	-0.11259199
23	0x3e112217	0.1417316
24	0xbda299b3	-0.07939472
25	0x3db15934	0.08659592
26	0x3e1ef8be	0.15524575
27	0xbe6d0cd8	-0.23149431
28	0xbdd0bd61	-0.10192371
29	0x3e35e8c8	0.1776458
30	0xbe40bb09	-0.18821348
31	0x3e91f413	0.28506526
32	0x3ee0893b	0.438547
33	0x3dc19f48	0.094542086
34	0x3d0c1327	0.034197953
35	0x3e845653	0.2584711
36	0x3ea72ae2	0.32649904
37	0x3e245dd7	0.16051422
38	0xbd88a1f1	-0.06671513
39	0x3e711e35	0.2354668
40	0xbe4b7461	-0.19868614
41	0x3ddcf076	0.10788052
42	0x3eba79f6	0.36421174
43	0xbda41c2e	-0.08013187
44	0xbda7da9d	-0.08195994
45	0x3d3abf7f	0.04559278
46	0x3e199715	0.1499904
47	0xbe38a76f	-0.18032621
48	0x3b7b9547	0.0038388537
49	0x3d600b21	0.054698113
50	0xbebaf1ee	-0.36512703
51	0x3db6c3aa	0.08924039
52	0xbe8f4b67	-0.27987215
53	0xbccf332d	-0.025292957
54	0xbe25aed7	-0.16179977
55	0x3dd078aa	0.10179265
56	0xbed68175	-0.41895643
57	0x3e33b06c	0.17547768
58	0xbe68bcf4	-0.2272833
59	0x3ddc000c	0.107421964
60	0x3e0cfaa8	0.13767493
61	0x3e7336c4	0.2375136
62	0xbe35d693	-0.17757635
63	0x3e56b00d	0.20965596

model.6.weight f4 [3, 64]
0	0xbfc415ab	-1.5319113
1	0x3eba9a23	0.36445722
2	0x3f18574c	0.59508204
3	0xbfb4a84b	-1.4113859
4	0x3f1cc0fd	0.61231977
5	0xbfd82d3e	-1.6888807
6	0x3f7cd64f	0.9876451
7	0xbf8676c9	-1.0505
8	0x3e16fd8c	0.14745158
9	0x3f1f89ad	0.6231945
10	0x3f718f8b	0.94359654
11	0x3f3a60cf	0.7280397
12	0xbe827f67	-0.25487825
13	0x3e841fe0	0.2580557
14	0x3e669cda	0.22520772
15	0xbefc5ee7	-0.49291155
16	0x3e1136b1	0.1418102
17	0x3ebfa509	0.374306
18	0xbf2265ab	-0.63436383
19	0x3e814acc	0.25252378
20	0x3e067ec6	0.13134298
21	0x3f529f2e	0.8227414
22	0xbfbaf3d5	-1.4605662
23	0xbfafc7d9	-1.3732864
24	0xbf22ed1c	-0.6364305
25	0x3e84ec3a	0.25961477
26	0xbf8054da	-1.0025895
27	0x3e86b150	0.26307154
28	0x3edafabe	0.42769426
29	0x3e3fd623	0.1873403
30	0xbfee883f	-1.8635329
31	0x3e02acd9	0.12761249
32	0xbff3d3a5	-1.9048964
33	0xbf1db65d	-0.6160639
34	0xbf881515	-1.0631434
35	0xbf267d82	-0.6503526
36	0x3e3735a2	0.17891553
37	0xbfcc9796	-1.598376
38	0x3e322206	0.17395791
39	0x3f007564	0.50179124
40	0xbf982c22	-1.1888468
41	0x3f519193	0.81862754
42	0xbf5e0094	-0.8671963
43	0x3d0e102c	0.03468339
44	0xbfc526f3	-1.5402511
45	0x3d88165e	0.06644891
46	0xbf8b1f6b	-1.0868963
47	0x3dc5e98a	0.09663685
48	0xbfee6b90	-1.8626575
49	0xbf7d9fe7	-0.99072117
50	0x3d1b948e	0.03798347
51	0x3f1a8a21	0.6036702
52	0xbfa94a73	-1.3225845
53	0xbfb5aa44	-1.4192586
54	0x3e3c5524	0.18391854
55	0x3eb60400	0.35549927
56	0xbef09f67	-0.46996614
57	0x3efa2653	0.48857364
58	0xbca62071	-0.020279141
59	0xbfcaa9cc	-1.5833068
60	0xbf893fe1	-1.0722619
61	0x3f113e01	0.56735235
62	0xbf9cef7c	-1.2260585
63	0xbfdefee2	-1.7421534
64	0xbd0e5b29	-0.034754906
65	0x3da1e90c	0.07905778
66	0xbec189c5	-0.37800422
67	0xbebdad47	-0.37046263
68	0x3e407d76	0.1879786
69	0x3ecc7ac2	0.39937407
70	0xbf6b35c4	-0.91878915
71	0x3ebacfe3	0.3648673
72	0x3e2034f6	0.15645203
73	0x3d54ee97	0.05198535
74	0xbe8e19e1	-0.2775412
75	0xbf3eaf9d	-0.74486715
76	0xbf332365	-0.6997588
77	0x3def401c	0.1168215
78	0x3e0fa6c1	0.14028455
79	0x3ef5c606	0.48002642
80	0x3e133392	0.14375141
81	0xbeed7c59	-0.46383932
82	0x3f964788	1.174058
83	0x3f63c484	0.88971734
84	0xbf2c0de8	-0.6720872
85	0xbf1eed2d	-0.6208065
86	0x3e2c8a0b	0.16849534
87	0x3e81d2f3	0.25356254
88	0xbcb96264	-0.022629924
89	0x3d4ce11f	0.05001938
90	0x3e879bf2	0.26486164
91	0x3e06005a	0.13086072
92	0x3dfdfdd6	0.12401931
93	0x3eb7da97	0.35908958
94	0x3e7393be	0.23786828
95	0x3e4c8097	0.19970928
96	0x3ee8eebb	0.45494637
97	0x3dcfcd68	0.101466
98	0x3f1b269b	0.6060578
99	0x3e29f859	0.16598643
100	0x3ea6b865	0.32562557
101	0xbddb4245	-0.10705999
102	0x3e348c7f	0.1763172
103	0xbd4dd7f4	-0.050254777
104	0x3e346745	0.17617519
105	0xbf1053ac	-0.56377673
106	0x3e87cd75	0.2652394
107	0x3e8c4b59	0.27401236
108	0x3faad098	1.3344908
109	0x3dc9f0ab	0.09860357
110	0x3e2cc94d	0.16873665
111	0x3deeaef8	0.116544664
112	0x3f0b4971	0.5440894
113	0x3fa8584f	1.315195
114	0x3eeff92f	0.468698
115	0xbe81b96e	-0.25336784
116	0x3d87d676	0.06632702
117	0x3e9113c1	0.28335384
118	0x3e0d4d2d	0.13798971
119	0xbe583527	-0.21114026
120	0x3f205d2d	0.62642175
121	0xbefd231b	-0.49440846
122	0xbd33ccff	-0.04389667
123	0x3f9b79c6	1.2146537
124	0xbd69ebaa	-0.057109512
125	0xbedb0255	-0.42775217
126	0x3ea9a85a	0.33136255
127	0x3f18e3e1	0.59722716
128	0x3f7dbac0	0.9911308
129	0xbfb8b3c5	-1.4429861
130	0xbddf90e8	-0.109163105
131	0x3f93812f	1.1523799
132	0xbfdeefce	-1.7416933
133	0x3f6363ac	0.8882396
134	0xbf016861	-0.50549895
135	0x3e8f402d	0.2797865
136	0xbfab2810	-1.3371601
137	0xbfce6f9c	-1.612781
138	0xbf9d2393	-1.2276481
139	0x3eb5bc81	0.3549538
140	0x3f385a3d	0.7201269
141	0xc00c41e8	-2.1915226
142	0xbfbed14b	-1.4907621
143	0x3e8df2e9	0.27724388
144	0xbf8a434c	-1.0801787
145	0x3e7cdc40	0.24693394
146	0xbfa83ff1	-1.3144513
147	0xbfa9558c	-1.3229232
148	0x3f5da7c6	0.86584127
149	0xbe73a1cc	-0.2379219
150	0x3ea30fa0	0.31847858
151	0x3f0d71fd	0.5525206
152	0x3f4f3cb3	0.80951995
153	0xc011ac61	-2.2761462
154	0x3e35d84f	0.17758296
155	0xbfc9a9f7	-1.5754994
156	0xbfa363ae	-1.2764795
157	0xbf82e40a	-1.0225842
158	0x3eea7aa6	0.45796698
159	0xbfcc7af7	-1.5975026
160	0x3f710a33	0.9415619
161	0x3f323b14	0.69621396
162	0x3e1006bf	0.14065073
163	0x3e764edd	0.24053521
164	0xbfaac74e	-1.3342073
165	0x3f5a81c5	0.8535426
166	0xbf99ddf9	-1.2020866
167	0xbfc75b1d	-1.557468
168	0x3ec641d5	0.387221
169	0xbe8fd436	-0.28091592
170	0x3ea968aa	0.33087665
171	0xbf59cbf1	-0.85076815
172	0xbf1b436d	-0.6064976
173	0xbfdd858f	-1.7306384
174	0x3ee616e3	0.44939336
175	0xbf84cef2	-1.0375655
176	0x3f4edb2a	0.8080317
177	0xbf201710	-0.6253519
178	0xbf912d79	-1.1342002
179	0xbf71ea12	-0.9449779
180	0x3f9031a2	1.1265147
181	0x3e92e873	0.2869297
182	0xbfa352b9	-1.275962
183	0xbfd7e292	-1.6866019
184	0xbed1641e	-0.40896696
185	0x3de1db6f	0.11028182
186	0xbc6e4663	-0.014543149
187	0xbe26d0df	-0.16290615
188	0x3f4d5407	0.8020634
189	0xbeacf447	-0.3378012
190	0x3ea3dc29	0.32003906
191	0x3f49e680	0.7886734

model.6.bias f4 [3]
0	0x3e70a951	0.23502089
1	0xbe39db80	-0.18150139
2	0xbcc97b3d	-0.024594897
