models/mlp_fold_4_f1_0.7589.pth (torch, 61258 bytes, 6 tensors)

model.0.weight f4 [128, 46]
00000000: 0b4d 47bd 395e f83e e9c7 46bd 6140 8a3e
00000010: 2ee5 0bbe 2d99 2d3e 3378 283d b995 e6bd
00000020: 0140 cabe 3c20 a13d 8701 473d 4b06 893e
00000030: 6ef8 9ebd c743 b6be 95fc 353d ace5 333d
00000040: 9e7b 12bd e86e c23e 85d3 e33e 65fe 2c3e
00000050: d5c2 783d d5ea 1fbf 7212 583c 8b70 40bf
00000060: 9881 9ebf 7841 17bf f35c f5be bb10 7a3e
00000070: 0a37 bd3e c00d 1bbe a4aa cfbc 4751 a4bf
00000080: 192d 9ebf c689 cf3b 5ee7 efbd 8cfb 41be
00000090: f957 82bf 6cb8 bc3d 8eea 613e 6a91 003e
000000a0: db00 273f 0950 01be 7b45 6fbd fbbd 85bf
000000b0: cc46 a3be ae57 ed3c 9422 013c 2aac f6bd
000000c0: 2918 77bd e36c f2bd eb43 1e3d 5062 823e
000000d0: 2538 573e d866 453d 4fc1 23bf 388d 4abe
000000e0: 8505 0abe 4606 8c3c 719d aabe 8942 28be
000000f0: cda6 343c 3b82 9cbc d95a e0bd ed27 943c
00000100: 6e73 fd3c a11c c2be 39e6 bcbd b2db 863e
00000110: 8fda 7c3e a928 00bf 58f4 c4be 1b22 97bf
00000120: 65cf e9be 7e7b c43e 3c03 8abe 12ce 103e
00000130: a2d1 f0bc 60c6 b5bf d87a ba3e 2f6e 1d3f
00000140: 03f0 cbbe 09a8 05bf 34b6 b43e 75a7 513f
00000150: c0f8 97be aedb a1bf 27d8 2c3e b8c5 eb3e
00000160: 76b9 77bf 3808 dcbe ba2a 98bf cca1 71be
00000170: 1f77 123c 7927 15bc b90f 3a3c a09f a63c
00000180: 4988 1dbe a174 0cbe 5f00 82bd 5719 50be
00000190: d1f5 9bbd 4c13 803d f307 be3d 6371 5f3d
000001a0: 4a0b bebd 4ad4 debf 22f6 d2bc cf56 fc3c
000001b0: a706 2bbd ee10 403c 2c46 dfbb b102 a7bd
000001c0: 827e 143d 3637 1c3e b70b a1bc d0dc 85be
000001d0: 4ac0 073c 43b9 da3c 00d7 0fbd 5e96 973e
000001e0: 19c4 403e ed8c 023c 33e6 abbc f0fa a7bd
000001f0: 0676 9f3d 71cc 52be 7618 b0be efba 98bc
00000200: 84c7 b3be a542 8bbe 298b 8e3c 8128 9bbd
00000210: 0424 a43e 1515 c0bc 408f 7fbe 6342 1bbf
00000220: d28e fc3d 15a4 0ebe 47dc e0bc ef29 93be
00000230: 83f1 09be f503 dfbd 26c5 21bd 68c2 d83d
00000240: 8c43 2abe 276a f73e ac71 b53e 04f2 b3be
00000250: 5271 8d3d b184 ad3d d9c6 f7be 6943 69bf
00000260: 9778 e7bc 3f90 063e 6f68 80bd 00c1 01be
00000270: de5b d3bd 60ac 983d fb23 743d d0f5 8b3e
00000280: af39 eb3d 75b5 8ebe ea0c 313e 189e 5c3e
00000290: a211 6b3e f025 b7be 9b2b 02be fc66 323c
000002a0: 7e0b cebb cab3 02bf ec64 163e b29f f0bd
000002b0: 3591 6dbf 579d bbbd b558 b5bf 2cec 77be
000002c0: 93db 44bd 6163 913e d03c a0be ec6b 26be
000002d0: 79e6 c4bb b39b 15be 067d 46be e1c9 263f
000002e0: df26 273c 2db0 e3be 1ac7 19be 62ea f9bd
000002f0: c28f acbe 2452 5e3e 1963 f2bd 3d94 98be
00000300: ee05 52be 1cb1 203e 046c 9f3e 11b3 11bd
00000310: 64be ccbe d511 663e 60bc 0a3d 7bbb 61ba
00000320: 1c4d b7bc 5588 7cbd 9188 a63b 75ff 013f
00000330: aa39 263f 566d 633e 7e4a b8be 2a84 83bd
00000340: 8fba 77bf 8ef2 33bf 2945 d8be 5f2f 94be
00000350: 4fcd bbbd dd3d 70bd 13ba d7bb 1574 0c3f
00000360: b204 9e3e b0f0 9e3e 17fb 15bf 8563 7fbf
00000370: 1e81 b5bf 64fb 993e d18a a73e fc2d d23e
00000380: 7cd4 33be 6bb3 2b3f b92b 7fbf 5c7c 2cbc
00000390: 5dcd 24bf a413 513e b15f 40bd 2622 c23d
000003a0: e8ee edbe d7a0 073e fbaf 9b3e 0520 ae3d
000003b0: a0d6 153e b935 9b3e dd67 b03d f836 01bf
000003c0: ecf5 e3bd 032d d33d 8a37 213f ca04 b03e
000003d0: 34ec 40bb 88d8 81bd a80d eabd e0de 5cbe
000003e0: afe0 3a3d 05cb fcbd 6b6d 0f3e f95e b6bd
000003f0: bc9a 46be 3097 b83d 557e debe 314f 8cbe
-0.04865746 0.48509386 -0.048530493 0.27002242 -0.13661644 0.16952963 0.041130256 -0.11259026
-0.39501956 0.07867476 0.04858544 0.26762614 -0.07762228 -0.35598585 0.044430334 0.043920204
-0.03576242 0.3797524 0.44497314 0.16893919 0.06073268 -0.624677 0.013187991 -0.75171727
-1.2383299 -0.5908427 -0.47922477 0.24420445 0.36956054 -0.15141964 -0.025349922 -1.2837304
-1.2357513 0.0063335625 -0.11714052 -0.18943614 -1.0183097 0.09214863 0.22062132 0.12555471
0.6523568 -0.12628187 -0.05841587 -1.0448602 -0.3188995 0.028972473 0.007881779 -0.120445564
-0.060325775 -0.11837175 0.03863899 0.2546563 0.21017511 0.048193783 -0.6396684 -0.19780433
-0.13478668 0.017092835 -0.33323243 -0.16431631 0.0110260965 -0.019105067 -0.10954828 0.018085444
0.03093883 -0.37912467 -0.09223599 0.2633949 0.24692748 -0.5006204 -0.3846767 -1.1807283
-0.45666042 0.38375467 -0.26955593 0.1414111 -0.029396836 -1.4201164 0.36421847 0.6149625
-0.39831552 -0.52209526 0.3529526 0.81896144 -0.2968197 -1.2645166 0.1687933 0.46049285
-0.96767366 -0.4297502 -1.1888039 -0.23596877 0.0089395335 -0.009103649 0.011356288 0.020339787
-0.1538402 -0.13716365 -0.06347727 -0.20322166 -0.07615245 0.062536806 0.0927886 0.054551493
-0.09279497 -1.7408535 -0.02575213 0.030803112 -0.04175439 0.011722786 -0.006813785 -0.0815481
0.03625346 0.15255436 -0.019658906 -0.2614503 0.008285591 0.026699668 -0.03511715 0.2960691
0.18824805 0.00796817 -0.020983791 -0.082021594 0.07786183 -0.205858 -0.34393662 -0.018643824
-0.35113156 -0.27199283 0.017400341 -0.07576085 0.32058728 -0.023447553 -0.2495699 -0.60648173
0.12331928 -0.1392978 -0.027448786 -0.2874293 -0.13471036 -0.108894266 -0.039494656 0.10583955
-0.1662733 0.48323175 0.35438287 -0.3514558 0.0690638 0.084725745 -0.48393896 -0.91118485
-0.028255744 0.13140963 -0.06269919 -0.1267128 -0.10320257 0.07454753 0.059604626 0.27335978
0.11485612 -0.27872816 0.17290083 0.21544683 0.22955945 -0.35771132 -0.12711947 0.010888811
-0.006287991 -0.51055586 0.14686936 -0.117492095 -0.92799693 -0.091608696 -1.4167696 -0.24211186
-0.048060965 0.28396133 -0.31296396 -0.16252106 -0.00600892 -0.14610176 -0.1938363 0.6515179
0.010202139 -0.4447035 -0.15017357 -0.12202908 -0.33703429 0.21711022 -0.11835308 -0.29800597
-0.20510074 0.15692562 0.31137097 -0.03557116 -0.39989007 0.2246774 0.033871055 -0.00086110056
-0.022375636 -0.061653454 0.005082198 0.5078042 0.6493174 0.22209677 -0.35994333 -0.06421693
-0.9676904 -0.70291984 -0.42240265 -0.2894239 -0.09170019 -0.058652747 -0.006583461 0.5486463
0.30862957 0.31043005 -0.5858626 -0.9976123 -1.4180028 0.30074608 0.32723096 0.41050708
-0.17561525 0.67070645 -0.9967609 -0.010527696 -0.6437586 0.20417649 -0.04696626 0.094791695
-0.46471334 0.1324495 0.304077 0.08502201 0.14632654 0.30314425 0.0861356 -0.504745
-0.1113089 0.1031132 0.6297537 0.34378654 -0.0029437663 -0.06340128 -0.11428386 -0.21569395
0.04562443 -0.123434104 0.14006583 -0.08904833 -0.19394964 0.09013212 -0.4345576 -0.27404168

model.0.bias f4 [128]
00000000: 7820 28bf 4cbe 143e a2b4 c1be dec8 9abe
00000010: 8e32 ac3d 3e32 7dbe 045a b8be 2e06 3d3e
00000020: 3265 e5be bfab b5be f079 f7be fa05 493e
00000030: 2029 51bf e88c fc3d 4a29 743e d9bc 0b3f
00000040: 24ff 0fbf e3ac 743e e2c3 a0be 6b98 c5be
00000050: 697a 4ebf 6e26 263e 25c4 a33e 5d40 39bf
00000060: 2614 4abe 7291 9b3d 6e30 5b3d cbb8 27bf
00000070: a6d5 623d 2025 1d3f 3bcd 75be dec9 873e
00000080: df4f 713e 4389 523d a391 363e aadd 2fbf
00000090: 2058 2e3d e8ae 31bf 4e1c 84bd 5122 3d3e
000000a0: 734e 10bf e298 8fbc c185 e3bd f100 293e
000000b0: f17a be3e 1e1f e2be 80f4 3abf deae 5ebe
000000c0: 2b0a 0ebf 8b75 7e3d e169 1abd 68dd 13bf
000000d0: e8ed 3fbd 9f3d 44be 947a 1c3e 1a64 1dbe
000000e0: a3c5 003f 5259 843e bdf9 283e 5a2e 7e3d
000000f0: 78f4 b8be 9f4d 81be 6286 38be 9f2a c9be
00000100: a7c0 11be 0c06 533d c1c8 02bf 8d3c 52bf
00000110: b0d6 223e a776 85be 8c18 febe 9667 6f3d
00000120: a19f e9be 8733 f0be debb 1dbf 966d c6be
00000130: 941e 87be 528f 7d3d 620b 94be 41da 243e
00000140: 224e f53b 9e80 bdbe 5858 36be c1a6 eabe
00000150: 7bbc 1bbf eeea 15bc 7c2a 1c3e 4db5 80be
00000160: 6993 d9be 4639 f5be 8f10 6bbf ecb7 c43d
00000170: 8c85 82be 6eb7 093e c465 bebd 4f4d 1fbe
00000180: b984 3f3e e986 0ebf 289e c63c 8e44 bebe
00000190: 857b 24be 747d cfbe 5041 d9be 5be3 aebe
000001a0: ea71 8a3f b0f7 213d f585 883e d110 c3be
000001b0: a674 113e ebc4 08be fee1 cebe 6d25 633e
000001c0: b16d 223f 3b1d a83e 2046 fdbe d1d6 35bf
000001d0: 7623 6c3e dd8d 2dbf 90c2 82be eaca 99bc
000001e0: 60fb 4bbe 4be9 07bf 898c 08bf 39dc bebd
000001f0: b77d 8ebe ec19 eebd c83d 0bbe efc6 ee3e
-0.65674543 0.14525717 -0.37833124 -0.30231375 0.0840808 -0.24726197 -0.36006176 0.18459389
-0.44803768 -0.35482594 -0.48335218 0.19631186 -0.81703377 0.12331563 0.23843876 0.54585034
-0.5624869 0.23894076 -0.31399447 -0.38592848 -0.80655533 0.16225597 0.31985584 -0.72363836
-0.19734249 0.07596101 0.053512983 -0.65516347 0.055379532 0.61384773 -0.2400407 0.265212
0.23565625 0.051400434 0.17828993 -0.6869761 0.04256451 -0.6940751 -0.06450711 0.18470122
-0.56369704 -0.017528955 -0.11109496 0.16504265 0.37203172 -0.44164366 -0.7302933 -0.21746394
-0.55484265 0.062123816 -0.03769863 -0.57759714 -0.046857744 -0.19164132 0.15281135 -0.15370217
0.5030157 0.25849396 0.16501518 0.062055923 -0.36124015 -0.25254533 -0.18020013 -0.3929033
-0.14233647 0.05151944 -0.51087576 -0.82123643 0.1590221 -0.26067087 -0.49628103 0.058448397
-0.456296 -0.46914312 -0.6161479 -0.38755482 -0.26390517 0.06190426 -0.28914934 0.16098882
0.007486121 -0.3701219 -0.17807138 -0.45830348 -0.60834473 -0.00915025 0.15250582 -0.25138322
-0.42495278 -0.4789526 -0.9182214 0.09605393 -0.25492513 0.13448879 -0.09296754 -0.15556835
0.18702973 -0.55674607 0.024245337 -0.37161678 -0.16062744 -0.405254 -0.42432642 -0.34157833
1.0816014 0.039542854 0.266647 -0.38098767 0.14204654 -0.13356368 -0.40406793 0.22182246
0.63448626 0.328348 -0.49467564 -0.7103091 0.23060402 -0.6779459 -0.25539064 -0.018773515
-0.1992011 -0.5309035 -0.5333944 -0.09319348 -0.27830288 -0.11626038 -0.13597786 0.4663615

model.3.weight f4 [64, 128]
00000000: 218a e63e 84a8 e8be f9d1 be3c bd3d 0bbf
00000010: 461f 12be c5c5 3a3e 1778 0dc0 435e 87bf
00000020: 96dd 913e 3b41 55be bbee 85bf 13c1 adbc
00000030: 4d72 bc3d f867 bc3d 9341 4ebd e28f b93d
00000040: 2422 043e 5f2b c33d 1067 fe3c 86ef 29bc
00000050: 5d5c 66bd 4dc6 63be f133 36bd f2f4 fdbe
00000060: bd6e a1bd e0ea 13bc a170 3cbe 8db5 373c
00000070: f747 8abe a290 213d d20d 76bf 2993 c53d
00000080: 2cd2 0bbf 07a9 d43b ecc4 df3e 5c85 81be
00000090: 6670 b0bf 00b1 80be 953b 4dbd e50e 013e
000000a0: 5bab 003e 5e08 79be 6c95 12bd 6807 2d3e
000000b0: 2105 aabd a4dd 073f 4986 d1be 869d b43e
000000c0: 1cf4 b4bf c15b a6bb 5430 9cbe e9fc c6bd
000000d0: 027d bd3d bfd0 9abb 1049 023e 1afe 63bf
000000e0: 9993 5e3c a928 b2bf b516 1fc0 0ac7 cd3e
000000f0: 77c5 99be 7e09 243d 778c 77bd 608a 20c0
00000100: 403f 0ebf 4c65 17be c765 113e 8e41 013f
00000110: 4d26 dbbd 0c06 473e f860 a0be be4e a6be
00000120: 5ec0 91bd dba4 103d 894e 3fbe ece4 21bf
00000130: ec5c 04bf b315 863e 0e7d 0fbf c9ee 91be
00000140: 1f16 95bf 59bc aebf f2bf a53d 0b2b b33e
00000150: d26c 5cbf 515b b73d 12ef 87bd e1a0 31be
00000160: 3d47 a1be a8df 443f 70d4 773e ab01 23bc
00000170: af8d b43e 464e abbd 8874 99bc b016 be3d
00000180: 2909 b23e fd3e 393f ce3a 25be 9cdb 453e
00000190: 33e4 1f3e 0bf8 8abe 4c7a 10bd 701f 883e
000001a0: 54d7 c43c 374e e0bb 4c6e a0be feca 7e3e
000001b0: b441 833e 5154 c03e 992b 77bf 8a58 41be
000001c0: a8b7 0c3e 340d 073f 7fa3 15bc 9d8d 6bbe
000001d0: 475c 5e3c d5c7 cbbd 9ddc 86be fe3f bdbd
000001e0: 8099 a5bd baa2 4d3e a6b4 09bf 6385 fa3c
000001f0: 43d5 2e3d 7a19 70be a42c 9c3d 6d1b 15bd
00000200: f53b 543e 26ea 383d 5bc6 293d 40cb 06bf
00000210: d949 303e 5d92 aabd d574 1ebe b293 7fbe
00000220: f709 333e 2ab7 a13d 5e85 72bd 9242 903d
00000230: 62dd 28bf cfb2 d43e 7d13 86be 1552 50be
00000240: 0528 053e 620f bd3d 89b1 d1bc de76 783e
00000250: b38b 1bbd 2347 18be 498d 11bd a91b 6f3c
00000260: cdd0 7f3e a33d 21bf c1eb 383e 3af3 00bf
00000270: b4cc 88bd d950 b5be 97bc b4be e342 633e
00000280: ce4a 253e fb34 9dbd 1aba 63bf 8c12 fb3d
00000290: 617a 4e3e 2ab1 983e ff20 06bf 487a 76bf
000002a0: 46cc 8fbe 47c4 adbe 7333 953c 604f 50be
000002b0: 89aa 6dbe 5669 d4bf 5b8c ed3b 100e 1cbe
000002c0: ad63 f23e ad28 72bf bcb9 ffbe 9b17 aabe
000002d0: 80b7 423f b54b d43d dd2c 80ba 29ba 3c3d
000002e0: 7044 d7bc 91c4 babe 5b26 d7bc 7ecf 5cbe
000002f0: 66c0 243e 99c6 42bd 5c1d d93d 9e30 e03d
00000300: 5008 a13d 4f2e 20bf ea03 f53a d3a3 8d3e
00000310: 80b1 c4bc 0770 303f 2c14 e73e beee 96be
00000320: e45c debc d1e4 43be 5834 f73d 213b 41be
00000330: 5b6a 8f3e 65f4 c83e 2951 fa3d 8d71 3dbd
00000340: 7de3 2ebe 3a2f cabd de85 28bd 29b4 04bc
00000350: 797c bfbe 7f74 a63c 43d0 77be 63ac 4c3e
00000360: 0a8f 0b3e 4f3e cb3d aac5 853e 0a2c 6bbf
00000370: 8c9c 00c0 4215 42be 67f7 5ebe c817 babe
00000380: a1af 2fbe cff1 b5bf a087 a5be 8a87 433e
00000390: b78d 1cbe dac0 98bd 23be 1bbe bde1 853e
000003a0: abf0 523e 6255 78bf 38a3 84bd f96f 723e
000003b0: e15f 57be 9aab 563d bc61 dc3d 6a79 f63e
000003c0: 8e31 d63e 51ea 323e 44fe 88bf 786d 68bd
000003d0: 3926 013e 1cbb 5dbd 9ea5 47be e735 cfbe
000003e0: 5c0c 70be 42e2 92bf 1cec 8cbd 5e7e ca3b
000003f0: 6210 a7be 9bad 7f3e 4f0c d43d 48ef 153e
0.4502726 -0.45441067 0.023293482 -0.5439108 -0.14269742 0.18239506 -2.2104547 -1.0575641
0.2848937 -0.20825665 -1.046348 -0.021210229 0.09201489 0.09199518 -0.050355505 0.090606466
0.12903649 0.09529757 0.031055003 -0.010372048 -0.05624043 -0.22243614 -0.04448313 -0.4960094
-0.0788245 -0.0090281665 -0.1840234 0.011212719 -0.2700803 0.039444573 -0.9611484 0.09647209
-0.5461757 0.006489876 0.43704927 -0.25297058 -1.3784301 -0.2513504 -0.05010565 0.12603338
0.12565367 -0.24319598 -0.03578703 0.16897357 -0.083017595 0.5307257 -0.40922764 0.3527643
-1.4136996 -0.005076856 -0.3050562 -0.097162075 0.09252359 -0.0047245915 0.12723184 -0.89059603
0.013584995 -1.3918658 -2.485761 0.40190917 -0.30033466 0.040048115 -0.060436692 -2.5084457
-0.5556526 -0.14784735 0.14198981 0.50490654 -0.10700665 0.194359 -0.3132398 -0.3248195
-0.07116769 0.03531347 -0.18682303 -0.6323993 -0.5170429 0.2618843 -0.56050193 -0.2850249
-1.1647376 -1.3651229 0.08093251 0.34993777 -0.86103547 0.08952964 -0.06637396 -0.17346527
-0.31499663 0.7690377 0.24202132 -0.009949128 0.35264346 -0.08364539 -0.018732324 0.09281671
0.34772614 0.7236174 -0.16135713 0.19322056 0.15614395 -0.27142367 -0.03527288 0.26586485
0.024028458 -0.0068452614 -0.3133415 0.24882123 0.25636065 0.37564328 -0.965509 -0.18881431
0.13741934 0.5275452 -0.009133219 -0.2300324 0.013571805 -0.09950224 -0.2634019 -0.09240721
-0.080859184 0.20081607 -0.5379127 0.030581182 0.04268385 -0.23447219 0.07625702 -0.03640311
0.20725997 0.045145176 0.041448932 -0.52653885 0.1721567 -0.08328698 -0.15474255 -0.24958685
0.1748427 0.07896264 -0.05920922 0.07043947 -0.65962803 0.4154267 -0.26186743 -0.20343812
0.13003547 0.0923145 -0.02559735 0.24264094 -0.037975024 -0.14870887 -0.03553513 0.014593997
0.24981995 -0.62984675 0.18058683 -0.50371134 -0.06679669 -0.35413244 -0.35300133 0.22193484
0.16141817 -0.07676121 -0.88955843 0.12259397 0.20163871 0.29822665 -0.523941 -0.96280336
-0.28085536 -0.3393881 0.01821301 -0.20342779 -0.23209585 -1.6594646 0.0072493977 -0.1523974
0.47341672 -0.94593316 -0.49946392 -0.33221135 0.7606125 0.103660025 -0.0009778995 0.046075974
-0.02627775 -0.36478093 -0.026263407 -0.21563527 0.16089019 -0.04755268 0.10601303 0.10946773
0.078629136 -0.6257066 0.0018693183 0.2766405 -0.02401042 0.6892094 0.45132577 -0.2947902
-0.027143903 -0.19130255 0.12070531 -0.18870212 0.2801083 0.39248958 0.12222511 -0.04625087
-0.17078967 -0.09872289 -0.04114329 -0.008099594 -0.37399653 0.020319222 -0.2420054 0.19987635
0.13628784 0.09923994 0.26127368 -0.91864073 -2.0095549 -0.18953422 -0.21774064 -0.3634627
-0.17156841 -1.4214419 -0.32330036 0.19094673 -0.15288435 -0.074586585 -0.1520925 0.26148787
0.2059962 -0.97005284 -0.06476444 0.23675527 -0.21032669 0.052409746 0.10760829 0.48139507
0.41834682 0.17472197 -1.0702596 -0.056745023 0.12612237 -0.05413352 -0.19496772 -0.40470812
-0.23442215 -1.1475298 -0.06880972 0.006179615 -0.32629687 0.24968569 0.1035391 0.1464206

model.3.bias f4 [64]
00000000: 2c94 dd3d 87e0 f93d 3761 673e c016 193d
00000010: ae38 98bd e6ab a33d 9b96 83bd cdd9 3c3e
00000020: fb93 8fbd 291d 3ebd 1beb 863e fd57 88be
00000030: 9cf9 c33e 2470 e43d b588 f73e 8bbf aabd
00000040: c513 5a3e 0718 933e 5518 1f3d b242 313e
00000050: 67a5 1d3d fe51 25be 2884 073e f5ca c63d
00000060: 4de3 97be 14f7 253d d79d 8abd 8433 d43e
00000070: 9133 d5bb f6d3 923e 3bb4 b3bd ab1f 8c3e
00000080: e0d5 0bbe 7c7f 5bbe f66c 983e 1d86 033f
00000090: 4bcc 9f3e a2c7 47bd a646 78be 19f6 a93e
000000a0: d1ee 633e 9a47 6c3d 9b3c 2ebd b0f7 353e
000000b0: a698 a93e cf64 8cbd 58fa 093d cee6 edbd
000000c0: d9f6 59be 44e5 ad3e 0606 673e d245 943d
000000d0: 6bee f03d d978 083e 2d1c 0fbd b316 ac3e
000000e0: 2dd9 803e a77c a53d 5120 633e 88b2 0f3e
000000f0: e339 873e 760a 143d b0ee 183e 722d e9bd
0.10819277 0.12201028 0.22595678 0.03737521 -0.07432686 0.079917714 -0.0642521 0.1844246
-0.07010647 -0.046414528 0.26351246 -0.2662963 0.38276374 0.111542016 0.48346487 -0.08337315
0.21296604 0.2872927 0.038841564 0.17310598 0.038487818 -0.16144559 0.13234007 0.0970668
-0.29665604 0.040518835 -0.06768387 0.41445553 -0.0065063913 0.28677338 -0.087746106 0.2736791
-0.13655806 -0.2143535 0.2977063 0.51376516 0.3121055 -0.04877437 -0.242457 0.3319557
0.2225907 0.057685472 -0.042538267 0.17770267 0.33124274 -0.06855165 0.033686012 -0.11616288
-0.21285571 0.33963978 0.22560892 0.0723988 0.117642246 0.1332735 -0.03493898 0.33611068
0.25165692 0.08080416 0.22180296 0.14032948 0.26411352 0.03614279 0.14934802 -0.11385621

model.6.weight f4 [3, 64]
00000000: b5ca 483f 3170 253f 2aed bc3e 83a0 ab3e
00000010: 725c e13d 9b3b 073f e1b6 0e3f ad21 00bf
00000020: c1e6 4e3e b00d cf3c b34b e83e 4963 e93e
00000030: 2a81 92bf 152c 64bf 38ed d0bf 20d2 e13e
00000040: d5ad c4bf 2b26 853f 61ed a7bf 3279 ea3e
00000050: c781 3cbf 6b37 773f 652f 8a3f a30c 353e
00000060: 20ea cebf bed8 84bf 3ab9 62bf 63c1 1b3e
00000070: 3662 8fbd 6e54 a3bf fc63 78be 30b4 613e
00000080: 6d3a a7bf 7e89 d23f b8f5 bfbf 0868 7abf
00000090: 62d1 173f df9b a43d e5be 35bf 75ce 1e3e
000000a0: 6fe6 903e 7504 283e 5572 afbe 9c04 abbf
000000b0: f79d 653f bf06 91bf c785 4b3e 7071 3a3e
000000c0: 705f 133e 483f f23e d10e 7bbf 81b1 e13d
000000d0: 3157 303f 3b66 123f 5fe1 983f 0201 883f
000000e0: 7f90 59be e365 d2bf 9c6b 493e e0a1 2f3e
000000f0: a922 a63e 5753 9ebf 206a 513e 2b99 aebf
00000100: 5795 f9be 1018 1c3e 7d20 80be c80f 80bc
00000110: efa3 863e fe7a 3ebf 1bd7 6e3e 8805 3dbf
00000120: a1a2 2e3e 1ed5 5c3d c9a1 c8be a24b 413d
00000130: af21 8e3f be07 b13e ae01 ab3e db52 fb3d
00000140: c0ef cf3e be33 93bf ab33 e53c bbb4 bfbd
00000150: 081d 473e 1cc2 06bf ac21 92be 6c01 4a3e
00000160: 0303 173e 198b 293f 8b31 613e 8cc1 e2be
00000170: 5ac8 413e 7f8b f0bd 62c2 283f 86c8 f6bd
00000180: 897e 943e 3180 0bbf 1d6f 273f acab aabe
00000190: 0860 263e 084d f33e 0cd1 563e 7817 103e
000001a0: b445 993c 490b 1d3e 8f78 1e3f 6b3b d23d
000001b0: 3c1d aabf 3fb4 9e3e 6626 483e 144a 4e3e
000001c0: 5eba 35bc 88cf 58be 39bf 9b3f e2ac 273e
000001d0: b949 afbd a137 40be 7958 09bf 2c75 14bf
000001e0: 5f3e e2be 3692 5c3f a2e8 323d 6f91 a0bb
000001f0: 1ddd aabe be4b 893e b3e2 94bd f3a5 aa3e
00000200: 2b3c 50bf adcc 81bf 3647 5cbd ff02 81bf
00000210: 178a 74bf ae4b 3a3f 84c0 e2bf 9a33 cf3f
00000220: 61ba a8bf 015e 95bd 8499 95bf 2d50 88bf
00000230: b9f1 b8be 20d8 f53e d0c0 143f 61ff acbf
00000240: b314 213f c6d1 7a3e af38 e23e d068 afbf
00000250: 03cd b43e d3f5 3fbf 190d 38bf 2c96 c3bf
00000260: b0b2 043f 44a6 883d c412 c03e 8ee2 0d3f
00000270: bf6e 40bf 6a0b 3b3f f63d 9dbf 9262 7ebf
00000280: 7a6a 153f 1d8f a2bf 56b8 8a3e 1769 693f
00000290: cca9 a0bf 0cdc b9bf 91c5 a53e 1c2a 0fc0
000002a0: cab1 0ec0 1f08 e6bf dce7 25be 78b0 f83e
000002b0: bcb1 593f bf9e c13e 7c93 a8bf 2802 afbf
000002c0: 857c 9bbf 1f80 adbf 1fc4 18bf bc60 6abf
000002d0: 303c 6fbf 27f4 05c0 b66d a7bf a55e 2fbe
000002e0: 748e 353f a875 c83d 9698 19c0 688a 00c0
000002f0: 87a0 943e 4ec2 8b3e 3a7b 00c0 41ee a43e
0.78434306 0.64624316 0.36899692 0.33520898 0.11003961 0.52825326 0.557478 -0.50051385
0.20205213 0.025275081 0.45370254 0.4558356 -1.1445668 -0.89129764 -1.6322393 0.44105625
-1.5365549 1.0402273 -1.3119317 0.4579559 -0.73635525 0.96568936 1.0795714 0.17680602
-1.6165199 -1.0378644 -0.88563883 0.1521049 -0.07001154 -1.2760141 -0.24256891 0.22041392
-1.3064705 1.6448209 -1.4996862 -0.9781499 0.5930387 0.080375426 -0.70994407 0.15508445
0.28300807 0.1640795 -0.34266916 -1.3360782 0.8969416 -1.1330184 0.19875251 0.18207335
0.14391875 0.47313905 -0.98069483 0.11020184 0.68883044 0.5718724 1.1943778 1.0625308
-0.21246527 -1.6437343 0.19669956 0.17151594 0.3244832 -1.2369183 0.2045064 -1.3640493
-0.4874675 0.15243554 -0.25024787 -0.015632525 0.26296946 -0.7440642 0.23324244 -0.73836565
0.17054226 0.053914182 -0.39185932 0.04719127 1.110403 0.3457622 0.3339972 0.12271663
0.40612602 -1.1500165 0.027978739 -0.093606435 0.19444668 -0.5263994 -0.28541315 0.19727105
0.14747243 0.6622787 0.21991555 -0.4428829 0.18924084 -0.11745357 0.65921605 -0.120499656
0.2900279 -0.5449248 0.6540392 -0.333341 0.1624757 0.47519708 0.20978183 0.14071453
0.018709995 0.15336336 0.6190271 0.10265239 -1.3290172 0.30996892 0.19545898 0.20145446
-0.011091797 -0.21172917 1.2167732 0.16374543 -0.08558983 -0.1877122 -0.53650624 -0.5799129
-0.4418821 0.861606 0.043678887 -0.0049001495 -0.3337182 0.268156 -0.07269802 0.33329734
-0.8134181 -1.0140587 -0.05377885 -1.0079039 -0.9552321 0.7277173 -1.7715001 1.6187623
-1.3181878 -0.072933204 -1.1687474 -1.0649468 -0.3612192 0.48016453 0.5810671 -1.3515435
0.6292221 0.24494085 0.4418387 -1.3703861 0.35312662 -0.74984473 -0.71894985 -1.5280204
0.51835155 0.06672338 0.37514317 0.5542382 -0.75168985 0.7306429 -1.2284534 -0.99369156
0.58365595 -1.2699925 0.27093762 0.9117598 -1.2551818 -1.4520278 0.32377294 -2.2369452
-2.2296014 -1.7971228 -0.16201729 0.48572135 0.85036826 0.37816426 -1.3170009 -1.3672533
-1.2147375 -1.3554724 -0.5967426 -0.91553855 -0.93451214 -2.0930269 -1.3080356 -0.17125948
0.7092049 0.09788066 -2.399938 -2.0084476 0.29028723 0.2729668 -2.0075212 0.32213023

model.6.bias f4 [3]
00000000: 87c4 8bbe b243 003e 73e3 923e
-0.27298376 0.12525824 0.28689155
