models/mlp_best_smote_state.pth (torch, 60810 bytes, 6 tensors)

model.0.weight f4 [128, 46]
-0.0039301887 0.28724664 -0.02343295 -0.32397956 -0.13433927 -0.5771296 -0.0071561127 0.36023745
0.09228106 -0.0015155625 -0.15661079 0.22577311 0.76136947 -0.47530112 0.0059859375 0.035160497
0.0031198987 0.18585658 0.0801397 0.24161564 -0.09958074 -0.32681644 0.118880115 -0.5466781
0.19683671 -0.3002172 -0.36580944 -0.018232144 0.105297014 0.038586583 0.0084251 -0.46447644
-0.19308226 -0.85730237 -0.8433674 -0.52486664 -0.7355026 -0.36915478 -0.7897895 0.3444783
-1.0093839 0.008392541 -0.34032917 -0.41387036 -0.5613883 -0.5364696 -0.07582048 -0.08467009
-0.03631822 -0.013317326 0.09305426 -0.1416257 0.00899284 0.20513952 -0.062831834 -0.06867299
0.045697384 0.15281022 -0.44828728 -0.17035912 0.55263513 0.21842608 -0.022045739 0.11482129
-0.0828802 0.4130417 -0.56274945 0.058726974 -0.4614114 0.078785054 0.08483762 0.08592963
-0.097614884 -0.3073536 -0.22353008 -0.021392085 0.51242 0.36409676 -1.0761783 0.09462496
0.5343883 0.4901084 -0.2981786 0.28235766 0.5728118 1.199763 0.24951313 0.26927876
0.5272793 -0.6168815 0.5585332 0.6673942 -0.0743986 -0.02552024 -0.3175466 -0.15699187
0.5531807 -0.092311814 0.07140966 -0.08977334 -0.09696587 -0.2737391 0.106539845 -0.737236
-0.75479746 0.02546251 0.22874776 0.15838486 0.08171464 0.25416258 0.3490108 -0.22058901
0.088863134 -0.24254549 0.6106744 -0.8487886 -0.37354463 -0.18011874 0.2977433 0.043647002
0.51769334 0.08904619 -0.107295945 0.6884136 0.5524597 0.29076493 -1.807909 -0.4963761
0.72118944 0.8206777 0.26763174 0.45853874 -0.06329279 -0.12684508 0.06744204 -0.6413738
-0.52339405 1.0748266 -0.018168462 -0.20762424 -0.0783113 0.010810737 0.3229676 -0.46374103
0.05717779 0.38739872 0.061377916 -0.17727488 0.018225031 -0.4417372 -0.3725029 -0.5541251
-0.010977977 -0.46184528 -0.06975106 0.52637595 0.3440223 -0.31539577 -0.013421657 -0.07620244
-0.027507653 0.40026376 0.49771518 -0.25824386 0.29441425 0.56247514 0.14311269 0.0062207566
-0.23953478 0.54596984 0.8579777 -0.8105563 0.29702243 -0.41380748 0.22293913 -0.5772402
-0.08897452 -0.43030703 -0.35299373 -1.0360234 -0.98139024 -1.2675047 -0.047120444 -0.25460556
-0.02545243 0.067151494 -0.12994637 -0.06376376 0.3074213 0.09830482 1.0331608 0.20496565
-0.057798423 0.2753033 -0.088238895 0.3226332 -0.6661612 0.7960184 0.0015687988 0.11896383
0.0132146645 -0.09880779 -0.09661851 0.030177798 0.026884362 -0.13280506 -0.031366855 -0.31318435
0.16893145 0.0061956276 -0.15136436 0.033379745 -0.1580654 0.048230764 -0.072588794 -0.45789054
-0.6134038 -0.362107 -0.0010776432 -0.16087979 -0.049884103 -0.036709104 -0.30174252 -0.30823088
-0.28480273 0.058853425 -0.56117904 -0.03168825 -0.58420444 -0.13583416 -0.03225047 -0.48501974
-0.14518143 -0.608898 -0.0980952 -0.6532068 -0.40703446 0.32906392 -0.15802948 0.66812795
0.5161545 -0.12267164 -0.35664526 0.22351071 0.06561605 -0.28260413 0.0886057 -0.22264777
-0.062304482 -0.16338557 -0.35021806 -0.22813512 -0.17405435 -0.116469756 0.2654476 0.43774894
00000000: d0c8 80bb fe11 933e 75f6 bfbc a6e0 a5be
00000010: 3c90 09be c4be 13bf d37d eabb 0b71 b83e
00000020: dafd bc3d d7a5 c6ba 945e 20be 1131 673e
00000030: 1ce9 423f ab5a f3be af25 c43b 7404 103d
00000040: 3777 4c3b 3051 3e3e 4820 a43d 176a 773e
00000050: fdf0 cbbd 7c54 a7be 6b77 f33d 19f3 0bbf
00000060: 908f 493e 12b6 99be 604b bbbe 945b 95bc
00000070: f6a5 d73d f70c 1e3d 6e09 0a3c dbcf edbe
00000080: 5bb7 45be 2b78 5bbf ede6 57bf a95d 06bf
00000090: e649 3cbf db01 bdbe a52f 4abf 765f b03e
000000a0: 7e33 81bf de80 093c a03f aebe d1e6 d3be
000000b0: 25b7 0fbf 1256 09bf c547 9bbd 8367 adbd
000000c0: 6ac2 14bd ea30 5abc 3b93 be3d 5406 11be
000000d0: b456 133c 1810 523e faad 80bd 6da4 8cbd
000000e0: 2e2d 3b3d 487a 1c3e e985 e5be 9f72 2ebe
000000f0: 7f79 0d3f 16ab 5f3e 4499 b4bc 6d27 eb3d
00000100: 18bd a9bd 347a d33e 5910 10bf b28b 703d
00000110: 1d3e ecbe 0f5a a13d 59bf ad3d e0fb af3d
00000120: 50ea c7bd 735d 9dbe 12e5 64be 743e afbc
00000130: f52d 033f e46a ba3e 36c0 89bf bbca c13d
00000140: accd 083f 7def fa3e deaa 98be 2f91 903e
00000150: cba3 123f d591 993f 5f80 7f3e e8de 893e
00000160: c7fb 063f f2eb 1dbf 08fc 0e3f 59da 2a3f
00000170: 4b5e 98bd d30f d1bc 7895 a2be 7ac2 20be
00000180: 409d 0d3f fa0d bdbd 3a3f 923d 16db b7bd
00000190: 0b96 c6bd 8827 8cbe 9031 da3d 80bb 3cbf
000001a0: 683a 41bf c196 d03c da3c 6a3e a42f 223e
000001b0: 015a a73d 9921 823e 8bb1 b23e 16e2 61be
000001c0: e0fd b53d d85d 78be 2855 1c3f 364a 59bf
000001d0: 3e41 bfbe 0c71 38be cf71 983e 33c7 323d
000001e0: 8d87 043f d95d b63d fabd dbbd e03b 303f
000001f0: 006e 0d3f 24df 943e 9069 e7bf 0225 febe
00000200: df9f 383f ef17 523f 0707 893e 97c5 ea3e
00000210: a69f 81bd ade3 01be 0d1f 8a3d 1331 24bf
00000220: 27fd 05bf eb93 893f 07d6 94bc 739b 54be
00000230: ad61 a0bd 841f 313c 025c a53e 776f edbe
00000240: 4233 6a3d 2059 c63e 6967 7b3d 8c87 35be
00000250: a94c 953c 612b e2be b3b8 bebe 24db 0dbf
00000260: f9dc 33bc fc76 ecbe a5d9 8ebd 93c0 063f
00000270: b123 b03e 8e7b a1be 82e6 5bbc 0610 9cbd
00000280: bb57 e1bc 5fef cc3e 86d4 fe3e 8a38 84be
00000290: 77bd 963e 5ffe 0f3f 228c 123e 7dd7 cb3b
000002a0: 9b48 75be aec4 0b3f 6da4 5b3f 9e80 4fbf
000002b0: 5313 983e 93de d3be 284a 643e 04c6 13bf
000002c0: 4638 b6bd 3451 dcbe 98bb b4be 6a9c 84bf
000002d0: 643c 7bbf 983d a2bf 5e01 41bd a95b 82be
000002e0: 9d81 d0bc b986 893d a910 05be 9396 82bd
000002f0: 5366 9d3e 0a54 c93d 9d3e 843f 84e2 513e
00000300: 0abe 6cbd 8ef4 8c3e 98b6 b4bd 2e30 a53e
00000310: 8a89 2abf ddc7 4b3f 27a0 cd3a 4fa3 f33d
00000320: 5282 583c bd5b cabd eddf c5bd 6e37 f73c
00000330: 983c dc3c 0dfe 07be 887a 00bd b359 a0be
00000340: 5efc 2c3e b104 cb3b 42ff 1abe 33b9 083d
00000350: e5db 21be 9f8d 453d 6fa9 94bd a170 eabe
00000360: 0808 1dbf 1766 b9be b53f 8dba acbd 24be
00000370: 4653 4cbd 495c 16bd ff7d 9abe 70d0 9dbe
00000380: aad1 91be 4a10 713d 6ea9 0fbf 8acb 01bd
00000390: 6c8e 15bf 1c18 0bbe 1219 04bd 8254 f8be
000003a0: 71aa 14be bde0 1bbf 23e6 c8bd 9038 27bf
000003b0: d266 d0be 117b a83e 7bd2 21be 6f0a 2b3f
000003c0: b422 043f 453b fbbd 359a b6be fedf 643e
000003d0: b561 863d 7db1 90be e876 b53d c7fd 63be
000003e0: fc32 7fbd 8c4e 27be c84f b3be 419c 69be
000003f0: 4e3b 32be b287 eebd bfe8 873e a120 e03e

model.0.bias f4 [128]
-1.0440885 -0.4685629 -0.33715394 -0.29103884 -0.04678964 -0.6340085 0.0012416033 -0.74345136
-0.35644814 0.37913126 -0.12686889 -0.39144054 0.39488646 -0.8322778 0.11139753 -1.1089736
0.15155935 0.070895664 0.42107373 -0.22013746 0.23040643 0.41428035 -1.0153475 -0.659928
-0.7413009 0.4185708 0.2963474 -0.29204524 -0.48954925 -0.80186844 -0.17187917 -0.4586162
0.050182227 -0.83961576 0.05597442 0.10459792 -0.7725433 -0.19613259 -0.9547941 -0.31577328
-0.2533784 -0.6230308 -0.76359576 0.33049628 0.29314622 0.3549985 0.1731539 1.2955717
-0.4324701 -0.18532947 -0.4067337 -0.29697073 -0.33332255 -0.33745098 -0.22142754 -0.06964989
-0.45708442 0.2977737 -0.22983836 -0.27892056 0.32999125 -1.0322206 0.17526641 -0.4589056
-0.07297882 -1.1085144 0.0047131935 -0.937736 0.11578039 -0.62521756 -1.0081575 -0.42909968
0.018485554 -1.1621978 -0.72925 1.184552 -1.3762289 -0.62558055 -0.78630924 -0.19609573
-0.71129805 -0.9790386 -0.38758376 -0.4141443 1.6223112 -0.81337637 -0.89159554 -0.41577405
-1.012467 -0.81697685 -1.1881973 -0.6246989 -0.5051562 -0.50256085 -0.14571214 0.5530964
0.2707285 0.38836625 -0.13208747 -0.39235437 0.24417426 -0.60712147 -0.6802803 -1.0189443
-0.18504919 -0.33775043 -0.7111759 -0.35618514 -0.27964655 -0.2923164 -0.6852885 -0.37573507
-1.327488 -0.47369596 -0.68001086 -0.53328013 0.028712604 -1.1718197 -0.15415879 -0.8429398
-0.558009 -0.4682148 -0.12446149 1.0864947 0.08775898 -1.1442972 -0.5250599 -0.5816336
00000000: b1a4 85bf 7ae7 efbe 719f acbe 0b03 95be
00000010: 7ea6 3fbd 624e 22bf 4bbd a23a d452 3ebf
00000020: 5f80 b6be 7e1d c23e ebe9 01be e56a c8be
00000030: 8f2e ca3e 2810 55bf 6324 e43d d9f2 8dbf
00000040: 6032 1b3e bf31 913d fa96 d73e b76b 61be
00000050: aaef 6b3e 8e1c d43e e8f6 81bf 0bf1 28bf
00000060: e5c5 3dbf e94e d63e d9ba 973e f486 95be
00000070: 33a6 fabe 4047 4dbf 1801 30be becf eabe
00000080: e18b 4d3d 0ff1 56bf 6f45 653d 6f37 d63d
00000090: 66c5 45bf fbd6 48be 636d 74bf 09ad a1be
000000a0: d0ba 81be f27e 1fbf 037b 43bf cf36 a93e
000000b0: 4317 963e 5dc2 b53e 424f 313e 4bd5 a53f
000000c0: b96c ddbe 02c7 3dbe 663f d0be 8c0c 98be
000000d0: 41a9 aabe 60c6 acbe e7bd 62be 9aa4 8ebd
000000e0: f806 eabe cb75 983e bf5a 6bbe adce 8ebe
000000f0: 9df4 a83e ce1f 84bf 0a79 333e adf5 eabe
00000100: eb75 95bd cde3 8dbf 2271 9a3b 770f 70bf
00000110: 451e ed3d 420e 20bf 4e0b 81bf f4b2 dbbe
00000120: 046f 973c e6c2 94bf 21b0 3abf 669f 973f
00000130: 4528 b0bf 0c26 20bf 904b 49bf 52cd 48be
00000140: a117 36bf 46a2 7abf 6171 c6be b90a d4be
00000150: e5a7 cf3f 6f39 50bf 9b3f 64bf 56e0 d4be
00000160: 8598 81bf 6525 51bf d916 98bf 44ec 1fbf
00000170: eb51 01bf d4a7 00bf 9035 15be ba97 0d3f
00000180: ed9c 8a3e f1d7 c63e f041 07be ace2 c8be
00000190: d108 7a3e 506c 1bbf da26 2ebf c46c 82bf
000001a0: 897d 3dbe a0ed acbe a00f 36bf e65d b6be
000001b0: d52d 8fbe 7faa 95be 116f 2fbf 5960 c0be
000001c0: 20eb a9bf 4788 f2be 3115 2ebf 0c85 08bf
000001d0: b236 eb3c 30fe 95bf cddb 1dbe e7ca 57bf
000001e0: aed9 0ebf dab9 efbe aae5 febd 4212 8b3f
000001f0: fbba b33d 5578 92bf 536a 06bf f1e5 14bf

model.3.weight f4 [64, 128]
0.064806424 -0.18997638 0.50332224 0.055001527 -0.19013634 0.41882327 -0.0077279387 0.04454055
0.503199 0.01408627 -0.5029234 0.11797869 -0.2087656 -0.37971556 0.5727622 -0.9204398
-0.59872043 -0.0214216 -0.21138951 -0.18597846 0.23590961 0.09982481 -1.2170568 -0.0913238
0.50767136 0.20444308 -0.60976434 -0.2939103 -0.07397495 -0.07884583 0.4435659 -0.4087874
-0.023299456 -0.6161057 -2.6541417 0.35226893 0.23220979 -0.06986669 -1.9570435 0.39274335
-0.2673816 -0.29470956 -0.1308477 -0.31781325 -0.7179826 -0.10317253 -0.024236439 -0.9212335
1.1675111 -0.46628246 0.048842996 -0.3276753 -0.63486403 -0.16034003 0.46271345 0.7631553
0.1067275 -0.24502711 -0.79050326 -0.013070971 -0.07942189 0.116772264 -0.073762156 -0.12338329
0.15012774 -0.88766986 1.1715257 -0.15295343 0.24382502 0.23568583 -0.23482949 -0.14008142
0.4090398 0.21328628 0.08321753 0.0947109 -0.34403256 -0.39817816 -0.08812037 0.41466144
0.08989684 0.17978553 0.15197022 -0.005339281 -0.6294546 -0.034855094 -0.2310016 0.1691159
0.09422942 -0.32359928 -0.13617636 0.10302398 0.43759528 -0.0030066774 0.12398673 -0.3443584
-0.1604923 0.2784312 0.02008773 0.09996632 0.12238558 0.0044981944 -0.06824485 -0.17634247
0.15870512 -0.14516437 0.14170182 0.16011329 -0.08258578 0.09570934 0.5422318 0.07316146
0.20506151 -0.011751799 -0.114192046 0.0024271205 0.6029505 -0.69326854 1.0589046 -0.07691935
0.07038002 -0.1224782 -0.21233128 1.3835552 0.4000213 -1.1185795 0.0462969 -0.42324153
-1.6188581 -0.013695104 -0.11278971 0.1936687 0.044934735 -0.104505256 -0.4058457 0.3772853
0.31609458 -0.7031525 -0.1390805 -1.4086323 0.40027758 -0.4457784 0.42319995 -0.4346733
-0.50854504 0.048285555 0.2636877 -0.45376942 -0.008395993 0.12726012 -0.3389966 0.3325909
-0.69506705 0.059404045 0.114429906 -0.06277887 0.017649187 -0.07747182 0.27970856 0.17446384
0.15861355 -0.94432205 0.5237725 0.13646708 -0.22236623 -0.18686324 0.2978251 0.20685586
0.046376336 0.012615965 -0.28977504 -0.008568191 0.08812964 0.048809443 0.5877859 -0.40667066
-0.30508256 0.4381413 0.3762999 0.092782974 -0.0988274 -0.06982516 0.41875774 -0.7545585
0.15302137 -0.27668265 -0.7365294 -0.059451737 0.093529575 -0.010685888 0.30361977 -0.21233663
-0.31172675 -0.25608137 0.047236837 -0.28488398 -0.034094762 -0.41415998 0.022075923 -0.5751142
-0.023800295 -0.22203091 0.018112104 -0.14841129 -0.57457286 0.603951 -0.93060243 -0.43018842
-1.7611033 0.1984683 -0.17174345 0.22091012 -2.0557911 -0.04093486 0.034458395 -0.86617833
-0.5132558 -0.27940035 -0.12107444 -0.017396003 -0.55182195 -0.15861139 0.2178617 0.41149044
0.14354984 -0.15828918 0.02401785 -0.10840028 -0.25788715 0.45187232 0.27715716 0.24327417
0.21655942 -0.40594307 -0.044951692 -0.19238237 0.2741172 -0.072803244 -0.2243235 -0.26828003
-2.126265 -0.055488843 0.09997867 0.14484648 -1.59384 -1.5395863 -0.14564122 -1.693649
0.20735225 -0.07380328 -0.018605327 1.7354559 -0.099781536 -1.4162503 0.23890732 -0.027724423
00000000: 3bb9 843d 2b89 42be bad9 003f 4849 613d
00000010: 1ab3 42be 0170 d63e a63a fdbb 2770 363d
00000020: a6d1 003f 19ca 663c 97bf 00bf d09e f13d
00000030: a6c6 55be 146a c2be 8ba0 123f f1a1 6bbf
00000040: be45 19bf 5a7c afbc 7e76 58be 2371 3ebe
00000050: 4a92 713e f370 cc3d 84c8 9bbf f907 bbbd
00000060: c0f6 013f 8759 513e 8419 1cbf 697b 96be
00000070: 2e80 97bd ec79 a1bd 121b e33e 954c d1be
00000080: 80de bebc 1ab9 1dbf 75dd 29c0 985c b43e
00000090: 67c8 6d3e 4416 8fbd 6780 fabf a815 c93e
000000a0: 3ee6 88be 2ce4 96be f1fc 05be 6bb8 a2be
000000b0: b5cd 37bf 1f4c d3bd 7f8b c6bc f5d5 6bbf
000000c0: 0171 953f 93bc eebe 980f 483d 0fc5 a7be
000000d0: 7386 22bf 2d30 24be c7e8 ec3e 255e 433f
000000e0: f393 da3d 63e8 7abe 6c5e 4abf a027 56bc
000000f0: f2a7 a2bd 4c26 ef3d 9d10 97bd 61b0 fcbd
00000100: 16bb 193e 553e 63bf 8ef4 953f d39f 1cbe
00000110: 44ad 793e a057 713e 2477 70be 8171 0fbe
00000120: aa6d d13e b867 5a3e f46d aa3d caf7 c13d
00000130: 0925 b0be 02de cbbe 7478 b4bd 814e d43e
00000140: d61b b83d b319 383e 159e 1b3e 23f5 aebb
00000150: f023 21bf 37c4 0ebd af8b 6cbe b82c 2d3e
00000160: 5bfb c03d ceae a5be d171 0bbe 3dfe d23d
00000170: 7d0c e03e ad0b 45bb c1ec fd3d bf4f b0be
00000180: 1858 24be 898e 8e3e 068f a43c 24bb cc3d
00000190: 4aa5 fa3d 9765 933b f5c3 8bbd 1f93 34be
000001a0: 9883 223e f8a5 14be 481a 113e bdf4 233e
000001b0: bc22 a9bd 4203 c43d b4cf 0a3f add5 953d
000001c0: a5fb 513e 9e8a 40bc 85dd e9bd 5310 1f3b
000001d0: f75a 1a3f 0c7a 31bf 308a 873f e487 9dbd
000001e0: 6623 903d dad5 fabd 5f6d 59be 5618 b13f
000001f0: 98cf cc3e 9d2d 8fbf d1a1 3d3d 1db3 d8be
00000200: be36 cfbf 6e61 60bc 4bfe e6bd 1651 463e
00000210: 7c0d 383d da06 d6bd 02cb cfbe 8a2b c13e
00000220: 26d7 a13e cd01 34bf 1e6b 0ebe 104e b4bf
00000230: 2ff1 cc3e 113d e4be aaad d83e 808d debe
00000240: 0230 02bf 13c7 453d 1302 873e 7754 e8be
00000250: 598f 09bc 7a50 023e f690 adbe 5b49 aa3e
00000260: eaef 31bf a851 733d 3a5a ea3d 3592 80bd
00000270: 0795 903c 8ca9 9ebd f635 8f3e a6a6 323e
00000280: 976b 223e 17bf 71bf f415 063f 07be 0b3e
00000290: f9b3 63be 1459 3fbe 887c 983e 06d2 533e
000002a0: 1df5 3d3d 31b3 4e3c 655d 94be 9961 0cbc
000002b0: 507d b43d 69ec 473d 2379 163f 2337 d0be
000002c0: c833 9cbe 0e54 e03e 61aa c03e 0005 be3d
000002d0: 0566 cabd 7e00 8fbd 6a67 d63e bf2a 41bf
000002e0: a2b1 1c3e 59a9 8dbe 318d 3cbf aa83 73bd
000002f0: 6f8c bf3d dd13 2fbc 0d74 9b3e c66e 59be
00000300: a69a 9fbe 191d 83be 6a7b 413d 50dc 91be
00000310: f3a6 0bbd c70c d4be 91d8 b43c af3a 13bf
00000320: d6f8 c2bc 125c 63be d65f 943c 21f9 17be
00000330: 3517 13bf 889c 1a3f f63b 6ebf a841 dcbe
00000340: d56b e1bf 463b 4b3e 84dd 2fbe 4336 623e
00000350: 1592 03c0 50ab 27bd 3f24 0d3d ddbd 5dbf
00000360: bb64 03bf 900d 8fbe e0f5 f7bd 1082 8ebc
00000370: 3444 0dbf 066b 22be 2317 5f3e e0ae d23e
00000380: bbfe 123e 8f16 22be 15c1 c43c f700 debd
00000390: c909 84be cf5b e73e 8be7 8d3e dd1c 793e
000003a0: c1c1 5d3e c5d7 cfbe 441f 38bd e2ff 44be
000003b0: 1759 8c3e de19 95bd 0fb5 65be 005c 89be
000003c0: ba14 08c0 4548 63bd 9ec1 cc3d a352 143e
000003d0: f302 ccbf 2a11 c5bf f922 15be 7ec9 d8bf
000003e0: 2654 543e 2d26 97bd 336a 98bc 6b23 de3f
000003f0: 435a ccbd b147 b5bf 1fa4 743e 541e e3bc

model.3.bias f4 [64]
0.3927185 0.022470964 0.48482952 0.59795636 0.02538325 0.6720389 0.21663052 0.108370975
-0.32431653 -0.5596163 0.27428868 0.3803396 -0.6205596 -0.26319867 0.6992975 0.39403677
0.72167456 0.1389294 0.3397269 0.20288241 0.3855208 -0.69899553 0.13835758 0.29734224
0.1375358 0.54596853 0.46269345 -0.037000764 0.7265275 0.29546654 -0.20520985 0.250253
0.12143957 -0.12857293 -0.037842892 -0.5920189 -0.2925151 0.1478219 0.7935831 0.5195174
-0.15942435 0.19153757 0.31718716 0.18378785 0.013763422 -0.09177617 0.2522985 0.08859558
0.426918 0.19494398 0.31836244 -0.17849936 -0.11346159 -0.2116834 0.13333893 -0.80276996
0.4528574 0.44214994 0.32503584 0.28075567 0.35503444 -0.0794748 0.21784472 -0.39924094
00000000: 6612 c93e 0715 b83c 933b f83e ab13 193f
00000010: 89f0 cf3c be0a 2c3f 64d4 5d3e 9af1 dd3d
00000020: d10c a6be 0443 0fbf 916f 8c3e dfbb c23e
00000030: fedc 1ebf fac1 86be 2905 333f 30bf c93e
00000040: aabf 383f 8243 0e3e aff0 ad3e 68c0 4f3e
00000050: fb62 c53e 5ff1 32bf 9cad 0d3e 3e3d 983e
00000060: 2fd6 0c3e 98c4 0b3f 28e6 ec3e 1d8e 17bd
00000070: b5fd 393f 6447 973e 8822 52be 2921 803e
00000080: 4fb5 f83d 9fa8 03be 2601 1bbd 8d8e 17bf
00000090: 8ac4 95be a05e 173e 4328 4b3f 18ff 043f
000000a0: 2340 23be 6d22 443e 5b66 a23e e232 3c3e
000000b0: fa7f 613c 25f5 bbbd 452d 813e 9971 b53d
000000c0: ff94 da3e 659f 473e 6700 a33e 89c8 36be
000000d0: 8d5e e8bd 89c3 58be 008a 083e 5582 4dbf
000000e0: eddc e73e 7a61 e23e 196b a63e 35bf 8f3e
000000f0: 13c7 b53e afc3 a2bd b012 5f3e 4f69 ccbe

model.6.weight f4 [3, 64]
0.23874483 0.2602385 0.72476095 0.23754504 0.9061978 -1.2825689 -0.71178865 0.412338
-0.50558424 0.8016666 -0.5338278 -0.65816045 0.16182876 0.15712447 0.16931199 -0.76900226
-1.018788 -0.01597235 0.28192094 0.20397824 -0.9124582 0.11679435 0.21651667 0.63246894
-0.98703516 0.21223305 0.43742102 0.29338118 0.1808947 0.17957723 0.24866351 0.3081581
0.20526779 -0.5790578 0.2868661 0.2020192 0.89746773 -0.4100904 0.44483384 0.52724457
-0.46563825 0.2604297 -0.9712818 -0.8852438 -0.768694 -0.14742216 -0.08554347 0.18875617
0.2588699 0.102575324 0.40895587 -0.60673106 -0.9352918 -0.7032753 0.3971233 -0.027053084
0.21144657 -1.155418 0.311721 0.9210867 0.9743946 0.21897018 -0.69526786 -0.4984635
0.20173913 0.30499813 -0.5188337 -0.36735553 0.27404985 0.32977775 0.21833579 -0.5115995
0.47570792 -0.22466558 -0.3030289 -0.4071842 0.27100956 0.1927266 -0.59891313 0.07983807
0.21661338 0.2735583 0.30246693 -0.61805415 0.18716644 0.28376764 -0.05693906 0.12761223
-0.15768743 -0.6883032 -0.075039744 0.18427089 -0.7299999 -0.62602574 0.19573854 -1.2895707
0.13815661 0.16138674 -0.020629063 0.21837315 -0.57742286 0.99266577 -0.40246406 -0.37410155
-0.6155483 0.115152 0.11335455 0.15008989 0.28278112 -0.034893703 -0.69135386 -0.5609199
0.05552446 0.110007375 0.18046321 0.20620146 0.24039017 0.18474515 -0.10168301 0.46603936
-0.5729291 0.18565373 0.0041500987 -0.12878472 -0.049006116 0.19614303 0.8217691 0.19487149
-0.9239016 -1.3429143 -0.98626137 0.21441998 -1.37685 0.47062653 0.43628505 -0.040152676
-0.06693407 -1.1096851 0.60069305 0.7271357 -0.8354684 -1.0119078 0.17197224 0.37616578
0.46688628 -1.2774303 -1.3421303 0.20446956 0.40448263 -0.8100646 -0.8162534 -1.1854199
0.61501586 0.22292317 -1.6067371 -0.7553599 0.18273637 0.15636422 -1.9951304 0.32061386
-1.3225623 0.118680544 -1.5177294 -1.2642856 -0.33189514 -1.094584 -0.46369374 -1.2591989
0.9826155 -0.9433882 0.35460117 0.61223984 0.2866775 -0.09429981 0.77002925 0.21193859
-1.5422165 -1.1944311 -1.686395 0.6237756 0.3980824 0.1927618 -1.4727287 -0.51277274
0.21620405 0.38398507 -1.7540216 -0.9042353 -1.1550136 -0.95876086 -0.5961569 0.1161992
00000000: 8679 743e fb3d 853e ef89 393f 023f 733e
00000010: 94fc 673f 382b a4bf c837 36bf f71d d33e
00000020: f86d 01bf 063a 4d3f f0a8 08bf 347d 28bf
00000030: 70b6 253e 3de5 203e 1f60 2d3e 55dd 44bf
00000040: a567 82bf 72d8 82bc f157 903e acdf 503e
00000050: dc96 69bf e031 ef3d 8cb6 5d3e 7ce9 213f
00000060: 56ae 7cbf 9f53 593e a6f5 df3e 0f36 963e
00000070: 763c 393e 18e3 373e a6a1 7e3e e6c6 9d3e
00000080: b831 523e 223d 14bf 1de0 923e 1fde 4e3e
00000090: 72c0 653f 5ef7 d1be 43c1 e33e 80f9 063f
000000a0: 2368 eebe 0b57 853e eda5 78bf 569f 62bf
000000b0: 21c9 44bf d6f5 16be 6a31 afbd 4c49 413e
000000c0: 988a 843e 0313 d23d aa62 d13e ba52 1bbf
000000d0: 496f 6fbf da09 34bf bf53 cb3e 6e9e ddbc
000000e0: 7385 583e bde4 93bf e599 9f3e 57cc 6b3f
000000f0: ed71 793f b839 603e 13fd 31bf 9c36 ffbe
00000100: b494 4e3e b728 9c3e 49d2 04bf 0616 bcbe
00000110: 4350 8c3e a1d8 a83e 6b93 5f3e 2ff8 02bf
00000120: fd8f f33e bc0e 66be 9b26 9bbe 737a d0be
00000130: c4c1 8a3e 1f5a 453e 5f52 19bf 2482 a33d
00000140: e6cf 5d3e d50f 8c3e f2dc 9a3e cc38 1ebf
00000150: 8fa8 3f3e fe49 913e ef38 69bd c8ac 023e
00000160: d078 21be a334 30bf 70ae 99bd 82b1 3c3e
00000170: 46e1 3abf 3943 20bf af6f 483e a710 a5bf
00000180: ed78 0d3e 9142 253e 48fe a8bc 369d 5f3e
00000190: fcd1 13bf 581f 7e3f c50f cebe 3d8a bfbe
000001a0: 9394 1dbf d0d4 eb3d 6e26 e83d 2ab1 193e
000001b0: b0c8 903e b3ec 0ebd 91fc 30bf 7298 0fbf
000001c0: 9e6d 633d 8c4b e13d 59cb 383e 7a26 533e
000001d0: d728 763e d52d 3d3e 2f3f d0bd b69c ee3e
000001e0: 7bab 12bf 031c 3e3e 8dfd 873b 24e0 03be
000001f0: a3ba 48bd b8d9 483e 765f 523f 648c 473e
00000200: d184 6cbf 9ee4 abbf a07b 7cbf e990 5b3e
00000210: 9f3c b0bf f6f5 f03e c160 df3e 2277 24bd
00000220: bb14 89bd 290a 8ebf 05c7 193f 9125 3a3f
00000230: 42e1 55bf 3286 81bf 7e19 303e cd98 c03e
00000240: b80b ef3e d682 a3bf edca abbf 7860 513e
00000250: 5918 cf3e 6560 4fbf fcf5 50bf d7bb 97bf
00000260: ae71 1d3f f945 643e 90a9 cdbf 445f 41bf
00000270: 3e1f 3b3e f11d 203e 6f60 ffbf 8027 a43e
00000280: b949 a9bf c90e f33d f544 c2bf 1cd4 a1bf
00000290: 29ee a9be 541b 8cbf 4469 edbe 6e2d a1bf
000002a0: b08c 7b3f e481 71bf 498e b53e c0bb 1c3f
000002b0: 65c7 923e 4220 c1bd a320 453f 6e06 593e
000002c0: 5a67 c5bf 1ee3 98bf cbdb d7bf c2af 1f3f
000002d0: 75d1 cb3e 5963 453e 6082 bcbf 1345 03bf
000002e0: 9864 5d3e b199 c43e c883 e0bf f77b 67bf
000002f0: 7cd7 93bf 5a71 75bf bd9d 18bf d9f9 ed3d

model.6.bias f4 [3]
-0.519176 -0.02596337 0.5240425
00000000: b8e8 04bf 22b1 d4bc a627 063f
