models/mlp_best_state.pth (torch, 60750 bytes, 6 tensors)

model.0.weight f4 [128, 46]
0.009643847 0.0035553772 0.017049769 -0.0389818 0.28608474 -0.22831166 -0.11817115 -0.036525767
-0.13816251 0.18818866 -0.0006447426 -0.44531283 -0.8086888 0.3806298 0.0037961553 -0.13243067
-0.016254067 -0.0031129646 -0.012451469 0.39222923 -0.056326907 0.17517388 -0.24835512 0.039230075
0.2736773 -0.53876334 0.50087005 -0.21615052 -0.20698382 -0.025409233 -0.08004716 0.048836034
0.39983997 -0.39376977 -0.30071193 -0.005021208 -0.2808881 -0.18909891 -0.19244848 0.2899735
-0.1769393 0.4812397 -0.20863381 0.2061313 0.5735416 0.5470222 -0.04532773 0.4982614
0.029890781 -0.18971518 0.18991043 -0.21513714 0.24470682 0.41046727 0.37318197 -0.20322594
-0.25008962 0.23466522 0.27633175 -0.43628705 0.0010667286 0.1814922 0.01769833 0.27912882
0.09576538 -0.05339497 -0.34825972 -0.21120356 -0.063916594 0.30154896 -0.007132806 -0.33798715
-0.044031747 -0.0022272533 -0.22232637 -0.015792847 -0.074740365 0.03455394 -0.20726363 0.13906166
-0.21828337 -0.1685538 0.021677578 0.22967067 -1.1213245 -0.061528 -0.33540303 -0.10179067
0.014767876 0.25164455 0.13695192 -0.26317713 0.028677395 0.22022364 -0.051142696 0.21790193
0.028811557 -0.23193617 -0.0011557431 -0.0027514438 0.21365435 -0.05146865 0.18323871 -0.13868608
0.36710614 -0.040841002 -0.03978482 -0.010613129 -0.0327728 0.061203524 -0.007907128 0.11661521
0.069061525 -0.30912957 0.09293194 -0.012507664 0.28903517 -0.45118695 0.06069179 0.19088674
0.06793697 -0.016742574 0.06226514 0.0008732474 0.27747297 0.101194896 -0.117450856 -0.24880669
0.019320108 -0.29495215 -0.2900441 0.113694616 -0.16612236 -0.32233626 -0.62429535 -1.1333784
-0.18498835 -0.26820076 0.012474776 0.15054145 -0.14280882 0.3056598 -0.37427598 0.27697122
-0.21770549 -0.0238866 -0.054082535 0.34728384 0.2681161 0.28323728 -0.35689902 0.00854307
0.052709777 -0.15081479 -0.47308898 -0.09242317 0.2629165 0.049836762 0.7071249 -0.37615028
0.2811155 0.2142542 0.12100269 0.24779892 0.058306158 0.12037101 -0.25138852 -0.1115
-0.1431071 -0.18959351 -0.11070413 -0.047248844 -1.3220663 -0.07279423 -0.30377227 -0.16358404
0.5538962 0.4343634 -0.18860759 -1.1620721 -2.19627 0.43923625 0.4670756 0.18381324
-0.11817007 -0.12554081 -0.117490694 0.4630839 -0.1741097 0.1055537 -0.010532844 0.3119131
-0.031871814 0.12507294 -0.22329915 0.11380234 -0.1228415 0.7197528 -0.027316611 -0.014979801
-0.04689598 0.00012503132 0.10690595 -0.11163543 0.18352033 -0.61958855 -0.28131285 0.076889165
0.17015457 0.038266044 -0.106979765 -0.25436413 0.2026915 -0.007254366 0.062851004 -0.41950884
-0.66314614 0.7377538 0.14933747 0.4623663 -0.63285524 0.19586173 -0.39930737 -0.57761216
-0.91545796 -0.27232188 0.7432301 -0.38630673 -0.36048046 0.7884004 -0.044503316 -0.043637246
-0.36724502 0.07440164 0.32812583 0.057203103 -0.37551475 -0.22377802 0.39045525 -0.37183115
0.15255442 0.19692907 0.34067222 0.49399716 0.0019502763 0.032793302 -0.047760855 0.03853772
0.045505527 0.011580255 -1.0065165 0.7445277 -0.28737482 -0.3661363 -0.031703833 0.08664517
00000000: 3a01 1e3c 5501 693b f5ab 8b3c 61ab 1fbd
00000010: b379 923e 88ca 69be b703 f2bd 0b9c 15bd
00000020: 797a 0dbe 87b4 403e f203 29ba 0b00 e4be
00000030: 3b06 4fbf e9e1 c23e ebc8 783b e89b 07be
00000040: 4027 85bc e102 4cbb 3f01 4cbc 45d2 c83e
00000050: 0bb7 66bd c860 333e ce50 7ebe b7af 203d
00000060: 6e1f 8c3e 65ec 09bf 0539 003f 9056 5dbe
00000070: 91f3 53be 0627 d0bc c4ef a3bd 4b08 483d
00000080: d3b7 cc3e 319c c9be eaf6 99be f288 a4bb
00000090: 91d0 8fbe 25a3 41be 3711 45be 6877 943e
000000a0: 932f 35be 0d65 f63e 1aa4 55be 1514 533e
000000b0: 9fd3 123f a609 0c3f 92a9 39bd 1e1c ff3e
000000c0: 83dd f43c b244 42be e177 423e e94c 5cbe
000000d0: 6d94 7a3e c428 d23e b511 bf3e 761a 50be
000000e0: bf0b 80be 144c 703e 5b7b 8d3e 0461 dfbe
000000f0: 79d1 8b3a 17d9 393e 17fc 903c f9e9 8e3e
00000100: a420 c43d afb4 5abd 194f b2be bf45 58be
00000110: b4e6 82bd a064 9a3e 50ba e9bb a70c adbe
00000120: a25a 34bd 1cf7 11bb 86a9 63be 0060 81bc
00000130: 7a11 99bd 6f88 0d3d eb3c 54be 2e66 0e3e
00000140: ad85 5fbe 5e99 2cbe 2d95 b13c ca2e 6b3e
00000150: 9087 8fbf c904 7cbd f2b9 abbe a077 d0bd
00000160: f6f4 713c 8ed7 803e 203d 0c3e 27bf 86be
00000170: dbec ea3c 4e82 613e 017b 51bd af21 5f3e
00000180: 3706 ec3c ad80 6dbe 4e7c 97ba 9151 34bb
00000190: 35c8 5a3e cbd0 52bd eea2 3b3e b903 0ebe
000001a0: 56f5 bb3e e548 27bd 68f5 22bd b0e2 2dbc
000001b0: c63c 06bd 8cb0 7a3d e68c 01bc f5d3 ee3d
000001c0: 2170 8d3d 3b46 9ebe 1a53 be3d f2ec 4cbc
000001d0: 6bfc 933e fa01 e7be f497 783d d077 433e
000001e0: 8a22 8b3d b927 89bc bb09 7f3d a4ea 643a
000001f0: f010 8e3e 453f cf3d 138a f0bd 2ec7 7ebe
00000200: 3445 9e3c f803 97be a980 94be b9d8 e83d
00000210: fb1b 2abe 4209 a5be d2d1 1fbf 8b12 91bf
00000220: 966d 3dbe 9c51 89be 0163 4c3c 8a27 1a3e
00000230: 7a3c 12be 717f 9c3e 1aa1 bfbe 2ccf 8d3e
00000240: 30ee 5ebe d5ad c3bc a685 5dbd 30cf b13e
00000250: 8346 893e 7a04 913e 78bb b6be 3cf8 0b3c
00000260: 35e6 573d 316f 1abe b838 f2be 5c48 bdbd
00000270: fe9c 863e a221 4c3d 2306 353f c596 c0be
00000280: 5fee 8f3e 7465 5b3e 42d0 f73d 00bf 7d3e
00000290: 70d2 6e3d 1385 f63d ffb5 80be 1d5a e4bd
000002a0: ab8a 12be cd24 42be d9b8 e2bd 0188 41bd
000002b0: 7839 a9bf 2415 95bd 0a88 9bbe 9382 27be
000002c0: 24cc 0d3f e164 de3e 5922 41be c7be 94bf
000002d0: b08f 0cc0 93e3 e03e 8824 ef3e 8a39 3c3e
000002e0: 2603 f2bd c58d 00be f69e f0bd 5519 ed3e
000002f0: d049 32be 8a2c d83d f391 2cbc 13b3 9f3e
00000300: 058c 02bd 1f13 003e 88a8 64be 3411 e93d
00000310: 5394 fbbd b841 383f 16c7 dfbc d76d 75bc
00000320: 0016 40bd d71a 0339 82f1 da3d 1ea1 e4bd
00000330: c1ec 3b3e 5b9d 1ebf 3d08 90be 1178 9d3d
00000340: 003d 2e3e dbbc 1c3d 3518 dbbd 043c 82be
00000350: 5c8e 4f3e 08b6 edbb 07b8 803d ddc9 d6be
00000360: f2c3 29bf 6fdd 3c3f eceb 183e 47bb ec3e
00000370: cd02 22bf fa8f 483e 0472 ccbe 64de 13bf
00000380: 745b 6abf c66d 8bbe 5444 3e3f ffc9 c5be
00000390: e590 b8be 9cd4 493f 1c49 36bd f8bc 32bd
000003a0: 8a07 bcbe e35f 983d 1c00 a83e cd4d 6a3d
000003b0: 7843 c0be 1126 65be c0e9 c73e a760 bebe
000003c0: 3a37 1c3e c6a7 493e 976c ae3e 32ed fc3e
000003d0: 6aa0 ff3a 4552 063d e3a0 43bd bad9 1d3d
000003e0: 0164 3a3d 1cbb 3d3c 88d5 80bf 5e99 3e3f
000003f0: cb22 93be 3876 bbbe e1db 01bd 0673 b13d

model.0.bias f4 [128]
0.22070494 -0.26545152 -0.6393723 -0.23416367 -0.015366133 -0.46330306 0.20399123 -0.09932589
-0.19964924 -0.48574507 -0.118307784 -0.62111485 -0.2702022 -0.20178795 0.10962707 -0.42058378
0.890673 -0.17325555 0.072827116 -0.59662217 -0.7539945 0.05441055 -0.096616074 -0.14434522
0.20259967 -0.21303913 0.15011314 -0.21215466 -0.45702812 -0.23741883 0.08842606 -0.6253214
-0.66340524 -0.15244865 -0.20371228 0.16401407 -0.17644812 -0.7081553 0.005972306 -0.37162596
-0.21043713 -0.21705474 0.21498853 -0.22063 -0.16723044 0.22362955 0.32529917 -0.67395616
-0.016652513 0.18097787 0.13075681 0.46625155 -0.023923924 -0.07989181 0.17887463 -0.27359024
-0.63165385 0.045444645 0.029224152 0.06384525 0.00058496016 -0.60523653 -0.5898022 -0.3021062
-0.111236446 -0.08926073 -0.48085943 0.38914007 0.093973435 0.16571558 0.1948976 0.51976687
-0.53707 0.31752375 0.08768518 0.13049993 -0.24347144 -0.36754552 -0.13894778 -0.19334733
0.0919185 0.022969207 -0.51877093 -0.16651706 0.26777065 0.038065948 -0.29078615 -0.3610201
-0.0055661337 0.09029572 -0.1227364 -0.27025387 0.3084211 0.13822125 -0.7401986 0.31040323
-0.7268028 0.024447326 0.06488562 -0.11031533 -0.52752805 0.3031657 -0.07879631 -0.4862301
0.39572242 0.0025713195 0.035205387 -0.671529 0.18754956 0.0008102218 -0.123090036 0.020506497
0.04153632 0.4028064 -0.64875084 0.7810303 0.7586861 -0.36909118 -0.7111834 -0.08456427
0.4186118 -0.14015783 -0.29998508 -0.59973395 -0.19412977 0.03561656 0.4006888 0.18773547
00000000: 7a00 623e 43e9 87be e7ad 23bf 9ac8 6fbe
00000010: 3cc2 7bbc 0f36 edbe 14e3 503e 5f6b cbbd
00000020: da70 4cbe 94b3 f8be 5a4b f2bd 6201 1fbf
00000030: f157 8abe 80a1 4ebe 2884 e03d c256 d7be
00000040: 2503 643f e769 31be 6226 953d 3bbc 18bf
00000050: c905 41bf 99dd 5e3d a6de c5bd 3ccf 13be
00000060: 4a76 4f3e ee26 5abe 42b7 193e 123f 59be
00000070: 97ff e9be ec1d 73be b918 b53d 1015 20bf
00000080: edd4 29bf 801b 1cbe f499 50be 4ef3 273e
00000090: d1ae 34be aa49 35bf 55b3 c33b c245 bebe
000000a0: d57c 57be 9943 5ebe f425 5c3e d5ec 61be
000000b0: 753e 2bbe 25ff 643e 9d8d a63e 6488 2cbf
000000c0: da6a 88bc 4352 393e 1de5 053e 86b8 ee3e
000000d0: 1bfc c3bc 519e a3bd e92a 373e 0514 8cbe
000000e0: 11b4 21bf 2a24 3a3d 7d67 ef3c 4cc1 823d
000000f0: 0358 193a c8f0 1abf 47fd 16bf aaad 9abe
00000100: efcf e3bd 54ce b6bd 3533 f6be 5e3d c73e
00000110: 2575 c03d 58b1 293e 3d93 473e 710f 053f
00000120: 6b7d 09bf 7992 a23e 4a94 b33d c6a1 053e
00000130: 9450 79be ed2e bcbe 5448 0ebe d8fc 45be
00000140: c43f bc3d eb29 bc3c 2cce 04bf 7383 2abe
00000150: 3c19 893e 0aeb 1b3d ece1 94be a0d7 b8be
00000160: 1d64 b6bb f6ec b83d 395d fbbd b75e 8abe
00000170: 5fe9 9d3e df89 0d3e a87d 3dbf 2ced 9e3e
00000180: c00f 3abf c245 c83c c0e2 843d 01ed e1bd
00000190: 140c 07bf 8938 9b3e f65f a1bd 27f3 f8be
000001a0: 219c ca3e 9583 283b 8633 103d 53e9 2bbf
000001b0: fe0c 403e 1165 543a a116 fcbd 3efd a73c
000001c0: fd21 2a3d a43c ce3e 8914 26bf 9af1 473f
000001d0: 4139 423f 85f9 bcbe 1e10 36bf 0830 adbd
000001e0: 4954 d63e 8985 0fbe a597 99be 2a88 19bf
000001f0: f4c9 46be ace2 113d 1527 cd3e ba3d 403e

model.3.weight f4 [64, 128]
0.38329962 0.248059 -0.005073094 0.089244634 0.40536046 0.5859701 0.1162334 0.23542413
0.16443563 -0.057542298 0.33224082 0.4229647 -0.2870749 -0.09995418 -0.055107318 -0.21387264
0.5413023 -0.041034136 0.0489782 -0.10607905 -0.15394506 0.42769396 -0.37632465 -0.31293172
0.4350247 -0.477441 0.038420193 -0.18897189 -0.3453061 0.032104194 0.2898758 -0.08110031
0.009777893 0.023943173 -0.13144161 -0.02481744 -0.47901005 -0.35442755 0.2685414 -0.0305842
-0.67538077 0.1994453 0.18022466 0.002249587 0.5142323 0.78885305 0.26188132 -0.040120658
0.09044325 -0.1271478 -0.46464345 0.07973635 -0.48143592 0.26684913 0.07097194 -0.017707478
-0.8272567 0.31046757 -0.09340978 -0.65186924 0.099471994 -0.24308203 -0.2614641 0.12363116
0.13770854 -0.039434742 0.039367627 0.5948619 -0.085646115 -0.0019468283 -0.06665079 0.098491065
-0.7495886 0.19180119 -0.5040014 0.22922353 -0.2292373 0.33360448 0.32680953 -0.31259963
-0.41791028 -0.26873747 -0.17991856 0.43217254 0.73310256 -0.20106664 -0.105955884 0.18447873
0.21492426 -0.021345042 -0.7339633 0.12510172 -0.04111932 -0.13001516 -0.3221882 0.36389336
-0.108047776 -1.0706664 -0.127239 -0.18975538 -0.0019914382 -0.15991175 0.035783548 0.1563892
-0.31216547 -0.0090469625 -0.0096040545 -0.23134743 0.29998082 0.14351301 0.1215445 -0.23294196
0.022625431 0.3228681 -0.19637038 0.2645416 0.10313448 -0.39140767 0.0679776 0.31882045
-0.13313003 0.050580762 -0.17446166 -0.021539748 -0.28043342 0.07974981 -0.06416754 -0.042678226
-0.05740647 0.20141238 -0.03242346 -0.3504982 0.21541314 0.057480514 0.11343425 -0.08586846
-0.1709226 -0.26535586 -1.3764914 -0.17649439 -1.0890621 0.2533949 0.12923731 0.12552977
-0.83649683 -0.023315983 0.035793945 0.42131394 -0.2670601 -0.58274364 0.0027484521 -0.1749159
-0.06153965 0.23541884 -0.076982014 -0.07289256 -0.9315815 -0.059257865 -0.10184388 -0.5626653
-0.88097525 -0.38686085 -0.6582273 -0.65743273 -0.23493937 0.027772268 -1.1325662 0.31192476
0.13634579 0.33976388 -1.1675278 0.32202807 -0.2670095 0.0814003 -0.42883468 -0.926134
0.23496364 0.10258249 0.029282706 0.122739315 -1.7426037 0.034929138 0.106805146 -0.12884802
-0.21678431 0.06724979 -0.15177953 -0.085724846 0.15621509 -0.22326683 -0.13098516 -1.040374
-0.60376835 -0.193976 0.016410777 0.019699028 0.1649031 0.0684562 -0.12862796 -0.24152446
-0.2577092 0.1316986 0.0426481 0.16931519 -0.34543318 -0.3112253 0.20904143 0.34759954
-0.7580311 0.24421346 -0.3669759 0.28956503 -0.29505363 -0.020060796 0.16225341 0.009971838
0.036607962 -0.3201893 0.2613614 0.0684636 -0.48311082 -1.7661186 -0.10420098 0.018968854
-0.0823089 0.018963441 -0.9361818 -0.41729167 0.039971128 0.067821115 0.31232005 -0.0510795
0.011249395 -0.49864492 -0.060859226 -0.12231701 -0.32626244 0.051203 -0.9578029 -0.051042765
0.08796899 0.15667479 0.03233664 0.10998831 0.24110854 -0.39626148 0.08368138 -0.42230624
-0.28063774 0.25275826 0.19373982 0.1448619 -0.2651191 -0.05942219 0.32607093 -0.9140761
00000000: d93f c43e 2e03 7e3e 323c a6bb e4c5 b63d
00000010: 688b cf3e 2302 163f c70b ee3d 0613 713e
00000020: d061 283e 79b1 6bbd 781b aa3e d48e d83e
00000030: 7bfb 92be c7b4 ccbd 36b8 61bd 6e01 5bbe
00000040: ca92 0a3f 6913 28bd 5d9d 483d f93f d9bd
00000050: c6a3 1dbe b4fa da3e a0ad c0be 9638 a0be
00000060: 8fbb de3e 2673 f4be 7e5e 1d3d d981 41be
00000070: f6cb b0be b07f 033d 9a6a 943e eb17 a6bd
00000080: 7533 203c 7924 c43c a198 06be f24d cbbc
00000090: ce40 f5be 8777 b5be 427e 893e b78b fabc
000000a0: c1e5 2cbf 643b 4c3e d08c 383e cf6d 133b
000000b0: baa4 033f 46f2 493f 4f15 863e 8f55 24bd
000000c0: 503a b93d 0833 02be bfe5 edbe d04c a33d
000000d0: c57e f6be 73a0 883e bd59 913d 460f 91bc
000000e0: 18c7 53bf 9bf5 9e3e a04d bfbd e7e0 26bf
000000f0: f9b7 cb3d 7fea 78be 9fde 85be 5532 fd3d
00000100: 7803 0d3e 5386 21bd f33f 213d df48 183f
00000110: 3b67 afbd b82c ffba 3680 88bd afb5 c93d
00000120: 0ae5 3fbf 8867 443e 3c06 01bf 93b9 6a3e
00000130: 2fbd 6abe 35ce aa3e 9453 a73e 0f0d a0be
00000140: 56f8 d5be f597 89be 923c 38be b845 dd3e
00000150: 9cac 3b3f 6ae4 4dbe 66ff d8bd fee7 3c3e
00000160: 1b15 5c3e ccdb aebc 05e5 3bbf aa1a 003e
00000170: bb6c 28bd b222 05be daf5 a4be 3b50 ba3e
00000180: 2748 ddbd 990b 89bf f14a 02be 3c4f 42be
00000190: ca82 02bb e8bf 23be c591 123d 7e24 203e
000001a0: 27d4 9fbe b639 14bc 535a 1dbc 57e6 6cbe
000001b0: 1697 993e 13f5 123e 53ec f83d 5688 6ebe
000001c0: f858 b93c f84e a53e 5115 49be ff71 873e
000001d0: 2c38 d33d 9666 c8be d737 8b3d 6f3c a33e
000001e0: 3d53 08be c62d 4f3d 14a6 32be 2074 b0bc
000001f0: f894 8fbe de53 a33d 456a 83bd 5dcf 2ebd
00000200: 0c23 6bbd 0c3f 4e3e 76ce 04bd 8074 b3be
00000210: 4395 5c3e b070 6b3d 3750 e83d cedb afbd
00000220: 5606 2fbe b9dc 87be df30 b0bf f2ba 34be
00000230: 6366 8bbf fabc 813e c956 043e e08a 003e
00000240: a824 56bf 2901 bfbc ac9c 123d 76b6 d73e
00000250: 1abc 88be b02e 15bf 601f 343b 271d 33be
00000260: 0011 7cbd a311 713e bfa8 9dbd b248 95bd
00000270: 207c 6ebf 60b8 72bd 8693 d0bd d50a 10bf
00000280: 9887 61bf a012 c6be 9681 28bf 834d 28bf
00000290: f293 70be ab82 e33c eef7 90bf 9ab4 9f3e
000002a0: 3b9e 0b3e 88f5 ad3e 8d71 95bf dde0 a43e
000002b0: 78b5 88be 33b5 a63d 3890 dbbe 1e17 6dbf
000002c0: 4f9a 703e c516 d23d 49e2 ef3c c05e fb3d
000002d0: a30d dfbf db11 0f3d a8bc da3d bcf0 03be
000002e0: b5fc 5dbe 42ba 893d 186c 1bbe 8290 afbd
000002f0: d9f6 1f3e 0fa0 64be f920 06be fa2a 85bf
00000300: 9090 1abf a5a1 46be e56f 863c db5f a13c
00000310: 5cdc 283e c432 8c3d 0cb7 03be 3052 77be
00000320: 76f2 83be ffdb 063e c6af 2e3d f660 2d3e
00000330: 9edc b0be ec58 9fbe f50e 563e 91f8 b13e
00000340: 530e 42bf 1813 7a3e 44e4 bbbe de41 943e
00000350: 4511 97be 8a56 a4bc c225 263e ec60 233c
00000360: 3bf2 153d daef a3be 29d1 853e a536 8c3d
00000370: 4d5a f7be 2d10 e2bf 5367 d5bd 9264 9b3c
00000380: 9291 a8bd 3859 9b3c 9ca9 6fbf 41a7 d5be
00000390: c4b8 233d cce5 8a3d 6ae8 9f3e bd38 51bd
000003a0: 624f 383c 634e ffbe 8647 79bd 5781 fabd
000003b0: df0b a7be 3dba 513d 9232 75bf 3812 51bd
000003c0: 1629 b43d 5b6f 203e 6d73 043d 8d41 e13d
000003d0: 28e5 763e c9e2 cabe 2561 ab3d 8638 d8be
000003e0: c0af 8fbe 8869 813e bb63 463e ae56 143e
000003f0: b1bd 87be af64 73bd c5f2 a63e e400 6abf

model.3.bias f4 [64]
-0.0010857411 0.15563038 0.200677 0.061136417 0.1867833 0.2120277 0.12101426 -0.03654589
0.12800942 0.46781346 0.0285556 0.2684477 0.0023443308 0.05136035 0.13155916 0.07125569
-0.033939116 0.0073503987 0.23497568 0.31629896 -0.0372548 -0.17277156 0.025553932 0.2303485
-0.10987276 -0.093181424 0.17796935 0.14002764 0.12262983 -0.034381654 -0.26013148 -0.2505868
-0.08045593 -0.051005248 -0.16525237 0.10177171 -0.19472484 -0.013214195 0.10637669 0.080658056
0.17741612 0.3119556 0.33822387 0.24565591 0.15054555 0.16867048 0.24191108 0.2037064
0.17142765 -0.122027926 -0.019035647 -0.042059377 -0.12576193 0.5101167 0.1372637 -0.09725535
-0.116159774 -0.16433927 -0.074496344 -0.1332307 -0.1693136 0.31195295 0.22486246 0.101090424
00000000: 6d4f 8eba 925d 1f3e 467e 4d3e 2e6a 7a3d
00000010: 1f44 3f3e ca1d 593e 53d6 f73d 25b1 15bd
00000020: e714 033e 3f85 ef3e 6fed e93c fa71 893e
00000030: 58a3 193b 3b5f 523d 72b7 063e 81ee 913d
00000040: be03 0bbd 9ddb f03b 779d 703e f0f1 a13e
00000050: 7d98 18bd 07eb 30be 7b56 d13c 7ae0 6b3e
00000060: f804 e1bd e7d5 bebd 993d 363e 6863 0f3e
00000070: 5925 fb3d c7d3 0cbd f42f 85be ea4c 80be
00000080: 14c6 a4bd e1ea 50bd eb37 29be b06d d03d
00000090: f365 47be 5a80 58bc 06dc d93d 0d30 a53d
000000a0: 92ac 353e a5b8 9f3e ae2b ad3e 398d 7b3e
000000b0: 9d28 1a3e f4b7 2c3e 8ab7 773e 6998 503e
000000c0: bb8a 2f3e c7e9 f9bd a5f0 9bbc 7446 2cbd
000000d0: bcc7 00be 0297 023f db8e 0c3e d02d c7bd
000000e0: 2de5 edbd 8e48 28be 8a91 98bd a16d 08be
000000f0: 8b60 2dbe 4cb8 9f3e 5842 663e 7f08 cf3d

model.6.weight f4 [3, 64]
0.25960198 0.3317189 -0.60343915 -1.0004246 0.760223 -1.8651545 0.34435657 -0.64834034
-0.122637786 -1.6673374 0.2747599 0.21282195 -1.1365691 -0.9157201 0.2103591 1.081012
0.8250908 -1.2506686 -1.8185192 -0.9958006 -0.9874047 0.6951821 0.50366616 -1.4281198
-0.9888723 -0.5027559 -1.6070768 -1.3356661 -1.4281077 -0.34919673 -0.40109417 -1.768305
0.32022154 -1.3708689 0.10835348 -1.8320633 -0.10077468 0.042409196 0.19950114 0.41326976
0.23533984 -0.17283101 -1.7367895 0.84824497 -1.9847568 0.20319802 0.3684645 0.59080106
0.19595669 -1.6413829 -1.0555854 -1.076505 -1.4898328 0.4092159 -1.3827904 1.0481832
0.44081068 0.15746069 -1.88835 -0.938525 0.16879243 0.45529878 1.3951517 0.10946722
0.20588794 -1.0934125 -0.7474257 0.58304894 -0.66663015 0.12829109 -0.0637499 0.24200702
-0.9593681 -0.30043566 0.14049397 0.14139937 0.4445024 -0.47247487 0.1291058 -0.09973899
0.16276783 0.14730635 0.65824187 0.55338925 1.2838633 -1.0535047 -0.14427087 0.34626052
0.46388817 0.16497765 0.31049648 0.5809375 0.5871469 1.4802746 0.4761553 0.28387642
0.38682255 0.27397135 -0.9868878 0.243692 -0.095049635 0.07001684 0.14445388 -0.037000284
-0.062515005 -0.8457012 -0.3304284 -0.7690631 0.055434614 0.24865921 -0.06516602 -0.96751595
0.2395739 0.24660817 0.34183776 0.32589513 0.1883912 -0.2558635 0.45004123 -1.5230817
-1.0104165 0.19328867 0.23906173 0.11177896 0.21216838 -0.2746929 -0.5406717 0.18681346
-1.1081496 0.8435142 1.145325 0.07143463 -0.02657999 0.7660412 -1.1622671 0.29941818
1.3730369 1.1893728 -1.873423 -1.6230439 0.4337201 1.0067794 -2.4131572 -1.0508956
-1.4702162 0.8765141 0.6093815 0.11103744 -0.8923685 0.5610569 -0.75198406 0.32710385
0.2733428 0.29854417 0.4999921 0.51159316 0.5125633 -1.7344683 -0.57109463 0.31543863
-1.478542 0.5467912 0.84367317 0.41033062 -0.052341115 -1.0582292 -1.3457903 -0.7622235
-0.75099945 1.0833149 1.0874888 0.23288767 0.8847292 -1.0194328 -1.2086217 0.45076957
-1.3688128 0.58975124 0.36452198 0.43166304 0.9210385 -0.14010374 0.5312438 0.75152314
0.72347826 -1.2359734 0.6874943 0.28896862 -1.134273 -1.230272 -0.72903943 -1.5573609
00000000: 8dea 843e 0fd7 a93e fd7a 1abf ea0d 80bf
00000010: f99d 423f 62bd eebf 814f b03e a2f9 25bf
00000020: 8529 fbbd 506b d5bf 54ad 8c3e ffed 593e
00000030: 197b 91bf a26c 6abf 6068 573e 9a5e 8a3f
00000040: 2739 533f e915 a0bf 3dc5 e8bf caec 7ebf
00000050: 8ec6 7cbf 74f7 313f 44f0 003f a1cc b6bf
00000060: bc26 7dbf 9cb4 00bf b1b4 cdbf 1bf7 aabf
00000070: 3ccc b6bf eac9 b2be 375c cdbe d157 e2bf
00000080: 14f4 a33e a278 afbf 6ee8 dd3d 0d81 eabf
00000090: f562 cebd 44b5 2d3d 074a 4c3e 1898 d33e
000000a0: edfc 703e 9dfa 30be 1e4f debf 9526 593f
000000b0: 830c febf 2413 503e 61a7 bc3e bd3e 173f
000000c0: dfa8 483e d618 d2bf 6c1d 87bf eaca 89bf
000000d0: d7b2 bebf bf84 d13e 47ff b0bf de2a 863f
000000e0: f0b1 e13e 603d 213e 74b5 f1bf 2d43 70bf
000000f0: ecd7 2c3e ec1c e93e 5594 b23f 5a30 e03d
00000100: 4ad4 523e f1f4 8bbf 4a57 3fbf b242 153f
00000110: 46a8 2abf bd5e 033e 4f8f 82bd b0d0 773e
00000120: 2699 75bf b4d2 99be a7dd 0f3e ffca 103e
00000130: d295 e33e 3ae8 f1be 5034 043e f543 ccbd
00000140: 9cac 263e 7ad7 163e 8a82 283f ebaa 0d3f
00000150: a255 a43f 3ed9 86bf bebb 13be 0f49 b13e
00000160: c082 ed3e e7ef 283e 65f9 9e3e 52b8 143f
00000170: 424f 163f a379 bd3f a1ca f33e 4058 913e
00000180: 9b0d c63e f945 8c3e aea4 7cbf 658a 793e
00000190: 62a9 c2bd fd64 8f3d b8eb 133e 9c8d 17bd
000001a0: de07 80bd e07f 58bf e92d a9be 52e1 44bf
000001b0: 680f 633d 85a0 7e3e c375 85bd 20af 77bf
000001c0: dc52 753e da86 7c3e 5c05 af3e badb a63e
000001d0: 9fe9 403e 8a00 83be ce6b e63e 57f4 c2bf
000001e0: 5455 81bf 77ed 453e 99cc 743e 5eec e43d
000001f0: ab42 593e 8ca4 8cbe 7669 0abf 074c 3f3e
00000200: d9d7 8dbf 8cf0 573f 029a 923f 524c 923d
00000210: 47be d9bc 471b 443f 2bc5 94bf 574d 993e
00000220: acbf af3f 5e3d 983f 53cc efbf e7bf cfbf
00000230: 9010 de3e 26de 803f 2b71 1ac0 bf83 86bf
00000240: 0b30 bcbf 3a63 603f 6d00 1c3f 9967 e33d
00000250: 4372 64bf 6da1 0f3f 0782 40bf 287a a73e
00000260: 96f3 8b3e c8da 983e f7fe ff3e c5f7 023f
00000270: 5937 033f 0f03 debf 4233 12bf 2c81 a13e
00000280: dd40 bdbf 82fa 0b3f f7fa 573f db16 d23e
00000290: a363 56bd 0e74 87bf db42 acbf 1421 43bf
000002a0: 8041 40bf 10aa 8a3f d532 8b3f 1b7a 6e3e
000002b0: 9d7d 623f c67c 82bf 1eb4 9abf 45cb e63e
000002c0: 4235 afbf f0f9 163f a0a2 ba3e f002 dd3e
000002d0: 2ec9 6b3f 5b77 0fbe 98ff 073f d263 403f
000002e0: df35 393f 6034 9ebf a0ff 2f3f b2f3 933e
000002f0: dc2f 91bf 8e79 9dbf 54a2 3abf 9a57 c7bf

model.6.bias f4 [3]
0.18418407 0.07272737 -0.3589753
00000000: c09a 3c3e 16f2 943d 9ccb b7be
