models/tab_transformer_best_state.pth (torch, 326850 bytes, 30 tensors)

feature_embedding.weight f4 [64, 46]
000000 a9 b5 a5 bd 85 c7 83 3d 39 66 c2 3c 03 db 5b 3e
       -0.080912896 0.0643454 0.023730384 0.21470265
000010 be f1 a0 be a3 fe 6c 3e cf 93 89 3e 9a 68 47 3e
       -0.31434435 0.23144011 0.26870582 0.19473496
000020 9f 35 bf be 87 6e 50 3e 61 cd 6c 3e 74 e0 1c be
       -0.37345597 0.20354663 0.23125221 -0.15319997
000030 e8 fa 11 3e 3c 80 cb 3e 25 9a fc 3d ca a9 ba 3c
       0.1425587 0.39746273 0.12334088 0.02278604
000040 90 2e 49 be a3 a6 28 bd 00 66 8d bd 5e b5 8a 3e
       -0.19646668 -0.041174542 -0.069042206 0.27091497
000050 64 71 49 3e 15 61 5a be 73 8a 30 3d 62 84 90 bd
       0.19672161 -0.21326096 0.043100785 -0.070565
000060 36 00 86 be 21 4f 9c be f9 a2 55 be 22 a0 04 3f
       -0.26172036 -0.3052912 -0.2086295 0.51806843
000070 6e 1d 62 3e f7 11 bb bc ee 06 2b be df a9 6f be
       0.22081539 -0.022835715 -0.16701862 -0.23404644
000080 0c aa f0 3e d1 e5 ad 3e cb be 2a 3d 09 23 c7 be
       0.47004735 0.33964399 0.04168586 -0.38893917
000090 94 8a 69 3e 57 76 28 3f 42 29 83 be 77 03 d8 3e
       0.2280677 0.6580557 -0.25617415 0.42190143
0000a0 bf c4 1d 3f c8 9b 65 3e 7c bc 21 be 34 32 2a bf
       0.61628336 0.22422707 -0.15794557 -0.66482854
0000b0 94 d3 bb 3e be 76 0d bf b6 10 3b bd 97 d2 41 3e
       0.3668486 -0.5525931 -0.045670234 0.1892799
0000c0 80 9e a1 3c d6 7d 34 bd c6 03 6e 3e a2 3a 89 be
       0.019728899 -0.04406532 0.23243627 -0.26802546
0000d0 4e 11 4d 3d fd bb 1c be 2a d1 d4 39 44 64 5d bd
       0.05006533 -0.15306087 0.0004059163 -0.0540507
0000e0 19 f9 c4 3d 7d 76 23 3e f1 ad 32 3e 3d 5c 8c be
       0.09617824 0.15963168 0.17449166 -0.27414122
0000f0 04 6d 0f bc c8 74 b6 3d d7 c7 5b 3d e7 31 aa 3c
       -0.008754019 0.08908993 0.05365738 0.020775748
000100 5c c8 c7 bd 9b 47 ac be 40 b3 fc 3d 44 60 ca be
       -0.097550124 -0.3364838 0.12338877 -0.3952657
000110 f1 d4 18 be 1e 16 a9 be 26 d7 48 3b a6 cf e5 bd
       -0.1492498 -0.33024687 0.0030645817 -0.112212464
000120 f8 ce ca 3d 83 e7 bc 3e 7b 9b b1 3b 52 56 2f 3d
       0.099027574 0.3689538 0.005420146 0.04280693
000130 bd 10 57 3d b3 a0 03 bc 12 86 26 be 2a 14 5a 3f
       0.052506197 -0.008033919 -0.16262081 0.8518702
000140 4d 99 38 3f 8f 30 5f 3f 5a 82 1e be b0 1f 5f bf
       0.7210892 0.8718347 -0.15479413 -0.87157726
000150 1b 59 90 bf c6 ad c6 be 8f 46 8c 3e f0 48 05 3e
       -1.1277193 -0.38804454 0.27397582 0.13016105
000160 c8 08 9b bd 63 95 28 3f 17 dc db be cf 9f 4e 3e
       -0.07570034 0.65852946 -0.42941353 0.2017815
000170 4c 79 1c 3e e2 75 e2 3d bc 81 5f 3c 50 94 af 3e
       0.15280646 0.110576406 0.013641771 0.3429284
000180 11 78 58 be 9d 96 d5 3d 5b 3b 23 3e 7a d6 84 3d
       -0.21139552 0.10429118 0.15940611 0.06486221
000190 e1 51 44 be 6d 5a bc 3e ca a1 0f 3e a7 18 3e 3e
       -0.1917186 0.3678774 0.14026561 0.18564092
0001a0 63 bf 8e 3e 92 d9 7b 3d a1 20 80 bd 7b 24 08 be
       0.2788039 0.061486788 -0.062562235 -0.13295166
0001b0 4c 08 df 3c cb 81 39 bc cf 0f 03 be a3 2b 56 3e
       0.027225636 -0.011322449 -0.12798999 0.20915084
0001c0 a8 69 aa 3d e7 e5 23 bf 27 61 fd 3d 58 af 85 3e
       0.083209336 -0.6402268 0.12372046 0.2611034
0001d0 1c b5 3f be 47 86 c2 be dd 6a 85 3d 66 9b f8 be
       -0.18721431 -0.3799307 0.06514523 -0.4855606
0001e0 69 41 82 3e 9e ab 45 3d 2a ab 02 3e de 8b c9 be
       0.2544053 0.04825937 0.12760606 -0.39364523
0001f0 f0 dc ed be df 70 0b 3f fb 2e 5b 3e 82 62 6b be
       -0.46457624 0.544691 0.2140464 -0.22986796
000200 c9 f6 92 3e f7 b5 f1 be b7 80 f0 bd 51 01 8f be
       0.28703907 -0.4720914 -0.117433004 -0.27930692
000210 6a be f2 be 04 6d 87 3c 0a 47 d9 bc 53 e3 89 bf
       -0.474109 0.016531475 -0.026523132 -1.0772499
000220 fc b7 cf 3e fc 46 40 3e 9d 60 18 3d fd 0c da bd
       0.40570056 0.18777078 0.037201513 -0.106470086
000230 3f fc 35 bd 4a b4 2c be 2d e8 bf bd ec 59 f2 bd
       -0.044430014 -0.1686565 -0.09370456 -0.118335575
000240 c5 b2 05 3f 79 b2 fd 3c 82 80 f4 be f2 ab 8f 3e
       0.52225906 0.030968891 -0.47754294 0.2806087
000250 0a 0e 80 be 14 02 04 be 9c 0f a0 3e 94 f1 b6 be
       -0.2501071 -0.12891418 0.3126191 -0.35731184
000260 e4 e5 96 bc 7c 39 56 bb 03 7b e0 bd 65 5c dc 3d
       -0.018420167 -0.0032688072 -0.109609626 0.1075981
000270 e8 96 b8 bc 6a e7 83 be ce 85 e5 be aa 1f 2c be
       -0.022532895 -0.25762492 -0.44828647 -0.16808954
000280 c6 b2 95 be 18 bb 88 3d 81 b4 fc 3b 88 48 c5 3e
       -0.29237956 0.0667631 0.0077119474 0.385319
000290 36 a1 d9 3e e9 ef d3 bc 6c 26 9a be 0a e6 7b 3e
       0.42505807 -0.025871234 -0.3010744 0.24599472
0002a0 9c 95 23 bb 1c 72 08 bf d3 56 ad be fd b1 b7 be
       -0.0024961 -0.5329912 -0.33855304 -0.35877982
0002b0 ae 38 0c 3e ee 32 1c 3e 1d 0c 1b bd f4 1e d1 be
       0.13693497 0.15253803 -0.03785335 -0.40843928
0002c0 ec a6 27 3e 15 73 5f be 59 a9 b3 bd 1e ee 2c bf
       0.1637227 -0.21821244 -0.08772535 -0.6755084
0002d0 68 62 7b be 6c 68 4f 3e ba 0d 2a 3e 4b ff c3 be
       -0.24549258 0.20254678 0.16606799 -0.3828071
0002e0 74 db 2c 3c 6a 70 03 be 76 c4 a4 bb 81 6e 48 be
       0.010550369 -0.12835851 -0.005028303 -0.19573404
0002f0 f4 11 77 be bc 91 aa be 49 e5 39 3e 1e 70 d4 be
       -0.24127942 -0.33314312 0.18153872 -0.4149179
000300 90 ee e4 be 6d 6a a8 3e d4 03 4b 3e 11 09 41 be
       -0.4471326 0.32893696 0.19825679 -0.18851115
000310 f1 e1 6a bd af c1 09 be f0 bc ea bd 91 46 94 3e
       -0.05734438 -0.1345279 -0.11461818 0.28960088
000320 45 ca af 3d 10 36 42 bb 52 a7 07 bd 07 6e 1b 3e
       0.08583502 -0.0029634275 -0.033118553 0.15178691
000330 51 b9 55 3e 02 8a 46 3e 83 b3 10 be 07 68 e4 3e
       0.20871474 0.19388583 -0.14130978 0.44610617
000340 15 e9 da 3e 62 c4 eb be 8b eb 48 bd 8f 69 30 3e
       0.42755952 -0.46048266 -0.049052756 0.17227767
000350 f9 8a 7f 3c f1 ad 50 3d a4 19 55 3c 9b 50 c5 be
       0.0155970985 0.050947133 0.0130066015 -0.3853806
000360 fe a5 6c bd 07 6e 35 3e 2c eb f0 be 2a 1d 1c 3f
       -0.05777549 0.17717753 -0.47054422 0.60982
000370 e2 f5 72 3e 8a ac 17 3e 1f c7 43 3e 51 9c 8a be
       0.2372661 0.14811912 0.19118927 -0.27072385
000380 8d 2a 07 3f b3 59 0f 3a 11 a9 31 3e 08 85 5d be
       0.527993 0.00054683833 0.1734965 -0.21632779
000390 e7 b8 b9 3d 7a 2c 8d be 1f 8e c4 bd 5c 1e 1d be
       0.090684704 -0.27572995 -0.0959742 -0.15343612
0003a0 27 a7 b7 3d a2 9f 60 3e bb 4f 01 bf 04 d7 aa 3e
       0.08967429 0.21935895 -0.50512284 0.3336717
0003b0 b4 c1 30 3e 7f ac 3d 3d ef 44 f3 3b 91 d7 d9 bd
       0.17261392 0.046307083 0.007423989 -0.10636819
0003c0 2f fc 99 be cf 57 ad bd e2 a2 b7 bc 1f d0 cb 3e
       -0.30075213 -0.08464014 -0.022416536 0.3980722
0003d0 d3 7e 9d bd 59 5f d2 3d b1 14 82 3d f6 04 a6 bc
       -0.076902054 0.10272092 0.06351603 -0.020266037
0003e0 ba a5 ec bd dd 73 69 be dd df 5e 3e 56 be 82 3d
       -0.11555047 -0.22798105 0.21765085 0.0638396
0003f0 5d 3f 4a bd 2f 97 36 be 94 56 7f 3e 6f 4d 44 bd
       -0.049376834 -0.1783111 0.2493537 -0.04792541

feature_embedding.bias f4 [64]
000000 39 88 92 3e f0 c0 b3 bd 51 55 b5 be 82 c2 0c bf
       0.28619555 -0.08777034 -0.35416654 -0.54984295
000010 38 66 5a bc b5 1c 0b 3d 7b f9 25 bf d0 4a 75 be
       -0.013330035 0.033962924 -0.648338 -0.2395432
000020 d4 69 58 be 30 fd bf 3c 68 38 a0 bd da ce 97 3e
       -0.2113412 0.023436159 -0.07823259 0.29650003
000030 9e 83 97 3e 45 91 7f 3e 23 fb 93 3e 01 a4 13 bf
       0.29592603 0.2495776 0.2890254 -0.57672125
000040 f4 d1 9c 3e c0 7c a7 be 52 7b 8b 3e 36 9a 1e 3e
       0.30628932 -0.32712364 0.27242523 0.15488514
000050 85 5f 69 bd 1c 4c a0 3e c1 ed 85 3e 82 5a a5 3e
       -0.05697586 0.31308067 0.26157954 0.32295614
000060 72 c0 84 3e 6d 79 1f 3f bf 22 28 3d b9 83 2b be
       0.25928074 0.62294656 0.04104876 -0.16749467
000070 bc 60 d2 3e 87 56 e1 3d 7d 3e 04 bf 93 5f 4e be
       0.41089427 0.11002832 -0.5165785 -0.20153646
000080 4e da 82 3e 1e 43 bc be 1d aa bc be be ee cb be
       0.25557178 -0.36769956 -0.36848536 -0.39830583
000090 15 79 1a 3f 6d 6a a9 3d 42 4c 1e 3e 28 d4 0e be
       0.60341007 0.08272252 0.15458778 -0.13948119
0000a0 ad 9d 81 3e ce 21 11 bf 28 24 d9 3d fc 6f b5 3e
       0.2531561 -0.56692207 0.106025994 0.35437
0000b0 40 41 68 3e f1 9a 58 3e 46 1c 76 3e 16 60 01 3f
       0.22681141 0.21152855 0.24034223 0.5053724
0000c0 c5 c9 02 3e bf c5 de 3e 44 16 d9 3e 78 e7 d8 be
       0.12772281 0.43510243 0.423998 -0.42364097
0000d0 a7 f6 e2 bd 14 0d 83 bc c3 a9 2b be a8 02 bf bd
       -0.110822015 -0.015997447 -0.16763978 -0.093266785
0000e0 57 7d 19 be cb c2 93 bd f1 a5 9d be be 50 44 be
       -0.1498922 -0.07214888 -0.30790666 -0.19171426
0000f0 41 98 61 3d f3 25 e0 3e f0 20 08 3f d8 a2 a1 be
       0.05507684 0.43778953 0.5317526 -0.31569552

transformer_encoder.layers.0.self_attn.in_proj_weight f4 [192, 64]
000000 b4 aa f8 3d 66 2a e5 3d a3 7d 47 bd 15 1f d0 3b
       0.12141934 0.111897275 -0.0487038 0.0063513615
000010 b9 15 6c 3d 47 63 b6 bd 01 8a a9 3d 94 65 95 bd
       0.057637904 -0.089056544 0.08278275 -0.07294765
000020 80 45 19 3e b7 19 8c 3d 1e b2 b5 3d 85 63 ad 3d
       0.14967918 0.06840842 0.08871864 0.084662475
000030 7d b6 c8 bd de a2 fc bd 8c fe 95 bc 04 3a 2b bc
       -0.09800432 -0.12335752 -0.018309854 -0.010450844
000040 36 93 e0 3d f8 f8 64 bd 7e e9 15 be 3c 2d d4 3c
       0.10965578 -0.055901498 -0.14639851 0.025900476
000050 27 10 7e bd 4b 4b d6 3c 59 73 cc 3d 59 98 56 3e
       -0.062027123 0.02615895 0.09982938 0.20956554
000060 be 23 53 bd 85 de ea bd a4 a4 bb bd fe b9 03 be
       -0.05154776 -0.114682235 -0.09162262 -0.12863919
000070 a9 44 76 bd f1 57 bf bd a6 3c 20 be 87 21 00 be
       -0.060124073 -0.09342945 -0.15648136 -0.1251279
000080 8d f1 06 3e 33 2c 99 bc 36 71 04 be ea 1f af 3c
       0.13178082 -0.018697834 -0.12933812 0.021377522
000090 79 b2 41 bd 75 34 ac 3d 66 22 35 be f6 b1 85 3d
       -0.047289345 0.08408443 -0.17688903 0.06528084
0000a0 78 49 e1 bd 89 3d 8a bd 26 ec 46 3d ef 2b ad 3d
       -0.11000341 -0.06750018 0.048565052 0.08455645
0000b0 9a be ec bd 25 cd 4e bc b7 79 76 bd 85 8b c9 3d
       -0.11559792 -0.012622152 -0.06017467 0.09841064
0000c0 06 69 05 be b3 5c fc 3d 38 ea 78 3d 5a d6 40 bd
       -0.13028345 0.123223685 0.060770243 -0.04707942
0000d0 a4 ac 54 bc b0 5b 99 3d c0 1f e2 3c b6 a4 a3 3b
       -0.012980614 0.07488191 0.02760303 0.0049940003
0000e0 29 59 a4 3d ce 85 10 3d ef cd 15 3e d3 69 a9 bd
       0.080248185 0.035283856 0.14629339 -0.082721375
0000f0 6a 88 83 bd 3a 80 2d bd ba 03 97 3c f0 c3 bc 3d
       -0.06422503 -0.042358615 0.018434394 0.092170596
000100 75 f9 9b 3d c6 be 2a 3d 5a 24 bb 3c 61 63 d6 3d
       0.076159395 0.041685842 0.022844482 0.10468174
000110 20 72 b4 ba 77 06 99 3d 45 a2 9b 3d b5 5b 1c be
       -0.0013766922 0.07471936 0.0759931 -0.15269358
000120 06 0f 1f bd 72 ed 09 3d 83 1a 1c be 11 2d 1c 3e
       -0.038832687 0.03367371 -0.15244488 0.15251566
000130 5f f1 30 3d eb 51 db bd eb 78 7e bc df ef 08 3e
       0.04319894 -0.10708984 -0.015531759 0.13372754
000140 9a 1b c5 3d c4 5b d2 3d ad 81 e5 bd 4d 2d 03 be
       0.09624405 0.10271409 -0.11206374 -0.1281025
000150 2b 3a 68 3b 60 ee 22 3d 22 f8 89 bc 01 06 d7 bd
       0.0035435061 0.039778113 -0.016841952 -0.10499192
000160 da 09 87 bd 7a 4e 1f be 12 a9 90 bd 86 34 6f bc
       -0.06593676 -0.1555728 -0.070634976 -0.014599925
000170 0b 21 2b 3e 2d 46 13 be 4b d5 1c be 45 48 f3 bd
       0.16711824 -0.14382239 -0.1531574 -0.11879019
000180 a3 1c 01 3d c7 08 bd 3d 7a 99 db 3c 47 09 ae bd
       0.03152145 0.0923019 0.026806582 -0.08497863
000190 2c dd ad 3c ef 45 d5 bd 2b ff 13 3e b8 98 88 bd
       0.021223627 -0.104137294 0.14452808 -0.06669754
0001a0 94 7f 0f be 73 fc fe 3d 6b f1 53 bd c4 f9 91 bd
       -0.14013511 0.124504946 -0.051743906 -0.07127717
0001b0 2f db d4 bd 0a 4a d4 3d 91 3f 40 be 2f e0 9a 3d
       -0.103933685 0.10365684 -0.18774249 0.07562291
0001c0 22 bd b2 bd b6 f3 17 bd 77 5e e0 3d a8 e8 08 be
       -0.087274805 -0.037097655 0.10955518 -0.13370001
0001d0 85 18 f1 bd 82 26 c3 bd 50 64 31 3e c0 32 9e bc
       -0.11772255 -0.09528829 0.17323422 -0.019311309
0001e0 66 8c cb 3d 7b 56 a7 3d 9a 33 96 bd 82 2e c6 bd
       0.09938888 0.08170792 -0.07334061 -0.096768394
0001f0 64 ba d2 bc 17 86 bc 3d ad 72 85 3d d6 07 f9 3c
       -0.025723644 0.09205263 0.06516013 0.030399244
000200 38 06 95 bc 3c 6e 7b bc 32 ee eb bd eb 51 74 bd
       -0.018191442 -0.015346106 -0.115200415 -0.059648436
000210 26 8b f4 bd b0 49 95 3c 53 ac 01 3d 35 2f 18 3e
       -0.11940603 0.018223614 0.03165848 0.14861758
000220 f0 17 22 3d 9e b5 95 3d cb cc 27 be a7 07 c2 bd
       0.03957361 0.07310031 -0.16386716 -0.09474116
000230 b1 10 be bb 5d 27 98 3d 94 24 ce 3d 0e 06 a7 3c
       -0.0058003296 0.07429383 0.100655705 0.02038863
000240 07 e4 04 be 10 4a a1 bc 24 96 00 bd 4a 99 05 be
       -0.1297761 -0.019688636 -0.031393185 -0.13046756
000250 96 84 b5 3d ce 4c 23 be 45 0b 87 3c 24 9b 12 be
       0.088631794 -0.15947267 0.016484866 -0.14316994
000260 b7 81 13 3e 2b e5 3a bd 61 c1 02 3e ea 7c d6 3d
       0.14404951 -0.045628708 0.1276908 0.10473044
000270 ec 72 db 3d 2f 6f c7 3b 87 37 5a 3d 14 cf ef 3d
       0.10715279 0.006086252 0.05327561 0.11709419
000280 8a 63 6f 3c c3 98 28 be fc 86 e6 bd 42 fa 7a 3c
       0.014611134 -0.16464524 -0.11256215 0.015318455
000290 98 2d de bd b7 9b 13 3e 8b 7e 95 3b d2 73 53 3e
       -0.1084854 0.14414869 0.0045622042 0.2064965
0002a0 b5 11 ac 3d e3 94 0b 3e 1c bf b6 3d 43 9e 31 bd
       0.08401815 0.13631015 0.0892317 -0.04336382
0002b0 bd c4 94 bd 83 48 d2 bc 71 eb 5d 3e 70 9c 0f 3e
       -0.07264087 -0.025669342 0.21671845 0.1402452
0002c0 a7 ed 9e bd ed 44 15 be d7 65 48 bd 34 e1 17 bc
       -0.07760172 -0.14577074 -0.048925247 -0.009270001
0002d0 87 c8 ba bd f6 6c 19 3e 35 f3 26 3c c5 51 c7 3d
       -0.09120279 0.14982972 0.010189821 0.09732393
0002e0 1a e7 ca bd d0 75 ce 3d 1d 95 fa bc 58 c4 f9 bd
       -0.099073604 0.10081065 -0.03058868 -0.12195653
0002f0 4a d0 f5 bd 3c 5f b5 3c 65 f4 dc bc a0 9d 9c bd
       -0.120026186 0.022140138 -0.026972005 -0.07647252
000300 31 55 2e be 9e ca c8 3d 68 57 17 3e 38 35 b7 bd
       -0.17024685 0.09804271 0.14779437 -0.089456975
000310 88 cd 5f bb 86 1b ad 3d 54 ae 9b bd ac ed 26 bd
       -0.0034149606 0.08452515 -0.0760161 -0.040754005
000320 db 06 e5 bc 3f 42 40 bd 26 b4 be bd 0e 96 06 be
       -0.02795737 -0.046938177 -0.09311704 -0.13143179
000330 00 ce de bd 63 d3 3e 3d 22 7a 47 bd 00 7a 97 bd
       -0.10879135 0.046588313 -0.04870046 -0.073963165
000340 c9 86 f1 bc d4 cb 6c ba b8 b0 12 3e 0f a4 22 3d
       -0.029483216 -0.00090330583 0.14325225 0.03970724
000350 1d 56 a6 3d 0c 45 d4 3d 5b da 11 3e 98 98 72 be
       0.081218936 0.10364732 0.14243452 -0.23691022
000360 7d 55 09 be be 64 e2 bc be a2 29 bd 72 38 28 3e
       -0.13411517 -0.027635928 -0.04141497 0.16427782
000370 b6 3a a1 bb 5a 66 22 3e da dc 07 bd 37 59 92 3d
       -0.004920329 0.15859357 -0.033169605 0.07145923
000380 73 a6 ad bd 8b f7 1b bd 82 8c 8a bd ac c4 6d 3c
       -0.08479013 -0.038077872 -0.06765081 0.014512222
000390 59 e9 e0 bd fe c2 ea bd 95 04 2e 3e 7c 71 70 3d
       -0.109820075 -0.11462973 0.16993935 0.058701977
0003a0 43 d5 e5 bd 3d ef 01 bc e1 b8 f6 bd f3 ca e1 3b
       -0.11222317 -0.007930574 -0.120469816 0.0068906485
0003b0 38 ad eb bd 57 5f 97 bc 3f 88 1f 3e 74 13 5b 3c
       -0.11507648 -0.018478079 0.15579318 0.013371337
0003c0 9a 38 97 3d 24 62 79 3d e7 6b ba 3c 56 4d 7e 3d
       0.07383843 0.06088461 0.02275653 0.062085472
0003d0 44 11 19 be bb 2e 53 bd 52 ad bd bd 19 83 3b 3d
       -0.14947993 -0.051558238 -0.09261574 0.04577932
0003e0 bd 87 c2 bd ba da f1 bd 2b 6e 06 3e 21 0f 52 bd
       -0.09498546 -0.11809297 0.13127963 -0.05128396
0003f0 fa ab 7a bd 97 59 bd bd 71 31 d6 3d 07 ed e6 bd
       -0.061199166 -0.092456035 0.10458649 -0.11275678

transformer_encoder.layers.0.self_attn.in_proj_bias f4 [192]
000000 ed e8 42 3d 42 1e 4c 3d 1e b8 b4 bd 11 81 8a bc
       0.047585417 0.049833544 -0.0882418 -0.016907247
000010 77 f2 bd 3d 4a 2b 8b 3d 0c f2 aa bd 17 f0 5e bb
       0.09274762 0.06795366 -0.08346948 -0.0034017616
000020 ca 23 0b bd 80 7a b6 3d a5 10 2b bd 51 c2 41 bd
       -0.033969678 0.08910084 -0.04176392 -0.047304455
000030 f8 fc c9 3c ac 79 39 bd 74 1f 07 3c 4c 4d 0c 3d
       0.024656758 -0.04528205 0.008247245 0.034253404
000040 00 47 b6 3a a3 84 9b bd 64 29 81 bd b6 cd cb 3c
       0.0013906658 -0.07593658 -0.06306723 0.024878364
000050 7f 07 9e bd 2e ea 5d bd 0c 22 d6 3d 04 4c 60 bd
       -0.077162735 -0.05417841 0.10455713 -0.054759994
000060 4f c9 49 bd a5 fe 47 bc e2 27 3d 3c fd c7 14 bd
       -0.04926425 -0.012206708 0.011545153 -0.036323536
000070 42 22 bc 3c 38 b2 1f bd 73 92 6a 3d ad b2 20 bd
       0.022965554 -0.038988322 0.05726857 -0.0392329
000080 91 e5 12 3d 7d 55 5b 3d 21 9b 4c 3d 13 77 d3 bd
       0.035863463 0.053548325 0.04995263 -0.10325446
000090 7c 7f 2d 3d 20 2a 8f bd 28 00 94 3b bc bc 72 3d
       0.042357907 -0.069904566 0.00451662 0.059262022
0000a0 c4 6e 99 bb 39 3a c7 3c 56 1a c7 bd 64 ca de 3c
       -0.0046823937 0.024319755 -0.0972182 0.027196117
0000b0 57 67 4e 3d 27 68 c6 3d 14 ad cf bd 6a ec 4d 3c
       0.05039152 0.09687834 -0.10140434 0.012568573
0000c0 9c 3c 79 3d c9 52 d6 3b 17 ac 99 bd 49 11 3a bc
       0.060848817 0.0065406305 -0.07503527 -0.01135666
0000d0 1d d2 0a bd 0a 4d 57 3d 8c 3b 99 bd 92 7c aa 3d
       -0.033891786 0.052563705 -0.07482061 0.08324541
0000e0 ff 83 55 bd 0c 12 96 bc 58 69 f3 bc 72 a1 d7 3b
       -0.052127834 -0.018319152 -0.029713318 0.006580525
0000f0 77 11 14 be 2f 1e 8d bc d4 b6 a2 bd b1 2a 95 bd
       -0.14459787 -0.017226307 -0.07945028 -0.07283533
000100 c7 ed 4d bd 9d 02 0d bc 01 29 16 3e 1e 99 82 3d
       -0.05027559 -0.00860658 0.14664079 0.06376861
000110 dc 73 01 bd 2c 5a f9 bd 1c f9 40 bc 2d 19 0e 3d
       -0.031604633 -0.12175402 -0.011778142 0.03469198
000120 b2 1a 8c 3b 01 34 b3 bb b2 c0 99 3c e6 f0 40 3d
       0.0042756433 -0.005468846 0.018768642 0.04710474
000130 22 4a 8e bd 4e 68 87 3d d4 3a 9f bc 8a 52 07 bd
       -0.069477335 0.066116914 -0.019437231 -0.0330377
000140 71 f2 79 3d 19 bc 58 3d de 56 23 3d 62 1d 7f bd
       0.061022226 0.05291376 0.039877765 -0.06228388
000150 b4 fd 26 3d e6 59 5e 3d fd a1 3f bd 86 4d e8 3d
       0.040769294 0.054284953 -0.046785343 0.113429114
000160 2e 1e 3d 3c 0c 33 8d bc 11 28 4b bc 39 08 05 3d
       0.01154284 -0.017236255 -0.012399689 0.032478545
000170 ca 47 56 3c d2 a4 4a 3d 9a 54 00 bc a6 f8 4b 3d
       0.013078639 0.04947359 -0.007832671 0.049797677
000180 f9 16 a1 bb 21 ca df bd 7d 53 41 bd b4 e5 07 3e
       -0.0049160686 -0.10927225 -0.04719876 0.13271219
000190 07 c6 45 bb 49 a0 47 3d 07 9a b3 3c 1b 88 b1 bd
       -0.0030177848 0.048736844 0.021924032 -0.08668538
0001a0 15 c8 64 bb 0b 83 29 bd bb 5a fa 3d ac a6 05 bd
       -0.0034909297 -0.041384738 0.12224337 -0.032629654
0001b0 24 db ae bc d9 34 c0 bd 91 ff 81 3d 3a cc 34 bd
       -0.021344729 -0.0938508 0.063475735 -0.044140078
0001c0 f9 5d bf bc 05 26 d8 bc 46 f8 6f 3b 73 ec 3a 3a
       -0.02336024 -0.026385317 0.0036616488 0.00071305706
0001d0 76 15 88 3d f0 d7 64 bd d0 27 be 3d e9 25 de bd
       0.06644718 -0.055869997 0.092849374 -0.108470745
0001e0 c7 49 ee 3c c9 b4 3c 3d 1e 0f 3f 3b cd ef 22 bd
       0.029087914 0.046070848 0.0029153298 -0.039779473
0001f0 f0 0a 0f 3e ed a9 de bc 07 46 75 3d c2 fb 05 3d
       0.13969016 -0.027180636 0.059881236 0.032710798
000200 11 3a db 3d 24 5f 86 3e 0e ed 8e be 19 46 fd 3d
       0.10704435 0.26244462 -0.27915233 0.12366886
000210 23 42 f4 3d 1b f6 0b bd cd 2a ed bd a0 5d 8e 3e
       0.11926677 -0.03417025 -0.11580429 0.27805805
000220 87 00 4b be c2 11 1c 3e ba f8 92 3d 0c 42 ab be
       -0.1982442 0.15241149 0.07176347 -0.33448827
000230 41 03 db 3d d7 20 98 bd 2f 8a 2f 3e 33 f5 9a 3c
       0.1069398 -0.07428139 0.17142557 0.018915748
000240 cb 7c ba 3c 05 79 14 3e 9e aa b7 bd 49 78 3c be
       0.022764584 0.1449929 -0.089680895 -0.1840526
000250 25 b6 9a 3c e9 b5 f9 3b 73 72 4e 3e e5 bd 10 3e
       0.018885681 0.0076205623 0.20160846 0.14134939
000260 ec 4e da be d9 f5 bf bd 81 cc 4b be 24 67 02 be
       -0.42638338 -0.093730636 -0.19902231 -0.12734658
000270 a7 90 23 be de 3e 3b bc df 2e 6e be 37 46 39 3e
       -0.15973149 -0.011428563 -0.23260067 0.18093191
000280 10 02 c8 be ba 8c e7 3d aa 14 71 be d5 97 2e be
       -0.39064074 0.11306138 -0.23543039 -0.17050107
000290 f7 53 3d be 4b b4 53 3e b4 b0 7d 3e 91 ca 88 3e
       -0.18489061 0.20674245 0.24774438 0.26717046
0002a0 be 9a ac bc a5 88 24 3d 16 1a 93 bd dd 52 c7 bd
       -0.02106988 0.040169377 -0.0718271 -0.09732602
0002b0 55 04 a0 be 20 f3 e1 3d 55 27 bd 3d b0 dc 65 3d
       -0.31253305 0.110327005 0.092360176 0.056118667
0002c0 2c ac 38 be d7 f1 49 3d c2 ff a2 3c 60 cd 83 3e
       -0.18034428 0.049302902 0.019897345 0.25742626
0002d0 be 3c 05 be ea b6 97 3e 6c d6 02 be 90 3c 3a 3e
       -0.13011453 0.2963174 -0.12777108 0.18187165
0002e0 2e c9 71 3d ed 49 85 3e df b2 82 3d c3 bc cb bc
       0.05902975 0.26032963 0.06381773 -0.024870282
0002f0 73 b3 5f be 7e 50 fb 3c 4a 77 c8 3b 77 56 7a 3e
       -0.21845798 0.03067803 0.006117736 0.24447046

transformer_encoder.layers.0.self_attn.out_proj.weight f4 [64, 64]
000000 38 3e 6f bc ec 5b e9 3c 14 42 07 bc 68 ac 9e 3a
       -0.014602236 0.028486215 -0.0082555 0.0012105824
000010 e2 35 e0 3b db b8 5f 3b be 26 4f bc 5c 52 1c 3b
       0.006842361 0.0034137282 -0.012643514 0.00238528
000020 bd ba a7 3a d5 1d 8d 3a cc 0f 7c 3c d0 d7 ac bb
       0.0012796741 0.0010766337 0.015384626 -0.0052747503
000030 54 6c 22 3c 89 83 62 3c cc d6 87 3c 17 d7 84 bc
       0.009913523 0.013825306 0.016581915 -0.016215844
000040 b1 51 2d bc b7 ce 94 bb e8 dc 02 3c af 97 e5 3b
       -0.010578559 -0.004541244 0.0079872385 0.0070066075
000050 84 4a 6d 3a bc 9b d9 3c c7 cb 16 bb 7c 9e a9 bb
       0.0009051936 0.026563518 -0.0023009644 -0.0051763635
000060 cc 9c b7 bd fd 48 fd bc 8d 8d b9 b9 2b 84 3a bd
       -0.089654535 -0.030918593 -0.00035391413 -0.0455362
000070 47 be 51 bc 10 59 40 3c 76 50 0f bc b6 a6 4b 3c
       -0.012801713 0.011739984 -0.008747211 0.012429884
000080 31 b3 75 3a 7a e0 13 3b 64 5a b1 bc 3b d6 2c 3c
       0.000937271 0.0022564218 -0.021649547 0.010549123
000090 ff 18 a6 3c 0d 71 89 3c 76 19 95 3b 9e cc ea 3c
       0.020275591 0.01677754 0.0045501543 0.028662022
0000a0 24 a5 ae bc 87 10 2b 3c 69 5b 80 3a 7a d2 04 bc
       -0.02131898 0.010440952 0.0009792867 -0.008106822
0000b0 4c 7e a3 3c c1 4d 5e bc 64 ac 26 bc 7c 11 3a bc
       0.019957684 -0.013568343 -0.010172937 -0.011356708
0000c0 bd 0b bd bc 55 eb 3c 3c 91 ab 32 bc dd 55 56 ba
       -0.023076886 0.011530717 -0.010905162 -0.0008176247
0000d0 43 d5 a5 bb db 2a 31 3c 7d ff 0a 3c eb c4 ee ba
       -0.005060823 0.01081344 0.008483765 -0.0018216645
0000e0 88 1e 8e 3c 60 6e c7 3c 16 ba e3 bc 01 15 e0 bb
       0.017348543 0.024344623 -0.027798694 -0.0068384414
0000f0 cc ed 83 bc 24 5d 60 bc 4f fa 46 39 54 5a 2c 3c
       -0.016104601 -0.013694081 0.00018975999 0.010519583
000100 f1 16 9a 3b cc 96 78 3b 8c 8d 8e ba 2a db ba bc
       0.004702442 0.0037931679 -0.0010875924 -0.022809584
000110 c8 60 f1 bc 6f d7 a7 3a cb 6c b1 bc aa 39 80 bc
       -0.029465094 0.0012805293 -0.021658322 -0.015652496
000120 50 a2 fa 3b f5 46 04 3d 7d d4 bb 3c a8 6a e7 3c
       0.0076487437 0.032294232 0.02292847 0.0282491
000130 d9 c2 fd 3b cb 27 50 3b b0 42 95 3b 2f 2f 1d 3c
       0.007744175 0.0031762 0.004555069 0.009593769
000140 f9 42 cf bc d4 70 76 3c ab 2b 0d 3c 9f 69 08 bd
       -0.02530049 0.015041549 0.008616368 -0.033303853
000150 d8 50 7a bc ef c3 e3 ba 36 75 24 bb 5e a3 55 b9
       -0.015278064 -0.0017377118 -0.0025094277 -0.00020374122
000160 53 ad c8 3c 94 82 83 bc 6c 26 2c 3b 4b be bb 3c
       0.02449671 -0.016053475 0.0026268018 0.022917887
000170 a0 a5 8f bc 70 da 04 bc b9 bc 8d 38 f9 3b 08 3d
       -0.01753503 -0.00810872 6.758556e-05 0.03326032
000180 ca 13 a0 3b 5f 9d 7c bc 68 7f 37 bd 64 ff ad 3c
       0.0048851715 -0.01541838 -0.04479924 0.021239944
000190 c2 d6 a9 3c 11 50 12 bd 36 c4 34 3c ec e0 31 3d
       0.020732287 -0.03572089 0.011033108 0.043427393
0001a0 a2 8e d8 b9 19 6d a4 b9 9a 27 03 bc fd ec 92 3a
       -0.00041305 -0.00031361802 -0.008005047 0.0011209544
0001b0 57 b9 1d 3b 6d ae 83 3c 10 ed a5 bc 74 d7 50 3c
       0.002406677 0.016074384 -0.020254642 0.0127466805
0001c0 67 86 34 bc b1 2b 28 bd 21 db 27 3c 32 ed f9 bc
       -0.011018372 -0.041057292 0.0102451155 -0.030508611
0001d0 10 00 63 bc cb 31 71 3c 05 6a 24 3d ec 3d 46 3c
       -0.013854995 0.014721344 0.04014017 0.012099724
0001e0 a8 a3 0e 3c fa 37 0d bc a8 38 a9 bc 7f 1e 96 bc
       0.008706011 -0.008619303 -0.020656899 -0.018325089
0001f0 12 a7 24 bc 06 25 e0 bb 48 db 38 bb 1d c4 1b bd
       -0.010049598 -0.006840351 -0.0028206874 -0.038028825
000200 3e 68 23 bc 96 a3 ed bc 08 bf eb 3b 0b b7 41 bc
       -0.009973584 -0.029008668 0.0071944036 -0.011823426
000210 a0 ea ac bc 8e a3 b7 3b 5a 04 6f bb 62 a3 be bc
       -0.021107972 0.005604214 -0.00364711 -0.023271266
000220 58 2e b2 3c 19 c3 07 bc fd 0a a6 3b fb f0 0b 3c
       0.021750614 -0.008286261 0.005067228 0.008541341
000230 90 86 8c ba c5 41 e1 3c 04 98 10 bb 0f 68 20 bc
       -0.0010721255 0.027497182 -0.0022063265 -0.0097904345
000240 e3 58 b6 3c 01 8a b8 bb fa b6 80 bc 1b d1 02 bc
       0.022259181 -0.0056316857 -0.01571225 -0.007984425
000250 71 db 88 3c ea 67 af 3c 78 03 c2 bc 80 e1 0e bd
       0.0167062 0.021411855 -0.023683295 -0.034883022
000260 88 d0 1a 3d 12 90 03 bd aa 73 46 bc f3 57 62 bc
       0.037796527 -0.032119818 -0.012112537 -0.013814914
000270 73 4b dd bc 4a d5 69 3c ba 70 00 bb 91 f3 06 bd
       -0.027013516 0.0142720435 -0.001959844 -0.032947127
000280 eb c9 ae 3b 6d c7 cf bc 0e 8e 53 bb bf 92 0d 3d
       0.005334129 -0.025363648 -0.0032280716 0.034563776
000290 85 fc 8b 3b 47 8a 2a bb ec f0 14 3a 63 90 22 3c
       0.004272046 -0.002602236 0.0005681652 0.00992212
0002a0 d4 5f d6 bc 54 1e dd 39 7d 6f c8 3a 7e 9b f7 3c
       -0.026168741 0.00042175 0.0015292015 0.030225512
0002b0 ae f3 df 3c f3 49 db 39 5d 69 21 3a da b1 bf 3c
       0.027337875 0.00041826032 0.0006157363 0.023400236
0002c0 db 79 4b bb 0a 98 94 bc 39 0a d6 3c 2d 52 37 bb
       -0.0031047973 -0.018138904 0.026127921 -0.0027972565
0002d0 d9 35 e8 3c 96 5f 18 ba a3 ad 4a 3c 32 83 a9 bc
       0.028345989 -0.0005812583 0.0123705 -0.020692442
0002e0 ba b4 5b 39 5a e2 1b 3c 52 75 83 3c e0 65 88 bc
       0.00020952793 0.009514416 0.016047154 -0.01665014
0002f0 d8 2d 04 3d f8 b6 b7 3a 63 1a 34 3b 18 97 cc bb
       0.032270283 0.0014016321 0.0027481548 -0.0062435977
000300 45 e7 24 3c 2f 82 7d 3b dd 70 9e 3c b4 e5 19 ba
       0.010064905 0.0038682332 0.019340927 -0.0005870715
000310 0f 9b 52 3c 74 30 4c bb 1f 3f 3e 3b d9 84 4d 3c
       0.012854352 -0.003115681 0.0029029322 0.01254388
000320 7e 49 65 ba 1c 56 53 bc 74 09 68 bc 9a cf 11 bc
       -0.0008746608 -0.012898948 -0.01416241 -0.008899594
000330 38 f6 43 bc 1c 6f 80 bc d5 5e 16 bc 57 6f ec 3c
       -0.011960559 -0.015677981 -0.009177883 0.028861685
000340 d6 fd 93 3c 58 da 80 bc 65 9b 2a bc bb 3b 1a 3c
       0.018065374 -0.015729114 -0.0104130255 0.009413655
000350 61 1a 35 3b 8a e4 a3 3c 0f 51 0b bc f6 5f 48 bc
       0.0027634131 0.020006437 -0.008503213 -0.01222991
000360 b9 4a b1 3c eb 7a 94 bb 39 de 8a 3c ac 85 30 3b
       0.021642076 -0.0045312545 0.016951667 0.0026935143
000370 b8 90 eb 3a 9c 89 b8 3c d6 28 da 3c 2e c4 f7 bb
       0.0017972207 0.022526555 0.0266308 -0.0075612282
000380 ee c4 67 3c 61 34 a7 bb 72 5b 3b bb d2 c6 2b 3c
       0.014146073 -0.0051026796 -0.0028588441 0.010484414
000390 e3 bd 43 3b 74 ed c0 bc 55 15 10 bb 75 1f 97 bb
       0.002986782 -0.023550726 -0.002198537 -0.0046119043
0003a0 62 a3 87 bb c5 53 ef bb 86 7e 8c ba 86 e4 56 bc
       -0.00413935 -0.0073036873 -0.0010718859 -0.013116008
0003b0 ee 93 f9 bb 70 b7 d2 bb 1c fa c9 bb 79 66 0e 3c
       -0.0076165115 -0.006430559 -0.0061638486 0.008691424
0003c0 a7 38 20 3b 5d 78 0b 3c dd a3 83 bc c9 41 d0 bc
       0.002444783 0.008512584 -0.016069347 -0.025421994
0003d0 78 2e cb 3b 5a 33 e8 bc d1 59 1b 3c 3f c0 21 3b
       0.006200608 -0.028344799 0.009481863 0.0024681238
0003e0 c6 f4 8e bc ff 1e 10 bd f9 75 92 3b e5 72 73 bc
       -0.017450701 -0.03518581 0.00446963 -0.014858936
0003f0 76 02 74 3c a8 fe e0 3b c4 33 ad bb 49 66 05 bd
       0.014893165 0.006866295 -0.005285712 -0.03256825

transformer_encoder.layers.0.self_attn.out_proj.bias f4 [64]
000000 4f 10 3d 3d 9e 45 8e 3b 6a 8c 21 bc ed c3 0b bd
       0.04615813 0.004341795 -0.0098601375 -0.034122396
000010 fd d8 d1 3c 42 1a ea bc 34 93 64 bd 7b 08 ae 3c
       0.025616163 -0.028576974 -0.055804446 0.021244278
000020 fd 34 70 bc 98 68 f0 bc 91 02 1d bc 52 a2 cc bb
       -0.014661071 -0.02934675 -0.009583131 -0.006244936
000030 3c b2 4f bb e8 02 d5 3c f6 90 07 bc 5e bc a5 3b
       -0.003169193 0.026002362 -0.0082743075 0.0050578555
000040 6d b4 b2 3c 2b a0 81 bc 1e 29 ab 3b c6 2b 19 3c
       0.02181455 -0.015823444 0.0052234074 0.009348815
000050 b7 07 90 3a a2 f7 c0 bb f0 19 90 3c 5a ba a7 3c
       0.0010988627 -0.005888895 0.017590493 0.020474602
000060 36 14 46 3c ab 4c d6 3c 34 a4 32 bc 1b ff b9 bc
       0.01208978 0.026159605 -0.010903407 -0.022704652
000070 6d a8 5e 3d b3 b9 ab bb 1f f8 ff bb 43 70 a2 3c
       0.054359842 -0.005240643 -0.0078115608 0.019828921
000080 aa 02 92 3c bb d1 ac 3c 48 42 9f bb 7c 88 a8 bc
       0.017823536 0.021096101 -0.0048601963 -0.020572893
000090 c1 15 67 3d b4 70 d7 3a 88 a7 96 3c a4 72 ea bc
       0.05641723 0.0016436786 0.018390432 -0.028619118
0000a0 b4 d6 e7 bb ff 45 13 bd 3a 89 45 3b 99 59 ed 3b
       -0.007075155 -0.035955425 0.0030141608 0.007243347
0000b0 38 c8 37 3b cf 16 72 3c e5 ed d7 bb 52 09 91 3b
       0.0028042924 0.014775946 -0.0065896385 0.00442616
0000c0 f6 49 98 bc f5 96 c3 3c 9f 82 84 bc 8c 92 5b bb
       -0.018589955 0.023875693 -0.016175566 -0.0033504097
0000d0 a7 7a bd 3b 39 65 be bc 00 f0 93 bc cc c8 0d 3c
       0.0057824436 -0.023241626 -0.018058777 0.008653831
0000e0 52 3c 9c 3a 4d 77 4b bc 78 e0 04 bc cb d5 33 3c
       0.0011919832 -0.01241858 -0.008110158 0.010976265
0000f0 ac 68 a4 3b 6e 46 f5 3b c8 55 f9 b9 18 42 81 bb
       0.0050173607 0.0074852025 -0.00047556893 -0.0039446466

transformer_encoder.layers.0.linear1.weight f4 [128, 64]
000000 32 6c 4a be ed 02 08 bf e2 34 88 be 95 11 89 bd
       -0.19767836 -0.53129464 -0.26602846 -0.06692807
000010 fe 67 b4 3c 66 1c ce bd ba e9 59 be f1 be 86 3e
       0.022022244 -0.1006401 -0.21280566 0.26317552
000020 69 e9 fb be 63 8b b1 3e f4 a5 33 be 47 58 47 be
       -0.49201515 0.34676656 -0.17543775 -0.19467269
000030 d0 8d 86 3e 06 28 9a bd 25 ac 0c 3e 48 ac 0c be
       0.2628007 -0.07527165 0.13737543 -0.13737595
000040 58 71 d1 be 7a e8 24 bd 3b e0 bb 3b 13 cd 03 be
       -0.40906787 -0.04026077 0.0057335175 -0.12871198
000050 14 e3 65 3e c5 6b 19 3e 4f 3c 77 3e 5d 26 21 3b
       0.22449905 0.14982517 0.241441 0.0024589517
000060 3a 3b a4 3d ab 2a 4b be 84 c5 a2 be dc 83 76 3e
       0.08019109 -0.19840495 -0.31791317 0.24073738
000070 ac 77 b9 bd bf 84 94 3d 15 60 56 3e ea c0 54 3e
       -0.09056029 0.07251882 0.2093509 0.20776716
000080 f0 b1 75 3e a2 16 3f 3c ff 0e 9c bd ff 55 8b bd
       0.23993659 0.011663111 -0.07620048 -0.06803512
000090 aa 5e 92 bd b0 82 f6 bb f9 ee a8 3d 8e d1 d9 3d
       -0.07146962 -0.0075229034 0.082487054 0.106356725
0000a0 69 e6 8f 3e 5c e6 ca 3c e5 7c 28 3e 68 16 04 bf
       0.28105476 0.024768047 0.16453893 -0.5159669
0000b0 61 b6 8c be fb f4 95 3e b6 ac ab 3e ab 70 ae 3d
       -0.27482894 0.29288468 0.33530205 0.085175835
0000c0 e5 28 26 3e 9e 53 60 3d 56 ea 23 3d c4 5b fe bc
       0.16226538 0.054767244 0.040018402 -0.031049617
0000d0 81 51 3e 3d ba 0b 89 3d a1 29 64 bc 1b 01 43 be
       0.046464447 0.0669169 -0.013925941 -0.1904339
0000e0 50 39 30 3d 7d c0 79 3d c8 6b a3 3c de 72 b6 bd
       0.043023407 0.060974587 0.019948855 -0.08908628
0000f0 52 bd 3d 3d 8d 0a 5f be 5d f6 90 3e 79 2c 3b be
       0.046323128 -0.21781369 0.2831296 -0.18278684
000100 40 52 a1 be 07 5d aa 3e 46 f8 52 3e ed b5 63 3e
       -0.31508064 0.332741 0.20602521 0.22237368
000110 79 36 10 be 98 11 33 3e 6f 4c 39 be c1 06 82 3e
       -0.1408328 0.1748718 -0.18095563 0.25395778
000120 80 c2 b4 bd cb 67 b0 3e 28 52 48 be d9 b6 89 bd
       -0.088261604 0.34454188 -0.1956259 -0.067243285
000130 af c3 be 3d 0f 34 59 3e c7 90 04 be e4 00 9a 3d
       0.093146674 0.21211265 -0.12945853 0.07519701
000140 1c 04 f6 3d 46 d6 fd bb 76 2f 0f 3c 48 39 ab bd
       0.120125026 -0.0077464906 0.008739343 -0.08360535
000150 82 10 22 3e 69 80 07 3e 57 fb b6 bd 7b 8b 28 be
       0.1582661 0.13232578 -0.08934658 -0.16459458
000160 53 5b c3 3d 43 30 05 3e cf 3b 7d bd 13 6b 60 bd
       0.09538903 0.13006692 -0.061824616 -0.054789614
000170 54 bd d3 3d 91 76 c5 3e 5b 5e 00 3e 1f 5d 96 bc
       0.10338846 0.3856702 0.12535994 -0.01835495
000180 20 e1 1f 3d c5 fd c3 3d b1 0e b5 3d 92 c5 35 3e
       0.039033055 0.09569887 0.08840693 0.17751148
000190 51 19 76 be 72 c8 e8 bc 2f 35 99 be ff 52 c9 bd
       -0.24033095 -0.028415892 -0.29923388 -0.098302834
0001a0 31 6e 81 3e 21 60 d3 3d f4 23 35 bc 39 b4 0d be
       0.25279382 0.103210695 -0.011055935 -0.1383828
0001b0 6a 5d c7 bd e4 11 cc bd 22 7c 58 3e c4 a4 ac bd
       -0.09734614 -0.0996435 0.21141103 -0.08429864
0001c0 d8 6b 56 be e6 ec da bd 01 47 5c bb d1 7e 5d be
       -0.20939577 -0.10689716 -0.0033611658 -0.21630408
0001d0 6a 15 8b be 24 64 cd 3d ca 46 4b 3e f2 81 70 be
       -0.27164775 0.10028866 0.19851223 -0.2348707
0001e0 2d de 51 bd 0d 6d c3 be 5c b6 b0 be e5 eb 98 be
       -0.051237274 -0.38169137 -0.3451413 -0.29867473
0001f0 c5 6d c6 be ed c1 80 be 06 64 1f 3e 5a 84 4b be
       -0.38755623 -0.25147954 0.155655 -0.19874707
000200 5f 05 a0 be 6e 64 26 bc 96 a7 02 be 1f 5c 21 3e
       -0.31254098 -0.01015578 -0.12759241 0.15757798
000210 67 0c 17 3d 50 71 94 bc 10 1a ec bd 8e 98 88 be
       0.036877062 -0.018120438 -0.115284085 -0.2667889
000220 b1 69 9c be d2 94 a5 bd 40 9d 3a 3e 60 72 90 3d
       -0.30549386 -0.08085026 0.18224049 0.07053065
000230 be e5 04 3e ac 9f b8 be 24 77 6c be e1 0c ab bd
       0.12978265 -0.3605932 -0.23092324 -0.08352066
000240 df 6a 8a 3c 8e 9b 71 3e 42 e7 eb bd 47 37 d9 3d
       0.016896663 0.23594496 -0.11518718 0.106062464
000250 0a 06 1c be 09 2a 73 3d 33 17 cc 3c bf f1 e8 be
       -0.15236679 0.05936626 0.024913406 -0.45496938
000260 6a f7 8a be 9b e1 89 bd 2c 0b 31 3d 02 e2 a2 3c
       -0.27141887 -0.06732484 0.043223545 0.01988316
000270 8f cb 9c bd f0 10 06 3e 14 5f d7 bd a3 70 e7 bc
       -0.07656013 0.13092399 -0.105161816 -0.028251952
000280 3c 99 0f 3e e0 d2 86 be 3d f8 b7 3c 9a 54 b0 3e
       0.14023298 -0.2633276 0.022457236 0.34439546
000290 56 13 07 bf e7 8d c1 bd fb c1 7e be 33 10 78 3e
       -0.5276388 -0.09450894 -0.24878685 0.2422493
0002a0 78 60 7a 3d cd dc 81 3d e2 5d e8 3d 1e fc 33 be
       0.061127156 0.063409425 0.11346032 -0.17576644
0002b0 60 09 cd ba b8 7c 26 3e 4b f0 2c 3e 46 fc d4 3d
       -0.0015643053 0.16258514 0.1688854 0.1039968
0002c0 49 ac 8a 3e d8 7d eb 3d d0 67 9e 3c 9f 01 02 3e
       0.27084568 0.11498612 0.019336611 0.12695931
0002d0 f9 ad b0 be f1 1e cd bd 0d a8 1e 3c 80 ff 72 3d
       -0.3450773 -0.10015667 0.009683621 0.059325695
0002e0 df f2 6c 3d 00 68 8b 3e 03 0d 04 bd 67 94 94 3e
       0.057848807 0.27227783 -0.03223897 0.29019472
0002f0 14 ae e4 3c 68 b1 e8 bd 24 7d 83 3e 2d 5d 93 3e
       0.027915038 -0.113619626 0.25681412 0.28782025
000300 e8 b1 2b be 75 1c 63 3d 6b be 0c 3d bc 75 76 3d
       -0.16767085 0.05544706 0.034361284 0.060170874
000310 4a e8 45 be c2 c6 b5 3e 18 75 9d 3d 6f d8 2a be
       -0.19326892 0.35503203 0.076883495 -0.16684125
000320 07 5e 08 bf 54 eb 05 3e ab 91 f5 3d 60 6e ea 3e
       -0.53268474 0.13078052 0.119906746 0.45787334
000330 27 d0 5d bc fd 21 7b bd 13 a8 ee 3d f0 cb 81 be
       -0.013538397 -0.06131171 0.11653151 -0.25350904
000340 dc e9 c4 bd 54 a8 d5 3d c4 6a ab 3d cb d7 39 be
       -0.09614918 0.10432497 0.08369973 -0.18148725
000350 62 1a 56 3d 42 46 cf bd bd a9 28 be 9f f6 36 be
       0.052271254 -0.101208225 -0.16471 -0.17867516
000360 b9 6a 2d be 7e 9b 60 be f3 f4 cb bd 51 bc dc 3e
       -0.16935243 -0.21934316 -0.0995883 0.43112424
000370 7b 7a 98 3d 01 b6 30 be 26 8d 78 bd 4a d5 6b 3e
       0.07445236 -0.17256929 -0.060681485 0.23030582
000380 77 ce dd bd 24 9c a7 be ef 16 88 b9 86 6c 89 3d
       -0.10830396 -0.32736313 -0.00025957028 0.06710152
000390 aa f8 c0 be 79 86 51 be 16 e9 e4 be 6b 0f cd bd
       -0.37689716 -0.20461453 -0.4470908 -0.10012706
0003a0 a7 0c 80 3e 02 ec 8b 3d bc b1 ca 3e 16 f4 30 bd
       0.25009653 0.06832124 0.39588726 -0.04320153
0003b0 ef d1 9f 3d 25 80 32 3e 84 27 91 3e 73 f2 7f be
       0.078037135 0.17431696 0.2835046 -0.24994831
0003c0 b2 55 96 3d 02 d2 fd bc 88 84 ad 3e 56 b7 0b 3d
       0.07340564 -0.030983929 0.33890176 0.03411039
0003d0 28 de ea bd cd 0e 0f be 42 ed 3d 3e 95 90 20 3e
       -0.11468154 -0.1397049 0.18547538 0.15680154
0003e0 cf c9 fd bd dc a8 3e be b0 8b a7 bd 39 c8 5c be
       -0.123920076 -0.18619102 -0.0818094 -0.21560754
0003f0 b9 f1 ba bd 03 cc fc 3d 5d 8c 9c bc 82 bc 5e be
       -0.09128136 0.123436 -0.0191099 -0.21751598

transformer_encoder.layers.0.linear1.bias f4 [128]
000000 2e 8d 29 be 45 04 92 bc c9 e9 a4 be 5d 9e fc bd
       -0.16557762 -0.017824301 -0.32209614 -0.12334893
000010 ea ed b0 be 04 f4 ed bd 6f fc ba be 48 44 cb be
       -0.34556514 -0.11618808 -0.36520717 -0.39700532
000020 10 36 19 be 94 51 94 be 57 ca 4c bd 97 49 31 be
       -0.1496203 -0.2896849 -0.049997654 -0.17313229
000030 14 7b a0 bc a6 8e b6 be 8f 02 f9 be b8 be 75 be
       -0.019589938 -0.35655707 -0.48634765 -0.23998535
000040 79 9b ad be ec 13 da be 4a 84 74 be 7e 8c 99 be
       -0.3390768 -0.42593324 -0.2387859 -0.2999
000050 45 ca 32 be ba 38 c5 be aa 6b b5 be 7e 69 64 be
       -0.17459972 -0.3851984 -0.35433704 -0.22305867
000060 fa 61 c8 be 60 14 fe be 6d 05 b6 be 7f 6b be be
       -0.3913725 -0.4962492 -0.35551015 -0.37191388
000070 fd 11 82 be 81 6e a1 be 13 3c b6 be 9c f2 8e be
       -0.2540435 -0.3152962 -0.35592708 -0.2791947
000080 37 fb 1e bd af ea 48 be bf 20 54 be 9d 53 8f be
       -0.038813796 -0.19620775 -0.20715617 -0.2799348
000090 00 06 d9 be 07 95 90 be 6d d0 0e be 0b 27 a7 be
       -0.4238739 -0.282387 -0.13946696 -0.32646975
0000a0 db 20 b5 bd bc a8 9d be cc 04 b6 be 12 c4 d0 be
       -0.08844157 -0.30792797 -0.35550535 -0.4077459
0000b0 6e f5 b6 be 46 8c 13 be 2c 82 87 be 4a 75 2c be
       -0.35734123 -0.14408979 -0.264665 -0.16841617
0000c0 3b a7 e4 bd 37 86 92 be 39 e7 a1 be 2c 4b 54 be
       -0.11164709 -0.28618023 -0.3162172 -0.20731801
0000d0 9a c9 7b be d7 ee 55 be 99 69 4a be dc 45 b4 be
       -0.24588624 -0.20891891 -0.19766845 -0.35209548
0000e0 af 5f 20 be 6b 20 e1 bd 8e 01 8a be b7 ba 8f be
       -0.156615 -0.10992511 -0.2695431 -0.2807214
0000f0 a3 27 f8 bd 3c 2b 08 be bc be 27 be b0 72 e9 bd
       -0.12116935 -0.13297743 -0.16381353 -0.11398828
000100 8f d3 83 be 71 f0 75 be b1 d3 9f be 7b 66 72 be
       -0.25747344 -0.24017502 -0.31216195 -0.23671906
000110 8d 30 ac be 31 f4 ba be 38 18 bd be a0 6f 8c be
       -0.3363079 -0.36514428 -0.3693254 -0.27428913
000120 33 97 a0 be 99 c6 9c be 0c a2 4e be a9 ff 56 be
       -0.31365356 -0.30620268 -0.20179003 -0.20995964
000130 82 e8 a0 be 33 a0 82 be 66 ca a2 be 6a 4c 7b be
       -0.3142739 -0.25512847 -0.31795043 -0.24540868
000140 7e 60 01 be 74 7b 37 be b1 11 c8 bd 2f ac ba be
       -0.12634465 -0.17918187 -0.09768999 -0.3645949
000150 9f d0 87 be 06 4c ca be 04 ed 4a be 4a 58 92 be
       -0.26526353 -0.39511126 -0.19816977 -0.28582984
000160 10 93 dd be f1 d2 e6 be 72 3e 85 be a9 b1 70 be
       -0.43276262 -0.4508281 -0.26024204 -0.23505272
000170 33 c1 63 be db 01 37 be 75 d8 a5 be d1 e8 81 be
       -0.22241668 -0.17871802 -0.32391706 -0.25372937
000180 09 38 9e be d3 75 8d be f3 d7 b6 be 7a 57 70 be
       -0.30902126 -0.27628955 -0.3571163 -0.2347087
000190 49 ff 99 be 93 bc e3 be e2 a7 c5 be 33 30 ea be
       -0.3007758 -0.44479808 -0.38604647 -0.45739898
0001a0 3d 16 b1 be 7a dd 23 be a8 fa b8 be 2f e9 dc bc
       -0.3458728 -0.16002455 -0.36128736 -0.02696666
0001b0 ec c1 72 be 86 4c 09 be 88 7d e0 be 57 92 68 be
       -0.23706788 -0.13408098 -0.43845773 -0.22712074
0001c0 1b d1 b8 be 15 33 87 be d3 2d fb bd 32 f3 f8 bd
       -0.36097035 -0.2640616 -0.122646 -0.12155761
0001d0 66 40 17 3c 3e 5e ab be 84 c5 db bd c2 6f 26 be
       0.009231662 -0.3347034 -0.107310325 -0.1625357
0001e0 13 4b 62 be 27 30 0c be 3a dd b8 be 98 44 63 be
       -0.22098951 -0.13690244 -0.36106282 -0.22194135
0001f0 05 b3 62 be dc 8e 60 be bb c8 c1 be d5 33 9d 3c
       -0.22138603 -0.21929497 -0.37848458 0.019189755

transformer_encoder.layers.0.linear2.weight f4 [64, 128]
000000 74 35 e7 bb 85 ac d4 3d 32 f1 70 3e 24 c2 86 bd
       -0.0070559327 0.10384468 0.23529509 -0.06579998
000010 c1 98 65 3e 35 04 8c be c6 0b db bd 37 43 ac bc
       0.22421552 -0.2734696 -0.10695605 -0.021028144
000020 15 f0 3d bd 9a d9 9c be 46 11 be 3d de d6 94 bc
       -0.04637154 -0.30634767 0.092806384 -0.018168863
000030 11 b0 ab 3e 89 df 7f be 83 ce a0 3e 21 18 69 be
       0.33532766 -0.24987616 0.31407556 -0.2276311
000040 7c 4c f4 3e e0 58 21 3d 8e 5c 93 be 73 bf 7b be
       0.47714603 0.0393914 -0.2878155 -0.24584751
000050 fc 71 ea 3d 2d 63 83 be 46 19 49 3d 14 0e e8 bd
       0.11447522 -0.25661603 0.04909637 -0.1133081
000060 d0 96 02 3f ba 2c 22 be 43 be 3c 3c b8 82 2c bd
       0.5101137 -0.15837374 0.011519971 -0.04211685
000070 4a 34 29 bd b5 83 ae 3e 6e 3d 0b 3e 45 d0 ba bd
       -0.041309632 0.3408486 0.13597652 -0.091217555
000080 d6 b2 8d be 0b ea 5c 3d c8 3d 9d 3e 1e 50 49 bd
       -0.27675503 0.05393414 0.30711198 -0.04914867
000090 1f e9 00 3e 6a 31 cf bd fb 06 b0 be 3c 55 2d be
       0.12588929 -0.10116847 -0.34380326 -0.16927046
0000a0 23 fc 2a bd 13 84 13 3e 23 b2 1b be e6 5a db bd
       -0.041744363 0.14405851 -0.15204673 -0.10710697
0000b0 6a cb fe bc a4 ec 13 be 62 ad 03 3e 0a f4 f4 3e
       -0.031102855 -0.1444574 0.12859109 0.47842437
0000c0 db be 79 be 5d a8 d3 3d 58 30 b6 3e d7 e0 a3 3d
       -0.24389212 0.10334847 0.35583758 0.08001869
0000d0 4d ef 47 3c 64 39 86 bd dc d7 0c 3d 1c 52 b8 3d
       0.01220305 -0.06553915 0.034385547 0.09000036
0000e0 91 ab 18 be e5 10 04 bd a1 2c 09 3e fb 3c 8d 3d
       -0.14909197 -0.032242674 0.13395931 0.06896397
0000f0 4b 1e 36 be 2a 69 ff bd 21 38 8d 3e 28 cb 8b bc
       -0.17784993 -0.1247123 0.27581885 -0.017064646
000100 3c 1c c5 3c d3 e3 70 bd 0b c2 5c be a4 86 dc be
       0.024061315 -0.05881102 -0.21558397 -0.43071473
000110 1a 64 88 3e ef c5 90 bd d0 87 25 3d 7c 8b cb 3e
       0.2663887 -0.07069003 0.040412724 0.39754856
000120 e6 97 64 3d 8e 02 f7 bb ca 9e 8d 3d ca 93 d8 3d
       0.055808924 -0.0075381463 0.06915052 0.105750635
000130 05 ee 3a be b0 ae 5b 3c 1e 58 ea 3d c2 45 58 bd
       -0.1825486 0.013408348 0.11442588 -0.0528009
000140 c0 20 a4 bd ae de 0f 3f a1 ac b4 bd 47 2c 2d 3e
       -0.08014059 0.5619916 -0.08821989 0.16911422
000150 23 81 a4 3e b2 a2 99 be c2 b2 8a 3d 1f 45 c9 bd
       0.32129773 -0.3000694 0.067723766 -0.09827637
000160 6b 13 09 3e 43 60 c9 3d 36 03 1e 3d 5c 49 a1 3d
       0.13386314 0.098328136 0.03857728 0.0787532
000170 16 b0 a6 3d de 80 86 3e 45 3c 00 bd cd fd cf 3e
       0.081390545 0.26270193 -0.031307478 0.40623322
000180 f8 15 b1 3e f9 6a 5f 3e 61 13 38 3e 62 e6 de bd
       0.34587073 0.2181815 0.17976142 -0.10883786
000190 5b 26 15 3e 75 84 a2 3e 0a 2d 1f 3e 60 85 0b 3d
       0.14565413 0.31741682 0.15544525 0.034062743
0001a0 ee fe 2b bd f5 83 b5 3d a7 98 b6 3c b3 7b 80 be
       -0.041991167 0.088630594 0.022289587 -0.25094375
0001b0 d3 67 55 3d ac bd 33 3d 30 25 0d be cd 19 02 3d
       0.052100968 0.043882057 -0.13783717 0.031762887
0001c0 d0 e4 9f be 24 e4 49 be 21 db fb 3d 59 d4 3f be
       -0.31229258 -0.19715935 0.12297655 -0.18733348
0001d0 2d 94 87 bd ca 6c 76 be 59 6d bf 3c d1 07 dc be
       -0.06620059 -0.24064937 0.02336757 -0.42974713
0001e0 01 fe 0a 3e 4e 08 f9 3d fe 21 2d be 44 b0 19 bd
       0.13573457 0.12159787 -0.16907498 -0.037521616
0001f0 f1 e7 4e bc ce 82 47 3d 9a a6 92 bd ab bb b7 3e
       -0.012628541 0.04870873 -0.07160683 0.35885367
000200 07 b8 5c 3e 98 92 37 bd 42 35 6f bd 1b e9 71 be
       0.21554576 -0.044817537 -0.0584004 -0.23624079
000210 65 e2 2c 3e 8c 35 4d 3e b6 ff f3 3c 2a 33 01 3f
       0.16883238 0.20039958 0.029785018 0.50468695
000220 4b 74 f1 be 00 4b 8d be 03 84 73 3e 99 63 9e bd
       -0.47159037 -0.27596283 0.23780827 -0.077338405
000230 33 16 c3 bd ac 17 9f 3e ed 98 32 be 3d 4a 8f 3d
       -0.095257185 0.31072748 -0.17441149 0.06996582
000240 bf 5b 96 3c db 79 32 3e 4e 06 69 3d c6 8c 45 3e
       0.018354295 0.17429297 0.05689078 0.19291982
000250 ae 36 a3 3e a9 bb c1 bd ec 3d 75 bd e7 cd ed 3d
       0.31877655 -0.094596215 -0.059873506 0.116115384
000260 87 ac a4 be b8 01 12 3e 0c d1 d0 3d 02 fe 07 bd
       -0.32162878 0.14258468 0.101961225 -0.033201225
000270 0c 44 f9 bd 58 0d 31 bd 14 29 e7 3d 8c be d2 bb
       -0.12171182 -0.043225616 0.11287132 -0.0064314064
000280 db f0 e5 3c 84 09 5e bd b2 d2 16 be ea 4e 52 be
       0.02806895 -0.054208294 -0.14728811 -0.20537916
000290 cf d0 78 3e 4e 26 16 3d 7c a3 d7 3d d1 fa 6f 3e
       0.24298404 0.036657624 0.10529229 0.23435523
0002a0 fd 72 55 3e 76 40 91 3e a4 17 5c bd c3 76 ba bd
       0.20844646 0.28369492 -0.053733483 -0.09104683
0002b0 4e df 4b be 46 ef 9e bd 59 bc 26 bd 8a 05 3e 3e
       -0.19909403 -0.077604815 -0.040706966 0.185568
0002c0 26 7b f6 bd f8 c8 5a bd e8 92 91 3d 2e f8 f7 bd
       -0.120352075 -0.053414315 0.07108098 -0.121078834
0002d0 2b cb 92 3f 57 7a a3 bd 04 bb 6a be 0a 06 77 be
       1.1468252 -0.07982319 -0.22922903 -0.24123397
0002e0 d9 45 8e bc e0 9c 8a be 6e b5 56 3e 8d 93 17 bd
       -0.01736729 -0.2707281 0.20967647 -0.03700595
0002f0 86 3a 76 3d cc 25 6c 3c 35 ef f2 3d 6c b8 80 3a
       0.060114406 0.014413308 0.11862031 0.0009820587
000300 50 8e f8 bd 00 7a fb 3a 9e 6f 13 3e a6 ab 22 3e
       -0.12136519 0.0019186139 0.14398047 0.15885791
000310 4d 44 49 3d ba 5d 9c 3c ac 75 e4 bd 67 e5 91 bd
       0.049137402 0.019087661 -0.11155257 -0.07123833
000320 c0 0a fa bd e5 ce d4 3c 72 d7 2b be b7 40 4e bc
       -0.12209082 0.025977561 -0.16781405 -0.012588671
000330 ac f2 02 be 7b e0 9f 3e 66 ce 26 be b5 83 29 bc
       -0.12787884 0.31225953 -0.16289672 -0.010346343
000340 a6 f0 d9 3c 58 5f 16 3d 1b 63 9f be 26 d8 1c be
       0.026604008 0.03671202 -0.311303 -0.15316829
000350 e6 eb 39 3f 22 18 24 3e 9c da 97 3d 9b 7b e4 3d
       0.7262558 0.16024831 0.07414743 0.11156388
000360 76 da 7e be 16 6d 92 bd 6d 12 4c be ce 0c d2 3d
       -0.24888024 -0.07149713 -0.19928904 0.102563486
000370 a9 71 11 be 0a 82 50 3e 07 c6 69 bd bb f7 41 3e
       -0.14203514 0.20362106 -0.05707362 0.18942158
000380 42 7c 99 3e 5c e9 e0 3c a6 6d 1c be 24 16 a7 bd
       0.29977614 0.027455024 -0.15276203 -0.0815852
000390 e2 16 ef 3d 9d 97 0c be 31 2a a7 3c c7 5a 2b 3e
       0.116742864 -0.13729711 0.02040586 0.16733848
0003a0 4d a9 2f 3e 64 20 92 be 36 c6 bf 3e 39 0f 0c 3f
       0.17154427 -0.28540337 0.3745591 0.5471073
0003b0 6b 3f 50 3e ee ce b0 3d a3 48 55 be 18 33 68 3d
       0.20336692 0.08633219 -0.2082849 0.05668935
0003c0 da a2 8b 3e c8 5c 7d 3d e0 68 74 3e 5c 67 d0 3e
       0.27272683 0.06185606 0.23868132 0.40703857
0003d0 c6 77 57 3d d6 1a 34 3e 64 a9 af 3d 82 8e df bd
       0.05260446 0.17588362 0.085772306 -0.10915853
0003e0 76 06 8a 3c e3 4a 49 3d 5a 3f 19 bd e7 1a 94 3e
       0.016848784 0.049143683 -0.037413932 0.28926775
0003f0 4e cf b3 be 8b a3 a0 bd 9f 7f df 3c e1 49 5a 3d
       -0.35119098 -0.07843693 0.027282534 0.053293113

transformer_encoder.layers.0.linear2.bias f4 [64]
000000 06 5b 18 bb 2b b0 b6 bd 21 db a6 bd 03 73 33 bc
       -0.0023247614 -0.0892032 -0.08147264 -0.010952714
000010 81 4e fa bd 9f 0d d4 3d 8e 7e 7e 3d b8 1e 03 3c
       -0.12222005 0.103541605 0.06213241 0.008002929
000020 4a aa 67 bb e7 f5 74 3d 2a 41 ad bd cb c7 13 bd
       -0.0035349303 0.059804823 -0.08459695 -0.03607921
000030 9e 90 55 3e 71 94 43 be 7a 68 d0 3d 42 95 88 3c
       0.20855948 -0.19099595 0.10176177 0.016672734
000040 c3 04 25 bc 36 6e 1a 3c 61 15 d3 bd f8 02 2d 3d
       -0.010071936 0.00942569 -0.10306812 0.04223916
000050 8b f2 c5 3c 61 5d b4 3d 9d c9 1f bd 04 9e 27 be
       0.024163505 0.08806873 -0.039010633 -0.16368872
000060 ff 9c f4 3d 61 3a 9d bc e8 b2 78 3d 8d 57 5d bd
       0.11944007 -0.019192876 0.060717493 -0.054038573
000070 00 45 77 bd ce 3b a1 bc d4 6c 23 3c c0 c2 07 be
       -0.060368538 -0.019681837 0.009974677 -0.13257885
000080 90 97 ee bd 16 71 1f be 01 1f 84 3d 28 2c d8 bc
       -0.11650002 -0.15570483 0.06451226 -0.026388243
000090 31 8c 7f 3b ff 1c 10 3d 00 e3 69 bd ef c2 08 3d
       0.0038993473 0.035183903 -0.05710125 0.03338903
0000a0 76 cd b2 3d 28 b4 85 3d 7b f0 76 bc 98 57 87 be
       0.08730595 0.06528503 -0.015071983 -0.26434016
0000b0 3b 7d 3a be bf f6 76 3d 9b bb 05 3e 84 0b c3 3c
       -0.18211834 0.06029391 0.13059847 0.023809202
0000c0 85 fa 9f 3d 20 f9 10 3d a0 35 fa 3d 45 60 2d 3d
       0.07811455 0.035393834 0.122172594 0.042328138
0000d0 7c 1a c5 3d f8 fb 20 3e 83 f5 8a 3d a7 d9 98 3d
       0.09624192 0.15721118 0.06785109 0.07463389
0000e0 8e 3e 1a be d5 7c 8b bd 12 0c 09 be ee fa a3 3d
       -0.15062925 -0.06810919 -0.1338351 0.080068454
0000f0 ca 27 c9 bd 7e 51 e5 3c cc 63 82 3d d7 b8 d4 3d
       -0.09822042 0.02799296 0.06366691 0.10386818
