models/tab_transformer_best_smote_state.pth (torch, 327118 bytes, 30 tensors)

feature_embedding.weight f4 [64, 46]
00000000: 3321 013e 2ebd 95bc 520f 86bc 2499 343e
00000010: 0aa8 3b3e 1f3d fd3d 3c1e c13c 2f02 73be
00000020: 4db7 aabd 765a 3d3e e068 d2be 5de3 2bbe
00000030: 55f4 21bf 3139 89bd c99f 5dbe b187 273d
00000040: bb92 2f3e b884 5e3d 1975 b0bd 433b 7e3e
00000050: bc14 953e 971b 913e 35fe 513d e41d b4be
00000060: e69d e8b9 956e 8fbd 24fe 35bc 9328 6a3e
00000070: 0f45 1bbe 22a0 493d 68a4 1cbe 1762 df3e
00000080: 36d4 083e ec4e 6f3e 5389 793e 73d0 353d
00000090: c1c8 16bf 45e4 da3e 67d9 f83d 3679 e53d
000000a0: ee10 023f e993 ecbe dcc7 fabe 891d 3a3f
000000b0: 7bf4 3e3e b822 003f 9b55 c13d f494 5ebe
000000c0: 8aaf 74bd c562 193e 2b5a 7ebe 69d1 ca3e
000000d0: 12af e13d 2e38 3a3e a444 83be fa17 9f3e
000000e0: 4608 b03c 63a5 93be 2b33 cabe fcde 493e
000000f0: a76b c0bd 838c 693e 77fd 4b3c f393 1dbe
00000100: 7194 39be 3634 48be 134d a13e 8aba 193d
00000110: efd5 763e 196b 4d3e 0820 c73e 2cef b23d
00000120: 91ca ef3c 711d 923e a1c6 0bbe 45ab de3c
00000130: c9ba abbd 10a2 7e3f a0a4 fe3e decd 603f
00000140: ce51 ecbc a9c1 41be bd37 3dbe 7cd8 a43d
00000150: 419d 7e3e fe4c 323f 4a9f dc3e 6db4 993d
00000160: 74b2 f13e 5cc4 a63e 0c82 243e 1526 c2bd
00000170: dbce 2c3d 696d bdbd 4773 89bd e742 a7bb
00000180: 1b14 cabd 6f7c 7c3e ae2e 22be 43f6 0c3f
00000190: bfbc 333d bddd 3abe f85e dabe 4f68 3fbd
000001a0: ae0d 033e 0c9a 233f 0142 9f3d cbae a23e
000001b0: 0b3b e239 3f6f f53d ae1b 60be 7ee5 e2bc
000001c0: 9d1c 2abe e93b c2be de2c 1a3e cc40 3fbd
000001d0: 1888 d13d c73f abbe b9a9 12bf afc6 1c3c
000001e0: be0c 313d 5b58 9b3e 0a42 29bd 65fd e1be
000001f0: 02b7 0cbe 1ecc 113c 1c28 ddbc 93ec 5e3e
00000200: f5c9 6ebe 2855 f63d bea0 213e ed1c 803e
00000210: 9547 3abf 358e 093d fe71 b3be 9c7c 373e
00000220: 496a c43e 6f38 803f fa75 20bd cfc5 aabd
00000230: de62 ca3d 8a74 f53d a6eb d73e e45e fdbc
00000240: 55e8 833c eaf4 bf3e 357e 953e 3d8f 903e
00000250: 5df1 e0bc e12b 643e 3c8e 073f ec52 e9be
00000260: 2cb1 583c 427e cfbd 7f8b 05bd a8e7 f0bd
00000270: 5399 b0be d8ab a23e 0bd0 7ebe 0104 afbe
00000280: f9ee 69be 4d5b a0be 4766 d23d eb5c 653e
00000290: 465b fb3d 9293 013d 7f8e 23be c8e7 2d3e
000002a0: f561 9a3d 551f 8fbf a547 ba3d 561d 11be
000002b0: 3f04 67bf 7a5f 9fbd b43d 5fbf 4ed7 c4be
000002c0: 0503 0fbf 5cb9 c0bd 45fe 31bf 1a0f a8bc
000002d0: 8255 b93e 2e65 93bc c7ea 123e 8464 0e3e
000002e0: 8b18 1ebe 82af babd 57e7 12bd c6c1 f8bd
000002f0: a07d b7be 385d 9e3e 9f5e bebd 1cc8 803e
00000300: 3df5 32be 6b25 383e 713e dcbd 3342 f03e
00000310: db47 a93e eee1 37bc 3b65 1bbe e2dd 4a3e
00000320: e2b6 f1bd 4f9a 56bd 41b8 bb3e 7020 a4bd
00000330: f4a1 863e f721 babe 161e f1bd efad 9f3d
00000340: 7113 f7be 605c 073f cf86 1a3e cc7f c7bc
00000350: 4877 1ebe af08 ecbd 7ab3 77bd 95ec c13d
00000360: b848 033f a999 aabd d2d4 38bd 77ea 1fbf
00000370: deec 10be 1547 f4bd b236 67be 240f 28bf
00000380: 629a b2be b2f7 41bf fdac 8ebe 2064 4bbe
00000390: 7418 6fbe 7416 433b 8877 cabd e08f 15bd
000003a0: bfa5 cbbb beda b23e 7ebe ddbd 5dd7 e93e
000003b0: 1aac 583e c1d4 abbe a415 553e 7484 f03c
000003c0: fe9a e1bc d8b9 8abe 85df de3d 508b 2b3e
000003d0: 003c 8a3d 4f8b 1ebd 6050 24bd 7a64 a0be
000003e0: 3334 52be 782b 7a3e 6680 4d3e 1d78 253e
000003f0: babf 273d 10fd 6e3e c824 bebe fee1 1d3f
0.12610321 -0.018278684 -0.016364727 0.17636544 0.1832582 0.123651735 0.023573987 -0.23731302
-0.08335743 0.1849154 -0.41095638 -0.16785951 -0.63263446 -0.067003615 -0.21642984 0.04090089
0.17145817 0.05432579 -0.086160846 0.24827294 0.29117382 0.28341362 0.05126782 -0.35179055
-0.00044368132 -0.07003514 -0.011107955 0.2286704 -0.15163063 0.04922498 -0.15297091 0.43629524
0.13362202 0.2336995 0.24368791 0.044388246 -0.58900076 0.4275228 0.12150841 0.1120476
0.5080708 -0.46206596 -0.48980606 0.7270132 0.1864795 0.50052977 0.09440156 -0.21736509
-0.05973772 0.14979084 -0.24839084 0.39612892 0.1101972 0.18185493 -0.25638306 0.3107298
0.02148832 -0.28837118 -0.39492163 0.19713968 -0.09395533 0.22807507 0.012450567 -0.1538847
-0.18123032 -0.19551167 0.31504115 0.037531413 0.24105047 0.20060386 0.38891625 0.08737025
0.029271396 0.28538087 -0.1364999 0.027181277 -0.08385236 0.9946604 0.49734974 0.8781413
-0.028847601 -0.18921532 -0.18478294 0.080491036 0.24864675 0.6964873 0.43090278 0.075051166
0.4720646 0.32571685 0.16065234 -0.0947992 0.04218946 -0.09249384 -0.067114405 -0.005104411
-0.09867116 0.24656843 -0.1583812 0.55063266 0.043881174 -0.18248649 -0.4265058 -0.046730336
0.12798187 0.6390693 0.07776261 0.3177398 0.0004315007 0.11984109 -0.21885559 -0.027697321
-0.16612478 -0.37936333 0.15056178 -0.046692654 0.10231036 -0.33447096 -0.57290226 0.009568854
0.043225043 0.30340847 -0.041322745 -0.44138637 -0.13741687 0.008898763 -0.026996665 0.21769933
-0.23319228 0.12027961 0.15783975 0.2502207 -0.72765476 0.033582885 -0.35047907 0.17918628
0.3836234 1.0017222 -0.03917501 -0.0833851 0.09882139 0.11985119 0.42171973 -0.030929036
0.016101995 0.37491542 0.2919785 0.28234282 -0.027458841 0.22282363 0.5295141 -0.45571077
0.013225835 -0.10131504 -0.032603737 -0.11762935 -0.34491977 0.3177173 -0.2488405 -0.34182742
-0.22845067 -0.31319657 0.10273414 0.22398727 0.122732684 0.031634875 -0.15972327 0.16982949
0.07538215 -1.1181437 0.09095696 -0.14171347 -0.90240854 -0.077818826 -0.87203526 -0.38445514
-0.5586398 -0.094103545 -0.6952861 -0.020515013 0.3619805 -0.017992582 0.14347373 0.13905531
-0.1543905 -0.09115507 -0.035865154 -0.12146334 -0.35838032 0.30930495 -0.09295391 0.2515267
-0.17476363 0.17983024 -0.10754097 0.46925506 0.33062634 -0.011223299 -0.15175335 0.19811204
-0.1180246 -0.052393254 0.36664012 -0.080139995 0.26295435 -0.36354038 -0.117733166 0.07796847
-0.4825702 0.5287533 0.15090488 -0.02435293 -0.1547519 -0.11525094 -0.060473897 0.094689526
0.51282835 -0.083300896 -0.045124836 -0.6246714 -0.14152858 -0.1192762 -0.22579458 -0.656481
-0.3488341 -0.7576858 -0.27866355 -0.19862413 -0.23349172 0.0029768022 -0.0988608 -0.036514163
-0.006214827 0.34932512 -0.10827349 0.45672122 0.21159402 -0.33560756 0.20809036 0.029360034
-0.027539726 -0.27094913 0.10882477 0.16752362 0.06749725 -0.038707074 -0.040115714 -0.31326658
-0.20527725 0.24430645 0.20068511 0.16159101 0.04095433 0.23338723 -0.37137437 0.6167296

feature_embedding.bias f4 [64]
00000000: acd5 093d 077d a23e 9258 fc3b a849 3a3e
00000010: 2ea3 cd3e 4651 c73e a989 b03e 8e27 cfbe
00000020: 5868 b9be 72e2 cbbc 42ea d9be 30ac 16bf
00000030: 1d71 9abe 0312 c43d d700 83bd ca28 dfbe
00000040: 9410 813e 20c9 b8bd 2f25 c8be 546b 0bbf
00000050: c7b5 afbd 1052 813f a89b ebbe 1173 303f
00000060: 75cc 0cbf 9a94 98bd 95ef 6ebd 6e74 a93d
00000070: 1214 1d3f 7af4 c43e 39be 09bf 90ae 9bbe
00000080: 0bf7 7abe 0ea1 8a3e 5ef9 623f 18f5 d4be
00000090: d022 9fbd b0c7 1fbe f86f 33bf 51d3 d43e
000000a0: e24d 32bf 6f01 2abe 7ee1 04bf 93df ecbc
000000b0: 8876 ef3e f425 aa3e 8a5d f1be faa4 d03e
000000c0: 432f 573d 2e1b f1bd bbcc 193e 32b8 39be
000000d0: 8aa7 ad3e 4f6f 87bd 6b49 c8bd ffe6 323f
000000e0: 87dc 533e 1ec0 a93e 9a44 0cbf aff4 053e
000000f0: 4b40 783e 49c2 24bf 2f4b 13be 4112 d23e
0.03365104 0.31736013 0.007700988 0.1819216 0.4016356 0.38929194 0.34480026 -0.40459865
-0.3621242 -0.024888251 -0.42561537 -0.5885649 -0.30164424 0.09573748 -0.063966446 -0.43585807
0.2520796 -0.090227365 -0.3909087 -0.54460645 -0.08579593 1.0103168 -0.46017194 0.6892558
-0.54999477 -0.074502185 -0.058333952 0.0827416 0.6135875 0.3846777 -0.5380588 -0.30406618
-0.24508302 0.27076 0.88661754 -0.41593242 -0.07770312 -0.15603518 -0.70092726 0.41567472
-0.6965009 -0.1660211 -0.51906574 -0.028915202 0.4677012 0.3323208 -0.47141677 0.40750867
0.052535307 -0.11772762 0.15019505 -0.18136671 0.33916885 -0.06613027 -0.09779628 0.6988372
0.20689593 0.33154386 -0.5479218 0.1308162 0.24243276 -0.64358956 -0.14384149 0.41029552

transformer_encoder.layers.0.self_attn.in_proj_weight f4 [192, 64]
00000000: df6e fbbc 5914 7abe 3585 cbbd b43b 93bd
00000010: d16a 403d e0b1 4abe df98 253e 586c 103e
00000020: 6472 0ebe 1a69 683c 2d2c 0ebd 99b6 a6bd
00000030: d0d6 3f3e abf9 ccbd 853d 593e cf15 6e3e
00000040: 7d33 11be c86c 2abe 8a3e 783d 39dc 00be
00000050: 7c82 4c3e 512d 4fbe 263f f9bb 8d71 073e
00000060: 1a0b d9bc 2d3d 40be 647b 483d 15a0 e5bd
00000070: 5ae8 d9bd 6e79 63bd ab09 ccbc 123f 65bd
00000080: 8688 cabd 8b3d bebd 1b12 143e 7f88 4b3d
00000090: 8da0 82bd 01c9 a13d 1313 cebc 2e58 8dbc
000000a0: d369 273c c070 b53d 482b 51bd 5fed babd
000000b0: 70dd 193e 3f47 e7bc 5c2d c8bd 0739 80bd
000000c0: 1c07 773d cf3f c3bc acd5 0ebd 67ed ecbc
000000d0: f014 bd3c 5396 343e f6e4 f3bc c9f7 34bd
000000e0: 3d09 ab3c 5b6f b53d 6a3c 193e badf 79be
000000f0: 3c58 613e 9412 793d d206 143e 5360 05be
00000100: eb31 213e cd99 be3e 31f5 283d 8faa 86bc
00000110: dc2f 423e 29be 8a3e 88d1 e0bc 6c5f 4a3d
00000120: 78ca 273e 83af 5abb 96a5 7abd 5390 1c3d
00000130: 8a5f 33bd 8653 233e 8241 6dbe d495 2abe
00000140: a684 1b3e 27de 253e e195 2bbd 8577 1f3d
00000150: eb7d 5e3d 9c93 253e 530d 03be 89a9 a63c
00000160: 2d86 04bb 5bdc 263e f4f1 6fbe d323 043e
00000170: d078 463e 6785 723e aeca b5bd 4fee 093c
00000180: 5619 07bd cf75 06be 99d1 6fbe 7c1d b5bd
00000190: 92d4 093e 41b4 613d 6dac 023d acd1 49be
000001a0: 1495 28be 89fc b8bd 0646 92bd c1b7 27be
000001b0: 8049 e33d 74ef e5bd 4abc 723c 884c ad3d
000001c0: f7c1 2c3e 7697 57be d690 b03d a353 843e
000001d0: 5fb9 1ebe b207 a4bd df10 963e 339a 0cbe
000001e0: 71a5 d2bd cde0 383e 15ab c7bd aead c7bd
000001f0: c64a 01be ecf9 583d a870 cd3d 1b1e 06be
00000200: d8d3 9dbd 257d 963a 39ce ab3d 3543 693d
00000210: e47d 0e3e 71b8 863d a67f 10be 7a6d 213d
00000220: 812f 4c3e 5d60 2cbe 5deb 113e f899 b03c
00000230: 66f4 903d 03c5 eabc 9d5d 4e3d 20a9 19be
00000240: ef4f a4bd 4633 8dbd 5673 54be 1e1a b4bc
00000250: 9e19 e3bc b1f4 26bd 9d3f 66be abb6 e53d
00000260: 404c ba3d eea4 2bbd 6d15 cfbd 9f6f a73d
00000270: 3d60 b83d ec45 e6bb f34a 8ebd 2e5b 29bd
00000280: 540b e4bd f295 163e b1d3 0cbe 7c6f 0fbe
00000290: cc51 423c 0ae2 c53b 1337 063e 2ed9 b73d
000002a0: 7e2c ec3d 11b8 773d 57c5 b8bc 8efb 4a3e
000002b0: c6ee 363e a1db f9bd 66ff a53d e205 0f3c
000002c0: e154 c13d ebd8 5cbe 88e3 dfbd c6b9 1b3e
000002d0: da9a 503d 0011 05be 2c39 903d 8271 e9bd
000002e0: b829 743c 0360 c2bd 65f6 9dbd 1687 3e3e
000002f0: edc8 fcbc 0550 293e 34b4 60bd 72e9 183e
00000300: 61fb c7bb 34ad 0cbe 42ba 1cbe cc29 c23c
00000310: bae0 843d 5f20 b43c 7c8a 0f3e a346 0a3c
00000320: 7a99 e9bd a07c ef3d d778 aa3d 43cc 18be
00000330: 8a91 edbd 1661 d8bd 53cd a3bc 8272 903c
00000340: 1b70 9ebd 25c5 a43d 4ea0 db3b e191 403c
00000350: ea5c f4bd 4e27 49be d2d3 d33d f7ea 143e
00000360: 238d cfbd 98ff 263d 438a d33d 020d 1a3d
00000370: 4578 333c c3a9 26be 65c2 333e e948 1a3e
00000380: c4c5 153e fbed 28bd a043 203e 2363 223d
00000390: ccbf e7bd c14d ab3c 7eaf 0ebe 9328 5b3c
000003a0: 1ae8 a4bd c2cb f93b 9b54 14be 43a6 ca3d
000003b0: 7c6a f33b 2387 b2bc 8acc b73d 62f2 0ebe
000003c0: 557e b23d c8b4 893a 1af4 89bb a24a 96be
000003d0: bfbb 58be 2c3a 4b3d b64d d43d 25eb a6bd
000003e0: 2981 55bc bfd2 6dbd 7a84 79bd ff0d b53e
000003f0: e3d3 20bd 0d6c adbc fab3 cbbd fc02 88bd
-0.030692516 -0.24421825 -0.099375166 -0.07189122 0.046976868 -0.19794416 0.16171597 0.1410383
-0.13910824 0.014185214 -0.034710098 -0.081402965 0.18734288 -0.10008558 0.21214874 0.23250507
-0.14179797 -0.16643059 0.060606517 -0.12584008 0.19971651 -0.2023213 -0.007606405 0.1322691
-0.026494551 -0.18773337 0.0489458 -0.11212174 -0.10640021 -0.055535726 -0.024906954 -0.05596835
-0.09889321 -0.09289082 0.14460032 0.04969072 -0.06378279 0.078996666 -0.02515558 -0.017253961
0.010218102 0.08859396 -0.051066667 -0.09127306 0.15025878 -0.028232215 -0.097742766 -0.06260877
0.060309514 -0.023834137 -0.034871742 -0.028921796 0.023081273 0.17635469 -0.029772263 -0.04418162
0.020878429 0.0885913 0.14964452 -0.24401751 0.22006315 0.060808733 0.14455727 -0.13025026
0.15741698 0.37226716 0.041249458 -0.01643875 0.1896357 0.27098206 -0.027443662 0.049407408
0.1638583 -0.0033368773 -0.06119307 0.038223576 -0.043792285 0.1594983 -0.2316952 -0.16658717
0.1518732 0.16198026 -0.041890983 0.038932342 0.054319303 0.1616959 -0.12798052 0.020344513
-0.0020221577 0.16294996 -0.23432142 0.12904291 0.19382024 0.23683701 -0.08876549 0.008418634
-0.032983147 -0.13130878 -0.23419799 -0.08843514 0.13459995 0.055103544 0.03190272 -0.1970889
-0.16463119 -0.09032542 -0.07142262 -0.1637869 0.110980034 -0.11227313 0.014815399 0.08461863
0.16870867 -0.21053872 0.08621375 0.2584506 -0.15500401 -0.0800928 0.29309747 -0.13730697
-0.10285462 0.18054505 -0.09749428 -0.09749924 -0.1262618 0.05297272 0.10031253 -0.13097422
-0.077064216 0.0011481388 0.08388943 0.05694886 0.13915211 0.06578148 -0.14111194 0.039411046
0.19939996 -0.16833635 0.1424994 0.021557793 0.07077865 -0.028658396 0.050382245 -0.15005922
-0.080230586 -0.06894545 -0.20747122 -0.02198511 -0.027722176 -0.0407607 -0.22485204 0.11216482
0.09096575 -0.041905336 -0.101115085 0.08175587 0.09002731 -0.0070273783 -0.06947889 -0.04134672
-0.11134973 0.14705637 -0.13752629 -0.14007372 0.011860322 0.006038909 0.13106947 0.089769706
0.11531924 0.060478274 -0.022555036 0.19822523 0.17864522 -0.12200094 0.08105354 0.00872943
0.094400175 -0.21567123 -0.1093207 0.15207586 0.050928928 -0.12994766 0.07042155 -0.11398603
0.014902525 -0.09490969 -0.07713012 0.18606219 -0.030857528 0.16534431 -0.054859355 0.14932802
-0.0061029647 -0.13737947 -0.15305427 0.02370157 0.06488176 0.021988092 0.14017671 0.008439693
-0.114062265 0.11693692 0.083238296 -0.1492167 -0.11600025 -0.10565393 -0.019995367 0.017632727
-0.07736226 0.08045415 0.0067024594 0.01175353 -0.119317845 -0.196439 0.10343136 0.14542757
-0.101343416 0.040771097 0.10329106 0.03761006 0.010953967 -0.16275696 0.17554624 0.15066876
0.14626223 -0.04124258 0.15650797 0.039645325 -0.11315879 0.0209111 -0.13934132 0.013376373
-0.08052082 0.007623167 -0.144854 0.09894993 0.0074284654 -0.021792954 0.089745596 -0.13959649
0.08715502 0.0010506148 -0.0042100074 -0.29353815 -0.2116537 0.049616024 0.10366385 -0.08150319
-0.013031282 -0.05806231 -0.060917355 0.3536224 -0.03926457 -0.021169687 -0.09946437 -0.06641194

transformer_encoder.layers.0.self_attn.in_proj_bias f4 [192]
00000000: 1091 2ebe ad06 293e 770f 5e3d 18fc 693d
00000010: e9d8 573e 8d5b 373d 836c 053e 0743 51bd
00000020: 926e b33d b5e7 4c3e 212b 66bd 0b9f 13bd
00000030: 49f1 233e f45d 423e 4f8d 6e3d 146d c73d
00000040: e355 6f3e 4cdf 3cbd 0c32 9e3d f18a 663b
00000050: a0f2 00be edf0 bd3d e4ad 2d3d 4aa1 50bd
00000060: 95ee 513e 23a3 1abc 109f f73d 933b babc
00000070: 6d43 40bd 8488 2cbc 5173 1ebd 3657 873c
00000080: 95e2 b1bd 2adb 25bd 204a 32bc 6398 ae3d
00000090: 6112 f63c 2280 e0bd fb73 6abd 3572 cc3d
000000a0: 90cb 6bbd 7fa4 853d 3d18 733c 7aa9 373e
000000b0: c2e8 eabd e603 4e3d 9b32 dbbd 1f7b 3dbe
000000c0: 93b9 50bd 56ef 9bbd 2dd6 de3d 899e a13c
000000d0: 59a6 043e 1d01 083e e60f 483e 8b33 313e
000000e0: 44be 89bd 1c5d 95bd b060 26be 8074 b83c
000000f0: bbef 8ebd bf8e dabd 4f54 89bd a519 fd3d
00000100: 0092 1b3e 6022 20be c0d9 52bd 3d26 063a
00000110: 8120 59be 76d7 20bd a66b bcbd 22ee be3c
00000120: 4b13 a9bd 63c6 20be c280 bcbc b780 173d
00000130: b578 afbd 1074 2fbe 7541 c6bd 815e 8cbd
00000140: 0f01 37be fdef 5f3d 95a0 8ebd b517 24bc
00000150: 1559 e13d 369f 5f3c 36f9 823d b95b d73b
00000160: 7ceb fcbd 0cc3 03bc d80d e6bd d694 3a3d
00000170: f96b 9e3d ad6c 873c 87cf 3c3d c09c 9ebd
00000180: 3b7a b83d 26d4 1d3d 7793 0c3d 38c6 82bd
00000190: c047 88bd 8f0b d93d 6d15 7b3b c4ac 17be
000001a0: 642a db3c f1a8 e8bd 2cd9 8fbd 17fa 57be
000001b0: ccdf 063d b560 89bd 6727 a83d abb8 763e
000001c0: 2935 f03a 19a2 a83c 578e 6cbd ed31 47bd
000001d0: 1c88 32be 1c92 06be 9997 4bbe 366f 31be
000001e0: c55b e03c 5473 cf3d b462 583e 6ffb f33b
000001f0: 3502 503d 159d e83d a7f0 593d 413d 00be
00000200: fa38 303e d9bd 00be 4b32 3f3e fba3 24be
00000210: 7fb3 0a3d a99d e8bd 9c2f f6bd ed9c 853d
00000220: c819 7c3d 58cd 05be c090 253e f375 1d3f
00000230: c301 dabd cd6f aa3e c95c 8bbd 8706 1f3d
00000240: baf9 df3e 6c7b e0bd 882a ffbd d097 25be
00000250: 77b3 913e a8d8 df3e 4e7c 3bbe 7a41 a53b
00000260: fdd4 89be 3f8f 94bd dd1f b23d 36bb fe3d
00000270: c945 48bd 7e20 08bf ec2d 753a 344f dbbd
00000280: 53e9 1dbe 4da4 31bf d340 1dbd caeb e73e
00000290: a67e a23c 302f 383e e60c 743e 49a6 80be
000002a0: b667 8abe b0b7 8e3b dd96 fa3d 0804 9bbe
000002b0: 35b7 09be 3a01 12be 414d 39bd 143a db3d
000002c0: c3fa 77be 524e 003e 85f3 99bc da9b b93d
000002d0: 7616 24be 5af2 12be 6236 3a3e 4962 dd3c
000002e0: a84b c63e bcdd 76be 2534 debd 0dae 0b3d
000002f0: 0010 dbbb 1fc6 89be 0637 e93c 9b9c 9fbd
-0.17047524 0.16506453 0.054213967 0.05712518 0.21078838 0.044765044 0.13029675 -0.051089313
0.08761324 0.20010264 -0.056193475 -0.036040347 0.16010012 0.18981153 0.05824023 0.09737602
0.23372607 -0.04611139 0.077243894 0.003517803 -0.12592554 0.092744686 0.042402163 -0.050935067
0.20501168 -0.009438309 0.12090886 -0.022733485 -0.046939302 -0.010530595 -0.038684193 0.016521078
-0.08685795 -0.040492214 -0.010881931 0.08525159 0.03003806 -0.109619394 -0.057239514 0.09982721
-0.05756718 0.06525516 0.014837322 0.17935744 -0.11470176 0.050296687 -0.107030116 -0.18503998
-0.050958227 -0.07614009 0.108806945 0.019728916 0.12954082 0.13281675 0.19537315 0.17304818
-0.067257434 -0.0729315 -0.16247821 0.022516489 -0.06979319 -0.10671758 -0.06705534 0.12358407
0.15192413 -0.15638113 -0.051477194 0.0005117392 -0.21203806 -0.03926798 -0.0920022 0.02330691
-0.08255633 -0.15700679 -0.023010615 0.036987986 -0.08567945 -0.17134118 -0.09680454 -0.06853963
-0.17871498 0.05467223 -0.06964222 -0.010015418 0.11003319 0.013648799 0.063951895 0.0065722135
-0.123496026 -0.008042108 -0.11233109 0.045552097 0.07735438 0.016531313 0.04609635 -0.077447414
0.090076886 0.0385324 0.03432032 -0.063854635 -0.0665431 0.10597908 0.0038312331 -0.14811999
0.026753612 -0.11360348 -0.07023844 -0.21091495 0.032928273 -0.067078985 0.082106404 0.24093883
0.001832639 0.020585107 -0.057752933 -0.048631597 -0.17434734 -0.13141674 -0.19882049 -0.1732758
0.02738751 0.10129419 0.21131402 0.0074457447 0.050783355 0.11358086 0.05320802 -0.12523367
0.17209235 -0.12572421 0.18671529 -0.16078179 0.033862587 -0.11358196 -0.120207995 0.06524072
0.061548024 -0.13066614 0.16168499 0.615081 -0.10644867 0.33288422 -0.06804807 0.038824584
0.43745214 -0.10961041 -0.12459284 -0.16171193 0.28457233 0.43719983 -0.18309137 0.005043206
-0.2692031 -0.072538845 0.08697484 0.124380514 -0.048894677 -0.5317458 0.0009352851 -0.10708466
-0.15421037 -0.6939133 -0.0383919 0.4529708 0.019835781 0.1798675 0.23833045 -0.25126866
-0.2703225 0.0043553934 0.12235806 -0.30276513 -0.13448794 -0.1425828 -0.04523969 0.10704437
-0.24216752 0.12529877 -0.018792877 0.090629295 -0.16024193 -0.14350262 0.18184808 0.027024405
0.38729596 -0.24108022 -0.108497895 0.034101535 -0.006685257 -0.26908967 0.02846862 -0.07793542

transformer_encoder.layers.0.self_attn.out_proj.weight f4 [64, 64]
00000000: 7f6a 603c fc82 6f3c 6b6a 0bba 2018 aebc
00000010: 94d5 003d 1aac 8ebb bca7 10bb 770e 9ebc
00000020: a68e 943c c4fb 1e3c 4611 6d3c e837 a83c
00000030: 8fd0 89bb e947 ebbc 2539 383c fad7 86bb
00000040: 5c38 213c 274a bcba 64fc 3238 ac61 6cbc
00000050: 620b dabb ff55 ac3c a8db 983b 3282 8cbb
00000060: 6471 c43b ebfc cabc 00c7 763b 3606 3fbc
00000070: b39b 1c3c 9279 343c 177a 8d3c adc2 0a3b
00000080: 6b81 013c 997d 17bd cc52 2dbd 3f8b 403a
00000090: 3f85 a0ba a9c6 88bb 1eaf ecba a0bb 643c
000000a0: 3369 1c3c 7b7b 78bc 3f4e 1b3d 352d 1e3c
000000b0: 3f17 e13a 5087 99bc 77fe b43c aa59 67bb
000000c0: c16b 9d3c 0d1f 9abc cc66 b83c d14a a7bc
000000d0: 242c b13c 05d0 aa3c 3a77 3fbb b120 b13c
000000e0: b73e 8a3c e079 9b3b b408 cf3b 4924 ce3c
000000f0: 345d c73b 1635 34bc 3aad 9ebc 5346 85bc
00000100: e911 003d d0da 64bc 8738 843b 6379 dcbc
00000110: 60e0 ca3c 8d85 30bc d605 053d e3ed 003b
00000120: fd42 2f3d 6166 003d 6175 633c 306b 03bb
00000130: da56 8e3c 31a4 943c b897 00b8 0278 01bd
00000140: 9db6 0a3c 458b d63b 11dd b8bc 0de9 c83c
00000150: c47a 94bc 6042 7c3b bed3 02bd 65de b83c
00000160: 5927 28bd 2780 9c3c 6503 0cbc 4737 6e3c
00000170: 011b 5c3b 08e1 46bb c095 10bc 576c bebc
00000180: 1057 fbbc 69a8 9cbb c4d0 9d3c 0fba 0cbd
00000190: dc49 27bd 4478 00bd 3df6 8c3c d47b 1cbc
000001a0: d705 b6bb 02b1 303c d504 34bc 4ff4 c83b
000001b0: cef1 8eba 3a4a 82bc 3712 bfbb c3cb 0e3a
000001c0: bb78 be3b bee7 b9bb cc70 9e3b 22b2 05bc
000001d0: c90c 4bbc 6b45 df3c 4de5 1a3c b3c4 073d
000001e0: 0f25 13bb 3de8 c6bc 56fb 853c 05c1 563a
000001f0: ff64 dcbb e272 423c 6f1a 38bb 3775 e9bc
00000200: 42ea 9f3b 2ad2 96bb 51f6 0abc 7d1a 8abc
00000210: 46f2 04bc 1d2c 18bc 323d 96bc 9af1 c939
00000220: 2a41 53bc 59f8 e23b 1540 b73c 52af 4c3d
00000230: 4aef debb 0041 813c 2505 993c df49 543c
00000240: bf90 343d 4648 85bc ffc1 1a3d 237a 9cbc
00000250: aa2c ef3c d53b 50bc a5e3 c83b d695 eabb
00000260: b4b2 d33b 3c70 26bd 3b6c a73c 32b0 843c
00000270: f386 d7bc 157f d93c f120 b53b 65bd 26bd
00000280: 8334 dfbc beb4 8bbd 9806 893c afdc a4bc
00000290: dc2d e1bc 21dc 563a 3fbc d13b 7b7b 26bc
000002a0: eacb c83a b315 8c3c c470 34bc 7cf5 19bc
000002b0: 9a18 1c3c 1576 80bb 5fe8 3ebb 9d8a dd3c
000002c0: 44ba cc3c 0a69 823c 1157 08bd 85e6 56bc
000002d0: 0bf5 2a3d 2061 653c a5f5 393c 3e15 c93c
000002e0: 5c79 c0bb 7a11 e83c 1251 073b 3dcd 9ebb
000002f0: 3506 c53b 8970 debc 85f5 8bbc c36c e339
00000300: 6d44 903c f2fc c63c f89d db3c 5f94 a5bc
00000310: aafb e33c 6ec9 083c 40d0 dd3b 6590 2fbc
00000320: 6e6a bc3c 663a d83c fab2 273c 7007 61bc
00000330: 98af 38bb 181c babc 84d0 393b 4283 dd3b
00000340: 38ff 8c3c 5b59 a43b b5b5 8cbc 1531 13bd
00000350: 6c1c 013d 9812 b7bc 329d 7a3c 4119 80bb
00000360: 6c62 ceba de96 b1bc eb33 01bb a2ca 703c
00000370: adeb 123d 5e47 2e3c 41ab 813c eb3b 78bc
00000380: 100c ccbc 3dd4 823c f079 87bc 9f5b 28bc
00000390: 4a50 c7bc 0c5f dabc 5ffb f0bb 9265 babb
000003a0: f5b6 e3bb a638 e43b edeb 983c 879f 05ba
000003b0: ca9e bd3b 4fee 6a3c 5b30 42bc 2dcb 9bb9
000003c0: 4456 61bc 5d97 6f3c 703a 36bb 96eb 18bd
000003d0: 3ca9 5d3c 19ae 12bd 8fc6 63bb cc86 14bd
000003e0: fa95 3e3c cced 7b3c 98be 47bc be32 39bc
000003f0: 25d8 72bb 297f d6bb 9ef4 1f3c 8636 eeb9
0.013697266 0.014618631 -0.0005318287 -0.021251738 0.031453684 -0.004354012 -0.0022072634 -0.019294007
0.018134426 0.00970358 0.01446945 0.02053447 -0.0042057703 -0.028720813 0.011244093 -0.004115102
0.009840097 -0.0014365361 4.2673564e-05 -0.014427584 -0.006654189 0.0210371 0.004664857 -0.0042879814
0.0059949625 -0.024778804 0.0037655234 -0.011659196 0.009558606 0.011015313 0.017270131 0.0021173165
0.007904391 -0.036985014 -0.04231529 0.0007344968 -0.0012246742 -0.0041740728 -0.001805756 0.013960749
0.009546566 -0.015166159 0.03791642 0.009654333 0.0017173066 -0.01874128 0.022093995 -0.0035301247
0.01921642 -0.018813634 0.022509955 -0.020421417 0.021627493 0.020851145 -0.0029215352 0.021622034
0.016875608 0.0047447532 0.006318176 0.025163786 0.0060841087 -0.010998985 -0.01936971 -0.016268885
0.03126708 -0.013968185 0.004035059 -0.02691335 0.024765193 -0.0107740285 0.03247627 0.0019673042
0.042788494 0.031347636 0.013882966 -0.0020052902 0.017375398 0.018144699 -3.0658877e-05 -0.03160859
0.00846639 0.006547364 -0.02256635 0.02452519 -0.018124945 0.003849171 -0.031940214 0.022566983
-0.04105315 0.019104077 -0.008545731 0.014539546 0.0033585432 -0.0030346531 -0.008824766 -0.02324502
-0.030681163 -0.0047808182 0.019264586 -0.034357127 -0.040841922 -0.031364694 0.01720726 -0.009551007
-0.0055548954 0.010784389 -0.01098748 0.0061326395 -0.0010905804 -0.015904535 -0.005831029 0.0005447233
0.005812732 -0.005673378 0.004835224 -0.008160146 -0.012393185 0.02725478 0.009454084 0.03314657
-0.0022452509 -0.024280662 0.016355198 0.00081922143 -0.006725907 0.0118682105 -0.0028091928 -0.028498275
0.0048802206 -0.00460269 -0.008481578 -0.016858334 -0.008114403 -0.009287861 -0.018339727 0.00038517715
-0.012893954 0.006926578 0.022369424 0.049971886 -0.006803428 0.015778065 0.01867921 0.012957065
0.044083353 -0.016269814 0.037782665 -0.019101208 0.029196102 -0.012709578 0.006130653 -0.007158975
0.006460512 -0.04063438 0.02043735 0.016197298 -0.026309466 0.026549855 0.0055276086 -0.040707964
-0.02724672 -0.06821583 0.016726777 -0.020124761 -0.027487688 0.0008196254 0.0064006145 -0.010161276
0.001531956 0.01710019 -0.011013214 -0.009396907 0.00952735 -0.0039203265 -0.0029130203 0.027043635
0.024991162 0.015919227 -0.033286158 -0.013116484 0.041737597 0.014000207 0.01135007 0.024546262
-0.005873842 0.028328646 0.0020647687 -0.0048462437 0.006012703 -0.02715327 -0.017084846 0.00043377848
0.017610753 0.024290536 0.026808724 -0.02021235 0.027829964 0.008348806 0.00676921 -0.010715579
0.022999968 0.026395034 0.010235542 -0.013734683 -0.0028180834 -0.022718474 0.0028353045 0.006760032
0.017211542 0.005015535 -0.017176488 -0.03593548 0.031521246 -0.022347733 0.015296267 -0.0039092605
-0.0015745885 -0.021678384 -0.0019714783 0.014696749 0.03586929 0.010637132 0.01582873 -0.015151004
-0.024908096 0.015970344 -0.016537637 -0.01027575 -0.024330277 -0.02665665 -0.0073541845 -0.0056883777
-0.0069493004 0.006964761 0.018667186 -0.0005097319 0.0057867514 0.014339044 -0.011852349 -0.00029715282
-0.0137534775 0.01462349 -0.0027805828 -0.037334047 0.013529118 -0.035810564 -0.0034755801 -0.036261365
0.011632437 0.015376519 -0.012191437 -0.011303602 -0.0037055102 -0.0065459204 0.009762911 -0.0004543552

transformer_encoder.layers.0.self_attn.out_proj.bias f4 [64]
00000000: b5b8 9cba c2a9 433c 9cb3 beba 2db7 b03c
00000010: d6bd 9c3c 0521 bd3c 0f36 df3c bf16 abbc
00000020: 488a bb3b 5401 e5bb 95a6 a5bc 6129 7cbc
00000030: c8c6 023b e7a7 a4bb 7401 0abd 8b3b 86bc
00000040: e3d9 5d38 7f30 bfbc ffb0 d8ba f470 3fbc
00000050: 53d5 51bc 18d5 463d eae6 53bb 8703 403c
00000060: dfae 3fbb cf0e b8bb 1575 8a3c a87d 8cbb
00000070: 587e 0c3c f606 f33c 4bf7 15bc b7de bebb
00000080: d763 15bc c10d f03b b2db a73c acee 1abb
00000090: f3ec 743c 77fb 92bc a7a2 25bd 389a 513c
000000a0: e40d bcbb c08b 42bc bd53 a7bc 1fd0 83bc
000000b0: 9a11 993c d6a3 633c 9b85 eebb da4e 653d
000000c0: 9180 313d 5c76 1ebc 658f c73c cfb6 a03b
000000d0: ea8c 17bb e878 83bb 651b babb 3311 473c
000000e0: 6819 9b3a dd7f f03c acbf 15bd fc48 623c
000000f0: ba3f 1cbc 58fb c6bc d730 0a3b 3fb1 c8bb
-0.0011956902 0.011942329 -0.0014549377 0.02157172 0.01913349 0.023087034 0.027247457 -0.02088487
0.0057232715 -0.0069886837 -0.020221034 -0.015390725 0.0019954909 -0.0050248983 -0.033692792 -0.016385814
5.289343e-05 -0.023338554 -0.0016532241 -0.011684645 -0.012807208 0.048543066 -0.003233368 0.011719591
-0.0029248518 -0.0056169997 0.016901532 -0.0042874403 0.008575045 0.029666405 -0.0091531975 -0.0058248895
-0.009118042 0.0073258583 0.020490501 -0.0023640795 0.014949071 -0.017942173 -0.04043832 0.012793116
-0.0057389606 -0.011874139 -0.020425672 -0.01609045 0.01868515 0.013894042 -0.0072791106 0.0559834
0.0433355 -0.009671774 0.024360368 0.004904605 -0.0023124763 -0.004012216 -0.005679535 0.012150097
0.0011833133 0.029357845 -0.036559746 0.013811346 -0.009536678 -0.024289772 0.002108624 -0.006124645

transformer_encoder.layers.0.linear1.weight f4 [128, 64]
00000000: 44bc 873d 0529 17bd 159b 82bd cf29 f53c
00000010: ddc3 b53e dc3f 9cbe 2fed 0bbe 1dfe 4a3e
00000020: 97e2 a93c 61a4 573e f210 aa3a 177e 73be
00000030: 41ec c33e 3f7f c9bd c8d4 5dbe 0b31 743e
00000040: ba17 dbbe e410 9b3d 2ac2 8dbd 4659 873e
00000050: a0b6 f8bd b2ad 6dbe 9417 643c 87fc 1cbe
00000060: de99 ed3e cc48 aabe 904a d03c ca6f 4e3e
00000070: ba27 62be 0200 f4be fc32 3a3e 7f8d 7abe
00000080: e748 8c3d 0e1a e3be ad6d 76be 4389 fabc
00000090: 6d74 f43d 88cd cfbd fbd0 223e dada 083e
000000a0: 6264 093e a0fe 6cbe 2556 9c3d 2da3 19be
000000b0: f252 ab3e f932 cebc 5654 72be c953 36bb
000000c0: 4746 93be e998 31be 8108 a13d e01b 103f
000000d0: 3e12 733e 7c70 9f3d 3955 3f3d d4b5 fdbc
000000e0: b508 263e 3fc1 093e f870 713d 55e1 3bbf
000000f0: 1260 97bd 80b7 c4bd 6d1d 1dbd 54d7 fd3d
00000100: fda4 05bf 59b4 8ebd 1f73 cdbd e916 fe3d
00000110: d490 fd3d fbc5 2abe a5f1 dcbc 3205 983c
00000120: 3072 483e 5a3d 8e3e 6342 953e 5a9d 1f3e
00000130: f9e1 ee3e f712 2ebd f984 7b3d 9ab8 ee3d
00000140: 17b0 913d 20de bdbe 4be3 933e ce5f 3a3e
00000150: 070b 2bbd 69c7 6dbe cb4b b13e 9e50 ef3d
00000160: 4dc7 433e 7cdc 99bd abf6 5dbe ecb1 12bd
00000170: 73d6 73bd aecd 3dbe 7744 463e deec a6be
00000180: a1fd 813e bb1f 87bc fa31 a1bc 2334 af3e
00000190: cc60 fe3d 5f60 18be 340d 623d 31ff acbc
000001a0: c226 85be 51f2 9cbe eb91 793e 8994 46be
000001b0: 4482 08bf 1bb5 7b3e de01 8b3d 4d7a 7a3e
000001c0: c3e9 473e 1633 1c3d beb5 5b3e d690 e7bd
000001d0: 79c6 99bd 66b5 c7bd 3a8b 713e 2048 8dbd
000001e0: 3627 493e 1e45 febd 57db 463e b4ff 88be
000001f0: 87c0 22bd ca01 7d3e 28b4 c5be 3295 afbd
00000200: 881d 9d3d 7408 ccbe dff4 95bd 7e93 b73e
00000210: ed5c c8bd ffc7 d8be 5f91 183e e9bf 0dbe
00000220: 49b4 d0be 0ef0 cdbd deba 53be 0706 133d
00000230: d63d 743e 3f52 49be 26fe 013e f259 923e
00000240: e650 8b3e 54b8 8a3c d157 cabe 3958 8b3e
00000250: f4bf c23e e4f1 28be 2d5c c23e 76b9 813e
00000260: 1745 d6bd 6338 26be c3e3 3dbc ff85 f53d
00000270: 10a6 613d bb1b 943d 8641 723d ae65 e1bc
00000280: b6d2 b33d beba 49be 79fc 293e 36e0 77be
00000290: c0f2 f83d 6c7b 863d ad02 9f3e 6d20 a93b
000002a0: efe9 c2bd 90a4 d33c 8e52 b83c 49ab 463d
000002b0: c683 733e 477e 20bd 06cf 96be 0039 92be
000002c0: e24e 14be d628 553e 2614 b7be 0d7a 12be
000002d0: bf4d 223f e622 3abe 0976 a6be f9ae 6a3c
000002e0: ddc1 523e ee62 c33d b697 823d d88f fb3b
000002f0: d2e4 e5be 0584 0a3e 01e9 66be 5abd db3d
00000300: b37a 51be dc04 aabe 3944 92b9 083f 4bbe
00000310: 884f fbbb 9825 153d 8c06 bdbe 14fe e53e
00000320: 0a2d 29be 5225 e8bd f68c d8bd c09d 8dbe
00000330: b7a1 08be 25b3 3ebe 6dc0 a9bd 770d 263f
00000340: 0a2a bdbd 74de aebd f872 a6be a3ac eb3c
00000350: f6db 253e aeb8 efbd 80a5 0dbe 3267 503e
00000360: 75d1 d33e 01f8 debd d875 353e 49ab 6fbd
00000370: 9b99 3f3e 84a7 94be ab7b f73d 7fb4 1f3e
00000380: c818 9e3d a94e 203e 5d3c 963e 9851 87bd
00000390: 4caa e63d e51e b73d 6f61 b63e 2cc2 d7bd
000003a0: f005 5dbe dd48 2b3e c8c6 a5bd 8a42 d13e
000003b0: cf53 3bbd e251 54bd 7264 8bbd 48a3 33be
000003c0: 5bc1 dabe 272c 6dbe f9ec 853d 6ee8 dfbd
000003d0: 9381 3c3e d434 e63e 2731 ebbe 2f45 d93d
000003e0: ac22 23be 56a1 d3be ae22 533e 4759 693c
000003f0: 579f c63a 0c25 9f3e 75a5 9e3d e146 763e
0.06627706 -0.036904354 -0.06377236 0.029927162 0.35500994 -0.3051747 -0.13664697 0.19823499
0.02073793 0.210588 0.0012975021 -0.23778568 0.38266185 -0.098387234 -0.21663201 0.23846833
-0.4279154 0.07571581 -0.069217995 0.26435298 -0.12144208 -0.23210791 0.013921637 -0.15330707
0.46406454 -0.33258665 0.02542618 0.20159832 -0.22085467 -0.47656256 0.18183511 -0.24468039
0.068498425 -0.44355816 -0.24065275 -0.03058303 0.11936269 -0.10146624 0.15900032 0.13364735
0.13417199 -0.23144007 0.07633618 -0.15003653 0.3346172 -0.02517079 -0.23664984 -0.0027820936
-0.28764555 -0.17343487 0.0786295 0.56292534 0.23737428 0.077851266 0.046712134 -0.030970491
0.16214259 0.13452624 0.058945626 -0.73390704 -0.07391371 -0.09605312 -0.03835814 0.12394586
-0.5220488 -0.06967992 -0.10031723 0.124067135 0.123811394 -0.16677086 -0.026970694 0.018557165
0.19574809 0.27781183 0.29152212 0.15587369 0.46656778 -0.042498555 0.06140611 0.11656304
0.071136646 -0.3708353 0.28884348 0.18200609 -0.041758563 -0.232206 0.34628138 0.116852984
0.19118996 -0.07512757 -0.21676128 -0.03581421 -0.059530687 -0.18535492 0.19362055 -0.3260259
0.25388816 -0.016494622 -0.019677151 0.34219465 0.12420806 -0.14880513 0.055188373 -0.021117778
-0.26006132 -0.30653623 0.2437207 -0.19392599 -0.5332377 0.24580805 0.067874655 0.24460717
0.19522767 0.038134657 0.21456048 -0.11306922 -0.07508559 -0.09751396 0.23588267 -0.068985224
0.19643864 -0.12415527 0.19419609 -0.26757586 -0.03973439 0.24707714 -0.3861401 -0.085733786
0.07671648 -0.398502 -0.07322096 0.35854715 -0.09783349 -0.42340085 0.14899205 -0.13842739
-0.40762547 -0.100555524 -0.20676753 0.03589442 0.23851714 -0.1966028 0.12694606 0.28584248
0.27210158 0.016933598 -0.39520124 0.27215746 0.38037074 -0.16498524 0.3796095 0.25336808
-0.104623966 -0.16232447 -0.011589947 0.11988448 0.05509001 0.07231852 0.05914452 -0.027514305
0.08780424 -0.19700143 0.16600217 -0.24206623 0.12155676 0.065665096 0.3105673 0.005161336
-0.095172755 0.025835305 0.022500303 0.048503194 0.23780736 -0.039182927 -0.2945482 -0.28559113
-0.14483216 0.20816359 -0.3575756 -0.14304371 0.6339988 -0.18177375 -0.3251193 0.014323943
0.20581765 0.09540354 0.06376593 0.0076770596 -0.4490114 0.13526924 -0.22549821 0.10729475
-0.20456962 -0.33206832 -0.0002789812 -0.19848263 -0.007669393 0.036412805 -0.36919057 0.4492041
-0.16521087 -0.11335243 -0.10573761 -0.27659416 -0.1334294 -0.18623026 -0.082886554 0.64864296
-0.09236534 -0.08538523 -0.3250959 0.028768843 0.1619719 -0.11705147 -0.13832664 0.20351866
0.4137074 -0.10887147 0.17720735 -0.05851296 0.1871094 -0.29034054 0.12084135 0.15596198
0.077195704 0.15655006 0.2934293 -0.0660736 0.1126295 0.089414395 0.3562121 -0.10535082
-0.21584296 0.16727014 -0.08094555 0.40871078 -0.045734223 -0.051835902 -0.06806268 -0.17542756
-0.42725644 -0.23161374 0.065393396 -0.10933004 0.18408804 0.4496218 -0.45935938 0.10608899
-0.15931195 -0.41334027 0.20618698 0.014242477 0.0015153688 0.31082952 0.07746402 0.24050476

transformer_encoder.layers.0.linear1.bias f4 [128]
00000000: 3d92 83be 63db a6be 51c8 86be f737 90be
00000010: 8c87 f0be 156d 5abe b444 afbe f4e1 98be
00000020: e1cd c7bd e117 0fbe 2881 18bd 5940 e6bd
00000030: d1e1 8fbe 88b0 81be 78b8 a0be af71 60be
00000040: 79b2 d6be 163b 41be 562a 07be 80ca 86be
00000050: dad0 b5be 2dd6 2cbe cac8 57be 86f8 0abe
00000060: 44c6 c2be 9821 a4be b8e5 d8be 7299 a5be
00000070: 1102 92be 1224 a2be d01b 54be 0fcc 24be
00000080: 8433 8cbe a168 b8be 7752 69be e10e f3be
00000090: 8bca 92be d207 d2be 8efc a7be 9743 65be
000000a0: a246 dcbe 1222 a8be 7d78 b7be 8f31 1abf
000000b0: 6c6f f8bd 3ff6 8fbe 816f ebbd 2d7d e1be
000000c0: 76d4 56be e1ce 01be f739 25be bcb3 99be
000000d0: 1c0a e4be 6a1c e5be 3a81 78be c267 77be
000000e0: bc69 02bf a159 b7be 231d d8be dbee 59be
000000f0: 10ad bbbe 8b8f 9fbe 3720 9b3c e821 92be
00000100: f7c1 56be 42d1 b7be c6f9 9cbe ad90 efbe
00000110: 98e0 f0be 2e73 81be 5fa5 16be 0c28 2dbe
00000120: 9176 abbe d4df ffbe 0212 50be dad3 95be
00000130: ef55 4dbe 0953 f3be 2f96 91be f04a d8bd
00000140: f693 ebbe fa99 8ebe 7236 b8be e5a6 3cbe
00000150: e453 84be 0442 40be 62e8 85bc 2eb9 49be
00000160: 1c08 febe 1446 c0bd fac0 00be 082d e3be
00000170: 2113 d9be 9d43 4dbe bb96 8dbe b73c acbd
00000180: c35b c4be fd3f e2be f26e d7be 88d1 85be
00000190: 8bfe b9be 550d aebd a31b 99be f91e 02bf
000001a0: b3a5 1dbe 3e01 1dbe a255 85be b235 f5bd
000001b0: e54d b2be 3f57 0fbe ff33 cebe 2ecb a7be
000001c0: 8f44 03be 392f 41be 0e8f c9be 6adb 65be
000001d0: 950f 30be c1c7 f0be fc03 9fbe b267 46be
000001e0: 9f6c 93be 5461 63be 2638 3abe cab5 a8be
000001f0: e6c4 d1be 4eee 9fbe 6eb0 e8be 0184 f3be
-0.25697508 -0.32589254 -0.26324704 -0.28167698 -0.46978414 -0.21330674 -0.34232104 -0.2985989
-0.09756065 -0.13973953 -0.037232548 -0.11242742 -0.28101972 -0.25329995 -0.31390738 -0.21918367
-0.4193304 -0.18870196 -0.13199744 -0.2632637 -0.35510904 -0.16878577 -0.21072689 -0.13571367
-0.3804189 -0.3205688 -0.42362761 -0.32343632 -0.28517202 -0.31668144 -0.20713735 -0.16093467
-0.27383053 -0.36017326 -0.22785364 -0.4747229 -0.28670153 -0.4102159 -0.3280987 -0.22389065
-0.4302264 -0.32838494 -0.35834113 -0.6023187 -0.12130627 -0.28117558 -0.11495877 -0.44040814
-0.20979485 -0.12676574 -0.16135393 -0.3001994 -0.44538963 -0.4474824 -0.24268046 -0.24160674
-0.5094259 -0.3581057 -0.4220973 -0.21282522 -0.36655474 -0.31164202 0.01893626 -0.28541493
-0.20972429 -0.3590184 -0.30659312 -0.46790066 -0.4704635 -0.25283188 -0.14711522 -0.16909808
-0.33488896 -0.49975455 -0.2031937 -0.29263192 -0.20052312 -0.47524288 -0.28434893 -0.10561168
-0.46011323 -0.2785185 -0.35979038 -0.1842304 -0.25845253 -0.18775183 -0.01634616 -0.19699547
-0.49615562 -0.09388366 -0.12573615 -0.44370294 -0.42397407 -0.20045324 -0.2765406 -0.08410018
-0.3835126 -0.44189444 -0.42076832 -0.26136422 -0.36327013 -0.08498637 -0.29903898 -0.5082851
-0.1539524 -0.15332505 -0.26041895 -0.11973132 -0.34825054 -0.13998125 -0.40274045 -0.327722
-0.12819122 -0.1886567 -0.39366955 -0.22446981 -0.17193444 -0.470274 -0.31057727 -0.19375494
-0.2879381 -0.22205096 -0.18185481 -0.32951194 -0.40970534 -0.312365 -0.45447105 -0.47561648

transformer_encoder.layers.0.linear2.weight f4 [64, 128]
00000000: 62f2 473e 27a5 023d 2296 bb3e 2629 0f3e
00000010: 8875 c7be 9d5c c43e 4ece 313d 20f0 81be
00000020: cc2c 103e 64da e63e e611 823b 6007 a63e
00000030: 683d 033e 403c 5f3e 314e 063d 5a81 853e
00000040: d889 abbd b0bf 3ebd 62fa 873d f37f 0b3d
00000050: c435 cf3e bb20 5e3e 5d75 3c3e 8d6d 943e
00000060: bf83 2c3e 93d8 dfbe 9dc8 ab3d c53c 573e
00000070: a99d 5e3e eba9 d0be fe46 c4bc a3ec 813e
00000080: 9f5f bd3e e52d 153d 7234 93be e3d9 2a3e
00000090: 9ef0 303e 7f93 473d 127a 8d3e 7e43 af3e
000000a0: fb4e bbbd 24a1 c5bd 1b8f 07bf 9193 11be
000000b0: 7316 fe3d 3432 493e 9ad2 44be 92d3 6c3e
000000c0: e3d1 9c3d 9333 eb3d a533 3c3e 4d22 493d
000000d0: 3fe4 843e 2336 c8bc 9533 163d 1c4c 74be
000000e0: 45e0 1a3c 25cc 153e 688b 92bc 1c24 70be
000000f0: eec4 53bd 826f 1b3e d68d b3bc e6fd 2f3e
00000100: 67af 323e 93be 9cbd f2e9 6f3e 6518 1dbd
00000110: 85c3 c8bc ee68 45bd 7352 0f3f 5791 63be
00000120: dc65 303d 2593 fa3d f85f 1fbc 714e fe3c
00000130: 0fce 66bd 1f09 5f3d e641 a33e 1423 d23d
00000140: 336a 1cbe e847 de3c e9cb 39bd 2be5 04be
00000150: 1be7 ddbd abfc 72be 6d91 cf3d 93fa dd3e
00000160: b1ea f9be 7baf 8b3d 4b2c 51be 2ff8 febd
00000170: aa82 25be ede6 313e ba8f 55bd aa70 063e
00000180: 7d57 903c a4a7 d4be 5bdd bd3d a193 f53d
00000190: f585 ed3d 34fe fa3c 258b 853d 0fcc bebe
000001a0: e267 a13d f144 6a3e 6a5b 89be 1710 13be
000001b0: 373d 47bd faa1 dfbd 9a85 3cbe 6bc8 383d
000001c0: 6c3d c03e a407 8f3e 95c8 e0be eaa5 113e
000001d0: 735a 3abb 91ab 0bbe e2f2 67be 98bb 853e
000001e0: 5944 7b3d cd18 3ebe 01af 843c 93df cabc
000001f0: d7d8 aa3e c705 d63e 1960 1e3d ec17 c03d
00000200: b0cd e3bd 4a8d 643d ad94 a03d d0aa 3d3d
00000210: c121 f83d e6ee 973c c1f9 c53d 36ad c5bc
00000220: 3da3 da3d ecb5 173e 4896 09bc 0eb5 0cbe
00000230: b298 083c a8b6 563e dfd0 273e 1695 d23d
00000240: 3d91 ae3c afca f7bb f797 503d 2799 0d3e
00000250: eb44 19bd 8908 eb3d b4f1 7fbe 768c f23d
00000260: 24f7 10be 7cf8 8fbd 8965 c63e e837 36be
00000270: bbc4 c73d 3b13 a43d 104c 6dbd 036d 3a3e
00000280: 0a09 2e3e 6d46 b03d 300f dabe 81ab a9be
00000290: 6cdb 4b3e 74c5 e2bd d331 1e3e 7cb5 453e
000002a0: d1d2 a7be 5ed9 3e3e f38d acbd dedc 9abd
000002b0: bab4 c43d 2e2d 5e3e ecd2 b6bb 27fa b2bd
000002c0: ce16 243d d363 7fbe 1180 f53d 93bb f43c
000002d0: dc75 1c3c fdcf 953d 68e2 d1bd fb37 80bd
000002e0: 05eb c73d be85 8e3e e079 9dbe 3377 3a3d
000002f0: affc f7bd d1bc f9bc 1486 3dbd 82c5 9bbd
00000300: 038f 253e f6ad 36be f2b4 163e 35bf 1a3d
00000310: 5a39 fd3d c4f0 583d 2947 883e 5c3b 50be
00000320: f3e6 0dbe 27af 17be 496d 583e 9a63 ea3c
00000330: 8a29 993e 9391 9f3d 62aa 353e 7598 c43d
00000340: 4975 7d3c c300 a4be ff4e f43d cdeb 743d
00000350: 30eb 96be 5c7a 733e 4e2a 7f3d 1ebf a33d
00000360: 5ce4 c03e f12b 8d3e 8d85 ac3c 7f3f 44be
00000370: 6ff2 e13d 25a3 2ebe 16d0 a4be 1b07 f83c
00000380: 9d96 94bd e468 d9bd 95a6 6bbe d0a7 703e
00000390: 3d49 113d fe7f d03c fa9e 2f3e d562 94be
000003a0: 851b db3c abc0 5ebd 8efe a7bd 4b70 a53a
000003b0: 2017 abbd 441f 923e 2bc3 e7bc b98a 583e
000003c0: aefc f83d d4a2 873e b533 48bd 45ba c1bd
000003d0: c103 0c3b 2566 e63d 3dff 5a3e e364 bc3e
000003e0: b270 1d3e 72d6 a93e c003 17be e205 34be
000003f0: f0b5 09be 99d4 173e 5f44 1ebd 9935 c8bc
0.19526055 0.031895783 0.3663798 0.1398054 -0.38956857 0.38351908 0.043409638 -0.25378513
0.14079589 0.45088494 0.003969419 0.32427502 0.12816393 0.21800327 0.032789413 0.2607525
-0.08375901 -0.046569526 0.066395536 0.03405757 0.40470707 0.21692173 0.18404146 0.2898983
0.16847132 -0.4371992 0.08387873 0.21019275 0.2173983 -0.40754637 -0.023959633 0.25375852
0.36987016 0.03642072 -0.2875095 0.1668468 0.17279288 0.048724648 0.27632195 0.3423118
-0.09145924 -0.09649876 -0.52952737 -0.14216448 0.124066256 0.19648057 -0.19220963 0.23127583
0.0765722 0.114844464 0.18379076 0.049104977 0.25955388 -0.024439877 0.036670286 -0.23857158
0.009452884 0.14628656 -0.01788874 -0.23451275 -0.05170148 0.15179256 -0.021918219 0.17186698
0.17449723 -0.07653537 0.23429087 -0.038353343 -0.024507293 -0.048195772 0.5598518 -0.22223412
0.04306589 0.12235097 -0.009727471 0.031043263 -0.056348857 0.054452058 0.31886214 0.10260597
-0.15274887 0.027133897 -0.04536048 -0.12978046 -0.108350955 -0.23729198 0.1013516 0.43355235
-0.48811868 0.068205796 -0.20427053 -0.12449681 -0.16163126 0.17373247 -0.05213902 0.13128915
0.017619843 -0.4153415 0.09270736 0.119910486 0.11597816 0.030638792 0.0652068 -0.3726506
0.07881142 0.22877862 -0.26827556 -0.14361607 -0.048642363 -0.109195665 -0.1841034 0.04511301
0.3754686 0.27935517 -0.43903032 0.14223447 -0.002843526 -0.13639666 -0.22651246 0.26119685
0.06134448 -0.18564148 0.01619673 -0.024764812 0.3336856 0.41801283 0.038665865 0.09379563
-0.11123216 0.055798806 0.07840858 0.046305478 0.12115813 0.018546533 0.096667774 -0.024130445
0.106756665 0.14815491 -0.008397646 -0.13740942 0.008337187 0.20968115 0.16388272 0.10282342
0.02130949 -0.0075620036 0.050926175 0.13827954 -0.03741924 0.11476237 -0.24994546 0.11843197
-0.14156777 -0.070298165 0.3874934 -0.17794764 0.0975432 0.080114804 -0.057933867 0.18205647
0.16995636 0.08607183 -0.42589712 -0.3313866 0.19907922 -0.110728174 0.15448694 0.19307512
-0.32778028 0.18637607 -0.08425512 -0.07561658 0.09604783 0.21696922 -0.005579343 -0.08739119
0.04006081 -0.24940424 0.11987317 0.029874599 0.009549584 0.07315061 -0.10248262 -0.062606774
0.09761623 0.27836412 -0.30757046 0.045523833 -0.121087424 -0.030485542 -0.046270445 -0.07606031
0.16167836 -0.17839798 0.14717463 0.037780005 0.123644546 0.052963987 0.2661679 -0.20335144
-0.13857631 -0.14812909 0.21135439 0.028611947 0.29914504 0.07791438 0.17740777 0.09599391
0.0154698575 -0.3203183 0.1192913 0.05979519 -0.2947631 0.23777145 0.062296204 0.07995437
0.37674224 0.27572587 0.021059776 -0.19164847 0.11032569 -0.17054422 -0.32190007 0.030276826
-0.0725529 -0.106157094 -0.23012765 0.23501515 0.035470236 0.025451656 0.17150488 -0.28981653
0.02674652 -0.05438296 -0.08202849 0.0012621967 -0.0835402 0.2853948 -0.028291306 0.21146668
0.1215757 0.26491416 -0.048877437 -0.09459356 0.0021364542 0.11249951 0.21386428 0.3679572
0.15375021 0.3317142 -0.14747524 -0.17580369 -0.1344831 0.14827193 -0.038639423 -0.02443962

transformer_encoder.layers.0.linear2.bias f4 [64]
00000000: d111 3abe e299 e7bd a68f f9bd 7384 903c
00000010: 74d3 9f3b f0f9 853c c596 15bd f38e 183e
00000020: a18c 78bc dedc 653d ceff 2d3e d568 bcbc
00000030: 5563 1e3d d010 91bd 97f7 49bb de2b 4a3e
00000040: 7f9f a8bd dd8f 74bd dc83 c3bc 2750 0c3e
00000050: 1690 333b cce4 11be 7265 5abd 6009 8839
00000060: 316a b83d e4ff 93bd 000c 973c 817a 17be
00000070: d28e 20bd 44f4 b83e 7b32 8abc 31f3 90bd
00000080: 98b0 6fbd d062 773b f453 4cbb 7d73 303d
00000090: d45f 063d e217 52bd 925f a3bd fd45 f1bb
000000a0: b801 5d3d 7b66 a33d 029d b73d 441c a2bd
000000b0: 4bc7 21bd b58f 88bd e412 edbd f7c6 113d
000000c0: c9d4 203c 0179 0ebe 3192 cc3d f681 82bd
000000d0: 3598 5b3e 7bc5 053e 22f0 b23d 9cf5 0e3d
000000e0: c23e 76bc 9855 dc3d 2f0f 3c3d c44f d8bd
000000f0: ecd1 c63d 3d84 163e 9dfb 2c3c d87b 8f3b
-0.18170859 -0.11308648 -0.12185602 0.017641282 0.004877502 0.016354531 -0.03652074 0.14898281
-0.015170247 0.05611884 0.16992113 -0.022999207 0.03866895 -0.07083285 -0.003081774 0.19743297
-0.082335465 -0.05970751 -0.023866586 0.1370245 0.0027399114 -0.14247435 -0.053319402 0.00025946926
0.090046294 -0.07226542 0.01843834 -0.14792825 -0.039198704 0.3612386 -0.016869774 -0.07077635
-0.058518022 0.0037748106 -0.003117797 0.04307889 0.032806233 -0.051292308 -0.07977213 -0.0073630796
0.053956717 0.07978531 0.08965494 -0.079155475 -0.0394967 -0.06668035 -0.11575869 0.03559014
0.009816357 -0.13913347 0.09988821 -0.06372444 0.21444781 0.13063614 0.08737208 0.0349022
-0.015029611 0.10758513 0.045912918 -0.10562089 0.09708008 0.14698882 0.010558036 0.004378777

transformer_encoder.layers.0.norm1.weight f4 [64]
00000000: 1bce 5f3f 39ab 853f f9cc 7a3f 2590 9d3f
00000010: b16e 663f 8a5a 5f3f d5af 893f eecb 9b3f
00000020: 737e 9d3f bef1 863f c5e0 7a3f 25ad 973f
00000030: 248d 763f e10a 8e3f 50cc 893f 1a67 573f
00000040: 0bfb 853f 6831 683f afd6 943f e46a 7b3f
00000050: 6301 753f 5a86 a63f 72f8 9c3f 8a47 9b3f
00000060: 2840 873f 5349 8b3f f6a0 673f 7cbb 2b3f
00000070: 278f 903f c2e1 393f c451 7b3f 56b7 7e3f
00000080: 5583 8a3f 2570 553f a18a 963f 6f3c 8c3f
00000090: d61e 7f3f 3be2 743f cc20 a73f 9e5b 8e3f
000000a0: d1d0 803f 0692 7a3f 9595 993f a6c5 4c3f
000000b0: 9513 7b3f df89 ad3f a476 8c3f d312 763f
000000c0: b9f3 573f c77b 803f 3363 863f fbc8 763f
000000d0: a442 8c3f f063 873f 6d00 783f 59d0 863f
000000e0: b362 653f 1503 543f 7bf8 803f 8675 7a3f
000000f0: a653 8d3f 3a68 823f 4fe3 863f f479 953f
0.87423867 1.0442878 0.97969013 1.2309614 0.9001265 0.87247527 1.0756785 1.2171609
1.2304214 1.0542524 0.9799922 1.1849715 0.96309114 1.109707 1.0765476 0.84141695
1.0467237 0.9070039 1.1628016 0.9820998 0.9570524 1.3009751 1.226332 1.2131207
1.0566454 1.0881752 0.9047998 0.67082953 1.1293687 0.72610104 0.9817164 0.994985
1.0821329 0.83374244 1.1761056 1.0955943 0.99656427 0.956577 1.3056884 1.1121709
1.0063726 0.97879064 1.1998774 0.7998909 0.98076755 1.35577 1.0973706 0.96122473
0.84356266 1.0037774 1.0499023 0.9640042 1.0957837 1.0577374 0.9687565 1.0532333
0.8960373 0.828172 1.007583 0.97835577 1.1041152 1.0188057 1.0538119 1.1677842

transformer_encoder.layers.0.norm1.bias f4 [64]
00000000: f901 3a3e 3347 293e 663e 4c3e 8011 c23b
00000010: 26a0 8fbe 9665 923c 66c3 e33d 3989 e0be
00000020: f4af 9d3c 9c98 38be abf7 b1be eae6 f4bc
00000030: c8eb 6fbe ecf5 433e dc84 6a3e 2d6a 84be
00000040: 4f5a 6abd cf88 283d b6ef 133d f2a1 92be
00000050: 7853 2abe f9f4 b33e ab99 57be 5562 963e
00000060: e00f 73be c063 9e3e 9df0 d73d 2097 3b3e
00000070: e149 25bc 053c cabd 44bf 973e a800 4e3e
00000080: ac13 67bd 64ad 303e c54a f1bc fe9f 183d
00000090: e217 6bbe 253b 2f3d abba 3bbc b41c af3e
000000a0: 3f7f 33bd d408 5d3d ee68 9dbe ab17 893e
000000b0: 5c30 163e df71 4fbc efe1 3b3e 046c ec3d
000000c0: ba4d 2f3e cdff c33e 49d8 37bd ed14 50be
000000d0: e2d9 d1be b129 2fbe 5f21 613e e37a 1d3e
000000e0: 0247 3bbe a771 86bc a9f4 d6be 75da 103f
000000f0: c4d8 ef3c 6c33 8fbe a651 c63c 8082 e2bd
0.18164815 0.16531067 0.19945678 0.0059224963 -0.2805187 0.017870706 0.11121254 -0.43854693
0.01924894 -0.18026966 -0.34759268 -0.029895265 -0.23429787 0.1913678 0.22902244 -0.25862256
-0.05721503 0.041146096 0.036117278 -0.2863918 -0.16633403 0.35147837 -0.21054713 0.29371896
-0.23736525 0.30935478 0.1054394 0.18319368 -0.010088415 -0.09874729 0.29638112 0.20117438
-0.056415245 0.17253643 -0.029454598 0.037261955 -0.2295833 0.042781014 -0.011458079 0.34201586
-0.043822523 0.053963497 -0.30744117 0.2677587 0.14666885 -0.012661426 0.18347906 0.1154404
0.17119494 0.38281098 -0.044884 -0.20320483 -0.40986544 -0.17105748 0.21985386 0.15378909
-0.18288806 -0.016411616 -0.41983536 0.5658334 0.029278167 -0.2796892 0.024208855 -0.11060047

transformer_encoder.layers.0.norm2.weight f4 [64]
00000000: 7e3b 873f f492 8c3f 609c 8d3f 9f0d 933f
00000010: fcca 883f a563 8f3f 1a61 8c3f f156 7e3f
00000020: 9372 923f 0071 973f 46dc 883f e612 943f
00000030: f3b5 843f cfa3 8e3f e26d 993f b54d 853f
00000040: 0614 983f 463f 893f 6668 983f d065 8b3f
00000050: 7385 863f 005c 8d3f 82d3 8d3f a74e 8b3f
00000060: 91b4 843f b337 883f 3013 8a3f 2c4d 8a3f
00000070: 72b8 a13f b4ef 8c3f 1e54 893f 7ab9 893f
00000080: 6720 973f 8e3a 8e3f ada7 873f ff2b 913f
00000090: b12b 8f3f c630 983f 0850 9d3f f514 873f
000000a0: 3849 953f 733a 773f 3281 8a3f 2344 823f
000000b0: 4938 883f 734d 923f 44c6 953f 0d51 903f
000000c0: 250f 7f3f fdb2 8e3f 8b2e 933f 4fc5 933f
000000d0: 74e0 483f 7b5a 7d3f 8faf 843f fe53 963f
000000e0: 629f 8c3f 1dd2 8e3f b263 793f cad7 663f
000000f0: 0060 983f d368 8c3f 01d5 913f 14f6 963f
1.056503 1.0982347 1.1063347 1.1488532 1.0686946 1.1202284 1.0967133 0.9935141
1.1441215 1.183136 1.0692222 1.1568267 1.0368026 1.114374 1.1986659 1.0414339
1.1881111 1.0722435 1.190686 1.0890446 1.0509475 1.1043701 1.1080172 1.0883378
1.0367604 1.0641998 1.0787106 1.0804801 1.2634413 1.1010652 1.0728796 1.0759728
1.1806763 1.111162 1.0598046 1.1341552 1.1185209 1.1889884 1.2290049 1.055327
1.166297 0.9657356 1.0820677 1.0177044 1.0642177 1.1429886 1.1701131 1.1274735
0.99632484 1.1148373 1.1498579 1.1544589 0.7846749 0.9896619 1.0366076 1.1744382
1.098614 1.1157871 0.9741775 0.9017302 1.1904297 1.096949 1.1393129 1.1793847

transformer_encoder.layers.0.norm2.bias f4 [64]
00000000: 5659 5cbc 37be 50be 3c50 8bbd 72a2 7abe
00000010: 6e45 ae3d 9f4b 00be bd35 483d 94d8 553d
00000020: e9c4 16be 542b ec3d 943c a13d c375 7dbd
00000030: c353 b53d 2d8f 16be 29a5 a83d 21ef f33d
00000040: 106c d13d d011 2abe e41f a2bd de0f febc
00000050: fc33 2a3e d2e6 b8bc 9b08 6b3e d5f2 2ebe
00000060: a4f5 33be 11f5 e5bd 1cc6 1ebe 022e 593d
00000070: 54b1 ee3d fb5b a7be 2559 bcbd 796b 6dbd
00000080: 0bbc 303e f4f0 4abe d8f4 eb3d ed93 84be
00000090: 4060 bd3d 56d7 863d 2199 de3d 7ad5 94be
000000a0: 2f33 f4bd 6ccf 193e bf6c 253e b0fe dcba
000000b0: 95dc 8dbd 401c 40bc 5721 c83d 558c a3bd
000000c0: ebfc 88be c8ba cc3d 7351 c0bd ea77 243e
000000d0: 42fd 913d 29e0 333e 92e7 68be fe78 16bd
000000e0: eb4b 163e 19cd ad3c 44f2 a03e 1fe5 c93d
000000f0: dca9 e03d 850e 173e ab8a 86be a966 e63d
-0.013449034 -0.20385061 -0.06802413 -0.2447603 0.085093364 -0.12528847 0.048879374 0.052208498
-0.14723553 0.11531702 0.078728825 -0.061879884 0.08853867 -0.14703055 0.08234627 0.119108446
0.102256894 -0.16608357 -0.07916239 -0.031013425 0.16621393 -0.022571001 0.22952501 -0.1708482
-0.17574173 -0.11228383 -0.1550526 0.053022392 0.116549164 -0.32687363 -0.091966905 -0.057963822
0.17259233 -0.19818479 0.115213096 -0.25894108 0.09246874 0.06584041 0.10869051 -0.2906912
-0.11923825 0.15020531 0.16154765 -0.0016860571 -0.06926838 -0.011725485 0.09771984 -0.079857506
-0.2675546 0.09996563 -0.09390535 0.16061369 0.07128383 0.17565979 -0.22744587 -0.03673648
0.14677398 0.021215962 0.31434834 0.098581545 0.10969898 0.14751633 -0.2627767 0.112500496
