models/tab_transformer_fold_1_f1_0.7930.pth (torch, 327374 bytes, 30 tensors)

feature_embedding.weight f4 [64, 46]
00000000: 50ff bf3d 164e a43e 7539 d1bc 968f 6d3e
00000010: f55f 1ebc 6d14 9cbc c488 74be 47aa 8e3e
00000020: de30 aa3e edbc c9bd d1ac 7c3e 900e d33d
00000030: 7e77 af3e 693c 543d 99ec 6c3d d464 e2bd
00000040: 6f95 64bd f0ee 18bd 6fff cbbc ee81 d9bd
00000050: a1fd 03be 676e 12be 1136 8abe 06af 0b3f
00000060: 59ee 47be 5d8b d5be 730a e2bd d42a a5be
00000070: 542c 963e e5f3 67be d741 de3c 76cc 44bf
00000080: ec82 743e d847 c93e cdc8 35bf 590c dc3d
00000090: 3f4f c73c 706a fbbd 1329 18bf c8ce 07be
000000a0: c365 5bbe d726 be3d 3045 813d 2b6a 523f
000000b0: 0de7 183e 13f0 0bbf 860b 703d 3f5f 8a3d
000000c0: 8d9b 8fbd 02b4 81be f9f0 54be 3118 fbbd
000000d0: ec57 d0bd 5701 243e 6fbf 6abc 198a ce3d
000000e0: 3758 30bd 1240 343d 06a8 b83e 06ae c1be
000000f0: 3344 343d e09f 26be 7562 56bc 2f28 57bd
00000100: 3ba9 233e 009a 76be c399 223f 59b7 40be
00000110: 12a2 0bbe 3fbe 5f3c e3a5 d53e 40fe a23e
00000120: d448 c43e 7ed9 0fbd 1093 a7be a94c 44be
00000130: a2b9 31be 92aa 123e 3643 80be e744 9fbe
00000140: 568d ecbe 10d0 98bd 1ced 3f3d 4395 edbe
00000150: aada 0a3e 20d9 f0be 9401 003e 4140 29be
00000160: 9375 53bf 0a4f 923e 4241 84be 6d99 f23d
00000170: d884 e83c 6654 903e 55b1 923d 1d50 8dbe
00000180: ae6c 743e ef1d 6a3e c8d1 98be 93cb 06bf
00000190: 92f2 c1be f730 b03b 3fd5 963e 3f37 01be
000001a0: f707 88be 3d2d d2be a908 83bd b7b3 e9bb
000001b0: c0da 04bc f7cb 14be 9d97 8c3d 326d a0bc
000001c0: 21f4 1a3d 4d92 4cbe 57eb 16be 8c2d 6bbe
000001d0: a451 123f a426 fabd 584e dabc 497d 4ebd
000001e0: 3954 123e 3dbd 5cbd b763 853d ca36 613e
000001f0: 07bf cbbe 5e88 e7be 46a7 e83c 62e3 dfbe
00000200: 4bdb b23d 56fa 9ebd 44d7 6f3e 711d 1f3f
00000210: 172c c1be e4b7 37bd d0db bf3d ddc0 31bd
00000220: 65fc 5fbd ff7e 08bf b569 eabc 24bd 3b3e
00000230: 56c5 90bd 8018 a6be bfa8 823d c2e5 c3be
00000240: f435 9ebe 370e 6fbd f8de 123e 0910 aa3e
00000250: 34fa 903e d1c6 44bd 08b0 dfbe 6622 07bf
00000260: a5b2 293d f5e1 eebd df05 a3bc 5cae a63d
00000270: c6d7 f63d 9b92 153d c827 f43d 530d a4be
00000280: f8e6 003f 8b21 f93e c6bd 6bbe 7e24 82bd
00000290: 8684 823d 1db0 bc3e af45 003e a4ee 8c3d
000002a0: 99b6 35bd c531 e1bd 7f1a 7ebe d151 efbd
000002b0: b1d4 563e f0bc 133f 8e7b 7abd 4841 1abf
000002c0: 7d7a 8ebe 217d f03e 232f 743e 7722 43bd
000002d0: 0b62 adbc 250f 283f 9922 243d 8203 83bd
000002e0: 317a 8a3d 7197 993d e2e3 0f3d fd85 d1bd
000002f0: 3f90 b8bd 1c35 373e 9093 0abd 0512 8bba
00000300: c7a6 c83e 46bf b43e ef80 c6bc 4e29 9ebd
00000310: bb3e 1c3e 594b c2bd aac7 2dbd 6a10 363c
00000320: 3d7c d4bc 9d2b 06bc d099 493e 06e9 793d
00000330: c205 a1be 7d2d 11bf 1d03 3ebe 6c7d d2be
00000340: 395d 07bf 2d63 093f 09b0 cc3e 8ede fabd
00000350: 6850 37be a5e1 bcbd aa8f 85bd eab4 433f
00000360: 66a4 d13d 7d7f 8cbe b1ed cabd fb0b 83bf
00000370: d056 2dbe c957 423e 8b55 3ebf b50d 8abd
00000380: a4a4 0dbe 4a45 263f ca26 883e 434d aa3e
00000390: 8a6e 25bf 8bfe 1e3e 3cb7 17be f64b 803e
000003a0: 3a81 783b 8027 cd3d e190 baba 33d4 843e
000003b0: dcf1 4d3e ec1f 19be c132 dfbe 77c8 5cbe
000003c0: d4b0 263e 5c25 61be 9223 83be f701 3fbf
000003d0: 1319 b6bd 5d19 09be 9305 58bc ac66 c8bd
000003e0: 899a 81be 6985 933e 45ae 30bb 60ba 8fbe
000003f0: a581 06bd f724 debe 82a2 55be 3ffc b5be
0.09374869 0.32090825 -0.025540093 0.23199305 -0.009666433 -0.019052709 -0.23880297 0.27864286
0.33240408 -0.09850488 0.24675299 0.10305512 0.34270853 0.051815424 0.057842825 -0.11054388
-0.055806573 -0.037337244 -0.024902074 -0.10620485 -0.1288972 -0.14299928 -0.26994374 0.5456394
-0.19524516 -0.41707888 -0.11037149 -0.32259238 0.29330695 -0.22651632 0.027131004 -0.7687448
0.23878068 0.39312625 -0.7100952 0.10744543 0.02432978 -0.12276161 -0.59437674 -0.13262475
-0.21425538 0.09284752 0.063120246 0.8219325 0.14931889 -0.546632 0.05860474 0.06756448
-0.07012091 -0.25332648 -0.20795049 -0.122604735 -0.1017302 0.16016136 -0.014327868 0.10084934
-0.04305288 0.044006415 0.36065692 -0.37828082 0.044010352 -0.16271925 -0.013084997 -0.052528556
0.15982525 -0.24082184 0.6351587 -0.18819942 -0.13636044 0.013656198 0.41728124 0.31834602
0.38336813 -0.035119526 -0.32729387 -0.19169869 -0.1735597 0.1432288 -0.25051278 -0.31107256
-0.4620158 -0.0746156 0.046856984 -0.4640294 0.13559976 -0.47040653 0.12500602 -0.16528417
-0.8260128 0.28575927 -0.25831038 0.1184567 0.028383657 0.2818939 0.0716273 -0.27600184
0.23869583 0.22862981 -0.2984755 -0.5265438 -0.3788038 0.005376931 0.2945957 -0.12618731
-0.26568577 -0.4105014 -0.06398136 -0.0071320194 -0.008108795 -0.14530931 0.068648554 -0.019583318
0.037830476 -0.19977684 -0.14738213 -0.22966594 0.57155824 -0.12214401 -0.026648685 -0.05041245
0.14289941 -0.05389141 0.0651316 0.21993557 -0.3979418 -0.45221227 0.028400075 -0.43728167
0.08733233 -0.077625915 0.23421961 0.621543 -0.3772895 -0.044853106 0.09368098 -0.04339682
-0.05468406 -0.5331878 -0.028614858 0.1833387 -0.07068889 -0.32440567 0.06379842 -0.3826123
-0.30900538 -0.058363166 0.14342868 0.3321536 0.2831589 -0.04804117 -0.4368899 -0.5278686
0.041430134 -0.11664192 -0.01990026 0.08138725 0.12052874 0.036516767 0.1192165 -0.32041416
0.5035243 0.48658404 -0.23021612 -0.063546166 0.06372933 0.36853114 0.12526582 0.068814546
-0.04436359 -0.10995821 -0.24814795 -0.11685527 0.20979573 0.5771017 -0.061152987 -0.6025586
-0.27827826 0.46970466 0.23846106 -0.04764029 -0.021164915 0.6564811 0.040072057 -0.063971534
0.067615874 0.07499588 0.035129435 -0.10230634 -0.09011888 0.17891353 -0.033832133 -0.0010610229
0.3918974 0.3530218 -0.024231402 -0.07722722 0.15258305 -0.09487028 -0.042426743 0.011112312
-0.025938148 -0.008189109 0.19687581 0.061013244 -0.31449705 -0.56710035 -0.18555875 -0.41111314
-0.5287662 0.53666955 0.39978054 -0.1224948 -0.17901766 -0.09222726 -0.06521542 0.7644793
0.10236435 -0.27441016 -0.09908617 -1.0238031 -0.16927648 0.189788 -0.7434928 -0.06740896
-0.13832337 0.64949477 0.26592094 0.3326207 -0.64621794 0.15526788 -0.14815992 0.25057954
0.0037918822 0.100173 -0.0014233851 0.25943145 0.20111793 -0.14953583 -0.4359341 -0.21560846
0.16278392 -0.21986908 -0.25613075 -0.74612373 -0.08891501 -0.13388582 -0.013184923 -0.09785208
-0.25313213 0.2881272 -0.0026959341 -0.2807188 -0.032838482 -0.43387577 -0.20862773 -0.3554401

feature_embedding.bias f4 [64]
00000000: 7444 5bbe 731b 04bf 58ed 22be 601d 893e
00000010: d117 54bc 7245 493e 5d2f 683e a35d e4be
00000020: 5d9f da3e c5f2 8d3e def3 78bd 4093 04bd
00000030: 43ae fc3c c31f 1cbf ccba 4d3e 1bba 763d
00000040: ad39 763d aeb3 16bf ef28 24be 4138 8a3e
00000050: 8065 0d3e bf26 f4be d1b7 94be 06aa 5ebe
00000060: 7601 2ebe 6d5e 79bd 1853 0dbe 6131 d2be
00000070: b574 7f3e c6f2 32bd 152f 38bf ae1d ea3d
00000080: a9f8 dc3e 45f2 8ebe 3cae 2a3f 7416 bf3d
00000090: 36b3 ac3e 0a8e 2c3e fe74 b33e 7b51 d73e
000000a0: 9a3c e8bd f80e 073e de80 49be 38e1 bf3d
000000b0: 5cf1 b43e ad66 6d3c 9460 e1be e168 65be
000000c0: 638c c4be fef6 393c 2f30 8dbd 3261 0dbf
000000d0: 4be4 c7be ee98 df3e 266e f5bd 6f92 a13e
000000e0: ee59 0d3f e3dd bf3e a816 1a3c 084e 1abf
000000f0: 71e0 7fbc face d6be cd0b fdbe 15c4 113f
-0.21412832 -0.51604384 -0.15910852 0.26780224 -0.012945131 0.19655398 0.22674318 -0.4460269
0.4269971 0.2772428 -0.060779445 -0.03236699 0.030844813 -0.60985965 0.20090789 0.060236078
0.060113598 -0.5886792 -0.1603124 0.26996043 0.1380825 -0.4768581 -0.2904649 -0.21744546
-0.16992745 -0.060881067 -0.13801229 -0.41053298 0.24946864 -0.043688558 -0.7194684 0.11431442
0.43158463 -0.27919212 0.6667211 0.093304545 0.33730477 0.16851059 0.35050195 0.42054352
-0.11339684 0.13189304 -0.19678065 0.09369129 0.35340393 0.014489812 -0.44018996 -0.2240329
-0.38388357 0.011350391 -0.06893956 -0.55226433 -0.3904136 0.43671364 -0.119839 0.31557032
0.55215347 0.37473974 0.009404816 -0.60275316 -0.015617476 -0.41954786 -0.49423066 0.5693982

transformer_encoder.layers.0.self_attn.in_proj_weight f4 [192, 64]
00000000: 8be7 d2bd ad26 033d 7e5e 1cbe 27c5 e43d
00000010: e850 92bd ea0b 083b a202 a5bd 5e2a 103d
00000020: b04f b2bd 0a8c cebd 6be9 58bd 5233 c53d
00000030: 7174 293d 7b59 6abd e680 ee3d 4d9e 253d
00000040: 6fec 42bd f96d eabc db95 9dbd 6772 a4bd
00000050: dcd0 5bbc 9f54 fe3c 1517 17be 6106 15be
00000060: 726b c83d 3fd4 3ebd c967 f03c 1814 723d
00000070: 765c afbd 9dbf dd3d f434 12bd b9a1 b139
00000080: aad0 02be effa 3c3d ab1d f7bd 0c29 da3d
00000090: aca2 6ebd c184 a0bd e22d 84bd 8c44 6f3d
000000a0: 3e1f 133e 3a3e 173d ec61 193e a1d1 0fbe
000000b0: 2233 2bbd 3b10 b4bd 5f5e cbbd 1270 253d
000000c0: 0218 34bd ce90 6f3d 4e71 72bd aeb9 09be
000000d0: 85c2 92bd 76cc 1abe d622 233d 5f1d efbd
000000e0: f0f2 d33d bf87 733d 00c0 cebd dedf 2bbd
000000f0: f6fb c2bd ad35 eb3d 85cb 84bc 3c68 8fbd
00000100: afde 4e3c e01c 883d 7c0b c9ba 7067 c83d
00000110: 72c5 c33d 6086 89bb ea18 a63d 2ddb e4bd
00000120: 13a3 a3bd e04d 363b ac1c 5ebc 30d3 793d
00000130: 27cb d43d 1858 aabd adb1 a33d 46d8 1c3d
00000140: 9497 d73d 007e 993d 5a00 48bd b52e 8bbc
00000150: a908 c2bd 8711 5d3d 1e01 d03d 75bb 633d
00000160: 68ef fc3d 1fff 523d 80e6 d83b a31c 21bd
00000170: de48 efbd 4fe0 14bd f849 1c3e 6ba8 023e
00000180: 6b0f 43bd 9600 0c3e cf1e 023e f59b 00be
00000190: f45e 0ebe 8d53 8cbd 8f71 64bc f499 713d
000001a0: 60a8 2a3d f31f b63d 4791 9cbd 63b3 c83d
000001b0: 9f5f f83c 163f 00be 6912 f4bd 8929 803d
000001c0: cc85 083e 73d6 d0bd d02b b63c 4020 2cbe
000001d0: 1c9b b23d bdeb a53d 6a9e 64bd 6344 9a3d
000001e0: b7b4 4f3d 5f0d d63d ad74 09bc 1513 57bb
000001f0: f039 a93d f306 8b3d 1237 febd 60e4 68bd
00000200: c5c1 aa3d f741 efbd a196 973d 46ef 3ebd
00000210: 5750 073e a90c 1ebe 0fd1 a63d f643 05be
00000220: 8e67 d43d 7ba7 8c3c 6ef8 813d 7f06 fc3c
00000230: f059 1d3e 2e38 b5bd 8486 83bd 7e9d 6f3d
00000240: 0215 c1bd 0968 5b3c 0ce0 a63d cde2 16be
00000250: aef8 e5bc 4791 fa3c 7b7b f1bd f464 143e
00000260: 1bd0 a13c 1bf3 f4bd b98b 64bd a4d8 663d
00000270: e116 093e 4ec3 12bd 17d1 0a3e eee8 d6bb
00000280: 46dd eebd f605 c93b 7237 80bd 0d38 193d
00000290: f46d e43d fbc6 ecbd 8c0b bbbd 6e46 c53d
000002a0: 71f3 6e3c 42b9 1f3e 4fa1 083e 9ccd b2bd
000002b0: 2cf0 d83d f66e 2cbe 7955 ba3d 3965 ccbd
000002c0: d4f3 f53b 466f c53d f6ff f73c 3658 bcbd
000002d0: db3c 673d 8249 b6bc 61e6 213e ac8e 9cbd
000002e0: a318 ecba cf04 33be 7f7e 30be 68f6 21bd
000002f0: f768 0cbe 9bee 9abd 24ea 91bd 6b3e 45bd
00000300: 7690 bfbd 379e 0f3d 283c 9cbd fda1 ae3d
00000310: 1f4b dd3d cbc5 553e 54b2 bb3d 2599 ba3b
00000320: 04a6 63bd f08b b4bd 65f2 703d 1cad d23d
00000330: c086 c53d a4f7 dabc fe5e fcbd d1c5 a53d
00000340: acaa 143e 516f e0bc 37e7 043e 9cf3 a13d
00000350: ca4f d13d 4f96 48bd 96de 66bd df9a 55bd
00000360: 87aa 8a3c 2d85 19bd 2cb6 07be d825 fcbd
00000370: 4e3d 72bd 8595 ef3d 6b65 ff3c f794 29be
00000380: 1c43 15be 2be1 f2bd 5bba 063e 4449 e83c
00000390: a757 9b3d 5317 1bbe d35d ee3d 5683 ef3d
000003a0: c842 6abd aaa9 bebd 21af 9e3d 2ce1 9bbd
000003b0: 71f7 abbd b568 cc3d 63d2 13be ec1d 823d
000003c0: 37a7 44bb f931 063d 9aff b13b 9652 7c3d
000003d0: bdff 74bd 71b0 6d3d 0940 1dbe 78c2 5b3c
000003e0: d661 1fbe b7ba 423e e702 693d 16b1 a53c
000003f0: c127 e03d 7bfa 213d bb30 8e3c 9516 4dbe
-0.102980696 0.032019306 -0.15270421 0.11170416 -0.07144338 0.0020759054 -0.08057143 0.035196654
-0.087066054 -0.10085304 -0.05295698 0.09628929 0.041370813 -0.05721424 0.11645679 0.04043417
-0.047588762 -0.028616892 -0.07694598 -0.08029633 -0.013416495 0.03104621 -0.14754899 -0.14553215
0.097861186 -0.046589132 0.029346364 0.059101194 -0.085625574 0.10827563 -0.03569503 0.00033880564
-0.12774912 0.046137746 -0.120662056 0.1065236 -0.058260605 -0.07837821 -0.06454064 0.05841498
0.14367387 0.03692458 0.1497876 -0.14044811 -0.04179681 -0.08792158 -0.09930109 0.04039008
-0.043968208 0.058487706 -0.059190087 -0.13449737 -0.07166008 -0.15117058 0.039828144 -0.11675524
0.10349071 0.05945563 -0.10095215 -0.041961543 -0.09520714 0.11484847 -0.016210327 -0.07002303
0.012626334 0.066461325 -0.0015338506 0.09785354 0.09559144 -0.004196927 0.08110221 -0.11174617
-0.07990088 0.0027817413 -0.013556641 0.06099242 0.10390311 -0.08317584 0.07992873 0.038292192
0.10526958 0.07494736 -0.04882846 -0.016990045 -0.09474308 0.053971794 0.10156463 0.055598695
0.123503506 0.051512834 0.0066192746 -0.03933395 -0.1168382 -0.03634673 0.15262592 0.12759559
-0.047622126 0.13672099 0.12707065 -0.12559493 -0.13903409 -0.068518735 -0.01394309 0.05898471
0.04166448 0.088928126 -0.07644897 0.0979984 0.030319033 -0.12524065 -0.11917574 0.06257922
0.1333229 -0.10197153 0.022237688 -0.16809177 0.08720991 0.08101604 -0.055815138 0.07532575
0.050709452 0.10451769 -0.008389634 -0.003281777 0.08263004 0.06788435 -0.124128476 -0.05685842
0.0833774 -0.11682504 0.07401777 -0.046614908 0.13214241 -0.15434517 0.081453435 -0.13014206
0.10371314 0.017169705 0.06346212 0.030764816 0.1536634 -0.08848606 -0.06422141 0.058499806
-0.09427835 0.013391503 0.08148202 -0.14734955 -0.028072681 0.030586852 -0.1179113 0.14491636
0.019752553 -0.11960431 -0.055797312 0.05635895 0.13387634 -0.03583079 0.13556324 -0.006558529
-0.11663298 0.006134744 -0.06260575 0.03740697 0.111537844 -0.1156139 -0.09133062 0.09632574
0.014584408 0.15598014 0.13342784 -0.08730623 0.10592684 -0.16839203 0.09098334 -0.09980244
0.007505873 0.09640364 0.030273419 -0.091965124 0.05645452 -0.022251848 0.15810539 -0.076444
-0.0018012713 -0.17482303 -0.17235754 -0.039541632 -0.13711916 -0.07565042 -0.07124737 -0.04815523
-0.093537256 0.035062995 -0.076286614 0.085269906 0.10805344 0.20876233 0.09164873 0.005694526
-0.055578247 -0.088157535 0.058824915 0.10286924 0.09644842 -0.026729412 -0.12322806 0.08094371
0.14518231 -0.02739683 0.12978826 0.07907793 0.10220297 -0.04897147 -0.05636462 -0.05214965
0.016927017 -0.037480522 -0.13253087 -0.123119056 -0.059140496 0.116984405 0.03117629 -0.16560732
-0.14576381 -0.11859354 0.13157026 0.028355248 0.07585078 -0.15145616 0.11638989 0.11694972
-0.057192594 -0.093097046 0.07748247 -0.076113075 -0.08396805 0.09980909 -0.14435725 0.063533634
-0.0030006894 0.0327625 0.0054320814 0.061602198 -0.059814204 0.058029596 -0.15356459 0.013413064
-0.15564665 0.19016539 0.056887534 0.020226043 0.109450825 0.039545517 0.01735722 -0.20028146

transformer_encoder.layers.0.self_attn.in_proj_bias f4 [192]
00000000: a938 03bd 8100 843b 4179 da3a e024 7ebd
00000010: 3d97 7b3c 6182 fc3c 34a4 64bd ddba 223d
00000020: a413 90bc f171 113e 4d32 acbc 3e87 b73c
00000030: f12f 06bd 0f09 d8bb af04 b8bd 98bd de3d
00000040: bffd bb3d 3ef5 a83c 85c9 d93d c78e 053e
00000050: 878a 85bb 4da6 12be f14f 3abd fec9 a43c
00000060: 4007 413d 9c7c c73c 163f 023e 0385 e63c
00000070: 4459 0fbd c039 4fbc e151 f1bd ec6e b33d
00000080: f7b7 043d b406 473d 2e0b ce3d d5c5 a3bd
00000090: 01b1 093d 1512 87bc d732 bbbd cc72 2fbd
000000a0: 879f 583d 83a3 0a3e 3db0 273d 9079 11bd
000000b0: 72aa 193d 8c14 17bd 23e2 d2bc b447 c6bd
000000c0: 7d29 283d f24c c13d e68c 08bd 5306 68bd
000000d0: 4fb7 3bbd c42c 31bd 3fb2 a6bc 98f1 9dbd
000000e0: 7e3a d13c eebc 613d b26d ef3d 3e10 a43d
000000f0: bffc 55be 0e2b 11be 5410 ad3c 0e40 19be
00000100: 2d3f da3c 7576 383d 3e11 5c3b f370 803d
00000110: b624 7fbb f371 023d e478 803d 0baf acbd
00000120: d332 3d3d b044 85bd a73c 5b3d ea3a 9bbc
00000130: 348f c03d ead4 42ba a21a de3d f6e0 d3bd
00000140: 36fc b9bd e9bb c13c 8307 cebd 0ec7 93bd
00000150: 80fe 05bc b9ab 323e 00ee 4b3d d87f 8c3c
00000160: 56dc 273c ccd6 3abd fa07 e6bd 74ec 24bd
00000170: 7a2b 793d c992 dfbc 69a8 193e 49a0 1cbd
00000180: b3f5 623b 48bf 6cbc 334f 67bd 5f7f 823d
00000190: cd8e bdbc 133e b23c a8ef f83d 5283 433d
000001a0: 4c3e 02bd c592 24be 92c6 6abd 3584 993d
000001b0: 3e5c c6bb bc57 1b3c 15b0 f4ba 5685 f33d
000001c0: 0c80 8abd a6d3 bebd 6164 b93b fc7a 183d
000001d0: 0455 883d c32d 3e3d 9fee e53b 2b46 aa3d
000001e0: ed82 96bc 20ce 84bd 1dfa 08be 9b3e 9f3b
000001f0: e2d7 0f3e 897e 1c3e 321f 20bd 5aff cc3d
00000200: 783e 6b3d 3a17 a43d 5079 663e cac2 efbb
00000210: 02e1 28bd ad08 80be 7d66 a53e 63f5 49bd
00000220: cb13 7b3e 772d 4b3d f208 d83e a52f 89bc
00000230: d749 f13d b7ad b63d 96ea d0bc 7a14 5ebe
00000240: acaa 9a3d fc3d 08be a6f6 aabd c350 6ebe
00000250: 6d69 7fbc 13c8 713e 1e17 95bd 3fd3 bbbd
00000260: b693 863e d426 84bd 0012 c0bc 0516 24bd
00000270: 4902 313c 74ce 893d 0ed6 c4be db16 633e
00000280: 9f3a 113e 0c72 143d a594 143e 020a 5bbe
00000290: 6b69 203e da88 2e3e dcd8 b33d c3e8 dbbd
000002a0: 1f36 f2bd 5096 ce3e dffe bd3d 1c7f 183e
000002b0: a36e 31bd 8dd3 edbe 230c a13c 7a98 003d
000002c0: e37d a63d 630d 0d3e b912 17be 85dd 533e
000002d0: 74c6 55bd 7488 823e 767b 6fbd ecf1 293e
000002e0: f0b5 d9bb e3db 7a3e 1925 373c f9b9 953d
000002f0: 1876 323d d169 c43e 2500 613e fd96 0d3e
-0.032036457 0.0040283804 0.0016668217 -0.062046885 0.015355882 0.030823888 -0.05582066 0.039728988
-0.01758749 0.14203621 -0.021020079 0.022403356 -0.032760564 -0.0065928767 -0.08985268 0.10876006
0.091792576 0.020624753 0.1063414 0.13042746 -0.0040753516 -0.14321251 -0.045486394 0.020115849
0.047126055 0.02435141 0.12719378 0.028139597 -0.03499724 -0.012648046 -0.11783195 0.08761391
0.032402005 0.048590377 0.10060726 -0.07996718 0.03361607 -0.016488114 -0.09140556 -0.04283409
0.052886512 0.13538937 0.04093956 -0.03551632 0.037516065 -0.03688483 -0.025742596 -0.09681645
0.04105519 0.09438504 -0.033337496 -0.056646656 -0.045829114 -0.043255582 -0.020348666 -0.07712096
0.025540587 0.055111818 0.116908446 0.080109105 -0.20897196 -0.1417658 0.02112595 -0.14965841
0.026641453 0.045034844 0.0033579613 0.06271543 -0.0038931794 0.03184695 0.06273058 -0.08431824
0.046191048 -0.06507242 0.05352464 -0.01894899 0.09402314 -0.00074322394 0.108449236 -0.10345642
-0.090813085 0.023649173 -0.100600265 -0.07215701 -0.008178353 0.1744832 0.04978752 0.017150804
0.010245403 -0.045615003 -0.1123199 -0.04026456 0.060832478 -0.027291672 0.1500565 -0.038238797
0.0034631311 -0.014449902 -0.056472015 0.0637195 -0.023139382 0.021758115 0.12155086 0.04773266
-0.031797692 -0.16071613 -0.057318278 0.074959196 -0.0060534766 0.009481367 -0.0018668199 0.11890666
-0.06762704 -0.093177125 0.005657718 0.037226662 0.066568404 0.04643036 0.0070169712 0.08314165
-0.018372977 -0.06484628 -0.1337666 0.004859758 0.14047197 0.15282644 -0.03909225 0.10009642
0.05743262 0.080122426 0.22507215 -0.007316922 -0.04123021 -0.2500662 0.32304755 -0.049306285
0.24519269 0.049603906 0.42194325 -0.016746351 0.11781662 0.08919852 -0.025502484 -0.21687499
0.07552084 -0.13304895 -0.08347826 -0.23272996 -0.0155891 0.23611479 -0.072798 -0.09171151
0.2628457 -0.064527184 -0.023446083 -0.040060062 0.0108037675 0.06728831 -0.3844456 0.22176687
0.14182518 0.036241576 0.14509828 -0.21390536 0.15665214 0.17044392 0.08781597 -0.10737755
-0.11826729 0.40349054 0.092771284 0.14892238 -0.043318402 -0.46450463 0.019659108 0.031395413
0.0812948 0.13774638 -0.14753236 0.20689972 -0.052191213 0.2549473 -0.05846735 0.16596192
-0.006644003 0.24497943 0.011178278 0.07310862 0.043569654 0.38361982 0.21972711 0.13827129

transformer_encoder.layers.0.self_attn.out_proj.weight f4 [64, 64]
00000000: 0a1f 243c 3cf6 8f3c 79ca 26bc 3708 943b
00000010: d247 4b3c a21c bb3b 2dd8 95bb 66c4 b83c
00000020: 5649 623c df41 033c f574 423c d368 b43b
00000030: 6afe f9bc f14f 083d d419 25ba 1018 2ebc
00000040: b886 a8bc 60f6 4b3c fd8a a23c 5495 8abc
00000050: dfff 08bc de2a f0ba 395e 823c 8b51 7f39
00000060: 4ec1 323c 9913 2c3c 25b8 bd3c 8ad1 a0bc
00000070: 00c7 94bc c66b 50bc fbfa c83c dc18 9fbc
00000080: 66b2 b63c a2ca c73b fe63 bf3b 5aa0 e6bb
00000090: b89a a5bc 4487 a2bc 0163 883b e276 6f3b
000000a0: 8ee3 dabc 5803 463c a170 213c 94b1 973c
000000b0: 883b aabc 4780 abbb 9680 1b3a 9be0 123c
000000c0: ff67 5ebc 0ede 0dbb 74ca be3c e19b 00bc
000000d0: 0ee4 8cbc c3d5 20bb 8b38 543c 7094 013b
000000e0: 11d9 7fbb 3fbb bd3a ab1a 9c3b b2ca c73b
000000f0: 9e9c 913c 38e4 2a3c d17b 50bb 4fbd 6d3c
00000100: 0e44 363c 3586 cc3c f2c4 a03b e5d7 b9bc
00000110: eda4 34bc 4554 9c3c 3361 273c 7137 5dbb
00000120: 0803 e93b b146 933c cab7 db3c f788 5d3c
00000130: 9470 29bc da6a 633c a3ff fe3c b7a1 babc
00000140: a7d0 c8bc 3f99 b4bc cabd a23c b455 273d
00000150: cdc0 22bb 651b 093d 220a a1bc 304a cb3b
00000160: 5069 6abc 4394 fbbb bf0e 01bd 7ee3 c63a
00000170: 1cd9 073c 71e6 4f3c c9b6 a8bc 4fb8 2a3c
00000180: 5a70 753c 0615 28bb 31e7 dcbc 1722 8d3c
00000190: 3bc7 a83c 7ebe 38bc 8a7e 9f3c 342a 263b
000001a0: b37a eabc 2ad0 233d fa3e c43c 5250 0ebc
000001b0: 7956 44bd 563b 09bd c3a9 fbbc 252b 9c3c
000001c0: a807 c5bb 830b 4dbb b09d c7bc 1e71 a33b
000001d0: 7703 d03c d6bb b23c 40b1 e33c 4e60 143b
000001e0: 2470 11bb 99a0 4f3d 5ca4 823c 1ff9 98bc
000001f0: fbb9 bd39 fb85 ca3c f5b2 7a3d f6b0 053d
00000200: 99e2 5b3c 0d20 96bc ad2d 013d fcf1 da3c
00000210: 6b04 05bd 1ace 7d3c 04fa fe3c bca2 93bc
00000220: 0a0c 893b 52d3 0d3b 913e e83c 54c3 06bd
00000230: 50b1 113d dee7 753c 3f3d fe3c 8c40 ea3b
00000240: 50d0 febb 4b68 5fbb 015c 26bd 870b aeba
00000250: bee4 ae3c 5caa c93b c0cd a83b 6c46 bbbc
00000260: 703b cc3b 5be0 8e3c 20f1 733c b41d aabb
00000270: bb82 febc 29f9 053d c33a 5abd 846a 7b3c
00000280: b6e2 093d a6ec 65bc 3bd3 c63a a21d 91bc
00000290: 30ff 693c 9a7a 85bc 488c dc3c 5f80 0c3c
000002a0: 2de0 a13c 1048 1bbc 7606 8ebc 9310 89bc
000002b0: 25ff 883c 1b47 30bd ff4f 3abc ad44 97bc
000002c0: 97db dc3c 19e8 24bc d97a e13b 1569 bcbb
000002d0: cb9e bfbc 9df3 1b3a 68b8 5ebc 07fd 6a3c
000002e0: 05a2 0ebb 9098 9abb 392c a53c b35e cb3c
000002f0: 7133 5a3b 4ab3 2f3d 2251 123c 9aa3 923b
00000300: 0b33 173c 54ea 25bb bcb5 04bc 6517 913b
00000310: 574f 95bc 3374 6bbc cbf7 803c c9c7 e1bc
00000320: 0f73 1abc 79e2 90bc 2e43 733b 4515 4d3c
00000330: f5cf 6b3c f2c2 23bc c71e 423c 65a5 56bc
00000340: 8881 c6bb d113 093c 8165 6e3c 4f59 a4bc
00000350: 81b5 183c ec38 a3bc 31d9 053d 2a06 8c3c
00000360: 20ac d63b 3132 053c 11d8 09bc 635d 0a3c
00000370: 0e80 45bc 0aad 39bc 2599 06bd f941 0a3c
00000380: 47dd c43c d639 68bc 9b8c 11ba 7d59 713a
00000390: 58db 0fbc a8e8 003d ec72 65bc 17c8 cc3c
000003a0: bc72 d9bc eac7 fe3c c8aa 763c 3603 e53c
000003b0: af24 4e3c 56ba f7bc 290c 183d d78c 963c
000003c0: cd3e 22bc 1b96 a53c 277d 5b3c 4c2d 6bbc
000003d0: 158f e6bb 9696 853c e15c 75bc 7de0 e73b
000003e0: a95c 87bc de62 033a 59b6 12bb d2a5 a5bc
000003f0: 253d e8b8 f85b 28bb ae23 c73c c3ec 0f3c
0.010017166 0.017573468 -0.010180109 0.004517581 0.01240726 0.0057102004 -0.0045728893 0.022554588
0.01381143 0.00801131 0.011868705 0.00550566 -0.030516822 0.033279363 -0.0006298099 -0.010625854
-0.020572051 0.012448877 0.019841665 -0.016916908 -0.008361786 -0.0018323322 0.01591407 0.00024349072
0.010910345 0.010502719 0.023159096 -0.019631166 -0.018161297 -0.012721008 0.02453374 -0.019421034
0.022301864 0.0060971538 0.0058407774 -0.0070381584 -0.020215377 -0.01983989 0.004162193 0.0036539366
-0.026719835 0.012085758 0.009853513 0.018517293 -0.02078034 -0.0052337977 0.00059319416 0.008964683
-0.013574599 -0.0021647247 0.023289897 -0.007849664 -0.017198589 -0.0024541474 0.012952934 0.0019772314
-0.0039039294 0.0014475359 0.0047639213 0.006097161 0.017774876 0.010430388 -0.0031812082 0.014510467
0.011124624 0.024966339 0.00490629 -0.022685954 -0.0110256495 0.019083152 0.010216045 -0.003375497
0.007110957 0.017978044 0.026821036 0.0135214245 -0.010341782 0.013880456 0.031127756 -0.02278219
-0.024513556 -0.02204573 0.01986589 0.040853217 -0.0024834157 0.03347339 -0.019658152 0.006203912
-0.014307335 -0.0076775863 -0.031508204 0.0015173999 0.008291509 0.012689219 -0.020594971 0.010419919
0.0149804 -0.0025647297 -0.02696571 0.01722817 0.020602813 -0.011275886 0.019469518 0.0025354745
-0.02862296 0.039993443 0.02395581 -0.008686142 -0.04793403 -0.033503853 -0.030720597 0.019063542
-0.0060128756 -0.003128738 -0.024367183 0.00498785 0.025392277 0.021818083 0.02779448 0.002264041
-0.0022192085 0.050690267 0.015947513 -0.018673478 0.00036187455 0.02472209 0.061205823 0.032639466
0.013420724 -0.01832583 0.0315377 0.026726715 -0.032474916 0.015491033 0.031125076 -0.018021934
0.0041823434 0.002164085 0.028350146 -0.032901123 0.03556949 0.015008895 0.031035064 0.007148808
-0.0077762976 -0.0034089263 -0.040615086 -0.0013278582 0.021349307 0.0061543416 0.0051514804 -0.022860728
0.0062326714 0.017440965 0.014889032 -0.005191529 -0.031068197 0.03270832 -0.053278696 0.0153452195
0.033663474 -0.014033472 0.0015169153 -0.017714325 0.014282033 -0.016293813 0.02692236 0.008575528
0.019760216 -0.00947763 -0.017337065 -0.016731536 0.016723225 -0.04303656 -0.011371612 -0.018465364
0.026960177 -0.010065102 0.0068810997 -0.0057498314 -0.023391148 0.0005949082 -0.013593771 0.014342553
-0.0021764052 -0.004717894 0.020162689 0.02482543 0.0033294822 0.042895593 0.008930476 0.004475069
0.009228478 -0.0025316672 -0.0080999695 0.0044278377 -0.018226309 -0.014370966 0.015743157 -0.027561085
-0.009426846 -0.017686116 0.00371189 0.012517278 0.014392843 -0.009995209 0.011848158 -0.013100957
-0.006057922 0.008366541 0.014550568 -0.020062117 0.009320618 -0.019924603 0.032677833 0.017092783
0.0065512806 0.008129642 -0.008413331 0.008445117 -0.012054456 -0.01133276 -0.032860894 0.008438581
0.024031295 -0.014173945 -0.0005552263 0.0009206755 -0.008780323 0.03147188 -0.01400445 0.024997754
-0.026543967 0.031101186 0.015055366 0.027955633 0.012581988 -0.03024022 0.03712097 0.018377705
-0.009902668 0.020213177 0.013396538 -0.014354061 -0.0070360997 0.016307157 -0.014975757 0.0070763216
-0.016523676 0.0005011986 -0.002238652 -0.02022067 -0.00011074011 -0.0025689583 0.024309006 0.008784476

transformer_encoder.layers.0.self_attn.out_proj.bias f4 [64]
00000000: 9388 6b3c 2a78 16bd 6321 b9bc 2726 4c3c
00000010: 5228 0fbd 3b05 73bc ce44 ba3b 7343 85bb
00000020: 6e03 e53c 75fc 773c 81f7 193d 2abd 383c
00000030: 2211 c2bc 22fe cfbc afd6 d43c f9fc e7bc
00000040: 8b34 6bb8 5055 543c 6252 c23b e6dc cdbb
00000050: 9f8c 3abc 2a22 63bc 3abd 68bc fe42 8abc
00000060: 7fc4 9abc e2be 1e3c bdd7 1d3c 98e0 eb3a
00000070: e431 393c 8590 863c 1e4b f5bc 7d0a 8338
00000080: ea66 d23c 4a4a 0fbb 11a9 a63c 8eb0 3d3c
00000090: 0c17 2c3d e621 14bb 7808 c03c 5cd4 4d3c
000000a0: ad24 47bc 0cbd d1bb 3247 4dba 6041 103b
000000b0: aa71 303b 604b d43c 9fa3 84bc e5cf 043b
000000c0: 1f44 6dbb 6683 acbb e5c3 a0bc 03f5 08bc
000000d0: 9ba2 d0bc 713c 973c 2903 d3bb 4e5d 0c3d
000000e0: 51ec cd3c 9928 163b c015 523c de86 883b
000000f0: 5e14 40bc 8708 f7bc 6ea9 9fb9 6a04 223d
0.014375824 -0.03673569 -0.022598928 0.012460268 -0.03495056 -0.01483279 0.0056844717 -0.0040668785
0.027955737 0.015135874 0.037589554 0.011275569 -0.02368981 -0.025389735 0.025981275 -0.028318869
-5.60773e-05 0.012959793 0.005930231 -0.0062824367 -0.011386066 -0.013863126 -0.014205271 -0.016877647
-0.018892525 0.009689065 0.009633956 0.0017996011 0.011303399 0.016426334 -0.029943045 6.2485204e-05
0.025683839 -0.0021864348 0.020344289 0.011577738 0.042014167 -0.0022603213 0.023441538 0.012562837
-0.01215474 -0.00640071 -0.00078307383 0.0022011623 0.0026923218 0.025914848 -0.016191302 0.0020265516
-0.0036203933 -0.0052646874 -0.01962466 -0.008359197 -0.025468161 0.018461438 -0.0064395857 0.03426867
0.025137099 0.0022912382 0.012822568 0.004166468 -0.011723606 -0.030155433 -0.00030453078 0.03955499

transformer_encoder.layers.0.linear1.weight f4 [128, 64]
00000000: e67f 8fbe e664 9b3d d16b 39be 259e e2be
00000010: c4a3 94bc b6da 4fba cad4 07bd 5c03 063e
00000020: 0753 5a3d 82bb c4be fa93 9dbd 3f1c 613e
00000030: fd74 173e 4388 1c3e 55dc 70bd 4dca 293e
00000040: 9177 113e 2b1b 783e 56b6 fc3e 14db 48be
00000050: 4410 973e d251 693e c762 1c3e 4b04 bb3c
00000060: 94c6 8c3d eeba 3f3e 0e4d c73e 3a55 5cbe
00000070: 0615 bc3d 5ef6 99be a232 123e b972 ed3d
00000080: 5848 04be 4af3 a5bd e16a d6be f9a1 1abe
00000090: f30f 333e 4896 e0bd ac02 7d3e 14d7 8fbc
000000a0: a793 c0be 87e9 cbbe 0555 613e 78b7 c5be
000000b0: 0c70 c5bc 48ac ba3e 5031 b4be 6192 99bd
000000c0: 51f0 673e 6234 c3bd 531e d6bd 59cc e53c
000000d0: fa86 fabd c3c1 20be c27f 993c 8dbd 5b3d
000000e0: b414 89bd acf7 a13d 9f35 09bb 9693 11bd
000000f0: 8217 983e 8df9 073e f9e9 0d3e 3494 d3bd
00000100: 9d5a 253e 5a41 853d 19a1 4fbe a192 4dbe
00000110: 8064 25be 915b bc3d 283f 143e e9d4 a4be
00000120: 4a6a 58be b5cd 0dbd 8885 8dbe bdbf 19be
00000130: 4598 eabd 30fb 14be 76e7 bcbc 8360 97be
00000140: 0a42 113e 7785 b83d 442b d7ba e87d 84be
00000150: cc8e d7bd bd44 813d b932 fd3d d1c7 c53c
00000160: 8a15 0bbd ffda 11be 3099 7b3e c19c d13d
00000170: 2947 e6bb b021 2f3c a170 0a3e 92cd 643e
00000180: c64b 8a3e 6425 1ebd bb75 153e dff4 bcbe
00000190: c64f 8dbe 53cd aebe ada6 633e 5073 1fbe
000001a0: 5584 d43e b0e6 673e f4ce bc3c 095a 0b3e
000001b0: 3c1e 84be a2a8 053e 2f8b 34bd 3951 b13d
000001c0: 1e48 0b3e 4c75 5cbe bf53 343e d0fb 303e
000001d0: 49dd 103f 652a 2bbe 633f 92bd 311c 52bc
000001e0: 7642 9abe 6907 e73e fb99 033d d997 0abe
000001f0: 9962 043e f0c1 123d 3d39 793b bad1 183e
00000200: 0152 2c3e fc5a 923e 8124 743e 9450 543e
00000210: e525 3a3b 0042 d4bd f5cd ba3d adfa 5cbe
00000220: 02ab 8fbd c59d aabd 602d dfbd db6d 373e
00000230: 0577 443c 94df 8f3d fdb6 19bf 625b 493d
00000240: f75d 3d3e 7644 783e 383f 913c 7d8a 3b3d
00000250: d9ef ad3e 7605 1bbe 9eb7 f6be d9be f6bd
00000260: 8a42 a33e 02c7 42be bce2 453c 01d6 78be
00000270: 2fe9 31bd 08bb 40be 27dc 09bd 2584 27be
00000280: 3a40 44be baac 38be 06ba 943d 4fda 97be
00000290: 1307 cdbd 3aa8 cabd 3782 4fbd 1a29 a9bd
000002a0: 9e2c 0dbe 41ff aebd 88e1 793d a251 57be
000002b0: f07a e63d d7af 853e 4638 193e ff0c 663e
000002c0: 3ced 3e3e ef8b 56be 3092 3e3e ba02 a23e
000002d0: a5d5 8cbd 6049 4e3c 75dc b0be 6c38 d7be
000002e0: 4a57 a5be ed47 733e 228b b73d 58ca 963d
000002f0: cddc df3e f919 2b3e dd1e c23e 263a 68be
00000300: 0d53 6b3d 37f5 c83d 8043 343e 3f88 4f3e
00000310: bfe6 013f 118d 203e 533a c7bd b268 e63c
00000320: 8912 acbd 28a3 f2bd 1372 abbe 7f10 7dbe
00000330: ea16 c33e efdf e4bd 49bb 9abc 5e31 8fbd
00000340: 1d66 07be 7ada d33e 5f67 063e d818 39be
00000350: 1f38 0a3e b484 083e 4a58 2a3e 768c 683d
00000360: 410d 98bd 45bb 8d3c 3e7c 413e 2166 4ebd
00000370: e88a 8abe 3951 c1be 501d bc3d ed19 15be
00000380: 2aca 893e 269f ef3c 4821 51be 9439 e5bd
00000390: dca9 7cbe 3a9c ab3d dfaf 8f3c 37d0 9d3d
000003a0: 7180 323d de5e 1d3e 12bc dbbc 0fa7 5e3d
000003b0: 610c 88be 094d 293e 8e2f cb3d 07a1 b43d
000003c0: 297c c1bd 3375 773e c814 8c3d 0b10 81bd
000003d0: d394 683c 2259 38be a55b 67bc e9a7 0cbf
000003e0: 76bf c3be 4957 03be 9cc7 223d e9df f23d
000003f0: 8925 093e c2ac 0a3c 355b 753d 22ad a2be
-0.28027266 0.07587604 -0.18107535 -0.4426128 -0.018144496 -0.0007929014 -0.033161916 0.13087219
0.053301837 -0.38424307 -0.0769424 0.21983431 0.14790721 0.15286355 -0.058803875 0.16581078
0.14205767 0.24229114 0.4935786 -0.19614822 0.29504597 0.22785118 0.15272056 0.022829195
0.06873813 0.18723652 0.38925976 -0.21516886 0.091836974 -0.30070776 0.14277127 0.11594147
-0.12918222 -0.08103044 -0.41878417 -0.1510085 0.17486553 -0.10966164 0.2470805 -0.017558612
-0.3761265 -0.39826605 0.22005089 -0.38616538 -0.02410128 0.36459565 -0.35193872 -0.07498623
0.22650267 -0.095314756 -0.10455003 0.028051542 -0.12232776 -0.15698914 0.018737677 0.053647567
-0.06693402 0.07908568 -0.0020936502 -0.03554114 0.29705435 0.1327879 0.13858785 -0.10331002
0.16147847 0.065066054 -0.20276298 -0.20075466 -0.16151619 0.091971524 0.14477217 -0.32193688
-0.21134296 -0.034620006 -0.2764094 -0.15014549 -0.11454824 -0.14548945 -0.023059588 -0.2956582
0.14185348 0.090098314 -0.0016416092 -0.2587731 -0.10525283 0.06311939 0.1236319 0.024143131
-0.033956088 -0.14243697 0.24570155 0.102349766 -0.007027526 0.010689184 0.13519527 0.22344044
0.27010936 -0.038609877 0.14595692 -0.36905572 -0.27599925 -0.34141025 0.2223155 -0.15571332
0.4150721 0.22646594 0.023047902 0.13608564 -0.25804317 0.1305261 -0.04407805 0.0865807
0.1360173 -0.2152912 0.17610072 0.17283559 0.56587654 -0.16715391 -0.07140996 -0.012824104
-0.3012883 0.4512284 0.03212927 -0.13534488 0.12928237 0.035829484 0.0038028501 0.14923754
0.16828157 0.2858504 0.2384205 0.20733863 0.0028403935 -0.10364151 0.091213144 -0.2158
-0.07015039 -0.083308734 -0.108973265 0.17913 0.011991267 0.07025066 -0.6004484 0.049159415
0.18492876 0.24244866 0.01773034 0.04578637 0.33972052 -0.15138802 -0.48186964 -0.1204812
0.31886703 -0.19021228 0.0120779835 -0.24300386 -0.04343527 -0.18821347 -0.03365722 -0.16359003
-0.19165125 -0.1803464 0.07262044 -0.29658744 -0.10011115 -0.09895368 -0.050661292 -0.082597926
-0.13786551 -0.085447796 0.0610061 -0.21027234 0.11253917 0.26110718 0.14962873 0.22465895
0.18645185 -0.20951818 0.18610454 0.31642705 -0.06876687 0.012590736 -0.34543195 -0.42035234
-0.3229316 0.23757906 0.08962084 0.07362813 0.43723145 0.16709127 0.37914172 -0.22678432
0.05745225 0.09812396 0.17603874 0.20266818 0.50742716 0.15678813 -0.09727921 0.028126094
-0.08401973 -0.11847526 -0.3348547 -0.24713324 0.3810342 -0.111755244 -0.018888133 -0.06991838
-0.13222547 0.41377622 0.1312537 -0.18075883 0.13497971 0.13331872 0.16635242 0.05677458
-0.07424403 0.017301211 0.18895051 -0.050390366 -0.27059102 -0.3775728 0.091852784 -0.14560671
0.2691205 0.029250693 -0.20422852 -0.11192623 -0.24674171 0.08379407 0.017539917 0.077057295
0.043579523 0.1536822 -0.026823077 0.05435854 -0.26571944 0.16533293 0.0992118 0.08819776
-0.0944751 0.24165802 0.06839901 -0.06301888 0.014195639 -0.18002751 -0.014120971 -0.5494371
-0.3823201 -0.12826265 0.039741144 0.11859114 0.13393225 0.00846404 0.059901435 -0.31772715

transformer_encoder.layers.0.linear1.bias f4 [128]
00000000: 995b b0be fa6c 8cbe 5bec 2bbe f9ff 58be
00000010: 0673 8bbe 780d 4dbe 9a29 84bd f327 25be
00000020: d9b0 1dbe 2d83 7bbe 36f3 a1be 78ed 92be
00000030: 6498 cebe 17d1 e5be 1fad cdbe 9356 47be
00000040: 9ad1 e1be 6f9d 86be 0cf5 c9be b994 f8bc
00000050: d409 71be ed26 b0be 629a a6bd 3ddc 5ebe
00000060: e32f 25be ccb4 cfbe a39b c6bc 64f1 c8be
00000070: 01c6 91be 7ce8 f0bd 5be4 e9bd 06db 7ebe
00000080: 842e 9cbe c683 14be 7fa8 bbbe d720 61bd
00000090: ffdb b5be 9231 75be cbe1 a5be f848 c2be
000000a0: ed2e f2be 1c9c 6fbe c984 69be ec54 5bbe
000000b0: 915d 5cbb d324 e9be f739 6dbe 1846 7dbe
000000c0: e4c5 09be 3268 b8be 1388 66be c252 a9be
000000d0: 0630 2abe 02aa eabd 5b17 94be 3957 06be
000000e0: 0414 82be 4797 2ebe edb9 abbe 9abc 2dbe
000000f0: 580a c8be 1985 b2be 380b 8cbe 1700 f93d
00000100: ee26 a7be 9fe2 96be 6057 87be 88a3 9ebe
00000110: 2591 74be e5fb f2bd e9a2 80be 7454 70be
00000120: edbf d7be 080e 6dbe 442d debe 37b3 8fbd
00000130: 5056 aabe aa99 aabe 8614 a5be d58d 78ba
00000140: b36a babe bd38 a2be 2d25 debe c3c4 88be
00000150: 97af 4dbe bfa3 72be 071b 27bd 466f 58be
00000160: 7562 adbe 1eea 65be 71ff cdbd 7493 44be
00000170: c0c5 a4be 7cb1 bcbe b03b 8bbe c7f7 1dbe
00000180: 42a9 41be 723f 7abe 3895 4dbe 58fe f6be
00000190: 6062 c5bd 30ad c5be 6016 81be 7b60 8fbe
000001a0: 95ca 97be f345 a7be caf8 e8bd c6ae 9bbe
000001b0: 07ca 4fbe 0fcc 2fbe dfab 82be 5e8c 90be
000001c0: 2f9e a8be 4b63 0abe 8435 40be 66a2 aabe
000001d0: b06d 66bd 72c0 f0bd 4d37 6abe 1fa9 c8be
000001e0: c974 d9bd c259 7ebe cef1 7fbe 3a1c 96be
000001f0: eeb1 99be 3397 03be 6fa7 87be ff99 0cbe
-0.34444883 -0.27426893 -0.16789381 -0.21191396 -0.27236193 -0.20024669 -0.06453247 -0.1612852
-0.15399493 -0.24561758 -0.31630868 -0.286968 -0.4035064 -0.44886085 -0.40171143 -0.19466619
-0.44105226 -0.26291987 -0.39444768 -0.030344354 -0.23538905 -0.34404698 -0.08134915 -0.21763702
-0.16131549 -0.40567625 -0.024244135 -0.39246666 -0.28471377 -0.11763093 -0.114205085 -0.24888238
-0.3050424 -0.14503393 -0.3665199 -0.05496296 -0.35519406 -0.23944691 -0.3239883 -0.37946296
-0.47301427 -0.23399395 -0.2280456 -0.21419114 -0.0033625106 -0.45535907 -0.23166643 -0.2473377
-0.13454396 -0.36016995 -0.22512846 -0.33070952 -0.16619882 -0.11458208 -0.2892407 -0.1311921
-0.25405896 -0.17049895 -0.33540288 -0.16966477 -0.39070392 -0.3486717 -0.2735231 0.1215822
-0.32646888 -0.29469773 -0.2643385 -0.3098414 -0.23883493 -0.11864451 -0.2512429 -0.23469716
-0.42138615 -0.23149884 -0.4339391 -0.070166044 -0.33268976 -0.3332036 -0.3224222 -0.0009481584
-0.3640953 -0.31683913 -0.43387738 -0.26712617 -0.20086513 -0.23695277 -0.04079726 -0.21136197
-0.3386418 -0.2245259 -0.10058487 -0.19196874 -0.3218212 -0.3685416 -0.27193975 -0.15426551
-0.18912223 -0.24438265 -0.20076454 -0.48240924 -0.09637904 -0.38608694 -0.25212383 -0.28003296
-0.29646745 -0.32670555 -0.11375578 -0.3040678 -0.20291911 -0.17167686 -0.25521752 -0.28232092
-0.32933185 -0.1351444 -0.18770415 -0.33327025 -0.05625695 -0.11755456 -0.22872658 -0.3919153
-0.10617978 -0.24838927 -0.24994585 -0.2931841 -0.30018562 -0.12850647 -0.2649493 -0.1373062

transformer_encoder.layers.0.linear2.weight f4 [64, 128]
00000000: 23ea 52be f3bd 6f3d 72ee 973c b41f 203e
00000010: 8681 2f3d 26c3 16bd 5d98 ef3d 2fa6 cebd
00000020: 6193 a5be 4057 b23c a3a3 9b3c 463d 2cbe
00000030: f8f8 c83e 4397 4dbd 8b76 66be 2040 6ebd
00000040: b73b 353e 1953 c5bd a444 e5bd d6c2 17bd
00000050: 2d34 613d 113c 9fbc 98a2 1ebe 59b1 943e
00000060: 5c4e 0abe 8a6a 093e b13b 0bbe 1365 b93e
00000070: 1b55 21bd a7c8 bd3d f83b 83be 264a a93d
00000080: cdcc 86be f22e 69be b25b f0bc 3ad3 a2bc
00000090: 9164 673e 98ba cc3e 6c39 553d 9e18 c6bd
000000a0: 996e d4be 8e99 86be 911c 97be 2a7d 3abd
000000b0: 87b5 ee3d c567 14be e72b 2e3e da59 84be
000000c0: e6d0 c63d 4f8f 38bc 34b1 0fbe be52 77be
000000d0: 4ce6 13bd f078 85bc 457a c0be 34e4 3cbd
000000e0: 71aa 5cbe f474 1fbe 62dd db3d 3e88 3f3e
000000f0: 48ef 993e 8d1c 14be ad61 d53d 900d c7bd
00000100: 3a9a 5d3d e0b0 e4bd c71b 1c3e 66ed e23c
00000110: 7d59 cc3c f1b0 213e 4b92 bc3c 8fa6 b9be
00000120: 5215 e7bc dd9e f03d ae55 84bc 371f 5b3d
00000130: b911 863e 261c 21be 7af2 f53d 6b4e 67bd
00000140: 3e71 513e 6966 92be 0550 893e 4a18 47be
00000150: e3ad 92bd 0b08 c2bd a304 ad3e d2ca bb3e
00000160: fe37 7b3e a7cc 463e 8663 f2bc b571 aabd
00000170: f608 6ebb 20d3 e4bd da6f 22be 598a 17bf
00000180: fa18 4bbe 334d 0d3e 87ee 42be 0c45 863d
00000190: 7edb e7be ec82 8abd 956b 283e 5cde a73d
000001a0: d06c 82be ccad 4d3d 629f f2be 6bcc 7c3e
000001b0: 70d8 98be e821 38be 71de e43c b581 c03e
000001c0: 9781 a53d cab7 c33d a29c 1dbe 63ea a93e
000001d0: 8131 cf3e 4f6b e2bd 0209 dcbe 31fa 00be
000001e0: 64a9 583e d627 d5bb 22d9 7bbd 4ca4 e8be
000001f0: e036 053d 4089 b53d 1a3a f93d 44aa b2be
00000200: 86bd a3ba 00a8 f03c dc69 ff3d 6c1e 25be
00000210: 52c9 b43e daf2 febd 3fad 04be f770 b53e
00000220: 7e42 97bc 93c0 163e 4d26 893b 6941 b1bd
00000230: 6ca5 c23c b88e 41bd 2c6f 003e a85c 1e3d
00000240: 4ed0 de3e 85a6 6e3d e55b ddbd 512c 17bd
00000250: b59e eebc f174 5dbd 8f87 1b3e d813 b13e
00000260: c138 1dbe a9ac a83d 21bf a6be abb7 85bc
00000270: b6be c83e 69d0 26bb 9053 b0bc 8e4d 39be
00000280: 96b4 32be e3f9 bebe 9c1c a4be 2781 ac3d
00000290: a27c bcbc 37f6 0f3e c2f3 883e 1382 203e
000002a0: 4ac8 b23e 005b 8cbd b54e af3c f326 79be
000002b0: d02b 7dbe 1147 363e 7e61 d6bb 064a 0c3b
000002c0: 1241 96bb d3e4 f73c 1d22 91be 56ae 9bbe
000002d0: c3f9 f9b9 868f ee3e 7f0c 163d ea2b c63e
000002e0: 997b 5ebd 2f81 973d 0279 6abd 73c1 a43d
000002f0: 0c08 913e bafd 8fbe 32ca b13d aa69 373d
00000300: 8bca 863d 7b9f bfbd f112 6d3b a2a2 1c3e
00000310: 9b42 febd 0e9b 473e c41a 883e 7c76 49bc
00000320: 5410 9d3e 2048 193d bd75 07be f908 7e3b
00000330: 06b7 56bd 3ff6 29bf 803c c0be ac7d cd3e
00000340: 7923 f5bc 716f 9d3c 83a8 d3bd 3afd 3fbe
00000350: 7973 4e3e a6ed a33d 72a6 863d cac5 013e
00000360: d88c 033f 659b 833e 1971 0fbe 3ab1 07be
00000370: 6a06 5bbd 3f6a 953e ffc5 0cbe aae7 c9be
00000380: 5368 f13e 72a4 56be 3d2b 9dbd 076e f13e
00000390: 71dc d13d e144 2bbe 7afe b23e f95c e1bd
000003a0: f294 a33d b28d 54be d7a8 15bd 8249 f9bd
000003b0: 0d38 3c3d 0b4a 6d3d b401 61bc 41da a23e
000003c0: eae4 37be e328 3a3e 31ed 943d ac4b 0e3e
000003d0: 1e7d f33c 030b 17be d56a 1ebe 6f8c 63be
000003e0: 5134 75bd a9b3 dd3d 03a5 e63c 8af0 10be
000003f0: f05b 103f 3a6e 6ebd f251 123e be63 9f3d
-0.20597129 0.05853076 0.018546317 0.15637094 0.042848133 -0.0368072 0.11698983 -0.10090291
-0.32339004 0.02177012 0.018998927 -0.16820249 0.39252448 -0.050193083 -0.22506158 -0.058166623
0.1769856 -0.0963499 -0.11194733 -0.037051044 0.0549814 -0.019437822 -0.15491712 0.29041556
-0.13506454 0.13419548 -0.13596989 0.36209926 -0.039387804 0.09266787 -0.2563169 0.08266096
-0.26328126 -0.22771814 -0.029340599 -0.019876111 0.22596957 0.3998611 0.052056715 -0.09672664
-0.4149063 -0.26289028 -0.29513982 -0.045529522 0.11655717 -0.1449271 0.17008935 -0.258498
0.09707813 -0.011264636 -0.14032441 -0.24152657 -0.0361083 -0.016293019 -0.37593284 -0.04611607
-0.21549393 -0.15571958 0.10735585 0.18704316 0.3006537 -0.14464016 0.10419021 -0.09719384
0.05410216 -0.11166549 0.15244971 0.027701091 0.024945015 0.15790154 0.023018977 -0.36259887
-0.028208409 0.11749051 -0.016154137 0.053496566 0.26185396 -0.15733394 0.12009139 -0.05647127
0.20453355 -0.28593758 0.26818863 -0.1944286 -0.071620725 -0.0947419 0.337926 0.36678177
0.24533078 0.19414006 -0.029588472 -0.08322469 -0.003632126 -0.111730814 -0.1586298 -0.59195477
-0.19833747 0.1379898 -0.19036303 0.065561384 -0.45284647 -0.067632526 0.1644729 0.081967086
-0.25473642 0.050214574 -0.47387224 0.24687354 -0.2985263 -0.17981684 0.0279381 0.3759896
0.08081358 0.09556539 -0.15391782 0.33186635 0.40467456 -0.11055624 -0.42975622 -0.1259544
0.21158367 -0.006504993 -0.06148637 -0.4543785 0.032523036 0.08864069 0.12169285 -0.34895527
-0.0012492395 0.029376984 0.12471363 -0.16124886 0.35309845 -0.12448664 -0.12956713 0.35437748
-0.018464323 0.14721899 0.004185474 -0.08655054 0.02376052 -0.047255248 0.12542409 0.038662583
0.435183 0.058264274 -0.10808543 -0.036907498 -0.029128412 -0.054066602 0.1518843 0.34585452
-0.15353681 0.08236057 -0.32567695 -0.016322931 0.39208 -0.0025453812 -0.02152422 -0.18095991
-0.174517 -0.37300023 -0.32053077 0.08423071 -0.023008648 0.14058767 0.26748472 0.1567462
0.34918433 -0.068532944 0.021399835 -0.24331264 -0.24723744 0.17800547 -0.0065423837 0.0021406426
-0.0045853937 0.03026048 -0.2834634 -0.30406445 -0.00047679068 0.46593875 0.03663301 0.3870538
-0.05431709 0.07397687 -0.05724431 0.0804471 0.28326452 -0.28123266 0.08681144 0.044778503
0.06581601 -0.0935659 0.003617462 0.15296414 -0.12415048 0.19492742 0.2658292 -0.012296315
0.3067652 0.0374223 -0.13228507 0.0038762672 -0.05242064 -0.66391367 -0.37546158 0.40134943
-0.029924141 0.019218178 -0.103348754 -0.18748942 0.20161237 0.08004312 0.06574716 0.12673107
0.51386786 0.25704494 -0.14007987 -0.132512 -0.053472914 0.29182622 -0.13747405 -0.39434558
0.47149906 -0.20961168 -0.07674263 0.47154257 0.10247124 -0.16725494 0.34959775 -0.11004061
0.079873934 -0.20757177 -0.03653797 -0.12172224 0.04595189 0.05793194 -0.013733316 0.3180714
-0.17958418 0.1817966 0.07271803 0.13896054 0.029722746 -0.14750294 -0.1547044 -0.2222154
-0.059864346 0.10825283 0.028154856 -0.14154258 0.56390285 -0.05821059 0.14289072 0.07782696

transformer_encoder.layers.0.linear2.bias f4 [64]
00000000: a1ea 5d3d db1c a7bc 25a5 733c 9d3d 09be
00000010: 4df5 70b9 56f9 fabb db4c cbbc 3d9f 07bd
00000020: ec20 8a3d 21d9 3fbe 1208 0abd 4b96 543e
00000030: 5866 ca3d 053d bcbd 2c25 f0bc 8d69 cf3d
00000040: 452e f2bb 65db 24bd cf8f ac3b c1b6 b73d
00000050: d5de 2abd b089 553b 2960 ecbd ca60 4ebe
00000060: e8c2 9d3d b59d cd3d 91a5 313e 203b 093e
00000070: 05d2 9bbd d711 8f3c 25ee 25bc 7fbb 813c
00000080: 3b58 08bc 328b bcbc 5d60 babd 581f 0e3d
00000090: 322c 25bc 9938 e5bd 6d49 9abd 1b69 cebd
000000a0: 56d0 1b3e 19d5 e03d d1fc af3d 828a 0cbd
000000b0: 3b50 ce3c 79d7 e43d 2442 b4bd ec09 9abe
000000c0: 6fbb a1bd 5bf9 5139 df06 503e 90e1 1f3e
000000d0: 298c 97bd 094a 3ebe 2866 b2bd 6900 493d
000000e0: 4a01 eebc 56d7 cf3c 695f 84bd 0547 02be
000000f0: 9bf3 0d3e f32b 5d3e 066c a33b b720 3b3d
0.054178838 -0.020399502 0.0148709165 -0.1340241 -0.00022979565 -0.0076591177 -0.024816921 -0.033110846
0.067445606 -0.18735172 -0.033699103 0.20760457 0.09882802 -0.09191326 -0.0293146 0.10127554
-0.0073907697 -0.040248293 0.0052661668 0.089704044 -0.041716415 0.003258329 -0.115417786 -0.2015411
0.07703191 0.10039846 0.17348315 0.1340146 -0.076084174 0.017464561 -0.010127579 0.015836475
-0.008321817 -0.023015592 -0.09100411 0.03469786 -0.010081338 -0.11192436 -0.07533536 -0.10078641
0.15216193 0.10978145 0.08593143 -0.03431178 0.025184741 0.11173911 -0.08801678 -0.30085695
-0.07897078 0.00020024685 0.20315121 0.15613389 -0.0739978 -0.1858293 -0.08710891 0.049072657
-0.029053349 0.025371235 -0.064635105 -0.12722404 0.1386246 0.21598797 0.0049872426 0.045685496

transformer_encoder.layers.0.norm1.weight f4 [64]
00000000: 3e51 7f3f c8af 7c3f aa4d 743f 2d09 833f
00000010: 3cb2 913f 5298 803f ab62 703f 0381 7a3f
00000020: 0768 863f 7e6d 973f a6be 863f 314c 503f
00000030: ec89 733f 2e57 883f f8f0 453f 697a 833f
00000040: c6e8 7d3f 111a 8e3f 3a87 673f b42d 8d3f
00000050: dfa2 863f 4b71 8d3f 4346 833f 979f 4f3f
00000060: ee43 853f a788 633f 8c39 853f 09c1 8f3f
00000070: 149c 7c3f 0e55 8a3f 4178 7c3f 3c16 8c3f
00000080: afa9 6f3f 52fd 7e3f 6715 923f 2ed6 843f
00000090: 9aa0 883f 09ce 863f 5b0f 8f3f 0c4b a53f
000000a0: 548c 943f e1c8 8f3f d393 973f c9b4 253f
000000b0: f163 813f 1969 5f3f d76c 8c3f 7c4c 4a3f
000000c0: 997b a03f c7df 8f3f a54e 853f 7328 803f
000000d0: 94d7 683f 2cad 983f f2d6 7b3f 3944 8d3f
000000e0: c611 9d3f e1b0 8c3f d400 8e3f e9f3 8a3f
000000f0: 679c 983f 8d44 6e3f 0e91 873f e579 823f
0.9973334 0.9870572 0.95431006 1.0237175 1.1382518 1.0046484 0.93900555 0.97853106
1.0500497 1.1830289 1.0526931 0.8136626 0.9513233 1.0651605 0.77320814 1.0271732
0.9918331 1.1101705 0.90440714 1.1029572 1.0518454 1.1050199 1.0255817 0.8110289
1.0411355 0.8888039 1.0408187 1.1230785 0.98675656 1.0807207 0.9862099 1.0944285
0.9361829 0.99605286 1.1412781 1.0377862 1.0674012 1.0531627 1.1176561 1.2913527
1.1605325 1.1233178 1.1841987 0.6472898 1.0108625 0.8726974 1.0970715 0.79022956
1.2537719 1.1240166 1.0414625 1.0012344 0.90953946 1.1927848 0.98374856 1.1036445
1.2271049 1.0991479 1.1094003 1.0855685 1.192273 0.9307335 1.0591142 1.0193449

transformer_encoder.layers.0.norm1.bias f4 [64]
00000000: 33d0 d0bd 11d1 17bb f53c 53bd eb19 133e
00000010: 7d88 a3bd 547c 0dbd 9ad4 fc3c db5e cc39
00000020: de8f 7e3d 3a90 b43e c235 e93d 89ad 26be
00000030: a542 07be b21c eebc c13c 863d db81 8fbc
00000040: b75b f0bd 48a2 ebbd 705a fa3d d822 d73d
00000050: 5e52 0fbe 956d 55be 53c1 563d 414b aa3d
00000060: 76ef 34be 5d05 a2bd 971f 41be 5d7b 82be
00000070: 085e 613e c1fb febc 0f42 60be b958 4abd
00000080: 2f33 e13d 7ae2 bdbd fe86 993e cd8d f83d
00000090: 155e 4e3e ea53 783e 6dc9 333d 1bcb 693e
000000a0: 53c5 3bbe 04c0 2abe 4c1d b9be 0e93 87bd
000000b0: a767 fe3c 08b3 a1bd 99fe 6d3d 173a af3e
000000c0: d46f 27be e3e3 d63c 6431 cdbe 9cea 8fbe
000000d0: 1e17 e0bd f82f a43e 9816 703e 2d35 b9bd
000000e0: 06f2 ea3d 8210 593d 4ee9 8f3e 52a6 28bd
000000f0: c3b5 18be 33fc 5bbe e402 90be 4e8b 0e3e
-0.10195961 -0.0023165385 -0.051571805 0.14365356 -0.079850174 -0.034542397 0.030863095 0.00038980585
0.06214892 0.35266286 0.113872066 -0.16277136 -0.13209017 -0.029066417 0.06554557 -0.017517975
-0.11736243 -0.11505562 0.12224281 0.10504693 -0.13996264 -0.20842583 0.052430462 0.08315135
-0.17669472 -0.07911179 -0.18859707 -0.25484744 0.22008526 -0.031125905 -0.219002 -0.04940102
0.109960906 -0.092717126 0.29985803 0.12136421 0.20153077 0.2425076 0.043893266 0.22831385
-0.18336992 -0.1667481 -0.36155164 -0.06619845 0.031055285 -0.078954756 0.05810413 0.34224007
-0.16351253 0.026231712 -0.40076745 -0.2810868 -0.10941909 0.32067847 0.23446119 -0.090433456
0.114719436 0.05299426 0.28107685 -0.04117424 -0.14913087 -0.21482925 -0.28127205 0.13920328

transformer_encoder.layers.0.norm2.weight f4 [64]
00000000: ce4e 953f 14b5 853f 192e 923f 4236 893f
00000010: c748 8d3f 7325 9c3f 7abc 893f a59f 8c3f
00000020: 58bc 8e3f e514 723f d815 8b3f dcc4 913f
00000030: 4aa8 793f 214a 8a3f 3e62 903f 6902 853f
00000040: 61cb 823f 7ccc 8f3f 987e 863f ce09 823f
00000050: a972 823f 5643 8d3f b53e 8b3f 9d1c 833f
00000060: 6c74 933f 5b3e 923f bce1 933f f771 873f
00000070: 6c9c 893f 5d76 8a3f e122 833f ed78 933f
00000080: 36bc 8a3f 218b 913f d7d6 8c3f 027d 813f
00000090: 6530 603f 8d6c 833f 9171 933f 4758 8a3f
000000a0: 52d7 8e3f 5bb4 903f a315 763f 220e 8c3f
000000b0: 3137 923f 4b22 8d3f bc29 893f 48a4 823f
000000c0: 5fec 8f3f 4d39 883f 2b2b 7e3f bf5a 893f
000000d0: 622e 933f c769 893f 81e8 893f ff02 8f3f
000000e0: 8cee 923f 30c0 873f 7bec 743f f306 8a3f
000000f0: 6941 6f3f 6420 863f b863 593f adb1 873f
1.1664674 1.0445886 1.1420318 1.0719683 1.1037835 1.2198929 1.0760643 1.098622
1.1151228 0.9456313 1.0866041 1.1388202 0.97522414 1.0803872 1.1279981 1.039136
1.0218316 1.1234279 1.0507383 1.0159242 1.0191242 1.1036174 1.0878512 1.0243107
1.1519904 1.1425279 1.1553264 1.0581654 1.0750861 1.0817372 1.0245019 1.1521279
1.0838687 1.1370584 1.1003064 1.0116274 0.87573844 1.0267502 1.1519033 1.080819
1.115946 1.130504 0.96126765 1.0941813 1.1423093 1.102609 1.0715861 1.0206385
1.124401 1.0642487 0.9928462 1.0730819 1.149853 1.0735406 1.077408 1.1172789
1.1479049 1.0605526 0.9567334 1.0783371 0.9345918 1.0478635 0.84917784 1.0601097

transformer_encoder.layers.0.norm2.bias f4 [64]
00000000: 5590 98bc 1830 0e3e 9206 d43d e21e a23d
00000010: b321 eb3d bad6 f63b 6d0d de3d 81cd a7bd
00000020: bd35 70bd 4cf7 a1bd bb44 9dbc 126b a9be
00000030: 3c9a a13e 521f 1bbe 90db c63b 80e5 c73e
00000040: cfaf 4f3d 9761 9dbd 1c41 4dbe 0a6b 90be
00000050: 43a2 723d 3592 5f3e 8d84 1e3e b979 003d
00000060: 3723 643d 3d6e c13d ab09 debd 3763 c13d
00000070: 6b8a 903d 233d e5bd d42e 79bc 759a 253e
00000080: a1ba 2fbe bee7 0a3d 1678 ffbd 09cc c4be
00000090: e8c3 e8be 9106 b8be 342f da3d f52a 01be
000000a0: 4cc2 bfbe 7641 efbd 4932 023e 6ec0 833d
000000b0: caba b0bc 332a a03d ff8f 61bd 02cf b5bc
000000c0: 6857 1a3e 5742 043e f1a1 843e 5c97 033e
000000d0: 1e37 c33d d25c 913c 76c5 85bd cc77 1ebd
000000e0: 16ff 29be 52f8 483e 3645 db3c 48e9 77bd
000000f0: 11f0 173e 5f81 b83d 1511 c73e 4b32 8bbe
-0.01862351 0.13885534 0.10352816 0.07916047 0.11481037 0.0075329216 0.108424045 -0.08193494
-0.058645 -0.07908496 -0.019197812 -0.330895 0.31562984 -0.15148667 0.0060686544 0.39042282
0.050704774 -0.076846294 -0.20044369 -0.28206664 0.059236776 0.21833117 0.15480252 0.031366084
0.055697646 0.094448544 -0.10841688 0.09442752 0.07057651 -0.111933015 -0.015208919 0.16172202
-0.17161037 0.033912413 -0.124740764 -0.38436916 -0.45461965 -0.3594251 0.106535345 -0.12614043
-0.37452924 -0.116824076 0.12714495 0.064331874 -0.021573443 0.07820549 -0.055068966 -0.022193436
0.15072405 0.12915932 0.259048 0.12850708 0.09531997 0.017744455 -0.06531803 -0.038688466
-0.16601214 0.19625977 0.0267664 -0.06052521 0.14837672 0.090090506 0.3888022 -0.27186808
