models/tab_transformer_fold_2_f1_0.7912.pth (torch, 327374 bytes, 30 tensors)

feature_embedding.weight f4 [64, 46]
00000000: 9836 1ebc 1ad9 1dbe 9d75 fe3c f004 0fbd
00000010: 674c bfbe ef8a e6be 4500 2d3e b2ac 80be
00000020: 65c3 cdbd e330 333e 9647 3dbe aa71 1abe
00000030: 6234 22bf 38ed 96be 0f23 82bc a9cc 14be
00000040: 8402 443b 67d3 75bd 3ef5 c1bd 334f 51be
00000050: 34d6 ba3e 136f 91be 8f30 fdbc 469e be3e
00000060: 42a2 ce3e f092 bdbe e116 153e dae0 a2be
00000070: 521c ad3e 8434 b1bc 4a58 4a3d 2d65 c0bd
00000080: c45d ebbd c26e 133f 2697 54be 894d 15be
00000090: 6c01 97bb af84 053d 2a82 bf3e 2f85 0e3f
000000a0: fc13 ab3e d671 f3bd a063 2cbe 1caa 9c3e
000000b0: 43ec 4a3e e384 77be 88ad a0bd d724 79bd
000000c0: 1613 17bd 9803 e13d 997f c4be e0c1 b13e
000000d0: 9b59 9b3e 5a5e 953d f553 0c3f 65dd 9a3d
000000e0: 510f afbe f7f2 7a3e 7a61 c1be b76c 853e
000000f0: 099b 3d3c 3925 4b3e e0f4 fa3c 5065 223e
00000100: 6496 e83d 62f5 993c dac7 903e c2df 3ebe
00000110: f100 9dbe 1c6b c63e 4e2d f1bc 0daf 0e3e
00000120: cc73 64bb 111c 263d a0e6 e7be dccc 22bd
00000130: cfb4 4dbd 99ee a2bc 7455 c83e 052e 5d3e
00000140: f8fb dc3e 029c d3bd 6523 80be 41cf 4f3e
00000150: 520b 873e fe81 6e3e e953 243e a9b7 ad3d
00000160: 7026 503c ada9 613e 42fd 623d f68b 7e3d
00000170: 4824 1c3d 0eb5 2e3e 6cd5 b13d 6d32 d1bd
00000180: a266 bb3e 4fab df3e 87f8 323e 4fe0 903e
00000190: 059d 783e 40b4 173e b94a 5abe 8616 5bbe
000001a0: 8d0b 243f ec5d 44be 144f ed3c 7406 163e
000001b0: 8904 013d d9e3 86bd c23b 95be e70f 9a3d
000001c0: fe3b 8dbd dc1b 3d3e fd40 a93c b21c 05be
000001d0: 00b5 653d 828c d4be c3b9 18be bf29 13be
000001e0: f935 1cbe 00b2 a03c 58d4 dd3d d69e 32be
000001f0: 899b 1b3e a91b 33be 2374 853c becc ebbe
00000200: 8b74 ba3d ce88 d13c 4d88 11be 9deb 86be
00000210: 8cf2 18bf b554 113e dbd8 6dbe 8b78 3b3d
00000220: 8f43 dfbe 73cd b3bc f78c 6c3d 9a40 12be
00000230: 81c9 e73c 3f5d 59be 66bb 263e 150d bbbe
00000240: 859e e3bd af2d d3bd e171 acbd 2ace 8f3e
00000250: b31d 4f3d b81d 4e3e a6cc a53d d18c 60bd
00000260: 72cb c6bb ece7 d5bd ef88 1e3d 92a4 403e
00000270: 2d8c 643e 5952 583d 40ac 30be bd2e f1bd
00000280: c096 c53d 5375 273f 1be4 803e 971b b03e
00000290: a83a ab3e a0c7 39be bba6 a73e 8eb3 9b3c
000002a0: 1cb2 4e39 993c f7be cbb5 71be 1597 b6be
000002b0: b94b 5a3e 95f7 16bf e28f 86be 1dde a5bb
000002c0: fafa 9ebe 1311 81bd 22fa 933c 666c 77be
000002d0: 4f35 a63e ec82 29bf 83d1 c7be d51b dd3e
000002e0: 80ae d63d e8ce dcbd 11e2 903b 1b53 9f3c
000002f0: f174 283e 6fbc 383d bff5 a93d a007 623d
00000300: e026 be3d fdb6 f73d f3ee 77be 54f7 eb3c
00000310: df96 0bbf 9c33 4bbe 12ec 60bc cd1a 643e
00000320: 2fd4 93bc 83db 00bd ca11 d9bd 6e81 163e
00000330: 1691 c5bd 6081 36bf 4a98 2c3f 28f6 fdbe
00000340: 7981 55be 1a83 0abe 84ae 6cbe 671e 62be
00000350: 762e a23e 7299 bc3d d1d0 283d bdfa c53e
00000360: dbcc bfbe edec 2c3f a32a 7fbe 28cd 773e
00000370: ca41 dabe d4e0 c63e 2589 f2be f480 aa3e
00000380: c4a3 dfbe 8b18 35be 23e9 053e 0520 2ebe
00000390: 09e4 3e3e 8310 763e 8aec 7e3d eaa7 a33d
000003a0: 8098 893d 1cc8 953e 9b9f c7bd 3e96 0cbe
000003b0: 320e 033f 39e9 84ba 04db 1a3f e31f 61be
000003c0: d23e 5c3e e9ee 823e f25c 9e3d c0bc e3be
000003d0: eb79 c3bc 4509 af3d 3b7a a13d 64b5 8cbd
000003e0: b434 8abc 07b9 86bc a2cb e7be cf39 b8be
000003f0: e903 913e 3b43 a03d ce58 1b3e f0c4 ce3d
-0.009656571 -0.15414849 0.031061942 -0.03491682 -0.37362978 -0.45027873 0.16894634 -0.25131756
-0.10047034 0.17499118 -0.18484339 -0.15082422 -0.6336118 -0.2947786 -0.015885858 -0.14531197
0.0029908726 -0.060016062 -0.09470604 -0.20440368 0.3649155 -0.28405055 -0.030906944 0.37230128
0.40358168 -0.37026167 0.14559509 -0.31812173 0.3381067 -0.021631487 0.049400605 -0.09394298
-0.11492494 0.5759088 -0.20760784 -0.14580359 -0.004608324 0.03259724 0.37403995 0.5567197
0.33413684 -0.11886947 -0.16834879 0.30598533 0.19816689 -0.24171786 -0.078455985 -0.06082615
-0.036883436 0.109870136 -0.383786 0.34718227 0.303418 0.07293387 0.5481561 0.07561759
-0.34191373 0.24506746 -0.3776968 0.26059505 0.011572608 0.19838418 0.030634344 0.1585896
0.1135681 0.018793765 0.28277475 -0.18640044 -0.3066478 0.38753593 -0.029440548 0.13933964
-0.003485906 0.04055411 -0.4529314 -0.03974615 -0.05022126 -0.019889163 0.39127696 0.21599586
0.43160987 -0.103324905 -0.25027004 0.20293905 0.26375824 0.23291776 0.16047634 0.08482296
0.012704477 0.22037382 0.055417307 0.062145196 0.038120538 0.17061254 0.08683285 -0.10214696
0.3660174 0.43685386 0.17477618 0.28296134 0.24278648 0.14814854 -0.21317567 -0.21395311
0.64080125 -0.19176453 0.028968371 0.14650899 0.031498466 -0.06586427 -0.29147154 0.075225644
-0.06896208 0.18467659 0.020660872 -0.12999228 0.05608082 -0.4151345 -0.14914612 -0.14371394
-0.15254964 0.019616127 0.10831517 -0.17443404 0.1519605 -0.1749102 0.01629073 -0.46054643
0.0910426 0.025577929 -0.14212151 -0.26351634 -0.597451 0.1419247 -0.23227255 0.045769256
-0.4360623 -0.021948552 0.057751622 -0.14282456 0.028294327 -0.21226977 0.16282424 -0.36533418
-0.111142196 -0.10311448 -0.08420158 0.28086978 0.050565433 0.20128524 0.08095674 -0.054821793
-0.006066733 -0.10444626 0.03870481 0.18812779 0.22319098 0.052812908 -0.17253208 -0.11776493
0.09647894 0.654134 0.2517403 0.3439605 0.3344319 -0.18142557 0.32744393 0.019006517
0.00019712042 -0.4828842 -0.23604505 -0.3566214 0.21317948 -0.5897153 -0.2628165 -0.0050618784
-0.31050855 -0.06302085 0.018063609 -0.24162444 0.32462546 -0.66215396 -0.39027032 0.43185297
0.10482502 -0.10781652 0.0044214805 0.019448807 0.1645086 0.04510158 0.082988255 0.055183053
0.092847586 0.12095449 -0.24212246 0.028804459 -0.54527086 -0.19843906 -0.013728159 0.22275849
-0.018045513 -0.031459343 -0.10599096 0.14697811 -0.096468136 -0.7129116 0.67419875 -0.49601865
-0.20850171 -0.13526574 -0.23113447 -0.2208191 0.31676072 0.09208955 0.041214768 0.3866786
-0.3746098 0.6754902 -0.24918608 0.24199355 -0.42628318 0.38843405 -0.47370258 0.33301508
-0.4367963 -0.17685144 0.13077216 -0.17004402 0.18641676 0.24029736 0.0622373 0.079910114
0.0671854 0.29254234 -0.09747239 -0.13729188 0.51193535 -0.0010140307 0.6049044 -0.2198482
0.21508339 0.255729 0.07732572 -0.44479942 -0.023861846 0.0854669 0.07884642 -0.06870535
-0.016870834 -0.01644565 -0.45272547 -0.35981604 0.28323296 0.07825323 0.15170595 0.100961566

feature_embedding.bias f4 [64]
00000000: 2ca1 5f3e a8e5 053f a892 07bf 4f75 02bf
00000010: 1f21 fa3d 1078 943e ea06 55be 3208 05be
00000020: 6890 213e 3850 333e 1b2e 3f3d b35d 0b3f
00000030: 0e07 bd3e 724e a73e b9b9 a9be 1a1f 1f3f
00000040: b32b a03d a05d ac3e 7cbc 343e d4f4 d9be
00000050: e853 1f3d eac9 303e 27c8 47be 9711 0fbd
00000060: 6572 a73e c610 1f3f b7a4 813e 91de 22bf
00000070: 4097 0dbf 8dbb 053e 8869 b3be 5bee f03e
00000080: bfa4 bd3d 98c3 e93d 67dd 78bc 04b8 70be
00000090: dcf3 74be 2309 143f 9313 f4bd 8e70 c33e
000000a0: 9eab 833e b054 f93d 3224 b4bd 91e9 57be
000000b0: 703c b53d 9223 c3be 2957 383e 563f 163d
000000c0: 7ef9 37bf f48e 06bf ffb3 41bd 2831 a0bd
000000d0: 00ca d13e 3edd de3d 2076 c4be b27d b8be
000000e0: 9485 22bf f5ac 91be ef56 49be 2c0c 2a3e
000000f0: b341 c9be 8400 7dbe bf28 a6be b784 a43d
0.21838826 0.5230355 -0.52958155 -0.5096025 0.122133486 0.2899785 -0.20803419 -0.12991408
0.15777743 0.1751107 0.04667483 0.5443985 0.36919445 0.32677037 -0.33149508 0.6215683
0.07820835 0.3366518 0.17650026 -0.42569602 0.03889838 0.17264524 -0.19509946 -0.034928884
0.32704464 0.6213497 0.2532098 -0.6362086 -0.55308914 0.13059826 -0.3504145 0.4705685
0.092599384 0.1141426 -0.015189505 -0.23507696 -0.2392115 0.5782644 -0.11917796 0.3817181
0.2571687 0.12174356 -0.08795966 -0.21085192 0.08849418 -0.38113075 0.18001999 0.036681496
-0.7186507 -0.5256188 -0.0472908 -0.07821876 0.40974426 0.10882042 -0.38371372 -0.36033398
-0.63485074 -0.28452268 -0.19662069 0.16606206 -0.39307937 -0.24707228 -0.32452962 0.08033126

transformer_encoder.layers.0.self_attn.in_proj_weight f4 [192, 64]
00000000: dcc6 d9bd b916 11bd e232 86bd d97a 36be
00000010: 4842 11be 32e0 653d a5b4 513c 9db7 e83d
00000020: 0b72 883c 1102 443c c05d efbd 9648 86ba
00000030: 60c9 143e 7afb ea3d f1dd 55bd 2a98 193c
00000040: 4320 65bd c374 16be 4e34 93bd a795 733d
00000050: a881 29be ae46 2fbe 805d cabd 570f 80bd
00000060: 4cb8 dcbd 3c8c 163e 302a 8e3c b417 12be
00000070: 4974 e93d 71bd 96bc eadb 21be 1a09 0b3e
00000080: 49c1 a7bd f24a e5bd 3a6f 61bd 3512 a93c
00000090: 1d16 9f3d bc9d 1dbe 565e 8dbc c0e5 ffbd
000000a0: 0513 0d3d 4d03 f53c 79b6 873d ea24 c53d
000000b0: b283 80bc dd20 7cbd 6f8a 98bc ac0c 153e
000000c0: a81b 583d 881b 793d 9c98 363e d805 b6bd
000000d0: f342 98bc fffc 803d da28 04bd 05c3 e1bc
000000e0: 1fd6 ec3d 4aab 6a3d d5d4 11be 968a d4bd
000000f0: 9a52 123d 0091 19bd 7b5d db3d 5078 1fbe
00000100: cc0a 193c 0953 2c3c f56e fbbd 1310 a6bd
00000110: 33c4 a73d 5289 ab3d ac7b 8dbd 84c2 24bd
00000120: f78a e73c 75ba 06be 7db4 1d3d 3e60 8e3d
00000130: 2783 35bd 72d7 48bc 3142 8fbd e448 f53d
00000140: 3be9 a7bc 82c8 0bbe 8c9e 39bd b918 35bd
00000150: f3b4 bfbd fac2 8e3d b212 bcbd 0a9d 64bb
00000160: 85a6 b53d 56ba 683d 08f4 073e 6ace 0ebe
00000170: 814f 8cbb 277b 95bd 6fa4 b53d 6093 11be
00000180: 1b96 063e 51df 423c 6ccb a2bd a9bb a9bd
00000190: c54f 7ebd 271c c73c 2e2f a2bd a86e eb3d
000001a0: 3dc5 163e 211f eebb 69d0 29bc c459 0c3d
000001b0: 8bc0 8abd 044b 0d3d a73e 28be 7ad2 d7bd
000001c0: e472 9cbc 7154 8c3c 8fec 40bc 069a 7fbd
000001d0: 60e7 dfbd 1745 8c3d 7153 2d3e 334e 60bd
000001e0: 9130 543c 31a6 bd3d 098f ecbd 16ea 073e
000001f0: b439 5e3d 16f1 073e 2366 f83c d749 083e
00000200: 3cef 32be 8f24 033e 28f9 61bd 542d 44bd
00000210: 8993 263e f3a0 7abc fcb7 823c e03f 2f3e
00000220: 06cb 0bbe 7824 d23d f5e2 f6bd 69cb 4fbe
00000230: f7a2 14bd d763 2cbe 7418 9b3d 2bdb b5bd
00000240: a032 033d 7a20 61bd 802d f13d a1d0 18be
00000250: bc71 aebd 3707 b0bd 9e9a 87bd 3516 953d
00000260: 3bff 9bbd 2048 27bd da58 083e e17b bebd
00000270: 7352 d6bd 8096 2fbe 328b 9abd 2c31 df3d
00000280: ad69 0dbe 3828 22be b31e 183e 1390 173e
00000290: 392f 243e 63e2 6a3d 50b9 733d 6963 913c
000002a0: a20a be3d db5a 4f3d 4109 243e 547a 20be
000002b0: 25f1 d9bd 6dee 023e 5af0 183e afd2 8ebc
000002c0: 9bcd 6dbe b590 30be b56c 85bc 344c 3ebe
000002d0: b89c 00bc 2d43 803d 0071 04be ef4a cebd
000002e0: f6bb bfbd 3424 2cbe e83a 373e 8d51 083e
000002f0: 74f3 febc cbb1 8cbd b6c1 35be bd74 05be
00000300: d97e 253e b9a5 2cbd b0ce a13c d22c af3d
00000310: d773 b1bd 0b1d 04be 2864 253e cab2 c8bc
00000320: fdbf 813c 1393 b63d b7bb 8c3d 406d 9bbd
00000330: 9c6c 473b 5cdb 80bd de9e 2a3e 6455 75bd
00000340: c899 56be bc41 bc3d 38e5 ce3d e120 1c3e
00000350: d79d 173e 2b47 d73d 13af 1abe e243 1c3d
00000360: 1278 113e bb50 3ebe d180 013d 6207 1d3e
00000370: 178a b5bd a43a 223d 92f8 57bd 2071 413c
00000380: 8152 c63d fb5a fbbd a661 0e3e 1545 243d
00000390: 3dc0 06bd b788 b8bd 3310 4cbc 35cd 073e
000003a0: acf6 4fbd c7c0 493e 11e9 a23d 2cc1 fc3d
000003b0: 3e7d 7c3d 78f0 c8bd 434b 8bbd a592 37be
000003c0: 3e50 87ba b41a 243e ddaf 34be 314d 0fbe
000003d0: 1ec6 223e 74bc 84bc 14ff 7cbd de55 febd
000003e0: f3ed 7cbd 639f 97bd d600 773d 4786 9b3d
000003f0: 0fff ab3d 4792 4fbe ca81 a93d 46c3 98bc
-0.106336325 -0.03542206 -0.06552674 -0.178203 -0.1418544 0.056122012 0.012799417 0.113631465
0.016655942 0.011963383 -0.11687803 -0.0010245021 0.14529943 0.114737466 -0.052213613 0.009374658
-0.05593897 -0.14692979 -0.07187711 0.05946889 -0.16553366 -0.17116806 -0.09881115 -0.06252926
-0.10777339 0.14701933 0.017354101 -0.14266855 0.11399133 -0.01840088 -0.15806547 0.1357769
-0.08191163 -0.11195935 -0.055037715 0.020638565 0.0776789 -0.15392202 -0.017256897 -0.12494993
0.034441967 0.0299088 0.06626601 0.096261814 -0.015687797 -0.06155478 -0.018620698 0.14555615
0.05276075 0.06081727 0.17831653 -0.08887833 -0.018586611 0.06298255 -0.03226552 -0.027558813
0.11564278 0.05729226 -0.14241345 -0.10377996 0.035723306 -0.0374918 0.10711189 -0.1557324
0.009340953 0.010517844 -0.12277023 -0.08108535 0.08191719 0.08375801 -0.06908354 -0.040224567
0.028264506 -0.13157065 0.038502205 0.069519505 -0.04431453 -0.012258397 -0.06995047 0.119767934
-0.020496955 -0.13650706 -0.045317218 -0.04421303 -0.09360685 0.069707826 -0.09183253 -0.0034883642
0.08869652 0.05681833 0.13276684 -0.13945928 -0.0042819385 -0.0729888 0.08869254 -0.14216375
0.13143198 0.011894063 -0.07948956 -0.082877465 -0.062087793 0.024305416 -0.07919155 0.114957154
0.14723678 -0.0072668944 -0.01036463 0.034265295 -0.06775006 0.03449537 -0.1643015 -0.10538192
-0.019097753 0.017130109 -0.01177515 -0.062402748 -0.10932803 0.06849115 0.16926362 -0.054762077
0.012951032 0.09260214 -0.11550719 0.1327289 0.05425425 0.1327556 0.03032214 0.13309418
-0.17474073 0.12806915 -0.055169255 -0.04789479 0.16267218 -0.015297162 0.015956871 0.1711421
-0.13651666 0.10260862 -0.12055007 -0.20292439 -0.036288228 -0.16834961 0.075730234 -0.088796936
0.0320307 -0.054962613 0.117762566 -0.14923336 -0.08517787 -0.08595126 -0.06621288 0.07279626
-0.07617041 -0.040840268 0.13315144 -0.09300972 -0.10464945 -0.17147255 -0.07546081 0.10898051
-0.13809843 -0.15835655 0.14855461 0.14801054 0.16033639 0.057344805 0.0595029 0.017747598
0.09279372 0.050623756 0.16019155 -0.15671664 -0.10641698 0.12786265 0.14935437 -0.017434446
-0.23222964 -0.17242701 -0.016287187 -0.18583757 -0.007849865 0.06262813 -0.12933731 -0.10072886
-0.093620226 -0.16810685 0.17893565 0.13312359 -0.031121947 -0.06869849 -0.17749676 -0.13032813
0.1616167 -0.042150233 0.019751877 0.08553471 -0.08664673 -0.12901704 0.16151488 -0.024499316
0.015838617 0.08914771 0.06871741 -0.07589197 0.0030429726 -0.062918395 0.16662166 -0.059895888
-0.209571 0.09192225 0.10102314 0.15246917 0.14806305 0.10511621 -0.15105848 0.038150676
0.1420596 -0.18585484 0.03161699 0.15334848 -0.08864229 0.039606705 -0.05272729 0.011806756
0.09683705 -0.122732125 0.13904437 0.040104944 -0.032898176 -0.09010451 -0.012455034 0.13261874
-0.050772354 0.19702445 0.0795461 0.12341532 0.061642878 -0.09811491 -0.068014644 -0.17927034
-0.0010323597 0.16025811 -0.17645212 -0.1399429 0.15895888 -0.016203143 -0.0617667 -0.124187216
-0.061750364 -0.074034475 0.06030353 0.07593971 0.08398258 -0.20270644 0.082767084 -0.018647801

transformer_encoder.layers.0.self_attn.in_proj_bias f4 [192]
00000000: 1285 0b3d 2bc3 75bc 23cf d6bb 1c5c 03be
00000010: cb40 7bb8 2aae b4b9 6189 b7bd fe2c d5bd
00000020: 6aef 2bbe fc3f 7fbc 5a29 ac3d 4d78 3d3e
00000030: 0a33 813d d73e f3bc 978c 1d3e d070 20bb
00000040: 4249 da3d ae4d babc e138 a9bc cde3 b7bb
00000050: 51ad a6bd d519 81bc 8e22 bf3c 1709 c6bb
00000060: 85ac 933c 7ee3 023d aa78 4a3d 09e8 9dbd
00000070: f69d 9c3d 10eb 6cbd f53f 3f3d 2535 b43d
00000080: d3ed 61ba f2f0 9d3d 4e35 1fbd 32d7 59bd
00000090: 3490 30bd cd7c 29bb f419 aa3d 14cc 0ebc
000000a0: cb82 98bd 6af5 4e3c a6a7 afbc 43e2 3d3d
000000b0: 46c7 99bd 54cf 083d 3cb5 46bd 3a58 983d
000000c0: 8a30 66bd a3af c0bc b62e 62bc a7ea 493b
000000d0: 354c 913c 3f98 b63d 4e66 5fbd 98c6 8a3d
000000e0: 1922 873b c823 cb3d ebe3 b13d 84c0 2f3c
000000f0: a308 eb3c f0bf 09bd 3cfa c5bc da37 c4bc
00000100: e81c 153c 9d95 4b3a a2f0 02bc f750 073e
00000110: cd85 c2bc b533 743b eb1f 923d 9fdc 7d3d
00000120: f37d 063e f7be 2d3b 9b7d d2bd 9257 48be
00000130: ec25 82bd 790d 023d d614 19be 90d7 25bd
00000140: 4cf6 e6bd 0e59 bb3c 67ff 233c cf61 17bc
00000150: 4445 9d3d ca7a dc3c e4eb 14bc ab5a e43c
00000160: be4e 74bc 18b0 7dbd c59e a7bd ed7c cf3c
00000170: 5eba b4bd 93ff dd3d 0cdf e8bd c882 71bd
00000180: ab9b 92bd dbf3 1fbd f4b2 953d ceb7 813d
00000190: 0708 d33c 11dc 9c37 3a78 8fbd 6b77 143d
000001a0: 2277 a53d d932 d3bc 491f c23c fae6 c2bd
000001b0: 049d da3d 649e 603d 14f9 1a3d cda5 82bd
000001c0: 97f3 fe3b 23b5 14bd 1839 da3c abe4 3dbc
000001d0: 75eb e9bc 7a50 dcbd 2b18 f5bc 23bb 2cbd
000001e0: 485a 3fbb f1fb 0b3b ee71 64bd 61d6 dfb8
000001f0: 46ca 673c 4540 583d c37c 97bd f07d 9c3a
00000200: 9df7 3b3e fb37 fa3d 8fc6 a63d 59b6 cf3d
00000210: f8ee 5f3e fcac 90bc 430b 9abd d998 89bd
00000220: b3f6 b9bd bf7d 40bd c196 9d3e da03 be3d
00000230: f3d5 04bd b31c b73d b16f 55be 802f 8a3e
00000240: 2c50 d23d 9eb6 1cbe 8b14 6abb f7d1 f5bc
00000250: c489 1b3e b5c4 e53e a2f6 32bd 6673 5abd
00000260: 0b5a 68bd 308c 56bd a28f 543e 2bfe 4e3e
00000270: 1a5c b3bb 3d62 3d3e 7938 ccbd f2dd fabd
00000280: 157f 40be b0e3 a4bc e289 abbd c1e1 5b3e
00000290: c46e abbc 0a25 9abc 6205 fc3c dd0c 92bd
000002a0: bd87 833c 9f0f f73c e40e 63bd b49f 5fbe
000002b0: 56c9 1d3e 45c7 2bbe c819 673e 7433 a4bd
000002c0: d5b0 733e 2845 c3bd 97b4 ccbc 31f3 74be
000002d0: 7c80 5c3c 2350 623c c40d afbe 079d 0fbd
000002e0: 7013 3c3e 2282 71be f2f9 59bd dc24 1d3d
000002f0: 9792 82bc 10e5 15be b69d 883d cbee d1bd
0.034062453 -0.015000145 -0.0065554543 -0.12828106 -5.9903407e-05 -0.00034462038 -0.0896175 -0.10408972
-0.16790548 -0.01557922 0.08406325 0.18502922 0.06308563 -0.02969305 0.15385662 -0.0024481304
0.10658504 -0.022742119 -0.020657005 -0.0056118728 -0.08138526 -0.015759388 0.023331907 -0.006043564
0.0180266 0.031955235 0.04943148 -0.07710273 0.07647316 -0.05784136 0.046691854 0.08799199
-0.00086185074 0.07711972 -0.038869195 -0.053183742 -0.043106273 -0.002586174 0.083057314 -0.008715648
-0.07446822 0.012631753 -0.021442246 0.046358358 -0.075087115 0.03340085 -0.048512682 0.07438703
-0.056198634 -0.02352125 -0.013805082 0.003081003 0.017736534 0.089157574 -0.054540925 0.0677616
0.004123938 0.09918934 0.0868605 0.010727052 0.028690642 -0.03363031 -0.024167173 -0.023952413
0.00910113 0.00077661296 -0.007991942 0.1321448 -0.023745442 0.0037262265 0.07134994 0.06197798
0.13133983 0.002651153 -0.102778636 -0.19564655 -0.06354889 0.03175113 -0.14949355 -0.04048878
-0.11277446 0.022869613 0.010009623 -0.009239628 0.07679227 0.02691402 -0.009089444 0.027875265
-0.014911352 -0.061935514 -0.0818458 0.025328124 -0.08824609 0.108397625 -0.11370668 -0.058962613
-0.071585976 -0.039050918 0.07309523 0.06333886 0.025760664 1.8699126e-05 -0.07005353 0.0362467
0.080793634 -0.025781082 0.023696559 -0.095167115 0.106744796 0.054838553 0.037835196 -0.0637928
0.007780503 -0.036305558 0.026638553 -0.011590163 -0.028554657 -0.10757537 -0.02991875 -0.042170655
-0.00291981 0.0021359886 -0.055772714 -0.000106734 0.014147347 0.052795667 -0.07396843 0.0011939388
0.18356176 0.12217709 0.08143341 0.10142202 0.21868503 -0.01766061 -0.07521679 -0.067186065
-0.09080257 -0.04699492 0.3077908 0.092780784 -0.0324306 0.08941021 -0.20843388 0.26989365
0.10269198 -0.15304038 -0.003571781 -0.030007346 0.15189272 0.44876638 -0.04369224 -0.05333271
-0.056726497 -0.052379787 0.20757917 0.20214145 -0.005473626 0.18494506 -0.09971709 -0.12249364
-0.18798478 -0.020128101 -0.083759084 0.21472837 -0.02092684 -0.01881649 0.030764285 -0.0713136
0.016055936 0.030158816 -0.055434123 -0.21838266 0.15408835 -0.16775234 0.22568429 -0.080176264
0.23797925 -0.09534675 -0.024988456 -0.23920895 0.013458367 0.013813051 -0.3419019 -0.035061862
0.1836679 -0.23584798 -0.053216882 0.03836523 -0.01593904 -0.14638162 0.06670706 -0.10250624

transformer_encoder.layers.0.self_attn.out_proj.weight f4 [64, 64]
00000000: de30 11bd 1bd9 b3bb 1054 5b3b 5beb ddbc
00000010: a723 ef3a b1e2 79bb b160 b0bb 8bb0 25bc
00000020: e564 babc c5d3 87bb 0e96 f23b b450 143c
00000030: 0856 5bbc 8799 d23c 4d4d 8fba cfb7 5c3c
00000040: ff33 823a fa69 153c b276 2c3c ced4 44bc
00000050: 5948 4bbc eca9 92bc c552 aebc 608b 01bc
00000060: 2f83 993b f096 ae3c 3db3 563c ff19 1c3c
00000070: 10d7 ccbc 8d29 8cbb c62a 6c3c ed1d c0bc
00000080: bfe7 2f3b fdac 59bc 0a2a 41ba ea26 f03c
00000090: efbe a43c 4738 b93c dcc1 86bc 718a e13c
000000a0: 8ba7 f53a e83c 45bc 6f9f 8b3b 6a35 953b
000000b0: 65e8 853b 442e b3bb 05d8 3bbc 96fe efbb
000000c0: bc0e 38bb 510f b3bc 377f 20bb 058a 8e3c
000000d0: bbb0 e4bc 6feb 793c fab8 2d3d ba43 173c
000000e0: a046 b8bc a84b df3c 8e64 82bc b7a3 b0bc
000000f0: 139d 893c e122 67bb 34f5 e1bc 7664 7139
00000100: 54f4 883c 0bab eb3b 13ca d7bb 009b 0fbc
00000110: 41c3 5e3c e333 633c 78c2 393b 009b 6bba
00000120: fc4f f5bb c47a 55bc 0cbf 1f3b d656 a83c
00000130: 4325 9abc 62b1 d9bb 165d 5a3c d782 4e3b
00000140: 039d a53c 9968 cfbb b879 0abc e01a 82bc
00000150: 3a93 33bc 3945 81bc e05c 5e3c 95a1 b53c
00000160: 1d84 a4bc 57f9 38bc cd6b 9c3c a29d 853c
00000170: 04f1 89bc 1fa5 233c 1a51 cf3c adb1 babb
00000180: 8d34 9fbc 2892 99bc 88ff 833c 533f ab3c
00000190: d83c b43b 9ab3 03bb a31c 7cbb b665 573c
000001a0: 2878 89bc 123c ddbc 1563 24bc 9902 7b3b
000001b0: 67c2 503c 050a 9dbc e584 783c 7440 a6bb
000001c0: 30f9 63bc 7545 863c 7472 76bc 24a2 e3bc
000001d0: a23c 063d 5254 193d 6674 dd3a 0f22 b03b
000001e0: f5a9 b93b f9a8 61bc 94b1 c93b a284 04bc
000001f0: efb0 f3bb 9e1e f9ba 4171 6d3c 397e 37bc
00000200: 3b65 c9b9 d55b e4b9 d9bd 403c 445f ad3c
00000210: 5ff9 033c 03e5 343c 991d e3bc 994f 4bba
00000220: 5c42 2abc 3245 843c 24a6 153d 66e6 7c3b
00000230: 1126 48ba 924a f839 d46c b4bb 4e19 ad3b
00000240: 6729 b8bb 0e45 65bc 2673 1c3c eb33 72bc
00000250: ebff 213c 66f7 083d aed1 043c 83d5 ed3c
00000260: c655 ff3c b3f0 e1bb 8bc9 ba3c f79b 703b
00000270: dfa1 273c d3fb 8a3c 1fce 19bc 205b aeb8
00000280: a60d 55bb ac53 d8ba 68f3 9eba 173a 47bc
00000290: fdeb f7bc 4650 093d bfd6 86bc 7941 3d3a
000002a0: fd45 843c 8ebf ef3b b436 963b 1bc2 48bb
000002b0: 27e5 2d3c 1d12 da3b 3c18 8b3c 5218 d137
000002c0: df3c 92bc eae8 82bc ba34 753c 73e9 37bc
000002d0: 4800 323a 608a ee39 ce31 fa3c 2491 023c
000002e0: 980f cebb 5e6e ef3c ba64 d0bc 7c89 0abc
000002f0: 4464 a2bb df7c 413c b623 3bbc cda4 82bc
00000300: 1dd1 d23c c99d 36bd 97c9 a3bc 1488 a03c
00000310: 43ac 4f3c 21cb 15bd c72d b43a 8956 e83c
00000320: 826b 493d 175f 983c b08f 5d3a 58bc b13c
00000330: 64f5 25bc 35df 69ba 30f0 493d 62be 1ebc
00000340: 6c4d c4bc 74d5 ecba 7656 1c3d 78ab f5b9
00000350: 5fd5 303d 7ecc 46bd c54f f43c 07c9 573c
00000360: 0009 a13b 8702 0fbd c351 60bc 5a38 0c3d
00000370: 8a00 243d 8b3a 603d 3463 64bc fdd2 2c3d
00000380: fd0d 743c 3720 2ebc 0ff7 693c 8123 363c
00000390: 1c77 873d fe03 26bb 4cc8 373d 120f 273a
000003a0: f4db c8bc 012f a23c 3c13 5739 5255 5abd
000003b0: df5b 4bbc 6d85 85bc 8826 ba3c 4f77 4abc
000003c0: 7eec 8bbc 2cc1 663d 6e83 c3bc 54ee aa3c
000003d0: 021c b93c 1ee0 e53b b44a 74bc f9bf 8ebc
000003e0: 10df 803c 9f91 543a 058a 923c 12e6 94bc
000003f0: 9c7c e03c 9522 963c 11f4 d03c f6c1 1a3d
-0.035446994 -0.0054885275 0.0033466853 -0.027089765 0.0018244878 -0.0038129503 -0.0053826203 -0.010112892
-0.022753188 -0.004145118 0.007403142 0.009052444 -0.013387211 0.025707973 -0.0010933072 0.013471558
0.0009933709 0.009119505 0.010526346 -0.012013627 -0.012407386 -0.01790329 -0.021279702 -0.007906765
0.0046848278 0.021312207 0.013104257 0.009527682 -0.025004894 -0.004277414 0.014414495 -0.02345177
0.0026841012 -0.0132858725 -0.000736863 0.02931543 0.020110575 0.022609843 -0.016449861 0.027531834
0.0018741948 -0.012038447 0.0042609493 0.0045534866 0.0040865415 -0.005468162 -0.011465077 -0.00732405
-0.0028084954 -0.02185789 -0.0024489888 0.017399797 -0.027916303 0.015253886 0.042412736 0.009232456
-0.022494614 0.027257755 -0.015917089 -0.02156244 0.016798532 -0.0035268592 -0.027582742 0.00023020976
0.016718067 0.007192021 -0.0065853684 -0.008764982 0.013596357 0.013867351 0.0028344672 -0.00089876354
-0.0074863415 -0.013029758 0.0024375347 0.02054922 -0.018816596 -0.00664346 0.0133278575 0.0031511092
0.02021647 -0.0063296077 -0.008451872 -0.015881956 -0.0109603945 -0.015780078 0.013571948 0.022171775
-0.020082528 -0.011289916 0.019094372 0.016310517 -0.016838558 0.009988098 0.025307227 -0.00569745
-0.019434238 -0.01874645 0.016113058 0.020904219 0.005500417 -0.0020096065 -0.0038469217 0.013146808
-0.016780928 -0.027006183 -0.010033389 0.003830111 0.012741662 -0.019169817 0.015168403 -0.0050736014
-0.013914391 0.016390542 -0.015041936 -0.027787276 0.032772668 0.03743393 0.0016895651 0.005375154
0.0056660124 -0.013773196 0.006155202 -0.008088263 -0.0074368636 -0.0019006317 0.014492334 -0.011199527
-0.0003841313 -0.0004355597 0.011764013 0.02116359 0.00805506 0.011040929 -0.027724074 -0.00077556964
-0.010391798 0.016146276 0.036535397 0.0038589477 -0.0007635067 0.00047357805 -0.0055061374 0.0052825576
-0.00562017 -0.013993515 0.009548938 -0.014782886 0.009887676 0.033439063 0.008106632 0.029032474
0.03116883 -0.0068951487 0.022801181 0.0036714056 0.010231464 0.016965782 -0.009387522 -8.31394e-05
-0.0032509356 -0.0016504428 -0.0012126984 -0.012159846 -0.030263895 0.03352382 -0.01645982 0.0007219534
0.016146654 0.0073165363 0.004584158 -0.0030633274 0.010613716 0.0066549913 0.01697933 2.4926067e-05
-0.017851291 -0.015980203 0.014966184 -0.011225092 0.0006790203 0.00045497995 0.030541327 0.0079691745
-0.00628848 0.029227432 -0.025438655 -0.00845563 -0.0049558003 0.011809557 -0.011422088 -0.015947724
0.025734479 -0.04458407 -0.019993586 0.019596137 0.012675348 -0.036570672 0.0013746553 0.028361576
0.049174793 0.01860003 0.0008451892 0.021696255 -0.010129306 -0.0008921505 0.049301326 -0.0096889455
-0.023962699 -0.0018068985 0.038168393 -0.00046857796 0.043172237 -0.048534863 0.029823193 0.013170487
0.004914403 -0.03491452 -0.0136913685 0.03423343 0.040039577 0.05474333 -0.0139396675 0.0421934
0.014895913 -0.010627798 0.014280095 0.011116863 0.06614515 -0.002533197 0.044868752 0.000637279
-0.024518944 0.019797804 0.00020511163 -0.053304024 -0.0124120405 -0.016298974 0.022723451 -0.012357547
-0.017080542 0.056336567 -0.023866381 0.020865597 0.022596363 0.0070152422 -0.014910389 -0.017425524
0.015731364 0.00081088574 0.017888078 -0.018176112 0.027403168 0.018327037 0.025507005 0.03778263

transformer_encoder.layers.0.self_attn.out_proj.bias f4 [64]
00000000: dde1 963c 9584 033c fc6b c13c b398 4abd
00000010: 3c32 82bc b912 353c 3215 6fbd 4ad6 293c
00000020: 6992 0bbc 6d19 a73c 9042 053b 2749 223c
00000030: a020 1c3c 8845 ff3c ea3f 23bd dfb2 c93c
00000040: f6c8 a33c aa25 1a3a 71b3 113a 188a edbb
00000050: 944e 55bb c745 9c3c dad4 b7bb 998d d0b7
00000060: 95b6 bc3c f0ba db3c 35c1 90bc 7138 c0bc
00000070: 27a8 d7bc 2107 203d 55e1 2dbb 6fe0 823c
00000080: 79fe e63b 5b36 1cbc d490 a7bc 5109 7c3b
00000090: 1a4f e2ba 1b10 0c3b 6187 a0bb c793 e93b
000000a0: b8a5 4a3b c925 febc 85f7 31bc 8d3d b1bb
000000b0: fb0f bf3c 9cb2 d3bb b5f3 f83c cd87 d53b
000000c0: 398f 34bb 70f8 56bb d165 5b3b 4738 39bc
000000d0: d455 ea3c b580 a1ba abba a1bc fac2 d6bc
000000e0: 342d 20bd 0f14 64bc 8f98 61bc 5d3e ba3b
000000f0: aaba f8bb 7e66 bebb d59e 01bc 0677 8d3c
0.018418247 0.0080272155 0.023611061 -0.04946203 -0.015893094 0.011051827 -0.058369823 0.010366032
-0.008518794 0.020397866 0.0020333864 0.009905136 0.009529263 0.031161085 -0.039855875 0.024621425
0.019993287 0.0005880246 0.000555805 -0.007249128 -0.0032548057 0.019076241 -0.0056100907 -2.4861469e-05
0.02303628 0.026822537 -0.017670253 -0.023464413 -0.026325298 0.0390693 -0.0026532013 0.015976159
0.0070493785 -0.009534444 -0.020454802 0.0038457701 -0.0017266006 0.0021371904 -0.004898951 0.007128212
0.003092153 -0.031023877 -0.010862236 -0.0054089488 0.02332305 -0.006460501 0.030389646 0.006516433
-0.0027551188 -0.003280189 0.0033477435 -0.0113049215 0.02860538 -0.0012321683 -0.01974233 -0.026216019
-0.03910561 -0.013920798 -0.013769283 0.005683704 -0.0075906115 -0.005810558 -0.007911404 0.017268669

transformer_encoder.layers.0.linear1.weight f4 [128, 64]
00000000: 32b7 733e 090b cb3c 4440 8bbe 8e45 fcbc
00000010: fe39 813e b7cb d1be ea71 ad3d 6ad9 b53e
00000020: 5b92 023e 2dc7 b6be b1bc 453e b13a 51be
00000030: 4c84 893b dae5 c7bd e207 3a3e 61b2 80be
00000040: 7cba 6ebd f283 62be 7c66 713d ea9f 37bb
00000050: 5a2d 1c3e b42a 363e f2d0 333e 6371 a03e
00000060: d994 96bd 757d aabe d92b 373e 36d5 8bbd
00000070: f804 58bd 5804 063e 3173 e53c 77cc 1bbd
00000080: 262f fb3d 3e1c 1bbe d8d5 d43e 6304 1abd
00000090: 7708 8c3e cef6 063e 6e6f 64be 9209 74bc
000000a0: 9559 8e3c 6489 843e cb90 c73e 9a32 67bd
000000b0: 813f e23e d6b5 59bd 9e72 fd3d ae44 043e
000000c0: d64e 773d 22c8 6d3d b9cb 91be fa31 d1be
000000d0: e4f8 553e 5d04 2abe 7734 afbe 5b74 1e3e
000000e0: 5b6f 1b3d 5a3b a3be f5ab 9a3d 21b7 b5bd
000000f0: 6c0a adbe b5a2 d5bd df97 92be 86d6 913e
00000100: 42f2 083e 8e8e 5b3e fa3b e73d 1295 78be
00000110: 655b 2bbe 7787 3f3d 4cf6 b43a fd44 22be
00000120: 58c3 4bbe 8787 833d 1668 f4be d280 75bc
00000130: 0abd 88be 11a8 99be bc57 c33e 7b99 1b3e
00000140: 039e 0abd b1c4 54be 0293 703d 2673 c13d
00000150: dfb8 c3be 44e4 4ebe a166 253e 9364 293d
00000160: 6162 ae3e a26b 61be 6b7b 9fbc 21b5 d43d
00000170: 40c6 65be 1b6d 0dbe 37e5 293f 3b72 e23e
00000180: a2f4 893e ef45 043f 24b2 b53d f89a 53be
00000190: bb04 8cbd 8b98 bdbe bffb adbe 6489 b1bb
000001a0: 03a0 0a3e f5a8 a83e 5dc6 61be 5bfe 4f3e
000001b0: 2239 57be b597 66bd fcf2 40be d0c3 95be
000001c0: 2230 07bc 4d56 a0be 68b1 48be b1f5 b13c
000001d0: 1357 933e c7b0 54bd 3527 533e dc40 f63e
000001e0: ee3c 163e eef9 46be 8689 0abd 429e 96bd
000001f0: 3dab 9e3e ae24 9a3d c202 073e e0b9 d53d
00000200: 0a0b 223e 20e7 563e 03b1 cb3d 5a66 8abd
00000210: 12ef 7b3e 5669 4e3d 1bf6 3d3f c4b5 6c3e
00000220: 3b09 8dbd a994 40be 6d8d 6b3e c33a 6f3d
00000230: 45ac 19bc 3295 3dbf 74d6 803d a3c3 7dbe
00000240: 49f6 afbe 6a3c 5cbe a811 31bd 9999 3e3e
00000250: 388d 89bc 0e88 58bc db94 673e 2faa 223e
00000260: 002c 843e 5d16 10bf 3244 9c3e 18d5 473c
00000270: 26c2 063e 528a 64be 4467 d43d f21b 49be
00000280: 1c5f fbbd eb35 0abd c13a 0dbe 4c6a 5d3d
00000290: 490e 033f bb9d 883d cc8b 453e 3dab 04bd
000002a0: f441 e6bd 25db 213f 6749 85be de3c 243e
000002b0: 2c01 4abd f08e edbe edf6 f4bd 1d84 a73e
000002c0: e013 263e 456a c3bd 1423 92bd 1fd3 76bf
000002d0: e3a3 bd3e 90cb 84bc 6016 44bd 27bd 543e
000002e0: 0713 8bbd 46fb 36bf c15d bcbd ce7e de3d
000002f0: 646c 12be 2a47 75be 82a6 083e 5fa5 03be
00000300: 00f8 2a3d 90b1 d0bc 5a99 173c 20ec b83d
00000310: 31e6 853e c8eb ffbe d3b5 b83e fe9d 6bbe
00000320: e47e 26be de5b f3be 9cc0 473d 3220 94be
00000330: da62 b0bd 9880 22be ba8a 8cbe e0ff 6bbe
00000340: 6678 4cbe c70d 77bc 64e0 273e f703 4ebe
00000350: 4d1a fb3e 202a 2a3e 03a3 743e 88de a5be
00000360: 2322 39be 1ef9 493d 0150 4a3d 8cfb 413e
00000370: 8f9c d73e 4060 3ebc d930 abbd e772 c43c
00000380: 40e6 a33d 3595 93be d105 d7bd 5e99 d23e
00000390: be39 f73e e9cc 11be c5b1 65be 2a3d b4bd
000003a0: 91f7 d7bd 8338 883e cd66 263e a07c ec3c
000003b0: 5124 713d 3750 9b3d a557 793d 7c0d 8bbe
000003c0: 6bf2 9f3c 83ed 1b3e f974 893e 64c7 e7bd
000003d0: 422f 12bd 2489 ca3d 3dc5 e0bd 6a4d c23b
000003e0: 55a6 983e 2c16 8ebc 682f 923e 7a5b 343e
000003f0: 1de1 a33b 63e2 c33d ad4d a6be 73a4 39be
0.23800352 0.024785535 -0.27197468 -0.030794885 0.25239557 -0.40975735 0.08468993 0.35517436
0.12751143 -0.35698834 0.19310261 -0.20432545 0.004196679 -0.097606376 0.1816707 -0.25136092
-0.058283314 -0.22120646 0.058935627 -0.00280189 0.15251675 0.17789727 0.17560175 0.31336507
-0.07352609 -0.3329884 0.1788782 -0.06827776 -0.052739114 0.13087595 0.02800903 -0.03803679
0.12264852 -0.15147492 0.415694 -0.03760184 0.27350208 0.13180086 -0.22308132 -0.01489486
0.0173767 0.2588607 0.38977656 -0.05644474 0.44189075 -0.053151928 0.12375377 0.12916824
0.06037792 0.05805219 -0.2847574 -0.40858442 0.20895725 -0.16603227 -0.34219715 0.15474074
0.037947994 -0.3188122 0.075523295 -0.0887282 -0.33797014 -0.104314245 -0.28631493 0.2848398
0.13373664 0.21441099 0.112907365 -0.24275616 -0.16734083 0.04676005 0.0013806312 -0.1584663
-0.19898736 0.06422334 -0.4773566 -0.014984326 -0.26706725 -0.30011037 0.38152874 0.15195267
-0.033842098 -0.20778157 0.058733948 0.09445791 -0.38226983 -0.20204264 0.16152431 0.04135568
0.34059432 -0.22013715 -0.01946803 0.1038611 -0.22438908 -0.13811152 0.6636538 0.44227776
0.26944453 0.5166921 0.08871868 -0.20664585 -0.0683684 -0.37030444 -0.3398113 -0.0054179896
0.13537602 0.32941404 -0.22048326 0.20311873 -0.21017888 -0.056297023 -0.18842691 -0.29250956
-0.008251222 -0.31315842 -0.19598925 0.0217236 0.2877737 -0.0519264 0.20620425 0.4809636
0.1467168 -0.19431278 -0.03382256 -0.07354404 0.3099002 0.07526527 0.13184646 0.104358435
0.15824524 0.20986605 0.09945872 -0.06757803 0.24602917 0.050393425 0.7420365 0.23116213
-0.06886526 -0.1880671 0.23003168 0.05840565 -0.009379451 -0.7405578 0.06290904 -0.2478166
-0.34367588 -0.21507421 -0.04322973 0.1861328 -0.016790971 -0.013216032 0.22615378 0.15885232
0.2581482 -0.56284124 0.3052078 0.012196802 0.13159999 -0.2231839 0.10371259 -0.19639567
-0.12274 -0.033742826 -0.13791944 0.05405645 0.5119367 0.0667071 0.1929161 -0.032389868
-0.11243048 0.63225013 -0.26032564 0.16038844 -0.049317524 -0.46398115 -0.1196116 0.32717982
0.16218519 -0.09541754 -0.07135597 -0.96415895 0.37039098 -0.016210347 -0.0478729 0.20775281
-0.067907386 -0.7147716 -0.0919757 0.1086403 -0.1429916 -0.23952928 0.13344768 -0.12856053
0.041740417 -0.025475293 0.00925287 0.09029412 0.26152185 -0.49984574 0.3607622 -0.23009488
-0.16259342 -0.47531027 0.04876767 -0.28930813 -0.086126044 -0.15869367 -0.2744959 -0.23046827
-0.19967803 -0.015078968 0.16394192 -0.201187 0.49043503 0.16617632 0.23890309 -0.3239634
-0.18079428 0.049309842 0.049392704 0.18943614 0.42111632 -0.0116196275 -0.08358926 0.023980571
0.08002901 -0.28824773 -0.10499156 0.41132635 0.4828624 -0.14238323 -0.22431095 -0.088007286
-0.105452664 0.26605615 0.16250153 0.02886802 0.058872525 0.07583659 0.0608746 -0.27158725
0.019524774 0.15227322 0.26847056 -0.113173276 -0.0356896 0.09889439 -0.1097512 0.0059296386
0.298144 -0.017344557 0.28551793 0.1761302 0.005001201 0.09564664 -0.32481137 -0.18129139

transformer_encoder.layers.0.linear1.bias f4 [128]
00000000: 2e65 94be ec2a 30be f7b9 ddbe b1c7 b1be
00000010: 10a3 2bbe a817 cabc 1f10 79bd 4fa3 b7bd
00000020: 36b4 a7be 2934 24be 208a 6bbe 9479 29be
00000030: 0cd4 ccbe 2350 54be 8080 a2be 89c9 06be
00000040: 95be 81bd af25 63be 2a3b 3bbd 1ab9 48be
00000050: 9431 86be 0762 81be 9d22 e6be 6923 11be
00000060: 7f62 9ebe 6fcb 12be 571b 81be 0581 a0be
00000070: 9382 e6be 7875 7dbe 0af3 90be 7e7e 99be
00000080: f76e 7cbe 2a89 b1be 10a6 15be e0b0 c9bd
00000090: bd6e 05be 323e 74be 6278 0dbd ef62 e4bc
000000a0: 7bfa 68be 6ff7 90be 6b59 c5be 37a2 b5be
000000b0: 7017 d5be e409 e3be 0ff9 f7bd 7ca7 74be
000000c0: ffa2 1fbe 693f ddbd ada9 7ebe d550 f2be
000000d0: c700 c2bd e281 93be fb25 fbbe fd4f 79be
000000e0: 1985 cdbe 0151 89be 652a 0fbe cff9 85be
000000f0: ea03 42be 7bb3 39be 13f0 94be 5db5 30be
00000100: 4c58 91be 07f7 8ebe 7a5f 92be 2e81 c9bd
00000110: d06b 9abe 45a4 2abd 28f9 6bbe 1d08 7fbd
00000120: 1f85 a0be a992 66be 7c25 d0be 0a78 36be
00000130: 7792 cbbe 7255 22be 208e cfbe d16a 82be
00000140: 2023 dcbe a262 80be aaae 0bbf 2995 debe
00000150: b825 f8be 0a3f 40be f535 9cbe fd23 bcbe
00000160: 9bfc 13be c7d9 77be 60d6 6dbe a1ad b1be
00000170: 10d4 f2bd 3b20 babe 5d8f aabd 96ba afbe
00000180: 584f e4be 3c79 e6be 33b4 6ebe de92 aabe
00000190: 86d6 73be 7941 b3bd 605c 45be 79c4 2cbe
000001a0: 8495 34be 468d 5fbe 7ca9 dabd 479b 2fbd
000001b0: 1c33 fdbd 49db 8abe 9cfd dcbe e744 b2be
000001c0: e55b a3be b647 94be 7244 95be e6e6 9cbe
000001d0: cf2f 2dbe b176 cebe eef7 40be a674 b4be
000001e0: af32 eabe 39cb 80be 495f 2fbe c8f6 2bbe
000001f0: a6e7 1cbe 8ea6 ebbd f3f7 85be 5940 25be
-0.28983444 -0.17203873 -0.43305942 -0.34722665 -0.16761422 -0.024669483 -0.06080639 -0.089666955
-0.32754678 -0.16035523 -0.2300191 -0.16550285 -0.4000553 -0.20733695 -0.31738663 -0.13162817
-0.06335179 -0.22182344 -0.04571072 -0.1960186 -0.262097 -0.252701 -0.44948283 -0.14173664
-0.30934522 -0.14335416 -0.2521617 -0.31348434 -0.45021495 -0.24751842 -0.28310424 -0.29979318
-0.24651705 -0.3467496 -0.14614129 -0.09848189 -0.13030525 -0.2385185 -0.034538634 -0.027879206
-0.227518 -0.28313777 -0.38544783 -0.35475323 -0.41619444 -0.44343483 -0.12108051 -0.23892015
-0.15589522 -0.1080311 -0.24869414 -0.47327295 -0.094728045 -0.2881003 -0.49052414 -0.2434692
-0.40140608 -0.26819614 -0.13981016 -0.2616715 -0.18946806 -0.18134873 -0.29089412 -0.17256685
-0.28387678 -0.27922842 -0.28588468 -0.09839092 -0.3016038 -0.041660566 -0.23044264 -0.062263597
-0.31351563 -0.22516884 -0.40653598 -0.17819229 -0.3976018 -0.15852907 -0.4053812 -0.2547212
-0.42995548 -0.2507525 -0.5456339 -0.43473175 -0.48466277 -0.18774047 -0.30509916 -0.36746207
-0.1445183 -0.24204169 -0.23226309 -0.3470278 -0.11856854 -0.36352715 -0.083281256 -0.3432204
-0.44591784 -0.4501437 -0.23310928 -0.33315176 -0.23812303 -0.08752722 -0.1927352 -0.16871823
-0.1763516 -0.21831235 -0.10676858 -0.042872693 -0.12363264 -0.27120426 -0.4316224 -0.34818193
-0.31906047 -0.2896096 -0.29153782 -0.30644912 -0.16912769 -0.4032493 -0.18844578 -0.35245246
-0.45741794 -0.25155047 -0.17126192 -0.16793358 -0.15322742 -0.11506377 -0.26165733 -0.16137828

transformer_encoder.layers.0.linear2.weight f4 [64, 128]
00000000: d15f 3ebe af01 dfbd 8cf0 db3c 3d0d 64bd
00000010: 7866 51bd 3810 e43d bb90 99bc 6e17 863d
00000020: dc4f c6be 9cc8 cb3d ee17 fb3c eca5 05be
00000030: cb8f 473e 0279 be3d 3e8a a63e 0333 fd3d
00000040: 462d 8bbe b6fb ba3d 59ca 8ebe a754 353d
00000050: 4bd3 293b 2409 183e 1909 2e3e e4c1 b0be
00000060: 2f42 e73d 87ca a0bd 3a61 303e 72bf 2ebc
00000070: 9682 0b3e 7891 1cbe 0c52 edbb cd69 16be
00000080: 69df 713e abed c3bd 5b90 f63d c07f c73c
00000090: 3979 23bd 12a4 6e3d f6b4 8c3a cd4a d3bd
000000a0: d76c 26be 1d97 a7be b2c9 9d3e 96dd 1d3e
000000b0: 03f9 1b3e e9cd 49be 0f83 4d3d 2ffc 88be
000000c0: 99af 1abc 711e f83d 2d48 54bd ea85 3ebe
000000d0: 0872 ee3e 5373 23bc c654 58be d23a 143e
000000e0: ead5 08be fd97 eabd 00a2 01bf b679 9e3d
000000f0: 3c59 603e a03a 67be 7cfb 57bd dae4 453e
00000100: f7ee a2be 583a 263d 8631 a1be d238 b43e
00000110: 3ab0 b2be f38c 333e a121 f93e 3f05 983c
00000120: d6e2 fc3c c6db 00be 82b2 53be 36cd 8ebe
00000130: 0c51 f5bd 2cd4 3cbe 46c4 11be 9a43 a7be
00000140: 3c86 993e 13fa 43be b3f6 ffbd 52f2 96be
00000150: 4af9 5a3d 05d8 2dbe 60fd 033f 0ac7 51be
00000160: 9894 acbe 7f35 70be c324 00be 111a 83be
00000170: d5b7 903d fee9 d83e 5be6 40be a83e f4bc
00000180: cdd1 84bd b4cb 95be eb53 11bf d8b3 613e
00000190: 199b 02bd 13d9 ce3e 9d97 9cb9 01bd e03c
000001a0: c18b 98bd a6d1 533d 69ac 3dbd 77c7 7ebe
000001b0: 26fe 29bd a0d5 a03d 556c e9be 05f3 8fbd
000001c0: 2546 b93d ec2d 8e3d dce0 8c3d 91e1 76be
000001d0: 8262 b4bd 4524 8b3e a65e 393e b0e3 65be
000001e0: 86b4 7e3d a742 26be b3e6 48be db0b a9bd
000001f0: a959 913d 4a4a 2c3b 3ea2 1c3e 41b2 4a3a
00000200: abf5 413d 160c 68bd 6f97 9a3e 4c84 783e
00000210: a4c9 c9bd b2c8 0bbe e1fa 893c 9a37 2cbd
00000220: 972d fa3d 5244 953e 0de2 c2bd 3da4 cdbd
00000230: 58f6 723d ecd1 3b3e feae 993d 1e7b 903c
00000240: dea9 233e e30a a7be 820a e73c 18d1 5fbd
00000250: 6a50 8fbb ad62 15bd 3228 c23c e2cc c3bd
00000260: e05d a7bd 8bb2 ecbd b8eb 17bd 986d e33c
00000270: 2e8b ab3e 7065 65be cb1e e4bd 0025 42bd
00000280: fec8 11be 222e 32be 6bbc 0ebe 23ab 9fbd
00000290: 818d 35bd 36f8 cabe f8f6 693e 1f9b 17bd
000002a0: f66e 4b3e 384d 283a ebb1 423d 5521 ba3d
000002b0: a4b2 f7bd 58b1 c8be d93c eebd 9a19 d53d
000002c0: 0093 7a3d cca9 023e a57d 223e f0ba a43c
000002d0: 264b fdbd aa09 6f3e 8e1d 5dbc 67fe c93e
000002e0: b826 683d e7d4 323e 8182 72bd 1ab0 4cbe
000002f0: 5e5d 2f3e 200d 9c3d ef9a 4b3e f1fc 5bbe
00000300: 61f3 0fbe ae30 853e 13e5 13bd 99ba cebd
00000310: e3d6 523e 3981 e33d 7104 3cbb f4bc a6bb
00000320: 3736 dc3d c40a babd a667 d2bd 126e eebd
00000330: 49d9 f8bc f46b 8b3d 280f d0bd 601a 113e
00000340: ea51 8e3d 9a67 1ebe cf4c c2bd 98cc 8cbe
00000350: 4f55 813e 0a56 0e3e 3bbb c0bd a606 bc3d
00000360: aaef 573d ffe1 213d d8ac c3bd f3c6 493d
00000370: a6f0 7f3d f13e 67bb 2d5c e63b 62da 113d
00000380: f9c5 0abd 2b3a e93c 8132 0ebe 58e8 51bb
00000390: 67d7 9bbe 8de1 1a3e 0b89 433e 4932 8dbc
000003a0: 5135 8cbd b82c 02bb 6607 5d3e 0644 cc3c
000003b0: 3839 113d c351 283e 7680 95be 19e7 b53d
000003c0: dafe b83d 47f5 353b 600e c13d 39e9 ac3c
000003d0: 869f 453e a39b b9be fb32 e138 646d c83a
000003e0: 9ab4 acbb 9e9e dfbd 24c1 6b3d 52c3 273e
000003f0: 62c3 743e 2a9a bbbe 8283 11be 4b21 26be
-0.18591239 -0.10888993 0.0268481 -0.055676688 -0.051123112 0.11135906 -0.01874577 0.065474376
-0.38732803 0.099503726 0.030651059 -0.13051575 0.19488446 0.09300424 0.32527345 0.12363245
-0.27182978 0.09130041 -0.27888754 0.044270184 0.0025913294 0.14847237 0.16995658 -0.34522927
0.112919204 -0.07851129 0.17224589 -0.010665761 0.13624033 -0.15289867 -0.0072424468 -0.14688797
0.2362038 -0.09566816 0.12039252 0.024352908 -0.03991053 0.05826194 0.0010735083 -0.103170015
-0.16252457 -0.32732478 0.30817944 0.1541656 0.15231709 -0.19707455 0.050173815 -0.267549
-0.00944128 0.12115181 -0.051826645 -0.18605772 0.46571374 -0.009976226 -0.21126089 0.14475563
-0.13362852 -0.11454771 -0.5063782 0.07738058 0.2190904 -0.22580957 -0.05273007 0.19325581
-0.3182294 0.040582985 -0.31483096 0.351996 -0.34900075 0.17534237 0.4865847 0.018557189
0.030869883 -0.12583837 -0.20673564 -0.2789094 -0.11978349 -0.18440312 -0.14235029 -0.32668763
0.29985225 -0.19138364 -0.12498226 -0.2948175 0.053460397 -0.16976936 0.51558495 -0.20486084
-0.33707118 -0.23457907 -0.12514023 -0.25605825 0.07066313 0.42366022 -0.18837874 -0.029815033
-0.06485329 -0.29256976 -0.56768674 0.22041261 -0.031886194 0.4039999 -0.000298676 0.027433874
-0.07448531 0.05171361 -0.046307 -0.24880777 -0.04150214 0.07853246 -0.45590463 -0.07028774
0.09046582 0.06942353 0.06878826 -0.24109484 -0.088078514 0.2717611 0.18102512 -0.22450137
0.06218388 -0.16236363 -0.19619255 -0.082542144 0.070971794 0.0026289397 0.15296265 0.00077322504
0.047353428 -0.05665215 0.3019366 0.24269217 -0.09852913 -0.13650778 0.016843261 -0.042045213
0.12215727 0.29153687 -0.09515772 -0.100410916 0.059316963 0.18341798 0.0750408 0.017636832
0.15982768 -0.32625493 0.028203253 -0.054642767 -0.0043736 -0.036471058 0.023700807 -0.09560563
-0.08172202 -0.11557492 -0.037090033 0.02776222 0.33504623 -0.22401977 -0.11138686 -0.047398567
-0.14236829 -0.17400411 -0.13939063 -0.077963136 -0.0443244 -0.39642495 0.22848117 -0.03701317
0.19866547 0.0006420198 0.047532957 0.09088389 -0.1209462 -0.39197803 -0.116326995 0.10405274
0.061175346 0.12760085 0.15868242 0.02010867 -0.12367849 0.2334353 -0.013495816 0.39451906
0.05667755 0.17464028 -0.05920649 -0.19989052 0.1712546 0.07619691 0.19883321 -0.21483208
-0.14057685 0.26013702 -0.036107134 -0.100941844 0.20589785 0.11108632 -0.002868917 -0.005088443
0.10752528 -0.09084085 -0.102736756 -0.11642088 -0.030377047 0.068077 -0.10159141 0.14170218
0.069492176 -0.15469208 -0.09487306 -0.27499843 0.25260398 0.13900009 -0.094107114 0.091809556
0.052718796 0.039522167 -0.09554452 0.049262 0.06248536 -0.0035285319 0.007030031 0.035608657
-0.033880208 0.02847012 -0.13886453 -0.0032029357 -0.30437776 0.15125103 0.19095246 -0.017235892
-0.06846107 -0.001986308 0.21584854 0.02493478 0.03545496 0.1643744 -0.2919957 0.08881969
0.09032984 0.0027764605 0.0942657 0.021107303 0.19299135 -0.36251554 0.00010738332 0.001529139
-0.005270553 -0.10918926 0.05755724 0.16383103 0.23902658 -0.36641055 -0.14210322 -0.16223638

transformer_encoder.layers.0.linear2.bias f4 [64]
00000000: 8bb5 043e 42b8 203d cb7c 07be 9589 093e
00000010: c8c4 fd3b ff62 d8bd 622f 103e 6ccc 83bb
00000020: 55eb a7bd 656a d5bc 832e 62be 9006 4c3d
00000030: 8c1c 79bd baec 7e3c 9d99 443d 43ee 2a3c
00000040: 9727 05bd 43b5 453e ff20 c83d 5679 76bd
00000050: 6aa2 cf3d 2e25 86bd 76ff 60bd 6161 0dbd
00000060: 709a e73d 4ebb 1abe b48d b33a 9b2c ac3d
00000070: 9f43 f33a 936f a93d f395 c8bd 08bb 90bc
00000080: 52d6 c8bc fa14 843c 7a97 38bc f57b d83d
00000090: 8fec d9bd 1870 1a3d 690a a0bd a1f6 743c
000000a0: fa74 b03d a6f0 823d fa64 e1bb de48 5f3d
000000b0: 570b 133e 56a6 07bc 37da 3fbd ad02 13bd
000000c0: fb88 e43d 974e b73d acb3 21bd 0189 f73c
000000d0: 10ad 0a3e d70e 023d 9ea6 883c 1750 3d3d
000000e0: 0bac b63d cab5 763d d81b f1bc b455 fc3d
000000f0: ac21 efbd 3cee a7bd 8ec2 683d 99ce f73d
0.12959878 0.039238222 -0.13231198 0.1343139 0.0077444054 -0.10565757 0.14080575 -0.0040221717
-0.08199183 -0.02605171 -0.22088055 0.049810946 -0.06081824 0.01555937 0.04799806 0.010432783
-0.03250846 0.19307427 0.097719185 -0.06017431 0.101384 -0.0655006 -0.054931127 -0.034516696
0.113087535 -0.15110514 0.0013698847 0.08406945 0.0018559581 0.08273234 -0.097942255 -0.017667308
-0.024516258 0.016123284 -0.011266584 0.10570518 -0.10640823 0.037704557 -0.078144856 0.014951379
0.086160615 0.06393556 -0.0068784924 0.05451285 0.14359795 -0.008279404 -0.046838965 -0.035891224
0.111589395 0.08950537 -0.03947799 0.030216696 0.1354258 0.031752434 0.016681012 0.046218958
0.08919533 0.06023196 -0.029432222 0.12321034 -0.11676344 -0.081997365 0.056826167 0.12099952

transformer_encoder.layers.0.norm1.weight f4 [64]
00000000: ffe8 893f 3965 863f 1b80 903f dac1 4d3f
00000010: 7028 913f 7ddf 883f 60cf 783f a3cc 2c3f
00000020: ae9f 753f c016 8b3f 3ebd 8c3f 33e6 823f
00000030: f259 633f d722 783f 76a6 8b3f 1237 a03f
00000040: f900 893f f4ee 503f 1d54 8b3f e636 953f
00000050: 5034 703f 5709 613f 3c65 883f b0f8 7b3f
00000060: 9547 583f 23f5 913f fff6 8d3f 799f 953f
00000070: 83b9 8d3f 82cc 803f aa94 923f e6ca 6d3f
00000080: 9ad5 553f 656f 843f 1ea7 6f3f 42db 913f
00000090: e593 7f3f 03f5 953f 012c 783f 5e23 8c3f
000000a0: f591 8b3f f156 893f cf64 0b3f e404 893f
000000b0: 0e37 603f 1d1f 8f3f 6374 8f3f 2344 7c3f
000000c0: d15f 983f 06bc 9f3f 327f 6e3f 3d3d 953f
000000d0: d7f7 833f 914b 823f 1153 923f 826d 6f3f
000000e0: be7a 953f ae4f 693f e7fc 7e3f 8472 833f
000000f0: db31 983f da26 483f 8954 4f3f 3c97 703f
1.077423 1.0499641 1.1289095 0.8037392 1.1340466 1.0693203 0.9719143 0.6749975
0.95946777 1.0866318 1.0995252 1.0226501 0.8880912 0.9692816 1.0910175 1.2516806
1.0703422 0.81614614 1.0885044 1.1657379 0.9382982 0.87904876 1.0655894 0.9842634
0.84484226 1.1402935 1.1091002 1.1689292 1.1072239 1.0062411 1.1451619 0.92887723
0.83529055 1.0346495 0.93614376 1.1395037 0.99835044 1.1715397 0.96942145 1.0948293
1.0903918 1.0729657 0.54450697 1.0704618 0.87584007 1.118137 1.1207393 0.9854147
1.1904241 1.2479255 0.93162835 1.1659313 1.031001 1.0179311 1.14316 0.9352647
1.1678083 0.91137207 0.9960465 1.0269322 1.1890215 0.7818428 0.80988365 0.93980765

transformer_encoder.layers.0.norm1.bias f4 [64]
00000000: 7b47 83be ef72 943d c400 e83d 9beb a0bd
00000010: 3b9e d03d 29da ec3d 6dd2 9bbe 41cd 2ebe
00000020: 380b 033e f424 403e 7575 bb3e d305 cd3e
00000030: c741 6e3e e01e 853e 787d 54bd 533a 7e3e
00000040: 472f 843e 0061 1f3d a43d 26be c382 023e
00000050: 1ab5 b1bd 641c 613e 39b5 d33d 0390 a93d
00000060: 9acb 68be 3ae4 d03e 1ee3 55bc 3f7d b5be
00000070: 07ef 53bd 7a88 8c3e 81ba dcbd cdf2 09bd
00000080: a047 ec3b a6d8 063e 0e20 883d 23fa 84bd
00000090: 6d58 3bbe ea53 243e 79e5 293d 634b fbbb
000000a0: 0d4b b2bd 7c96 c2be 4086 dbbd 1d37 5dbd
000000b0: 8679 6abe 5710 5b3d 8582 3c3d 7cfa 7dbc
000000c0: 55f5 c2be f250 54be 7d22 423e 9aa4 0a3e
000000d0: ab72 fabd a9bb 0abe 0636 e73c afed 66be
000000e0: 0fba 9abe b7fe 743d 2c46 3bbd 3715 45be
000000f0: a70d 313d d746 7e3d c806 403d 7fa3 07be
-0.25640473 0.07248484 0.11328271 -0.07857438 0.1018643 0.11565048 -0.3043398 -0.17070486
0.12797248 0.18764096 0.3661305 0.40043506 0.2326728 0.26000118 -0.05187747 0.24826936
0.2581732 0.038910866 -0.16234452 0.12745194 -0.086771205 0.21983486 0.103373 0.08279421
-0.22733918 0.40799123 -0.013054637 -0.35447118 -0.051741626 0.27447873 -0.1077776 -0.03367882
0.007210687 0.13168582 0.06646739 -0.06493022 -0.1829545 0.16047636 0.041478608 -0.007668899
-0.08705721 -0.38005435 -0.107189655 -0.05400764 -0.2289792 0.05348238 0.04602291 -0.015501615
-0.38077798 -0.20734003 0.18958469 0.13539353 -0.122289024 -0.13548149 0.028224003 -0.22551607
-0.30220076 0.059813228 -0.045721218 -0.19246374 0.04322591 0.062079277 0.046881467 -0.13245963

transformer_encoder.layers.0.norm2.weight f4 [64]
00000000: 66c3 793f 8db7 903f e26c 933f 9040 883f
00000010: a772 903f 8324 8c3f 6450 6c3f 6853 903f
00000020: 8178 883f f6b4 873f 9d43 8b3f 36e0 853f
00000030: 4bda 953f 53ec 873f ac07 893f b0a7 8d3f
00000040: 0d43 6d3f ccf6 893f e4a7 923f b0b6 883f
00000050: 3e87 8e3f 15f9 903f b57b 8a3f f034 8a3f
00000060: 3adc 823f 82c5 653f 4762 943f f08a 823f
00000070: a124 933f e61f 783f abad 8c3f 83ca 7f3f
00000080: 5ce0 933f 02a1 8e3f 7f2e 9a3f 41f4 893f
00000090: 6753 8a3f 3e57 853f 2652 913f 374f 9b3f
000000a0: f1da 983f be85 433f 2b7e 8f3f d40f 953f
000000b0: d555 923f c2c8 853f c3e0 8f3f 103d 873f
000000c0: 113c 7c3f b553 973f 4372 913f 4bb5 863f
000000d0: eab2 753f a3f0 953f fc27 943f 3f25 8b3f
000000e0: 35c6 843f c900 793f 5fe3 963f 4383 773f
000000f0: 1cc9 993f 983c 7f3f 5ec6 883f 8172 873f
0.9756378 1.1306015 1.1517603 1.0644703 1.1284989 1.0948642 0.92310166 1.1275454
1.0661775 1.06021 1.0880009 1.0459049 1.1707243 1.0618995 1.0705466 1.1066799
0.92680436 1.0778441 1.1457486 1.0680752 1.1135023 1.1326014 1.0819002 1.0797405
1.0223458 0.897545 1.1592492 1.019865 1.1495553 0.96923673 1.0990499 0.99918383
1.1552844 1.1142886 1.204544 1.0777665 1.0806702 1.0417249 1.1353195 1.213355
1.1941816 0.7637595 1.1210378 1.1645455 1.1432444 1.0451891 1.1240467 1.056551
0.98529154 1.182242 1.1362995 1.0524076 0.95976126 1.1714061 1.1574702 1.0870742
1.0372988 0.97266823 1.1788138 0.96684664 1.2014499 0.99701834 1.0685537 1.0581819

transformer_encoder.layers.0.norm2.bias f4 [64]
00000000: 91dd 91bd b0b7 323e 7b72 973c f32f 683d
00000010: e295 5c3c cd8d 21be 8e22 603c 5c2f c53d
00000020: 3497 7cbe 232a b0bd c62c 6c3c 41a3 a8bb
00000030: 2240 3fbb 54bf 59be 35d7 753c 7ae2 bebd
00000040: 140d 053c 02db 3bbe 1056 fcbc 4d26 d03d
00000050: 764b 903d f8f3 143e 40ab 93bd 8cd4 30bd
00000060: 7510 a33d 5924 49be bd44 0e3e 7292 063e
00000070: 1c1c 2e3e 9a48 b0be 71bc 9e3e 0359 6d3d
00000080: 9163 293d 30e3 1dbe 73d4 e6bc f626 91be
00000090: ff6b 063e 5661 15be 0b55 8e3d 2740 2b3e
000000a0: 685e 3abe 01c1 c83e ff90 823d c5a7 313e
000000b0: 7499 f33d d391 48bd 9d6d 66be 38ee 37bd
000000c0: d23d 883e 6d39 4cbe 771c 1b3d e37b 04be
000000d0: 13ef 40bc 8c40 513d 713b e2bd f085 343e
000000e0: 339d 303e ebc2 12be 33bf 633d 5798 203e
000000f0: 652c 883c 4008 40be 257e 04be 4c48 363d
-0.071223386 0.17452884 0.018487206 0.056686353 0.013463469 -0.15776749 0.0136801135 0.09628174
-0.24667054 -0.08601787 0.014414972 -0.0051464145 -0.0029182513 -0.21264392 0.015004923 -0.09320541
0.008120794 -0.18345264 -0.030802757 0.10163555 0.07045643 0.14546192 -0.07210398 -0.04317145
0.07962123 -0.19642772 0.13893409 0.13141802 0.1700291 -0.3443039 0.31003144 0.057946216
0.04135472 -0.15418696 -0.028177476 -0.28350037 0.13127135 -0.14587912 0.069498144 0.16723691
-0.18200076 0.3920975 0.06375312 0.17349155 0.11894503 -0.048967194 -0.22502752 -0.044904917
0.26609665 -0.19943781 0.037868943 -0.12937884 -0.01177575 0.051086947 -0.11046494 0.17629218
0.17247467 -0.14332168 0.055602264 0.15683113 0.016622731 -0.18753147 -0.12938745 0.04450254
