models/tab_transformer_best_ros_state.pth (torch, 326986 bytes, 30 tensors)

feature_embedding.weight f4 [64, 46]
00000000: fa0a cf3d 27f1 883e ff54 473d 3207 e1bd
00000010: a357 e6be 2587 e5be b0d4 e3be e5dc a13c
00000020: 9a63 3ebe 9de6 4a3e f689 42bd 09ba 9bbe
00000030: 8d8d 05bf f51b 003e a791 453d ecb6 273e
00000040: 2f48 59bd 5f88 093e cea3 a33d a9a5 42be
00000050: d369 093f 3f8e c03e ef49 24be f355 403d
00000060: 544e 9a3d 4900 a33c 118d a0be 9bac e6be
00000070: b808 603e 9eb0 4fbd bdf2 303c f3a0 023e
00000080: 0ae5 33bf 8f73 d33d 6357 34bd 2867 113e
00000090: f921 3c3d 5871 e9bd a192 cebb 2a65 683f
000000a0: bab5 7fbf cfb5 fe3e 55ef e6be 7e34 033f
000000b0: cba5 d03e 6f38 90be 5c3e 90bd 56d2 b93d
000000c0: fbfd 24be 3f29 2cbe a673 03bf 8578 10bc
000000d0: ef46 213e 4d0e 003e bd5b 513f aecc 4cbe
000000e0: baa2 19bd 6475 333d 2104 b93e 5819 3f3d
000000f0: e4a2 bc3b 6f2c 2d3e 6d2c 08be f82e 32bd
00000100: 1378 e33d 4c3c f63d 816c 09bf b3f3 9bbd
00000110: 5d2b 47bd d381 103f e36c 21be 53a4 013f
00000120: 1707 04bd 7977 733b 424b a23e 939d 58be
00000130: 8d5e 98be a2f0 6f3f d4ce 7dbe 5245 d2be
00000140: 35cd aebe b2a5 c43e a98d 05bf a5f3 d23c
00000150: d387 4cbe 805c 0fbf 1e97 0dbf 999c 9ebe
00000160: 7588 d93e 2e54 933e 6774 5f3f d5d7 793e
00000170: 4321 0d3d fe18 d43c 7857 f0bd f104 273e
00000180: b01f 45be aa64 b13e a27f 91bd c42d 47be
00000190: 8682 993e 91fb eabc b28c 0b3e 236a efbe
000001a0: 1835 55bf 50ba 00bf 266a 13bc 9f46 f9bc
000001b0: c68b 3c3b 9263 8fbc e009 0e3e b1ed 7abd
000001c0: 1015 0f3f 3586 803e d3bc 6bbe 6f35 0abe
000001d0: 43f9 7e3c 35ff b1bd b571 d8bc 87fb 213c
000001e0: 850f 853d 6e6b fbbd d71a 81bd de1a c93e
000001f0: 4b7b e83e 79f1 33be 1796 923e 5c0c 6c3d
00000200: 5dd1 2abe f415 cebe ba90 533f 5892 aa3e
00000210: 9cec 4f3f eca1 7e3e be8e 9b3e af36 b5be
00000220: 496e cf3d 7c02 323f b17b 113d 7bff 71be
00000230: fedb a33d 5e39 2f3e e772 4e3e cf68 28be
00000240: 4a3b ae3d 4af0 a33e 09b2 49be 0f24 70be
00000250: 8e3b d8bc a395 9ebd b5cb d93e 20f1 d23d
00000260: 25a1 993d 337c 853e 1bb2 38bd 56bf afbc
00000270: 9fe0 313e e196 a73d b55b 033f fa3d e6bd
00000280: 8db9 e9bb 13c2 31be 3848 eabd 4131 283d
00000290: 95ec e5be 5169 f5be a088 193f 7706 43bd
000002a0: e953 edbc 6633 d0be 458d 2b3e 87d4 05be
000002b0: dc3a febd 6a18 8dbe 8f93 74bf 819b 1b3f
000002c0: d2ec 873e fa8e 803e 7d99 40bf 1dea e7be
000002d0: dc88 14be b2f2 a7bd b3ac c5be dfbb c0be
000002e0: 609a 52bd f2bf 67be 28ea 45bd b0c7 84bd
000002f0: 8ea0 18bd 860e 15bf 4a6f f13d 05d6 f23e
00000300: 98c1 95be 6403 c2bd 7796 913e 92e0 7ebd
00000310: d083 aebd addb 983e 4a18 953d 43f6 83be
00000320: ac1b 03be 97d2 6c3e c3e0 39bc a34d 0c3f
00000330: 427e 35be de0b 053f fe56 d23d cb84 27be
00000340: d60a 643e 4f00 1bbe 1ad0 29be 757e 303e
00000350: cc85 bebe bf6d 853e 832b c5bd 5f9b 5b3d
00000360: 772f 353e 4a21 15be dd57 f3bd c18e 65be
00000370: d577 743e 8fd1 a2be 6ccf 493f f153 6cbe
00000380: 6ed5 373e 6328 783f 9fd8 f53e 6f22 98bd
00000390: 000e a4be cc90 19bf d847 ab3d 28df 0e3e
000003a0: 7348 5f3c 3bb8 56bd 623e 0cbe 6e53 e83a
000003b0: fec7 133e 6983 013e 8372 9e3e 3603 b8be
000003c0: 0353 f2be 48e4 473b 7e83 9ebe 30ca dfbe
000003d0: 9c51 a53d 35cc 5c3d abee b1bd 3a40 df3d
000003e0: 916a 8cbe 1760 9abc 0ed9 debe a909 183f
000003f0: f184 a0be 94b0 49be 0355 adbd 52a0 fc3e
0.101095155 0.26746485 0.048665043 -0.109877005 -0.44988737 -0.4482967 -0.44498205 0.019758651
-0.18592682 0.19814534 -0.04749485 -0.3041537 -0.52169114 0.12510665 0.048234608 0.16378373
-0.053047355 0.13430928 0.07990228 -0.19008507 0.536771 0.37608525 -0.16043828 0.046956968
0.07534471 0.019897597 -0.31357625 -0.45053563 0.21878326 -0.050705545 0.010800061 0.1275671
-0.7027136 0.103247754 -0.04402865 0.14199507 0.045930836 -0.11398572 -0.0063041006 0.90779364
-0.9988667 0.49748084 -0.4510447 0.5125197 0.4075149 -0.28168055 -0.07043144 0.090733215
-0.16112511 -0.16812609 -0.5134834 -0.008817797 0.15749715 0.12505455 0.81780607 -0.19999954
-0.037508704 0.043813124 0.36135963 0.04665503 0.0057567228 0.16911481 -0.13298197 -0.043501824
0.11106887 0.120232195 -0.5368119 -0.07614841 -0.04862534 0.56448096 -0.15764193 0.50641364
-0.032233324 0.0037150069 0.31698042 -0.2115386 -0.29759637 0.9372655 -0.2478593 -0.41068512
-0.34140936 0.38407665 -0.5216928 0.025750944 -0.19973688 -0.5600052 -0.5530871 -0.3097885
0.4248692 0.28775162 0.8728699 0.2439874 0.03445555 0.025890823 -0.11735433 0.16310479
-0.19250369 0.34647113 -0.07104422 -0.19451052 0.29982394 -0.02868441 0.1362789 -0.46760663
-0.8328414 -0.5028429 -0.008997476 -0.030429183 0.0028769835 -0.017503534 0.13870955 -0.061261836
0.55891514 0.25102392 -0.2302125 -0.13496946 0.015562358 -0.08691255 -0.026421407 0.009886629
0.06497101 -0.1227635 -0.063039474 0.3927831 0.45406565 -0.17572583 0.28630134 0.057628974
-0.16681428 -0.40251124 0.8264271 0.33314776 0.8122041 0.24866456 0.3038234 -0.35393283
0.10128457 0.6953504 0.035518352 -0.23632614 0.080009446 0.17111728 0.2016102 -0.16446231
0.08507402 0.32019264 -0.19696821 -0.23451255 -0.026395585 -0.07743385 0.4253823 0.10299897
0.07501439 0.2607132 -0.04509173 -0.02145354 0.17370842 0.08183075 0.5131181 -0.1124229
-0.007132715 -0.1735919 -0.11439556 0.041062597 -0.4490706 -0.47931913 0.599741 -0.047613587
-0.028970676 -0.40664214 0.16753109 -0.13069354 -0.1241357 -0.2755769 -0.95537657 0.60784155
0.26547867 0.25109082 -0.75234205 -0.45295802 -0.14505333 -0.08200587 -0.38608322 -0.37643334
-0.051416755 -0.22631815 -0.048319012 -0.064834 -0.037262492 -0.58225286 0.11788805 0.4742891
-0.29249263 -0.09473303 0.28435108 -0.062225886 -0.08521235 0.298551 0.072800234 -0.2577382
-0.12803525 0.23127209 -0.011345091 0.54805964 -0.17723945 0.5197123 0.10270499 -0.1635925
0.22269759 -0.15136836 -0.1658329 0.1723574 -0.37211454 0.26060292 -0.0962744 0.05361497
0.17693888 -0.1456348 -0.11881993 -0.22417738 0.23873837 -0.31800506 0.78832126 -0.23078896
0.1795251 0.96936625 0.4801683 -0.07428443 -0.3204193 -0.5998657 0.083633125 0.13952315
0.013628113 -0.05242179 -0.13695672 0.0017725059 0.1443176 0.12647785 0.3094674 -0.3593995
-0.47328958 0.0030501056 -0.30959696 -0.43708944 0.080722064 0.053905685 -0.086881004 0.10900922
-0.27425054 -0.018844647 -0.43524975 0.5938974 -0.31351426 -0.19696265 -0.0846348 0.49341065

feature_embedding.bias f4 [64]
00000000: 8010 93bd 6f41 7fbd bd41 533f dc1b 52bf
00000010: 51f0 e5bd b4cd c4be 2f37 46be b9e9 853d
00000020: b9ea 02be e360 51be 3886 053f 0b83 5fbe
00000030: 842f 023e 694c b63c 2b6b 073e 7c90 f9be
00000040: 424a 073d f2db 803e 86a8 0d3e 7362 2d3e
00000050: 02fb 51be 74bf 35be 0e5b 6d3e 7dd5 183f
00000060: 9140 6dbd 8a4a ef3e e186 033f dda8 ad3c
00000070: 6288 933e 6b93 80be 842e 203e 6ce4 2dbe
00000080: 5a4d fe3e 1d0c ab3e f022 6fbe 2b14 89be
00000090: 1108 463e 1c5a 373f 2984 ddbe 9410 17bf
000000a0: e9c7 183f b179 d63e bffd 983e 4e02 7b3d
000000b0: 4350 823d 16bc e0be 2397 72bf 3c41 e03e
000000c0: b6cb 57bb f32f 66be 2931 433f cd03 36bf
000000d0: af2f 133f 9a6e bb3d e0d5 a6be a5cf 40bf
000000e0: 610b 5a3e 71b5 5ebd 9ce5 313e 3cb3 a83e
000000f0: 028b e03d 49ee 843e d54b bfbe 3cf3 96be
-0.071808815 -0.06231826 0.82522184 -0.8207376 -0.11227477 -0.3843819 -0.19356988 0.0653872
-0.12784852 -0.20447116 0.52157927 -0.21827333 0.12713438 0.022253232 0.13224475 -0.48743045
0.033029802 0.25167805 0.13833818 0.16932087 -0.20505908 -0.17748815 0.23179266 0.5970076
-0.057922903 0.46736556 0.51377684 0.021198684 0.2881499 -0.2511247 0.15642744 -0.16981667
0.4966839 0.3340768 -0.23353171 -0.267732 0.19339015 0.7162187 -0.43264893 -0.5900967
0.5968004 0.41889718 0.29881093 0.061281495 0.06362965 -0.43893498 -0.94761866 0.4379977
-0.0032927818 -0.22479229 0.7624689 -0.7109955 0.57494634 0.09151955 -0.3258505 -0.7531684
0.21293403 -0.054372255 0.17372745 0.32949245 0.10964014 0.25963047 -0.37362543 -0.29482448

transformer_encoder.layers.0.self_attn.in_proj_weight f4 [192, 64]
00000000: 1ef6 c0bd 1ced 3cbe e35f 643e b0df eebd
00000010: ba66 81be c56c 35be 6fd3 ad3e 567a a33d
00000020: b0c1 3ebc e1ba e13e 08d6 a9bd e7f6 443b
00000030: 23cf 303e 8f8b ddbe 187c 423e 99b4 813b
00000040: 4124 5abe 1c5d fb3d dee7 f0bd 9536 26be
00000050: 7b97 99be ab5c 5bbe d9c9 adbe ccfa 8d3b
00000060: cd21 563e 3379 823e e976 53be 2bb9 3e3d
00000070: 4770 35be 41bd dbbb 7c59 a5be 7fe3 e7be
00000080: cb5e 023e c1f4 69be 512b d83d 5b8c a23d
00000090: 63c2 2d3d eedc 8cbd 15e9 003c 7f20 5abc
000000a0: 1f9b 353e 6887 993a bc1c e03d c435 68be
000000b0: 2c43 953e c4d8 5ebd c508 7cbe 0495 58bd
000000c0: f7ed 13be 74c2 00be f988 863e a246 8cbd
000000d0: a2bb a13d 0651 9b3e 9105 0dbe 9f90 913d
000000e0: 9864 f73e 5958 a93e f4d6 e73a ad5f 053e
000000f0: 2166 94be 0b90 93be 8eb6 13be 9796 3abd
00000100: 5fb2 8ebe b6c0 67bd 4e14 a63e 0f2d 14be
00000110: c731 82be 2370 2abb 97fb 803e d37e 8c3e
00000120: a739 9fbe c443 643e c5bb 8dbe 5f84 ca3c
00000130: 74a5 033e d5b6 1fbe b2d4 b7bd 9f5c 64bd
00000140: 7aef 093d 8b2d 393e bf53 80bd be9e 6cbd
00000150: c48a d8be 11f9 9cbe e18c f4be ee69 8abe
00000160: baba a53e c773 a23e 3dbe 9dbe 1b35 10bb
00000170: 6775 ae3e 45f6 0b3e faa3 c9be 87ca 02bf
00000180: c953 bb3e a075 2abe 0f74 7f3e 9806 ecbb
00000190: 44f3 8e3e f057 a4be 5634 50be 7c51 d73b
000001a0: 74b7 3a3d a642 263e 32b3 a53e fb2e 7bbe
000001b0: 73d0 df3e 7b8a 9abe 6e12 86be 2c89 c3bd
000001c0: 5441 1a3d 93f1 54be 5174 913e b242 3f3d
000001d0: d013 893e a313 d13e 8c6a a0bd 0adf b8bc
000001e0: d0a2 993e 5cbf 1a3e 036c a1be 441e d83d
000001f0: dde1 aabc 9ba7 38bc e044 283b 658f b8be
00000200: 35a8 35bc f028 a53c da74 a33c 6c4e 2d3e
00000210: 262d 9f3e 7fa5 fcbb 5fd6 71be 509e 2fbe
00000220: e04d 83bd 173d 71be da81 bb3d 8f64 a7be
00000230: ffdb 1fbe 3774 973e f344 98be 205d 403d
00000240: 521d 423e 5605 83be 847a 95bd 882d 06bd
00000250: 49d0 303e bfdf 2abc ad29 47be 62cc 35be
00000260: b1a9 b0bc 40c6 363d 54fd 2c3e 402d aa3d
00000270: 938a b93e 38c3 e83d fcbb 9e3c 32ae f03d
00000280: c8e2 67bd 85d2 eabd 6749 bd3d 2ad4 77bd
00000290: 8b32 fcbd b806 d2bc c957 4cbd 5e7f dbbc
000002a0: 95fc c0bd 0ca9 0fbe d8ba be3e eeee ee3b
000002b0: e476 e43d 575b 9bbd 0dad eb3d 7afc 043e
000002c0: 239e 6b3e 1c3f 20be 3068 7abe 79d7 363e
000002d0: a587 edbd 6c6c 50bd 82f5 b6bc 6154 db3d
000002e0: e295 bfbd 94d5 3c3d df16 45bb 456b 59be
000002f0: 90c8 873e 2324 833e af67 6f3c c638 cfbe
00000300: 5bed 17bf a39d 6ebc 26c0 f03e b392 dabe
00000310: c09f 39bf c8f0 cbbd a118 993e cab6 c73e
00000320: e7d5 afbe 930a 243f 27ca 24bf a33a 70be
00000330: 162b 133f 9523 f7be f3ee 40be 341a d2be
00000340: e712 55bd 210f 403e e0bb bebe f655 cdbe
00000350: 3c76 60bf fd73 15bf bfa4 50bf 58a9 0ebf
00000360: 3417 403f 91e1 363f 357f d6be 82dc d0bd
00000370: c226 373f 564c 643e 61c5 2ebf 498c 4fbf
00000380: a32d fe3e 0fa6 94be 8bff 173f 86b3 7abe
00000390: 28b3 223e 5cf6 06bf 4792 a7be 0189 02bd
000003a0: 7d76 613e ba78 5a3e bdfa c13e c31e aabe
000003b0: f72a 0b3f 4466 babe 840c f0be 291d 733d
000003c0: 1003 05be a537 21be 9304 533e 2105 7d3d
000003d0: 77b6 e13e 5948 123f e183 02bf 5886 733d
000003e0: c79f 283f 86c6 f63e 99b2 3dbf 031c 993e
000003f0: 268e be3c 7b22 ebbe 24b7 1dbe be16 b5be
-0.09421943 -0.18449825 0.22302203 -0.11663759 -0.25273687 -0.17717274 0.33950374 0.07982318
-0.011642858 0.4408789 -0.08292776 0.0030054392 0.17266516 -0.43270537 0.1899265 0.0039582965
-0.21302892 0.122736186 -0.11762975 -0.16231759 -0.29998383 -0.21422069 -0.3394306 0.004332876
0.20911331 0.25483093 -0.2065083 0.04656331 -0.17718612 -0.0067059104 -0.32294834 -0.45290753
0.12731473 -0.22847272 0.10555137 0.07936927 0.04242171 -0.068780765 0.007868071 -0.013313412
0.17734955 0.0011713328 0.10942981 -0.2267676 0.2915281 -0.054405943 -0.2461272 -0.052876487
-0.14446245 -0.12574178 0.26276377 -0.0684941 0.07897116 0.30335253 -0.13771655 0.071076624
0.48318934 0.33075216 0.0017687962 0.13024779 -0.28984168 -0.28820834 -0.14425108 -0.04555377
-0.2787046 -0.056580268 0.32437366 -0.14470313 -0.25428602 -0.002600678 0.25191948 0.2744051
-0.31098673 0.22291476 -0.2768232 0.024721323 0.12856084 -0.15597089 -0.08976115 -0.055752393
0.03367565 0.1808378 -0.06265973 -0.057768576 -0.4229337 -0.30658773 -0.47763732 -0.27033943
0.32369024 0.31728956 -0.30809203 -0.002200431 0.34073946 0.13668163 -0.39382917 -0.5109028
0.3658736 -0.16646433 0.24946617 -0.0072029345 0.27919972 -0.3209834 -0.20332465 0.006570993
0.04558511 0.16236362 0.32363278 -0.2452964 0.43713722 -0.30183777 -0.26185936 -0.09547648
0.037659958 -0.20795278 0.28409055 0.046694465 0.26772928 0.40835294 -0.07832822 -0.02256729
0.3000703 0.1511206 -0.3152772 0.10552648 -0.020859653 -0.011270429 0.0025675818 -0.360469
-0.011087467 0.020161122 0.01995318 0.16924447 0.31089133 -0.0077101584 -0.23616932 -0.17150235
-0.06411338 -0.2355846 0.091556266 -0.32693908 -0.15611266 0.29580852 -0.29740104 0.04696381
0.18956497 -0.25590008 -0.072987586 -0.032758266 0.17266954 -0.010429322 -0.19449492 -0.17753747
-0.02156529 0.04462266 0.16893512 0.08309412 0.36238536 0.1136536 0.019376747 0.11751975
-0.05661276 -0.11465935 0.09242516 -0.06050507 -0.12314328 -0.02563797 -0.049888406 -0.026794132
-0.09423176 -0.1402933 0.37251925 0.007291666 0.11155489 -0.07585781 0.11507616 0.12986937
0.23009543 -0.15649074 -0.24453807 0.17855634 -0.11598138 -0.05088465 -0.022333864 0.107094534
-0.0935476 0.04610212 -0.0030073447 -0.21232326 0.26520205 0.25613508 0.014612122 -0.40473002
-0.5934655 -0.014563951 0.47021598 -0.42690048 -0.72509384 -0.09958035 0.29901603 0.39006644
-0.34342882 0.64078635 -0.6437096 -0.23459868 0.5748762 -0.48269334 -0.18841152 -0.41035616
-0.05201998 0.18755771 -0.37252712 -0.40104645 -0.8768041 -0.5838011 -0.8150138 -0.5572715
0.75035405 0.7143794 -0.41893926 -0.101983085 0.71543515 0.22294745 -0.68269926 -0.81073433
0.49644193 -0.29032943 0.593743 -0.24482545 0.15888655 -0.52719665 -0.32728788 -0.03186894
0.22017856 0.21335116 0.3788661 -0.33226594 0.54362434 -0.36406147 -0.4688455 0.05935398
-0.1298945 -0.15743883 0.20607214 0.06177247 0.44084522 0.57141644 -0.5098248 0.059454292
0.658688 0.48198336 -0.74100643 0.29904184 0.023261141 -0.45924744 -0.15401894 -0.35368913

transformer_encoder.layers.0.self_attn.in_proj_bias f4 [192]
00000000: f123 843e 252f f93c f951 b2be ee9d a03e
00000010: d124 10be 33a5 ed3e 8cd8 743e a75a ebbd
00000020: a61a 93bc c162 803e 709f 93be e640 a83c
00000030: e475 1bbe 79fa 1b3e 4740 fb3c 08b3 b83e
00000040: a209 20be cb7f b53e be12 11bf b6c8 d6bd
00000050: 0b2c 49be be7c 8d3d ebce 163f ab14 aebd
00000060: 1486 d2be 521a 89be a498 c23e a8b7 1a3e
00000070: 7602 7fbd affe 9e3e 87bd 943d f3fb e13e
00000080: 27e7 ca3d 6ad8 813e bd2b a9be 3b7a d3bd
00000090: e115 01bf 1ac3 423e b7e1 8a3e 16be 2bbe
000000a0: d5ea 213e 0ae7 5e3e 32ec 0a3e f276 263e
000000b0: 0b67 aabd b068 ee3e 38e8 883d d07e 933d
000000c0: 99a5 a13c d747 98bd 2d16 973b cc5a 2a3e
000000d0: bfe8 963d 3e2a c3bd 8279 f1bc 7cef 07bf
000000e0: 7dbd 04bd 07f7 a8bd 515b 4abd 77a0 1fbc
000000f0: 0087 d23d 056d 873e 8360 c13c 5c13 aabe
00000100: e1c7 8abe fc51 e2bd 42f1 853e 99bc 93be
00000110: aa11 333e 726b f8be 8a7a 8abe 00ae 593e
00000120: 515e a23c 7d44 8ebe 00ea 803e aed3 05bc
00000130: 22c2 1d3e c131 54be aa97 adbd b2b4 cfbe
00000140: c24d e13d c895 8dbe 519d 0d3f 6598 4f3b
00000150: e595 6f3e ba95 b1bd 7895 04bf 2788 fd3d
00000160: c46c b33e 8c8d 413e 29b4 d5be 1ce1 3dbe
00000170: 8031 ca3d ed88 a2be 612b 22be 47ef e6be
00000180: 28e9 1bbe e7a8 60be 46f0 a43e b28a 203e
00000190: 9743 103f 3dab 31be ece9 60be dcec 3f3e
000001a0: ab17 83be e13e 44be 4e02 35be 96fe 0dbe
000001b0: cfbb 1e3e 3be3 b9be 5cc7 a3bd 1200 59bd
000001c0: 76fa 6bbc dca0 613b 5f09 043d 1395 dfbd
000001d0: 7a84 66bc 6a31 1d3e 4562 873d 664a 123f
000001e0: 70a6 9b3d c444 0f3e a8da 483d 26e2 203d
000001f0: f9fe 24be cda5 80be 5db8 c3bc ef95 c43e
00000200: 67db 133e 7020 d63c 9561 a63e b525 7d3c
00000210: 3d38 f33c 2e51 aa3e 8272 91bd 9e7a d93e
00000220: e8b9 61bd 0212 22be bc6b 43be 1369 10bd
00000230: 552b 893e 9155 20be d78a 7c3d c31f 9d3e
00000240: 7d67 58bd 4190 d0b8 f9d0 d1bd 93cf 913e
00000250: a7af e23e f3b6 253e f056 a7be 6726 163e
00000260: 01d2 5b3d 1208 a13e 8c3d 323e 8359 363d
00000270: 4800 913e 5c82 07be b31d 243d 8912 743e
00000280: ec15 13be 9548 2a3d cf39 99be 4277 08be
00000290: 5bd9 db3b 03c5 813c cff0 aebe 1703 a2bd
000002a0: ca84 593e 5b96 4b3e e892 df3d cba6 d73e
000002b0: afbc cfbe 87f6 c83e f208 e1bd 63b4 f03d
000002c0: 03f3 65be 3953 8bbe c8b5 0a3e 2a8f b63e
000002d0: 22cf 9e3e 4d61 c8bd 9579 3e3e 7bc3 92bd
000002e0: 0db6 edbd 621a f13d 538f 5d3c 42de 323f
000002f0: 64f5 8abc 5dc3 acbe 6bce ffbd 5dc2 083e
0.2580867 0.030417988 -0.34828165 0.3137049 -0.14076544 0.464151 0.23910731 -0.114919
-0.017957043 0.25075343 -0.2883258 0.020538758 -0.1518169 0.15232266 0.030670298 0.3607409
-0.15628675 0.3544906 -0.56669223 -0.10487501 -0.19645707 0.06908558 0.5890948 -0.08500036
-0.41117918 -0.26777893 0.3800708 0.15109122 -0.062258206 0.31053683 0.07262712 0.44137534
0.0990737 0.25360423 -0.33041182 -0.10326048 -0.5042401 0.19019738 0.27125332 -0.16771731
0.15812238 0.21767822 0.13566664 0.16256312 -0.08320435 0.46564245 0.06684917 0.07201922
0.019732283 -0.07435577 0.004610798 0.16636199 0.073686115 -0.095295414 -0.029476885 -0.530998
-0.032407273 -0.08250242 -0.049403492 -0.009742848 0.102796555 0.26450363 0.02360559 -0.33217895
-0.2710562 -0.110507935 0.26160628 -0.28854826 0.17487207 -0.48519474 -0.27046615 0.21257782
0.019820364 -0.27786627 0.25178528 -0.008168144 0.15406087 -0.20722105 -0.08476193 -0.40567547
0.11001159 -0.27653337 0.5531817 0.0031676528 0.23397024 -0.08671136 -0.5179057 0.123794846
0.3504392 0.18901652 -0.41739014 -0.18542904 0.098727226 -0.3174509 -0.1583686 -0.4510443
-0.15225661 -0.21939431 0.32214564 0.15677908 0.56353134 -0.17350478 -0.21964234 0.18742698
-0.25603995 -0.19164611 -0.1767666 -0.13866648 0.15501331 -0.36306176 -0.07997009 -0.052978583
-0.014402976 0.0034428155 0.0322355 -0.109171055 -0.014069671 0.15350881 0.0661054 0.57144773
0.07600105 0.13991076 0.04903665 0.039278172 -0.1611289 -0.25126496 -0.023891622 0.3839564
0.14439164 0.026138514 0.32496324 0.015450885 0.029689902 0.3326506 -0.07101919 0.42476362
-0.055108935 -0.15827182 -0.19084066 -0.035256457 0.26790872 -0.15657641 0.061655845 0.30688295
-0.05283307 -9.945082e-05 -0.102449365 0.2847868 0.44274637 0.16183071 -0.32683516 0.14663087
0.053667072 0.3145147 0.17406291 0.04451896 0.28320527 -0.13233322 0.040067386 0.23835196
-0.14363831 0.041573126 -0.29926917 -0.13326743 0.0067092604 0.015841013 -0.34168097 -0.079107456
0.21242061 0.19881575 0.10916692 0.4211944 -0.40573642 0.39250585 -0.10988034 0.11753156
-0.22455983 -0.2721193 0.13545907 0.356561 0.31017405 -0.09784184 0.18601067 -0.07166191
-0.11606989 0.1177261 0.013522941 0.6987039 -0.016962714 -0.337428 -0.12490543 0.13355394

transformer_encoder.layers.0.self_attn.out_proj.weight f4 [64, 64]
00000000: 73cd 57bd 7b12 533c cc1c 3d3b e19a 313c
00000010: 87eb ffbb 8da7 33bb a91c 6239 d80a 1cbc
00000020: 4b72 1a3b 278d 28bc 74f7 c53c 3170 243d
00000030: 19e8 4e3c 22ce ed3c 8eca 863c d8c3 2139
00000040: 255b 9a3b a3ab 61bb 876b 60bc 6938 4a3b
00000050: 4cec f63b c833 963c 93a6 7a3c 5509 c9bc
00000060: 9b6d cabb 8c2d c2bb dfde 07bc 8d27 75bc
00000070: a054 ce3a c25f bf3b 065b 76bc 6633 4fbb
00000080: c10d 993c 9bf7 4a3c 58e6 66bb edc4 32bc
00000090: 4392 213c dac7 ad3c 18f6 913c 003a e33c
000000a0: a8f4 7e3c 9601 ceba 5017 8d3b 67c5 833a
000000b0: 28e8 423d 1bc3 c13c 517c 32bc 20e9 253c
000000c0: 985e 82bc a158 be3a 5f5a 0bbc 36ca febb
000000d0: 7b1a 623c ce9e 313b 510b 6cbc b2d9 783c
000000e0: a448 583c 371f bb3c 8d02 e23b b6aa 6d3c
000000f0: 05f9 443c b477 81bb a0ff 873c daa2 42bc
00000100: e26e 813c e6fb b4bc c80e 1bbb c149 e2bb
00000110: 41b6 423c 1572 aebc fdc6 953c babb e1bb
00000120: 0aec 223c bcf4 f93a 25bb e63a ae9e cfbc
00000130: df4c a73c be01 ad3b d4f8 053b f5da 733c
00000140: 5e08 a8bc 6429 21bc ef7b 843b 5f7c 0abc
00000150: 2f6b f8bc 0ef7 193b 42ff cb3a 5a7e f1bc
00000160: cb48 2cbc 1fd0 e63b e44a 0dbd 8e69 993c
00000170: 7bfa 8dbc 11e2 94bc 1f36 283c 0252 0bbd
00000180: 52fe 11bd 2992 943c 1d26 bc3b 1d0f 873c
00000190: 60d4 59bc 4744 8e3b 1f1e 6f3a bc54 1e3d
000001a0: 1b9c d03c 4cb9 ef3a 550d 21bc b5e1 713c
000001b0: 58b3 02bd e3b4 3d3c 1eed d4bc ffc4 2bbc
000001c0: f732 393c 3e53 e13c 2dfd 163c b241 04bc
000001d0: fac8 cf3c d134 7c3c b58e 5a3c 5edc 873b
000001e0: a2de 38bb d4de f6bb f948 113b 6328 da3b
000001f0: eab8 a8bb 5861 813c 6214 093b 6d1c 1cbc
00000200: b7de 24bb c12c 373c 4fe0 8b3a c481 71bb
00000210: 63b4 acbb 9672 113b 315d 533c cc86 7e3c
00000220: de08 0dbc e1f6 18bc a670 75bb 06ef 223c
00000230: d9bd abbc e669 24ba ae06 dfbb 21ad 29bc
00000240: db38 91bb 3101 f4bb 6d90 323c d528 5fbc
00000250: b960 20bd 4005 89bc 145c c0ba 263a f73c
00000260: 4e1a cf3b d321 16bd 27ab 583c 819d efbc
00000270: 528b d239 f862 23bc 47a6 5f3c 80c4 82ba
00000280: 91ff ac3c 5090 3abc bf12 a23c fb92 0abc
00000290: fc1a b23c f349 7abb e3e9 623c cedf a73b
000002a0: 423e 95bb fe4e d1bb 55a5 8fbc 3114 a9ba
000002b0: a990 1e3c 0429 92ba 20c2 66bc 619a 39bc
000002c0: 87b2 bbba c4bc b93b 995d cabc d0c3 51bc
000002d0: ad1a 84bc b51d fd3b 6480 2bbc 2224 b23a
000002e0: 6067 a3bb 3fe2 0b3c 67af 2ebc 4527 0b3c
000002f0: 0c10 aa3c f59b 973b ce82 2abc 6b65 4a3a
00000300: 3a88 773c d19e a83b 8ddf e1bc 5a01 dd3b
00000310: 795c c63c ef40 56bc 8e79 413c ca9e 41bc
00000320: eb26 073d 784c 59ba 149a 853b fa96 eabc
00000330: 9335 13bc cc67 92bb cf87 d0bc 23d3 2a3c
00000340: 723a 94bc c612 ddba 754c 8f3c 8111 4cbb
00000350: 7707 f5bc 17f2 aabc 2199 703c 574a ca3b
00000360: 25fb 5dbc f1cc bdbc 2606 b53a 403e 86bc
00000370: 6ba1 93bb 6708 87bc 565d e93c 2f97 65bb
00000380: 4e7e db3c 6c4b 3b3c 401b 77bb 840c 9f3c
00000390: b033 cb3c 7d19 14bc 5f41 c43c da17 513c
000003a0: 2f0e 2a3a a119 30bd 8bc3 c6bb b923 2ebc
000003b0: 28f3 b23c be7c 07bd 6263 89bc 6fee 87bc
000003c0: 8f1c 2cbb e276 b23a f4b0 43bc f863 3b39
000003d0: 6c34 69bc b820 9c3c cc94 3cbd 7643 b13b
000003e0: b92d 0e3d cdbf fe3b 00dc 43bc 61dc d3bc
000003f0: 5756 adbb b7f0 903c 8686 2c3c fe20 033c
-0.052686166 0.012882824 0.0028856276 0.010840149 -0.0078100595 -0.00274131 0.00021563716 -0.00952407
0.002356666 -0.01028756 0.024165846 0.040146057 0.012628579 0.029028956 0.016454007 0.00015427114
0.0047105723 -0.003443458 -0.0136975115 0.0030856377 0.007535493 0.018335238 0.015298503 -0.024540583
-0.006177617 -0.0059258398 -0.008292883 -0.014963043 0.0015741773 0.0058402726 -0.01503635 -0.003161633
0.018683316 0.012388135 -0.003523251 -0.010911209 0.009861532 0.02121346 0.017817542 0.027737617
0.01556126 -0.0015717025 0.0043057576 0.0010053337 0.047584683 0.023652604 -0.010893897 0.010126382
-0.015914246 0.0014522263 -0.008505433 -0.0077755703 0.013800259 0.0027102712 -0.014406995 0.015188621
0.013200913 0.022842033 0.0068972767 0.014506033 0.0120222615 -0.0039510373 0.016601384 -0.011879647
0.015799943 -0.02209277 -0.0023659933 -0.006905765 0.011884273 -0.021294633 0.018283362 -0.006888834
0.009943971 0.0019070129 0.0017603381 -0.025344219 0.020422397 0.0052797487 0.0020442503 0.014883746
-0.020511802 -0.009836528 0.0040430943 -0.008452504 -0.030324547 0.0023493203 0.0015563744 -0.029479194
-0.010515402 0.007043853 -0.03449525 0.01872709 -0.017331352 -0.018174203 0.01026681 -0.034013756
-0.03564293 0.0181361 0.005741848 0.016486699 -0.013295263 0.0043416354 0.0009121615 0.038655028
0.025465062 0.0018289476 -0.009829839 0.014763285 -0.031909317 0.011578771 -0.025991973 -0.010483979
0.011303655 0.027505513 0.009215635 -0.008072304 0.025364388 0.015393452 0.013339688 0.004146143
-0.0028208871 -0.0075338874 0.002216874 0.0066576465 -0.0051489966 0.015793487 0.002091669 -0.009528262
-0.0025157162 0.011180104 0.0010671708 -0.0036851028 -0.005270527 0.0022193543 0.0129006365 0.015535068
-0.008608071 -0.009336204 -0.0037451177 0.009944683 -0.02096455 -0.00062718836 -0.006806216 -0.010356219
-0.0044318265 -0.007446431 0.010898692 -0.013620575 -0.039154742 -0.016726136 -0.0014675879 0.030179095
0.0063202744 -0.03665335 0.0132244 -0.029249908 0.00040158123 -0.009972326 0.013650483 -0.0009976774
0.021117957 -0.011386946 0.01978433 -0.008457894 0.021741383 -0.003819105 0.013849708 0.005123115
-0.004554541 -0.0063875904 -0.017534891 -0.0012899694 0.009678044 -0.001115114 -0.014084369 -0.011328311
-0.0014320173 0.0056682546 -0.024702834 -0.012803033 -0.016126001 0.0077244886 -0.010467622 0.0013591091
-0.0049866885 0.008537828 -0.010661936 0.008493249 0.020759605 0.004626746 -0.010407163 0.0007720801
0.015108163 0.0051458855 -0.027572418 0.006744546 0.024214016 -0.013077005 0.011808766 -0.011817643
0.0329961 -0.0008289288 0.0040772054 -0.028636444 -0.008984941 -0.00446794 -0.025455384 0.0104263155
-0.018094275 -0.0016866557 0.017492512 -0.0031138363 -0.029910786 -0.02086739 0.014684946 0.006173413
-0.013548647 -0.023169013 0.0013811036 -0.016387105 -0.0045053265 -0.016483499 0.028486889 -0.003503274
0.026793625 0.011431556 -0.0037705451 0.019415148 0.02480492 -0.00903928 0.023956953 0.012762034
0.0006487099 -0.04299319 -0.006065791 -0.010628634 0.021844462 -0.033077948 -0.016771022 -0.016593186
-0.002626214 0.0013615752 -0.011944044 0.00017870951 -0.01423369 0.01905857 -0.04604034 0.0054096533
0.034711573 0.0077743293 -0.011954308 -0.02586192 -0.0052898335 0.017692907 0.01053012 0.008003471

transformer_encoder.layers.0.self_attn.out_proj.bias f4 [64]
00000000: f176 7fbc 2539 6dbb cc0e 153c 5eeb 3dbc
00000010: 11dd 12bd 4ea8 ebbb 2ea4 373c 9040 94bc
00000020: a58b a3bc 8c06 8fbb ae18 763b 0386 4cba
00000030: 50d7 a63c 9d39 11bc 5f5e 0b3d 59fd aab9
00000040: 61b4 e9bc 2fdd 213c fc46 0bbb f0d4 b0bb
00000050: 7510 1bbd 005a 003c db4e d3bb 8ad8 de3b
00000060: 67ca 653c 4065 ae3c 8280 043d 30ab d43c
00000070: 4c38 b4bc c818 cfbc 5afa b3bc d383 8ebc
00000080: b4b9 01bd 7e0f 033b bfcf 73bb 5a65 9c3c
00000090: 44c6 dc3c 0ce1 f43c 33c8 06bc 0f33 81bc
000000a0: 3d84 c43c a856 a33c cd38 693b 5c83 4abd
000000b0: 783a 953c 2dd3 cebc 05dc 87bc db26 f0bb
000000c0: b2bf 60bc 8ebc a4bc 6d58 b73c 2e9c 1e3c
000000d0: b6a0 0e3c 7e19 06ba 0ca4 83bc 98d3 ff3a
000000e0: 3fe4 393c c19b dbbc fab7 e43b 5d84 06bc
000000f0: 2adb 043c 1a89 8cbb 09a8 32bb fbfe 0c3b
-0.015592323 -0.003619739 0.009097766 -0.01159176 -0.035855357 -0.0071916943 0.011208577 -0.018097192
-0.019964049 -0.004364794 0.0037551331 -0.0007801952 0.02036634 -0.008863834 0.034025546 -0.00032613685
-0.028528394 0.009879394 -0.0021252027 -0.005396478 -0.03785749 0.007833958 -0.0064486093 0.006800716
0.014025307 0.021288514 0.032349117 0.025960535 -0.0219995 -0.025280371 -0.021969963 -0.017396843
-0.03167124 0.0019998248 -0.0037202684 0.019091297 0.02695001 0.029892467 -0.008226442 -0.015771417
0.023988837 0.019938782 0.0035586834 -0.04944168 0.018216357 -0.02524718 -0.016584406 -0.0073288507
-0.013717579 -0.020109441 0.022381032 0.009680791 0.008705309 -0.0005115493 -0.016069435 0.0019518016
0.011345922 -0.026807668 0.0069799395 -0.008210269 0.008108893 -0.0042888047 -0.0027260801 0.0021514285

transformer_encoder.layers.0.linear1.weight f4 [128, 64]
00000000: 6e34 b83c 195a debd 1eae eebd 8d06 643e
00000010: 93a2 273d b358 b3bb 9515 08bf fc1b 71be
00000020: 0664 91be 09f6 21be 8e97 973e a475 d73d
00000030: 844f a7be 9bf9 a43d b0d3 04bf 1cb3 1e3d
00000040: ea3c c5be 8856 b13d 18da 883c 3ae1 163f
00000050: 0aee 64bd e58e 2abe a519 1a3e 19b5 78be
00000060: c90e 20be 9fd5 a2bd 5e7a 6f3d 37e6 4dbd
00000070: 7d51 a53e 5a07 5c3e d34b 4ebe 5486 923e
00000080: 0e3e ec3d 4695 4bbc 3d4e a8bc 9e29 b8be
00000090: 0df7 8e3d 08dc 93be 169f a13e eddd 913c
000000a0: 47fe 90bd 0efe d13d 41aa cf3e 0832 193e
000000b0: 9cce aabe f6d0 28be e25e 923e 4bc3 dcbe
000000c0: 0816 21be 77b7 da3e 6a19 1ebd 5490 8d3e
000000d0: 724a 5c3e 6df8 083e 7af4 00be 75bd cbbd
000000e0: 9160 a13e 2826 f3bc d22d 083e dd5b aa3c
000000f0: 04bc 023f 270c 9d3e abb3 00bd b380 25bd
00000100: e1be 1d3e 3a54 753e b208 3d3d d599 213f
00000110: 0a60 523e 01cf a43e 67f9 54be 1a7d 58be
00000120: cc2d e0be ebb3 abbe 0aea fbbd 6366 00be
00000130: 355b abbe dcdf 8a3d f42b e0be b5b6 f5bd
00000140: 8dbd 92be 5b95 e6bd 6180 3abd a25b 203d
00000150: c745 6cbe 9ee6 36be 797a 21be d5b5 2fbe
00000160: bc58 93be e3f2 9b3e 23d4 9a3e 3434 5fbe
00000170: 17fb 2a3d 798a 8a3d 963b 1a3f d27f e53e
00000180: f050 203e ca80 0fbe 9acb b93d bf15 a53e
00000190: d5cf b13d 5a05 2b3e 944c 0abd 851f ce3e
000001a0: 97dd c03e 2a26 913d f568 95bd 2004 8cbe
000001b0: 5c58 303e 4196 78bd 7c42 02bf 0104 473e
000001c0: 48ff 03be 437b bdbd 7fb6 bdbe 6fa1 883e
000001d0: 2da3 f9be 0cee 503d 326d aabc ddef 123e
000001e0: 913e ebbd c315 55be 8ebc ebbe 8688 b03d
000001f0: 9ef4 9e3d a544 bcbd 6261 6e3e 366c 2dbe
00000200: f06e 75bd 2cb8 8d3e d39e 17be d378 df3c
00000210: d194 413d 71bf 4ebd 208c bdbe f028 1f3d
00000220: a2d2 11bd c0a0 26be 9443 61be c675 0bbf
00000230: 3db7 91bd 0759 2a3e bd7f babe 8e90 43bd
00000240: 3f1b 603e 8007 90be 67a8 21bd 5432 3dbd
00000250: d38c 32be 7252 18be 5a42 afbd 66e4 7ebe
00000260: 17f0 333e 1342 353e fcb5 cdbd b072 02bd
00000270: bb34 333f aebe 6c3d 3ab2 ebbd 902f 6b3e
00000280: 0e75 803e 9f9b 283d e108 2f3c dd8e 70be
00000290: ff16 713d adc3 fabd 018f 773d fcd5 c9bc
000002a0: 6c54 233d 5669 703d 7dfc f73e 5da9 d8be
000002b0: 0640 803d 110d f83d 5fff e0bd 03ec 1a3e
000002c0: 21e9 3b3e 85f5 303e 7598 71be acb4 77be
000002d0: 6aef 02be 4370 8e3e a2fe 503e 5f60 f23d
000002e0: 9c73 0c3d d928 453d 681d acbd ae3b 4abe
000002f0: 573e 913e 2852 1e3d e8f6 fcbd 7000 9d3c
00000300: 8e44 10be 8ca9 6f3d 4b0c 913e a297 e13e
00000310: 3cc3 9f3c 4d43 2b3e c907 03be 6d7e 3d3d
00000320: 9b22 2ebe 0f15 c1be 6dbc 43be c2d5 12bf
00000330: 2bf7 cc3d 7995 ec3e 219f f0be 59c1 5b3e
00000340: 2673 c73e 0b4e 1bbe 5bb6 073e 38ca aebe
00000350: 6447 8e3e b900 f9be 2a65 a6bb 65fd 5f3e
00000360: b5c1 a13d 9f72 f53d ac05 cfbd d693 01be
00000370: 90a8 f13e 682f 103d 67a7 bebe 7ff9 28be
00000380: b493 f43d 9f71 6abe 6bbc 2fbe 60b1 dcbd
00000390: 9b8e 45be b5a7 0dbe e98d 2c3e 7377 d7be
000003a0: ebea 823e 7a4b 32be 1e5f ddbd f28e 31be
000003b0: eb01 a63e 0fb6 47be e07d f33d dd70 4cbe
000003c0: a06e adbc 3dc1 e2bc d875 d8ba ccdb 9fbd
000003d0: b0c6 313e f9d7 963d f358 cfbd 4a38 823e
000003e0: 8259 c23e f7cc cc3e cfcf a5bd e565 20be
000003f0: b551 643e d488 d93e 7646 42be f916 b6bd
0.022485938 -0.108570285 -0.11654304 0.22268124 0.040926527 -0.0054732203 -0.5315793 -0.23545831
-0.28396624 -0.15816511 0.29607815 0.10520485 -0.32677853 0.08055421 -0.5188551 0.03874503
-0.38523036 0.08659083 0.016705558 0.5893742 -0.055891074 -0.16656072 0.15048845 -0.24287833
-0.1563064 -0.07950901 0.058466308 -0.050268378 0.32288733 0.2148718 -0.20146112 0.2861811
0.115352735 -0.012425726 -0.02054512 -0.3596925 0.06980715 -0.28878808 0.31566685 0.017806018
-0.070797496 0.10253535 0.4055958 0.14960492 -0.33360755 -0.16485962 0.28588015 -0.43117747
-0.1573106 0.42718098 -0.038598455 0.27649176 0.21512774 0.13376017 -0.1259326 -0.099482454
0.31518987 -0.02968128 0.13298729 0.020795757 0.5106814 0.30673334 -0.031421345 -0.04040594
0.15404846 0.23957911 0.04615087 0.63125354 0.20544448 0.3218918 -0.20798264 -0.21141472
-0.4378494 -0.33535704 -0.12300499 -0.12539057 -0.33468023 0.06780979 -0.43783534 -0.11997739
-0.2866024 -0.11258956 -0.045532588 0.039149888 -0.23073493 -0.17861411 -0.15769376 -0.17159207
-0.28778636 0.30458745 0.30239972 -0.21797258 0.041743364 0.06764693 0.6024717 0.44824082
0.15655875 -0.14013973 0.09072037 0.32243153 0.08682219 0.1670126 -0.033764437 0.40258422
0.3766906 0.07087357 -0.072954096 -0.27346897 0.17221206 -0.06069017 -0.508827 0.19435121
-0.12890351 -0.09252026 -0.37053296 0.26685664 -0.48757306 0.05100827 -0.020804022 0.14349313
-0.11486543 -0.20809083 -0.46042293 0.0861979 0.07761501 -0.091927804 0.23279336 -0.1693581
-0.05992025 0.27679574 -0.1480668 0.027279293 0.047261063 -0.05047554 -0.3702097 0.0388574
-0.035601266 -0.16272259 -0.21998435 -0.54476583 -0.07115028 0.16635524 -0.36425582 -0.04774528
0.21885394 -0.28130722 -0.03946724 -0.046190575 -0.17436533 -0.148752 -0.085575774 -0.24891815
0.17572056 0.17700987 -0.100444764 -0.031847656 0.70002335 0.057799034 -0.115086034 0.22967362
0.25089306 0.041164037 0.010683269 -0.23491998 0.05885982 -0.122443534 0.060439114 -0.024638169
0.039875433 0.058694206 0.4843482 -0.42316714 0.062622115 0.12111867 -0.10986208 0.15129094
0.1835065 0.17281158 -0.23593314 -0.24190015 -0.12786642 0.27820024 0.20409635 0.118347876
0.03428994 0.04813466 -0.08404046 -0.19749328 0.28367874 0.03865257 -0.12351781 0.019165248
-0.14088652 0.058511302 0.2832969 0.44061 0.019502275 0.16724892 -0.12795939 0.046263147
-0.17005388 -0.3771138 -0.19114847 -0.5735742 0.10008081 0.4620779 -0.46996406 0.21460475
0.3895504 -0.1516649 0.13253157 -0.34138656 0.27788842 -0.48633364 -0.0050779777 0.21874006
0.07898275 0.11984753 -0.10108504 -0.12654051 0.47198915 0.03520146 -0.37237093 -0.16501425
0.11942235 -0.22894906 -0.1716172 -0.10776019 -0.19292681 -0.13833506 0.1685101 -0.4208332
0.25569853 -0.17411605 -0.10809158 -0.17339686 0.32423338 -0.19503044 0.11889243 -0.19964929
-0.021170914 -0.027680034 -0.0016514612 -0.07805595 0.1736095 0.07365412 -0.101243876 0.2543357
0.37958914 0.40000126 -0.08096277 -0.1566387 0.22296794 0.42487204 -0.18972191 -0.088911004

transformer_encoder.layers.0.linear1.bias f4 [128]
00000000: a9d9 68be 0e80 cebe 8183 f2be 34d3 aebe
00000010: e541 8dbe e2c7 8ebe b81a 85be 428a a4be
00000020: 37b3 83be f654 e7be bcfc a2be bdf4 a5bd
00000030: d383 8cbe c5d3 20be 58de 64be 21c0 e7be
00000040: 7a03 d5bd 2048 a8be b48f 6fbe 347a 8abe
00000050: 82f9 d6be 7fe2 96be 408c 9bbe b3d5 aebe
00000060: 2a2d c6be 8466 babd 79e7 c3be 40a6 d0be
00000070: f2e7 f0bd 5b45 99be 8f31 79be 5175 0abf
00000080: da73 a1be 21d8 c4be d7f4 85be b758 d5be
00000090: f3ce 70be 029f 03be efa4 c7be e34a 92be
000000a0: 89a9 9abe 15f5 b0be 4db7 debe a236 a2be
000000b0: 80c1 50be 68e8 9abe 528e adbe 529a 94be
000000c0: ad1c 3abe 164d 7bbe 6c54 e0be 370a cabe
000000d0: 8918 b7bd f7f9 b7be 8506 b8be 0905 0abf
000000e0: f179 a4be f559 27bb 80ab b6be 372d a3be
000000f0: ad77 9abe 0d0d 99be 7667 ccbe c182 d7be
00000100: f4e5 2ebd c830 b3be 9389 a5be facb bebe
00000110: 3080 f1be b83c 99be acf7 a8be 9553 98be
00000120: cb7f b4bd 8b93 aabe 4090 67be e86e a6be
00000130: 2386 0abe 8fcc 9cbe 3542 79be 890d d1bd
00000140: 4828 b2be 213d f7be 473d 99be 4e03 06be
00000150: 9673 c0bd 8476 39be b2fc bcbe 04b3 31be
00000160: 3dc7 3ebe 8979 dabe d5b3 c5be 235a 9fbe
00000170: f116 e2be 91f9 ddbe 7ca7 62be ef88 fabe
00000180: c131 88be 7635 9fbe c8ae febe df43 a2be
00000190: 9721 b5be d27e a3bb 8c92 f5be cbde 5dbe
000001a0: a02c c8be e07a 8cbe 51cf 75be 8b70 a2be
000001b0: b47f bdbe ff2c c4be 7853 06bf 48f7 0fbe
000001c0: d782 aabe 9655 e3be 1b23 93be f10b bcbe
000001d0: 8839 1ebe b587 7abe 37a9 ffbe 44aa c1be
000001e0: dda8 8dbe 76a8 e8be f154 d5be 575e 54be
000001f0: 2876 c7bd cbfd fbbe ba51 a6be 8b68 c9be
-0.22739281 -0.40332073 -0.47365955 -0.3414551 -0.27589336 -0.27886873 -0.25996947 -0.32136732
-0.25722668 -0.45182008 -0.31833446 -0.08103321 -0.27444324 -0.15705784 -0.22350442 -0.4526377
-0.10401054 -0.32867527 -0.23394662 -0.2704636 -0.41987234 -0.29469678 -0.3038044 -0.34147415
-0.38706332 -0.091015846 -0.38262537 -0.4075184 -0.1176299 -0.29935727 -0.24335311 -0.5408526
-0.315337 -0.38446143 -0.2616336 -0.41669247 -0.23516445 -0.12853625 -0.38993022 -0.2857276
-0.3020747 -0.34561983 -0.43499222 -0.31682307 -0.20386314 -0.30255437 -0.33897644 -0.29023987
-0.18175001 -0.24541125 -0.4381441 -0.39460918 -0.089402266 -0.35932896 -0.35942474 -0.53913933
-0.32124284 -0.0025535796 -0.3567772 -0.31870434 -0.3016943 -0.2989277 -0.39922684 -0.42091945
-0.04269977 -0.34998155 -0.32331523 -0.37264997 -0.47168112 -0.29929137 -0.3300146 -0.29751268
-0.08813437 -0.3331569 -0.22613621 -0.3250649 -0.13527732 -0.30624816 -0.24341662 -0.1020766
-0.34796357 -0.48288825 -0.29929563 -0.13087198 -0.09397046 -0.18111616 -0.3691154 -0.17353445
-0.18630691 -0.4267085 -0.38613763 -0.31123456 -0.44158128 -0.43354467 -0.22134203 -0.48932597
-0.2660046 -0.31095475 -0.49742723 -0.31692407 -0.3537719 -0.0049894834 -0.4796337 -0.2166702
-0.39096546 -0.27437496 -0.24004866 -0.31726488 -0.37011492 -0.3831558 -0.52471113 -0.14059174
-0.33302948 -0.44401234 -0.2873772 -0.3672786 -0.15451634 -0.2446583 -0.49933788 -0.37825215
-0.27667895 -0.45441025 -0.41666368 -0.20739113 -0.097393334 -0.49217066 -0.32484227 -0.39337572

transformer_encoder.layers.0.linear2.weight f4 [64, 128]
00000000: e544 c2be 4594 053e e875 233d 0d93 363e
00000010: 5075 d4bb 5c90 2a3e 75b9 953e de7c 813e
00000020: f55a 8c3c bdab 4b3d 79f3 ebbe b428 0b3e
00000030: 3a1b 7b3d da5d b23e cdac 873e 1dbf 34bd
00000040: 4afd 9a3e 1e02 b33e dd8f edbd 1a5a 013e
00000050: 704b 893e 320e 993e c233 92bd 7235 0c3e
00000060: 3039 0d3e 20c9 6a3c d285 b4bd a71e d83e
00000070: ba71 fabe ba25 bdbe 0d59 f7bd 773f 6b3f
00000080: 2699 8e3d f906 313e 4f6d 8e3c efa9 1abe
00000090: c157 77be fae6 94be 3869 ddbd 9364 bc3e
000000a0: 999b 023e 5777 b6bc ee62 703d 1440 20be
000000b0: 5947 8a3e 33ac b73d 607c 3c3e 524d 3d3c
000000c0: a5f0 fdbd ba36 fbbc 8765 8a3c 8c9b 303f
000000d0: 8e12 203d ced5 c73c bbc7 06bd c165 1bbe
000000e0: dc9b 2ebc 3312 85be b5e1 fe3d 13ec a13e
000000f0: 66c8 5a3b ee1d 19bd fba4 d5bc 6300 283f
00000100: 2bbc 493d 8066 2f3e 7c26 1fbe 25a6 023f
00000110: 4ab4 2e3e cb9a 04bf b479 33be 1068 19be
00000120: 87a4 0d3e ee1e 6ebe 2414 bc3c 5e18 a5bd
00000130: 6853 34bd 1af3 66be e1eb 90be 0cd6 4ebe
00000140: 90a2 45be d84c 2bbe e461 723e ad77 4a3d
00000150: 6892 08be 6c2c b93e 1bf0 1f3e 6317 af3d
00000160: 1c80 f5ba edb9 c03d 670a ec3d 1b56 2fbe
00000170: 1ac5 2c3e ab1d b33d 528b 163d 5d32 093e
00000180: 258e 4d3d ba61 15be 505c 183e a874 313e
00000190: 5a64 573e c0dd 00be 8e04 a73e 3944 f93d
000001a0: 0a3a 653c f93e 00be 5d72 a7be f1bd 92be
000001b0: 395d 43bd c6c1 9bbd 097d 42be f70c febd
000001c0: 321a 453d 0a8d 4c3f 7925 073d 9c94 cfbe
000001d0: 86d9 13bf 692b 4bbc 8e4c b03c b9dd 653e
000001e0: fc61 08bf 14c7 babd 640a 283e b06c 9b3d
000001f0: e489 ea3e 34ea 09be d705 a5bb f776 cd3d
00000200: cbce f9be 2424 25bd e511 b5bd 8240 63b9
00000210: 05e4 50bd 3722 7d3d d6cb 35be 3128 c93c
00000220: b6e5 4b3e 7587 123f c4b8 77be c646 b2be
00000230: 3dc3 503e 6572 96be fcbc a73e 9bb1 fe3e
00000240: dfa1 413e c74c 283b fe02 8b3d 0f9a 8fbd
00000250: 8596 27be 8e54 2abe 5d58 523c f7e7 9c3e
00000260: be05 003e 435f 60be bdc8 babe 7493 8c3e
00000270: a3c5 cbbe 1daf 033e 6ffc 913d db21 893e
00000280: f722 f03c 7d33 783d 11ab 4f3e b8bd 993e
00000290: 7439 253d 94b3 2bbe 8c79 06bd 5a48 0cbe
000002a0: 6eab 183d c67a 5a3e eeca 24be f9d0 0abe
000002b0: f13d 133e b3a0 193e d30a 34be 3a4a 82bc
000002c0: ae89 d9be 10f0 d43b 2252 293e df51 eb3d
000002d0: 3c49 29be 1361 52be 48f8 353e 456d 133e
000002e0: ec71 013e 37c9 46bd 057e a73d a135 7c3e
000002f0: 9f48 a43d 54a4 a2bb 0181 64bd b14c a0be
00000300: 4f75 ccbe 5562 d83d 5b3f e8bd 2525 3ebc
00000310: 2110 6cbd 80be b43d 2055 80be 190d 83bd
00000320: c4c8 b4bd f4ef 8fbe 3ae1 5e3e ec5b c23d
00000330: 4036 a53e 19ed 053e 025d f43d ea19 29be
00000340: 6030 c13b 1228 9cbb ac2a 3dbe a429 42be
00000350: 6f21 b1be 6fd5 d1be 0e09 e8be fb4b a1bd
00000360: 3dea 723e 5ffe c6be cb98 863d 110e 8fbe
00000370: 149c 66bd b87d 8d3d b755 2f3e 96bc 2b3c
00000380: e69b 9c3d 8e44 2a3c 5cc2 0ebe d0d0 473d
00000390: 77f9 703e 13b2 d43b b9c7 6c3e 6133 743e
000003a0: 2a71 f83d 2f69 d83d 4f6c 84be b579 bc3c
000003b0: f620 3a3e 1e3a 363e b6e1 b8bb 18a1 f43d
000003c0: 1b44 23be 00de 803d bddf bfbe c22b c7bd
000003d0: 4e7c a7be b228 6dbe a5a9 ef3d 4470 cbbd
000003e0: 48a9 65be dc40 993b 4836 a9be e057 1bbd
000003f0: 79c7 3f3c ecc9 053e 627e aebe b625 8a3d
-0.37943187 0.13044842 0.039907366 0.17829533 -0.0064837113 0.16656631 0.29243055 0.2529058
0.017133215 0.04972433 -0.46084192 0.13589746 0.061305262 0.34837228 0.26499024 -0.044127572
0.3027137 0.34962553 -0.11599705 0.12632027 0.26815367 0.29893643 -0.07138778 0.13692263
0.13791347 0.0143301785 -0.08814587 0.42210886 -0.4891489 -0.36942846 -0.12077532 0.91893715
0.069628045 0.17287816 0.017386107 -0.15103887 -0.24154569 -0.2908247 -0.108110845 0.36795482
0.12754668 -0.022273703 0.058688097 -0.15649444 0.2700756 0.08968391 0.1840682 0.011554079
-0.12399415 -0.030665744 0.016894115 0.68987346 0.039080195 0.024393942 -0.03290532 -0.15175535
-0.010657277 -0.25990447 0.12445394 0.31625423 0.0033383607 -0.03738206 -0.026079645 0.6562559
0.049251717 0.17128944 -0.15542024 0.51034766 0.17060962 -0.51798695 -0.17526895 -0.14981103
0.13832293 -0.23253986 0.022958823 -0.08061288 -0.044024855 -0.22553673 -0.2830496 -0.2019884
-0.19300294 -0.16728532 0.23670155 0.049430538 -0.133371 0.36166704 0.15618937 0.085493825
-0.0018730196 0.094104625 0.115254216 -0.1712269 0.16872063 0.08745893 0.03675396 0.13398118
0.050184388 -0.14588061 0.14878964 0.17329657 0.21034375 -0.12584591 0.32620662 0.121712156
0.013990888 -0.12524022 -0.3270444 -0.2866054 -0.047696326 -0.07605319 -0.1899301 -0.124048166
0.048120685 0.7990271 0.03299472 -0.40543067 -0.5775379 -0.0124004865 0.02152088 0.22447862
-0.5327451 -0.091200024 0.16410214 0.0758909 0.45808327 -0.13468248 -0.0050360966 0.10032456
-0.48790583 -0.04031767 -0.08841304 -0.00021672438 -0.050998706 0.061800208 -0.17753538 0.024555298
0.19911847 0.5723794 -0.24191576 -0.3481962 0.20386977 -0.2938415 0.3276137 0.49744877
0.18909405 0.0025680528 0.0678768 -0.07011806 -0.16366012 -0.16633818 0.01283845 0.30645725
0.1250219 -0.2191134 -0.36481276 0.27456248 -0.39799222 0.12859769 0.07128226 0.26783642
0.029313548 0.060595978 0.202801 0.30027556 0.040337995 -0.16767722 -0.03283076 -0.13699475
0.037272863 0.21335897 -0.16093037 -0.13556279 0.14379098 0.15002708 -0.17582254 -0.015904535
-0.42487854 0.0064983442 0.16535237 0.11490225 -0.16531843 -0.20544843 0.17770493 0.14397152
0.12641114 -0.048531737 0.08178333 0.24629833 0.08021664 -0.004963437 -0.05578709 -0.3130851
-0.3993325 0.1056563 -0.11340209 -0.011605536 -0.05763257 0.088253975 -0.25064945 -0.063989826
-0.088273555 -0.28112757 0.21765605 0.09490189 0.32267952 0.13078727 0.11931802 -0.16513792
0.0058956593 -0.004765519 -0.1847331 -0.18961197 -0.3459582 -0.4098315 -0.45319408 -0.0787582
0.23722167 -0.38865945 0.06572112 -0.2794042 -0.05630119 0.069087446 0.17122541 0.010481974
0.07646923 0.010392321 -0.1394133 0.048783123 0.23532663 0.0064909547 0.23123063 0.23847724
0.12130959 0.10566937 -0.25863883 0.023007253 0.18176636 0.17795607 -0.005642141 0.11944789
-0.15943949 0.06292343 -0.37475386 -0.09725143 -0.32712024 -0.23160055 0.11702279 -0.09933522
-0.22427857 0.0046769213 -0.33049226 -0.0379256 0.011705273 0.13065308 -0.34080797 0.06745474

transformer_encoder.layers.0.linear2.bias f4 [64]
00000000: 0d5c d8bd 56cf be3d 6eb4 e53b 6204 dc3d
00000010: 61d4 003e f4b6 7abd 5cc1 d03c 34e4 c6bd
00000020: 9988 213b 4ad5 3ebd 941b 42be 7d40 b5bc
00000030: 3729 9bbd c5b8 ac3d 0a6e 813d cbde f1bc
00000040: b23e 603d de60 35be 9604 c9bd b27c aa3d
00000050: 70bd 11bd aed4 af3c 4d22 763d 34bc 01be
00000060: 7b73 05bc d162 2fbc 13f5 823d 408c e13d
00000070: 3fdc dd3c 4cb1 cebc dd76 afbd a074 893d
00000080: 5b79 10bd f3ef c5bd 6dcb 213e d5f9 d8bd
00000090: 997d 65bd 9ac7 b5bb a02f 153d a9c7 913d
000000a0: 1282 783d 5ed7 7e3d 033e 263d ea31 9bbe
000000b0: 70c8 92bc d98e 4b3d 578a 6b3d 0adf 14bc
000000c0: 09f7 1d3e 4beb 8e3b 0717 cfbd 9c88 42bd
000000d0: a15c 1cbc 0836 da3d ad5a 923d 1d58 f13d
000000e0: cbcb d0ba 5d95 2cbc 5f55 a1bc bfd9 4dbd
000000f0: fb70 9c3c e3ed 04be d29f efbd 58ab a1bc
-0.10564432 0.0931689 0.0070100343 0.107430235 0.12581016 -0.061209634 0.025482826 -0.09711495
0.002464807 -0.046590127 -0.18955833 -0.022125477 -0.075762205 0.084336795 0.063198164 -0.029525181
0.05474729 -0.17712733 -0.09815328 0.08324565 -0.035581052 0.021463718 0.060091306 -0.1266945
-0.0081452085 -0.010704712 0.063944004 0.11013079 0.02708256 -0.025231026 -0.08567593 0.067116976
-0.035271984 -0.09664907 0.15800257 -0.10594527 -0.056027982 -0.005547476 0.036422372 0.0711816
0.06067092 0.06221711 0.040586483 -0.3031152 -0.017917842 0.049696777 0.057504978 -0.00908638
0.15426268 0.004361545 -0.10111814 -0.047493562 -0.009543569 0.10654837 0.07146201 0.117843844
-0.0015929876 -0.010533658 -0.019694028 -0.050256487 0.019096842 -0.12981372 -0.11700405 -0.019735023

transformer_encoder.layers.0.norm1.weight f4 [64]
00000000: a304 763f 2e22 813f 5525 c03f a9ea 7c3f
00000010: 0c8f 5e3f ebd4 803f 1053 703f 92af 803f
00000020: 4c73 503f c090 863f 9874 683f a440 9e3f
00000030: cd06 883f d621 813f 5548 703f 98d6 5c3f
00000040: 9a21 6f3f b8a5 813f e022 2d3f d7b0 5f3f
00000050: 8113 9d3f 02f7 8d3f 6682 653f ce8e 8c3f
00000060: a218 9c3f 6140 903f d54b 713f ea1e 7f3f
00000070: 066f 903f f8e3 603f b0e2 913f 4af0 9a3f
00000080: 1352 853f 9585 7f3f 9b9c 953f aeea 5f3f
00000090: 684e 8e3f 606b 953f 0dba 8f3f d604 9b3f
000000a0: a631 773f 50b2 483f fe80 893f 2a47 303f
000000b0: f48a 903f 6bdd 873f 123a ba3f 2efb 843f
000000c0: 73ea 863f 8756 853f 1a8e 9b3f 2326 a03f
000000d0: 12db 7c3f d06a 763f 0266 853f 0016 a93f
000000e0: e69f 933f 2787 553f cfd5 8b3f 82b2 813f
000000f0: d740 8f3f 6c3f 503f 696f 583f 710e 923f
0.96100825 1.0088556 1.5011393 0.98795563 0.8693702 1.0064977 0.93876743 1.005358
0.8142593 1.0512924 0.9080291 1.2363477 1.0627075 1.0088451 0.9386037 0.86264944
0.93410647 1.0128698 0.6763134 0.8737921 1.2271577 1.1091006 0.896521 1.098108
1.2195017 1.1269647 0.94256335 0.99656546 1.1283882 0.8784785 1.1397305 1.210458
1.0415672 0.99813205 1.1688417 0.8746747 1.1117678 1.1673393 1.1228653 1.2110851
0.9656013 0.78397083 1.074249 0.6885859 1.1292405 1.0614446 1.4548972 1.0389154
1.0540298 1.0417031 1.2152741 1.2511638 0.98771775 0.9625673 1.0421755 1.3209839
1.1533172 0.8340935 1.0924624 1.0132601 1.1191663 0.81346774 0.84545 1.1410657

transformer_encoder.layers.0.norm1.bias f4 [64]
00000000: 45ac dc3d c13e 31be 57f5 163e b93f 45be
00000010: c190 cabe 9bd6 32bd c9d4 623e 6c4c 9a3e
00000020: c2ff 753d eec3 873e 8a3f f83e 9cee 9c3e
00000030: 8f69 603e 21fc 9fbe 362a ddbd 8bc5 b7bd
00000040: 0fdd 04be 60bf 453e 4d05 333c 2b14 64bd
00000050: e600 69be 11f0 c13d 7281 78bc 9e90 9d3e
00000060: e885 0fbe 1e83 6cbd db98 003d 57be a13d
00000070: 0d88 c1be 3409 1e3e 5d0a 773e 67b3 73be
00000080: 2744 1a3e 2b48 6a3e c857 c5be 12fd ea3b
00000090: f962 edbd f2d7 653e f269 2dbe c564 54bd
000000a0: cd0c a8bd 7ae4 b6bd 8035 21be 6fac ac3e
000000b0: b613 ef3d e2ce e5bd 1c16 06be 1b56 0f3e
000000c0: 9ed0 a7be d005 1bbd b88d f43e 9edf 8bbe
000000d0: 0426 c73d 8595 aebd eac5 a6be 4a2c e5be
000000e0: 6f61 79bd 5a04 86be a884 073e 9d71 fb3c
000000f0: 7607 40be 64f5 eabd 9688 d33d 9ab4 8bbc
0.10775045 -0.17309095 0.14742027 -0.1926259 -0.39563563 -0.043661695 0.22151484 0.3013643
0.060058363 0.2651667 0.48485976 0.30650795 0.21915267 -0.31247047 -0.10799067 -0.08973225
-0.12974952 0.19311285 0.010926557 -0.055683296 -0.22754249 0.09469617 -0.015167581 0.30774397
-0.14015925 -0.05774223 0.031395774 0.078976326 -0.3779911 0.15433198 0.24125047 -0.23798905
0.1506506 0.22879092 -0.38543534 0.0071712816 -0.11591143 0.22445658 -0.16934946 -0.051853914
-0.082055666 -0.08930297 -0.15743065 0.33725306 0.116736814 -0.112211004 -0.13094372 0.1399769
-0.3277635 -0.03784734 0.47764373 -0.27319044 0.09724048 -0.08524612 -0.3257287 -0.44760352
-0.060883936 -0.26175195 0.13234198 0.030693823 -0.18752846 -0.11472586 0.10328786 -0.017053891

transformer_encoder.layers.0.norm2.weight f4 [64]
00000000: 5ffe 893f c2da 8a3f c406 993f 9c35 8f3f
00000010: 7302 703f eaae 913f cbf2 8d3f 1acc 8d3f
00000020: acf3 8f3f 3ebb 793f 8a5b 813f b72e 6f3f
00000030: 9277 813f 3a2d 7b3f 1a6c 8a3f 5dd4 953f
00000040: 0d4b 8e3f 41e9 7e3f 479a 933f dc71 8f3f
00000050: 5df3 8e3f be2f 993f 2ee3 8e3f 4a55 8f3f
00000060: b19d a13f 904d 913f df6a 973f e208 963f
00000070: e8aa 853f b082 933f e4d7 8b3f c38d 763f
00000080: 0307 9e3f 3db9 8c3f f62f 8a3f 48b0 863f
00000090: 0a42 913f c8b6 993f 43c2 983f c522 913f
000000a0: bcfb 8e3f b6e2 843f f71b 923f 72d2 7c3f
000000b0: 7f18 943f 689e 993f e9ec 9a3f 1f0d 933f
000000c0: 41e6 813f eddd 8e3f 857b 813f 3ca3 853f
000000d0: 8e0b 983f 4266 8f3f 87a7 863f e560 803f
000000e0: b201 883f c955 963f 5b3f 9c3f 964b 943f
000000f0: 7ea4 843f 2f54 853f b9f8 933f 5f53 993f
1.0780753 1.084801 1.195519 1.1188235 0.9375374 1.1381505 1.108972 1.1077912
1.1246238 0.97551334 1.010606 0.93430656 1.0114615 0.98115885 1.081424 1.1705433
1.1116654 0.9957467 1.1531457 1.1206622 1.1168019 1.1967695 1.116308 1.1197903
1.2626249 1.1351795 1.182949 1.1721461 1.0442781 1.1524258 1.092526 0.9631006
1.234589 1.099403 1.0795887 1.0522547 1.1348279 1.2008905 1.1934284 1.1338736
1.1170573 1.0381687 1.1414784 0.98758614 1.1569976 1.2001467 1.2103549 1.1488379
1.0148393 1.1161476 1.011582 1.044044 1.1878526 1.1203082 1.0519875 1.002957
1.0625517 1.174493 1.2206835 1.1585567 1.0362699 1.0416316 1.1560279 1.1978568

transformer_encoder.layers.0.norm2.bias f4 [64]
00000000: f0ea edbd 4587 d43c 78bb 93be 5c32 703e
00000010: 541e 3cbc 756c fd3c f7ba 9bbe 1971 303d
00000020: a621 83be 4b90 d8bd 26c2 21bd f73c a0be
00000030: 75d0 8ebe 50d0 723e 4ae1 c7be 90d6 9c3c
00000040: 82d2 793e 8e41 89be 20b8 a53c ce75 a9bd
00000050: 8b76 853e 5b6a a33d d205 52be 9677 93be
00000060: 2b0f 36bd 6ade 43bd 8136 a1bb b627 6dbe
00000070: c310 06be 6136 9abd 1ac0 913e fd29 ad3e
00000080: 676b 833e 0cd6 28bd 0a18 41be 0ac5 47be
00000090: 6d33 bd3e f393 80be a4ae 9a3e 36ab f3bb
000000a0: ae41 aebd 43ba 6abd 989d af3e 4fa6 fbbd
000000b0: 386f 58bd 7091 02be 7163 f43d 6fd5 e93d
000000c0: 14e3 923e 1258 44be 2657 55be 9e0d ad3e
000000d0: eaf4 5ebe 98fd 103e 1488 2c3e e70f 243e
000000e0: 77a8 b6bd 51e3 1ebd 1607 a43d 997a 533d
000000f0: 73b8 9e3e f156 2d3e ec28 38be 200d adbd
-0.116170764 0.025943408 -0.28853965 0.2345671 -0.01148184 0.030935505 -0.3041608 0.04307661
-0.2561161 -0.10574397 -0.039491795 -0.31296512 -0.27893415 0.23712277 -0.3903907 0.01914528
0.24396709 -0.26807827 0.0202294 -0.082744226 0.26067004 0.0797927 -0.20510033 -0.28802174
-0.04444806 -0.047819532 -0.0049198275 -0.2315968 -0.13092332 -0.07529903 0.28466874 0.33821097
0.2566788 -0.041219756 -0.18856826 -0.19508758 0.36953297 -0.25112876 0.30211365 -0.0074361814
-0.08508621 -0.05730654 0.34299922 -0.1228758 -0.05284044 -0.12750793 0.119330294 0.11417662
0.28688872 -0.19174221 -0.20834026 0.33799452 -0.21773115 0.14159238 0.16848785 0.16021691
-0.08918851 -0.038791005 0.08009164 0.05163059 0.310001 0.16927697 -0.1798436 -0.08449769
